onnx/myModel_HL4_HD15_149.onnx (onnx, 6087 bytes, 11 tensors)

net.0.bias f4 [15]
0	0xbfe93ed9	-1.8222305
1	0x400aa615	2.1663868
2	0x400286a6	2.0394683
3	0x3ede2fb6	0.43395776
4	0xc0385aee	-2.88055
5	0x3f8366b9	1.0265723
6	0xc02c30e7	-2.6904848
7	0xc02266ef	-2.5375326
8	0xc01c2f10	-2.4403725
9	0x40150cae	2.328899
10	0x3fe60322	1.7969706
11	0x4025897d	2.5865166
12	0xc048c334	-3.1369143
13	0x401293c8	2.2902699
14	0xc0495016	-3.145513

net.2.bias f4 [15]
0	0x3cd6df8a	0.026229639
1	0xbe7b0c28	-0.24516356
2	0x3d28849e	0.0411421
3	0xbea19d18	-0.31565166
4	0xbe748de9	-0.2388226
5	0xbe07fe3d	-0.13280578
6	0x3d579d79	0.052640412
7	0xbd8f98ed	-0.0701159
8	0xbe5b8603	-0.2143784
9	0xbe7b831f	-0.24561737
10	0xbe5e2ed5	-0.21697553
11	0x3def8622	0.11695506
12	0xbc9dab55	-0.019246737
13	0xbf2a8410	-0.6660776
14	0xbd254a8d	-0.0403543

net.4.bias f4 [15]
0	0xbfcb8e69	-1.5902835
1	0xbfff80d6	-1.9961193
2	0xbf98caaf	-1.1936854
3	0xbfd3a46e	-1.6534555
4	0xbfdbcc7e	-1.7171781
5	0xbfc85921	-1.56522
6	0xbfe8961f	-1.8170813
7	0xbfbadf5d	-1.4599415
8	0xbf98e5ad	-1.1945091
9	0xc0004829	-2.0044043
10	0x3ff1e44c	1.8897796
11	0xbfab3b0d	-1.3377396
12	0xbfb022e7	-1.3760651
13	0xbfea13a2	-1.8287241
14	0xbfe595f4	-1.7936387

net.6.bias f4 [15]
0	0x3db6bca8	0.08922702
1	0x3f6a69ab	0.91567487
2	0xbefe8708	-0.49712396
3	0xbf64255a	-0.89119494
4	0xbf6633dd	-0.8992289
5	0xbf5a6a57	-0.8531851
6	0x3ecedfba	0.40405065
7	0xbee17e42	-0.4404164
8	0xbe286e7f	-0.16448401
9	0xbfcbcafe	-1.5921323
10	0x3f0c02f7	0.54692024
11	0x3f3032d7	0.68827575
12	0x3de459d9	0.111499496
13	0xbf0dd43c	-0.5540197
14	0x3e912062	0.2834502

net.8.bias f4 [15]
0	0xbf349d40	-0.70552444
1	0x3e44b1b0	0.19208407
2	0xbf4684dd	-0.77546483
3	0xbf80b757	-1.0055951
4	0xbf0b4fe9	-0.5441881
5	0xbf5da1f8	-0.8657527
6	0x3f3e0ad8	0.74235296
7	0x3f06ded2	0.52683747
8	0x3f53b04a	0.8269087
9	0xbf3107c4	-0.69152474
10	0xbf134cfb	-0.5753934
11	0xbf6db51a	-0.92854464
12	0xbf49a18b	-0.7876212
13	0xbf698d45	-0.91231185
14	0x3f2dff6a	0.67967856

onnx::MatMul_37 f4 [2, 15]
0	0xbd55a3db	-0.052158218
1	0x3f312ee2	0.6921216
2	0x3ee1b576	0.44083756
3	0xbfe96bce	-1.8236024
4	0x3f92cc25	1.146855
5	0x3f82265a	1.0167954
6	0x3f9373ae	1.1519678
7	0xbfd1b3e2	-1.6383021
8	0x3f4982dc	0.787153
9	0xbed2451c	-0.4106835
10	0x3e9478bc	0.28998363
11	0xbfc33a2a	-1.5252125
12	0xc0169114	-2.3526049
13	0x3f09f0f8	0.53883314
14	0x3f762925	0.9615653
15	0x3fd29933	1.6453003
16	0xbf9868e8	-1.1907015
17	0x3faba482	1.3409579
18	0x40311886	2.7671218
19	0xbd2e858e	-0.042607836
20	0x3f80ee41	1.0072709
21	0x3f010acf	0.5040712
22	0xbf27444f	-0.65338606
23	0x3fe8fec2	1.8202746
24	0x3fa2dd16	1.272372
25	0xbfb53a0c	-1.415834
26	0xbec49493	-0.38394603
27	0x3f5de942	0.8668405
28	0x3fb257ce	1.3933046
29	0xbf6d6679	-0.92734486

onnx::MatMul_38 f4 [15, 15]
0	0x3f6aeae0	0.9176464
1	0x3fef2656	1.8683574
2	0x3fa0198e	1.2507799
3	0x3fb315f8	1.3991079
4	0x3fa03a46	1.2517784
5	0x3f8498ee	1.035917
6	0x3f995cb7	1.1981419
7	0x3f640743	0.8907358
8	0x3f62a3e8	0.8853135
9	0x3f9d7226	1.230046
10	0x3ec79edc	0.38988388
11	0x3f6b893c	0.9200628
12	0x3f99969c	1.1999087
13	0x3fa85086	1.3149574
14	0x3f7cedee	0.9880055
15	0xbec433ff	-0.3832092
16	0xbf86f708	-1.0544138
17	0xbef07a0d	-0.46968117
18	0xbf4ae989	-0.79262596
19	0xbf80d04f	-1.0063571
20	0xbf6548e7	-0.89564365
21	0xbee73095	-0.45154253
22	0xbe0678b9	-0.1313199
23	0xbf30e049	-0.6909223
24	0xbf6e6189	-0.93117577
25	0x3e16a996	0.1471313
26	0xbebcdf06	-0.36888903
27	0xbd6faeff	-0.0585165
28	0xbfce615f	-1.6123465
29	0xbf3a08e1	-0.726698
30	0xbf5a81d9	-0.8535438
31	0xbef55d60	-0.47922802
32	0xbf72f24a	-0.94900954
33	0xbf73eb6a	-0.9528109
34	0xbf42ada4	-0.76046205
35	0xbf3fb4c6	-0.74885213
36	0xbf6cf67b	-0.925636
37	0x400e7d06	2.2263808
38	0xbf50e293	-0.81595725
39	0xbee6b750	-0.4506173
40	0xbeca217b	-0.3947867
41	0x3fc760a8	1.5576372
42	0xbf9b843d	-1.2149731
43	0xbe82d597	-0.2555358
44	0xbf1cbc16	-0.61224496
45	0xbf386ace	-0.7203797
46	0x3e82eefe	0.25572962
47	0xbd5d6762	-0.05405367
48	0xbef864bd	-0.48514357
49	0x3ed7aa52	0.42122132
50	0xbed7d80b	-0.42157015
51	0xbf4e899a	-0.80678713
52	0x4025360c	2.5814238
53	0xbf6c0415	-0.9219373
54	0xbdb5868f	-0.08863556
55	0xbf52970a	-0.8226172
56	0x3fb5f121	1.4214212
57	0xbf1fb34d	-0.62382966
58	0x3f232305	0.6372531
59	0xbf11bf62	-0.5693265
60	0x3fcbc6a6	1.5919998
61	0x3fdaab1e	1.7083471
62	0x3fce6b4d	1.6126496
63	0x3fde0ba8	1.7347307
64	0x3fafbe8b	1.3730024
65	0x3fc41318	1.5318327
66	0x3fd2ef8b	1.6479353
67	0xbf85876c	-1.0431952
68	0x3fbb4a2f	1.4632014
69	0x3fb0cda3	1.3812755
70	0x3fb54583	1.4161838
71	0xbf2660e9	-0.64991623
72	0x3fb607a4	1.4221082
73	0x3fb52d10	1.4154377
74	0x3fb1a5cd	1.3878723
75	0xbec93122	-0.39295298
76	0xbe7b745f	-0.24556111
77	0xbf03d09c	-0.5149019
78	0xbed1cd6b	-0.40977034
79	0xbe360ca8	-0.17778265
80	0xbe838598	-0.2568786
81	0xbe420a23	-0.1894918
82	0x3ff80f9b	1.9379762
83	0xbd89cf6f	-0.06729018
84	0xbc6736a8	-0.014112152
85	0xbeb41930	-0.35175467
86	0x3fb7a844	1.4348226
87	0xbf02382c	-0.5086696
88	0xbee72024	-0.4514171
89	0xbea4d089	-0.3219035
90	0x3f7eb096	0.994882
91	0x3fcc1cdf	1.5946311
92	0x3f82b002	1.0209963
93	0x3f69da0e	0.9134835
94	0x3fb907b9	1.4455482
95	0x3f9adcaf	1.2098597
96	0x3f2457b4	0.64196324
97	0x3fac4ec5	1.3461539
98	0x3f8bfb3b	1.0936044
99	0x3f8c302b	1.09522
100	0xbf0dee5b	-0.55441827
101	0x3edcbdb9	0.43113497
102	0x3f626bd7	0.884458
103	0x3fe7c239	1.8106147
104	0x3f8159c6	1.0105522
105	0x4039c899	2.9028685
106	0x401ad30f	2.419132
107	0x403b5e37	2.9276254
108	0x40344aa4	2.8170557
109	0x403be4d5	2.9358418
110	0x4033a610	2.8070107
111	0x3fab39cb	1.3377012
112	0xbfb8a775	-1.4426104
113	0x4001c617	2.0277154
114	0x402afbf9	2.6716292
115	0x40320728	2.7816868
116	0xbe9ed004	-0.31018078
117	0x4023ae33	2.5575073
118	0x4043c16b	3.0586803
119	0x401f02b0	2.484539
120	0x3fb47c49	1.4100429
121	0x400d4b47	2.2077196
122	0x3f87c1fa	1.0606072
123	0x3fd79477	1.6842183
124	0x3fa11852	1.2585547
125	0x3f9e6b29	1.2376453
126	0x3ffe3aeb	1.986173
127	0x3fb2becd	1.3964478
128	0x3f9cb4fa	1.224273
129	0x3fbdcd17	1.4828213
130	0x3f834e72	1.0258315
131	0x3fd423f0	1.6573467
132	0x3fbb5d7c	1.4637904
133	0x3fab5473	1.3385147
134	0x3f9b97e1	1.2155725
135	0xbf9b4eb6	-1.2133396
136	0xbf872458	-1.0557966
137	0xbfb4072b	-1.4064687
138	0xbf99a063	-1.2002071
139	0xbfb6ef24	-1.429173
140	0xbfd19adc	-1.6375384
141	0xbfa970ac	-1.323751
142	0x3fc44ef8	1.5336599
143	0xbf8b9da8	-1.0907488
144	0xbfa3cb8b	-1.2796491
145	0xbf0bd011	-0.5461436
146	0x3f6010f9	0.875259
147	0xbfb1a69f	-1.3878974
148	0xbf71998a	-0.94374907
149	0xbfa4cb43	-1.287453
150	0xbef22b9c	-0.47298896
151	0xbfa2a79f	-1.2707404
152	0xbf1f05f9	-0.6211849
153	0xbec4dacc	-0.3844818
154	0xbf73e96a	-0.95278037
155	0xbf1369c5	-0.57583266
156	0xbed9f9f2	-0.42573506
157	0xbeaa041e	-0.33206266
158	0xbf1466fb	-0.57969636
159	0xbf6b8b5a	-0.9200951
160	0x3f1ff0be	0.6247672
161	0xbdc68c00	-0.09694672
162	0xbe695bda	-0.22788945
163	0xbfbdfdde	-1.4843099
164	0xbf465325	-0.7747062
165	0xbf249946	-0.64296377
166	0xbfd0f8d3	-1.6325935
167	0xbf5de1f6	-0.86672914
168	0xbf846fd5	-1.0346628
169	0xbf872a35	-1.0559756
170	0xbf3d35b8	-0.73910093
171	0xbf678ff2	-0.9045402
172	0xbe7c94f1	-0.24666192
173	0xbfa76ceb	-1.3080114
174	0xbfa041db	-1.2520097
175	0xbca549ee	-0.020176854
176	0xbd891705	-0.06693844
177	0xbf30070e	-0.68760765
178	0xbfc36580	-1.526535
179	0xbf8dd223	-1.1079754
180	0x403edbdf	2.9821699
181	0x401bc7a8	2.434061
182	0x4023ffd5	2.5624897
183	0x4041923e	3.024551
184	0x400f37d2	2.237782
185	0x4048a537	3.135084
186	0x40415cb3	3.021283
187	0xbef6f610	-0.48234606
188	0x403df807	2.9682634
189	0x4024e0a9	2.5762122
190	0x40fbaa41	7.864533
191	0x3d195761	0.037436847
192	0x403bf443	2.9367836
193	0x3f9ab12b	1.2085317
194	0x40485c6b	3.1306407
195	0xbfbbeafb	-1.4681085
196	0xbea84694	-0.32866347
197	0xbf726c95	-0.94696933
198	0xbf6f00c6	-0.93360555
199	0xbf16459a	-0.58699954
200	0xbf86d644	-1.0534139
201	0xbf53d557	-0.82747406
202	0x402834dd	2.6282265
203	0xbf3e5b28	-0.74357843
204	0xbf433704	-0.7625582
205	0xbf5f93ba	-0.8733479
206	0x3fcdb566	1.6070983
207	0xbf9edb35	-1.2410647
208	0xbeedbdc8	-0.46433854
209	0xbf8f74e8	-1.1207552
210	0x402ed4ca	2.7317376
211	0x402d87f7	2.7114236
212	0x40273946	2.6128707
213	0x4031c2d9	2.7775176
214	0x40220bf9	2.5319808
215	0x402f895b	2.7427585
216	0x400f75ec	2.2415724
217	0xbfdcb8f1	-1.724394
218	0x40189374	2.3839998
219	0x40106e1c	2.2567205
220	0x3fc0691b	1.5032076
221	0xbfbbc041	-1.4668046
222	0x402ab2a7	2.667154
223	0x3fa5cba4	1.2952771
224	0x403121ae	2.7676806

onnx::MatMul_39 f4 [15, 15]
0	0x3f7bb1de	0.9831828
1	0x3f9df80f	1.2341326
2	0x3faa99d2	1.3328192
3	0x3f28764c	0.65805507
4	0x3f313b1c	0.6923082
5	0x40161445	2.3449872
6	0x3f2d8e80	0.6779556
7	0x3efd7732	0.49505
8	0x3fde4560	1.7364922
9	0x3f9c7b5f	1.222515
10	0xbfe0cc1d	-1.756229
11	0x3fb092b6	1.3794773
12	0x3ff1b1e8	1.8882418
13	0x3f6b563b	0.9192845
14	0x3f884e10	1.0648823
15	0x3face57b	1.3507532
16	0x3fe6b384	1.8023534
17	0x3fda7b63	1.7068905
18	0x3fac4f4f	1.3461703
19	0x3fd37fba	1.6523354
20	0x402524c4	2.580369
21	0x3fe7a1bb	1.8096231
22	0x3fa544b2	1.2911589
23	0x3fd01942	1.6257708
24	0x3f9707ed	1.1799294
25	0xbf9912b1	-1.1958829
26	0x3f61558d	0.88021165
27	0x3f8ea120	1.1142921
28	0x3feb29ea	1.8372166
29	0x3fa2febe	1.2733991
30	0x3f85aac4	1.0442739
31	0x3f8c75fe	1.0973508
32	0x3f8bbea6	1.0917556
33	0x3f9b07ac	1.2111716
34	0x3fa0415e	1.2519948
35	0x3fd87f2e	1.6913812
36	0x3f8862f3	1.0655197
37	0x3f64495d	0.89174443
38	0x3f8a9aa9	1.0828449
39	0x3fbe4a64	1.4866452
40	0xbfb30fbf	-1.398918
41	0x3f222746	0.63341177
42	0x3f40e94c	0.7535598
43	0x3f88da3e	1.0691602
44	0x3f9493e8	1.1607637
45	0x3f49ecd4	0.78876996
46	0x3f8fca18	1.1233549
47	0x3fa9427c	1.3223414
48	0x3f8da06d	1.1064583
49	0x3f51f14b	0.8200881
50	0x40176142	2.3653111
51	0x3f8a874c	1.0822539
52	0x3f2ebdf6	0.6825861
53	0x3fb6dfb5	1.428702
54	0x3fb25a61	1.3933831
55	0xbfa5218d	-1.2900864
56	0x3faf79ff	1.3709105
57	0x3fa8084d	1.3127533
58	0x3f6eb5c2	0.9324609
59	0x3f9ae825	1.2102095
60	0x3fa9020f	1.3203753
61	0x3fc7141e	1.5553014
62	0x3f404906	0.75111425
63	0x3fa7911b	1.3091158
64	0x3f8b3fac	1.0878806
65	0x3fd6800e	1.6757829
66	0x3faee9bd	1.3665081
67	0x3f8f9e1a	1.1220124
68	0x3f5b487a	0.85657465
69	0x3f9e656f	1.2374705
70	0xbfc309aa	-1.5237324
71	0x3cb25f0f	0.021773843
72	0x3ea21ce9	0.31662682
73	0x3fbb6062	1.4638789
74	0x3f93cb1e	1.1546361
75	0x3f7f8c03	0.99823016
76	0x3fd7d427	1.6861619
77	0x3f861270	1.0474377
78	0x3f878159	1.0586349
79	0x3f8316d4	1.0241342
80	0x400c4a32	2.1920285
81	0x3f960525	1.172032
82	0x3f349836	0.70544755
83	0x3fce62c0	1.6123886
84	0x3fde5feb	1.7373022
85	0xc000fa04	-2.0152597
86	0x3fb525cf	1.4152163
87	0x3fa3c8cf	1.2795657
88	0x3f97acad	1.1849571
89	0x3fc07fca	1.5038998
90	0x3ed7804c	0.4209007
91	0x3e2ec680	0.17067909
92	0x3fc6dbac	1.5535789
93	0x3ed17c1e	0.40915006
94	0x3b9d4c31	0.0048003425
95	0x40268af2	2.6022305
96	0x3e92f2e9	0.2870095
97	0x3dc9e009	0.098571844
98	0x3ff26dbe	1.8939741
99	0x3f24668b	0.6421897
100	0xbf5eb565	-0.86995536
101	0x3ff9c806	1.9514167
102	0x400ebc0d	2.2302277
103	0xbc350852	-0.011049347
104	0x3f158484	0.5840533
105	0xbfe4ef56	-1.788554
106	0xc0174d9f	-2.3641126
107	0xbff94aae	-1.9475915
108	0xbff865b4	-1.9406037
109	0xbff09818	-1.8796415
110	0xc010290e	-2.2525058
111	0xc013898e	-2.3052707
112	0xbfd2ad15	-1.645907
113	0xbff14c66	-1.885144
114	0xc0024f8e	-2.0361056
115	0x40201ca0	2.5017471
116	0xbfdb6bfb	-1.7142328
117	0xc00ca58e	-2.1976047
118	0xc00d8a7d	-2.2115777
119	0xc009248c	-2.1428556
120	0x3f307232	0.6892425
121	0x3ed25379	0.4107931
122	0x3fc65428	1.5494432
123	0x3eac5fda	0.3366688
124	0x3f1a2594	0.6021359
125	0x3fedf9d7	1.859187
126	0x3ea99ea6	0.33128852
127	0x3f14042a	0.57818854
128	0x3fd4cf32	1.6625731
129	0x3f835e0d	1.0263077
130	0xbf42d859	-0.7611137
131	0x3fc0fa68	1.5076418
132	0x3fbd39aa	1.4783223
133	0x3ee1c099	0.44092253
134	0x3f64ab0d	0.893235
135	0x3f4f4cb4	0.80976415
136	0x3fb4ffe0	1.4140587
137	0x3f87bece	1.0605104
138	0x3f913954	1.134562
139	0x3f93a178	1.1533651
140	0x400923a0	2.1427994
141	0x3f9b3ce0	1.2127953
142	0x3f3202f2	0.69535744
143	0x3fa3eeae	1.2807214
144	0x3f723f34	0.9462769
145	0xbf9e1792	-1.2350943
146	0x3f72fee5	0.9492019
147	0x3f46457e	0.77449787
148	0x3f94ad27	1.1615342
149	0x3f89049b	1.070453
150	0xbf85e336	-1.0459964
151	0xbf932350	-1.1495152
152	0x3fdc4f84	1.7211766
153	0xbf7668d8	-0.9625373
154	0xbf99a0ae	-1.200216
155	0x3fa4328e	1.2827928
156	0xbf67dd88	-0.90572405
157	0xbf770f79	-0.96507984
158	0x3fb16a0a	1.3860486
159	0xbf09fe3d	-0.5390356
160	0x3ed6c650	0.41948175
161	0x401b02c2	2.4220433
162	0x40164361	2.3478625
163	0xbf813229	-1.0093433
164	0xbf3b4b62	-0.731619
165	0xbfc39d83	-1.5282444
166	0xbfcd5718	-1.6042204
167	0xbf9c6c28	-1.2220507
168	0xbfcc6a47	-1.5969933
169	0xbfabb935	-1.3415896
170	0xbfce7582	-1.612961
171	0xbfdb00b5	-1.7109591
172	0xbf842d9a	-1.0326416
173	0xbf951498	-1.164691
174	0xbff191ab	-1.8872579
175	0x3ff45ecf	1.9091433
176	0xbfb119c7	-1.3835992
177	0xbfb2c157	-1.3965253
178	0xbfcaf023	-1.5854534
179	0xbfcc48df	-1.5959738
180	0x3f38ecb0	0.72236156
181	0x3f31235f	0.69194597
182	0x3fb881be	1.4414594
183	0x3f35e2d0	0.71049213
184	0x3ed24bfe	0.41073602
185	0x40058816	2.086431
186	0x3f643ae5	0.89152366
187	0x3f1dee75	0.6169198
188	0x3fa19939	1.2624885
189	0x3fa73941	1.3064348
190	0xbfb0ec5d	-1.3822132
191	0x3fb362f0	1.4014568
192	0x3fe1a802	1.7629397
193	0x3efe7c3c	0.49704158
194	0x3f52f418	0.8240371
195	0x3fa5eb47	1.2962426
196	0x3fc7f03d	1.562019
197	0xbdd34b07	-0.10317045
198	0x3fbe6742	1.4875262
199	0x3fa537d6	1.2907665
200	0x3f724beb	0.9464709
201	0x3fb0562d	1.3776299
202	0x3f795833	0.97400206
203	0x3e18eb98	0.14933622
204	0x3f98765f	1.1911124
205	0xbf77ccd4	-0.9679692
206	0xbf08847b	-0.5332715
207	0xbf0e85a6	-0.5567268
208	0x3fcc251f	1.5948828
209	0x3f957ad5	1.167811
210	0x3f6a2796	0.91466653
211	0x3f853451	1.0406591
212	0x3f72e1b9	0.94875675
213	0x3f33426a	0.70023215
214	0x3f780983	0.96889514
215	0x400e9106	2.2276015
216	0x3f90c9c9	1.131158
217	0x3f1e20d9	0.6176887
218	0x3fc398e6	1.5281036
219	0x3fb7a4fd	1.4347225
220	0xbfaa85cc	-1.3322082
221	0x3f68a820	0.9088154
222	0x3fbbfcd3	1.4686531
223	0x3f7ddeb6	0.99167955
224	0x3f775ae7	0.9662308

onnx::MatMul_40 f4 [15, 15]
0	0x3f11837e	0.56841266
1	0xbe80f4e2	-0.2518683
2	0x3f314f4e	0.69261634
3	0x3f388567	0.72078556
4	0x3f759f81	0.9594651
5	0x3f1ad05e	0.60474193
6	0x3eeceea5	0.4627582
7	0x3f350997	0.7071776
8	0x3ebb0065	0.36523739
9	0x3f92f922	1.1482279
10	0xbd82d2cf	-0.06387865
11	0x3eb21c6d	0.34787312
12	0x3e8e006b	0.27734694
13	0x3f159265	0.58426505
14	0x3eb7edbe	0.3592357
15	0x3f84f3c7	1.0386895
16	0xbb3eca46	-0.0029112264
17	0x3f9c69da	1.2219803
18	0x3fb1bc34	1.388556
19	0x3fb41d65	1.407147
20	0x3f927ffb	1.1445307
21	0x3f5c08f4	0.8595116
22	0x3f7f8ed1	0.99827296
23	0x3f4dda15	0.8041089
24	0x3fecc72f	1.8498286
25	0x3ebe89fa	0.37214643
26	0x3f0476a8	0.51743555
27	0x3f982d32	1.1888793
28	0x3fca9693	1.5827202
29	0x3f4bf7d1	0.7967501
30	0xbefada9c	-0.4899491
31	0xbfa3bcdc	-1.279201
32	0xbec6e42a	-0.3884595
33	0xbea77d49	-0.32712772
34	0xbf1823e6	-0.59429777
35	0xbe8dd2dd	-0.27699938
36	0xbf733fbd	-0.9501913
37	0xbf74c496	-0.95612466
38	0xbf315d6e	-0.6928319
39	0xbe8703aa	-0.26369983
40	0xbfaff004	-1.3745122
41	0xbf8d8c45	-1.1058432
42	0xbf47c2ab	-0.78031415
43	0xbef5c77f	-0.48003766
44	0xbf87d851	-1.061289
45	0x3f634176	0.8877176
46	0xbe91d118	-0.28479838
47	0x3f73a856	0.95178735
48	0x3f1344c6	0.57526815
49	0x3f89f196	1.0776851
50	0x3f361524	0.7112601
51	0x3df7c848	0.120987475
52	0x3f2050f8	0.6262355
53	0x3e8ac39f	0.27102372
54	0x3f893d79	1.0721885
55	0x3e424afe	0.1897392
56	0x3e8d6cf4	0.27622187
57	0x3f01b88d	0.5067223
58	0x3f67c2ff	0.90531915
59	0x3ea31d9d	0.3185853
60	0x3f5326c8	0.8248105
61	0xbe7e11a3	-0.24811415
62	0x3f42eee2	0.76145756
63	0x3f1b9e46	0.6078838
64	0x3f9000fa	1.1250298
65	0x3f75d89b	0.9603364
66	0x3ea94dd6	0.33067197
67	0x3f473d01	0.7782746
68	0x3f1a1224	0.6018393
69	0x3fab940e	1.3404558
70	0xbd4e74a7	-0.050404217
71	0x3f1dbe7f	0.616188
72	0x3ec949e0	0.39314175
73	0x3f813a37	1.0095891
74	0x3efddd6d	0.49582997
75	0xbfe0363e	-1.7516553
76	0xc023bb38	-2.558302
77	0xbfd8ceb7	-1.6938084
78	0xbfdbd3c0	-1.7173996
79	0xbfc1df1b	-1.5146211
80	0xbfad9414	-1.3560815
81	0xbffea43b	-1.9893869
82	0xbfe8b43a	-1.8180001
83	0xc005fcd5	-2.0935566
84	0xbfaddccc	-1.3583007
85	0xc0137e00	-2.3045654
86	0xc015644a	-2.3342462
87	0xc001e0a1	-2.0293353
88	0xbfce08c6	-1.6096427
89	0xbfe79bc3	-1.809441
90	0x3f5f94d7	0.87336487
91	0xbdfbfb77	-0.123038225
92	0x3f8f62de	1.1202047
93	0x3f7f611c	0.9975755
94	0x3f95d52a	1.1705678
95	0x3f85b7cd	1.0446717
96	0x3f1358da	0.5755745
97	0x3f00793d	0.50184995
98	0x3f27e981	0.65590674
99	0x3fcc7a6f	1.5974864
100	0x3e4a8a1e	0.1977925
101	0x3efa616e	0.48902458
102	0x3eff7e5c	0.49901092
103	0x3f9304cc	1.1485839
104	0x3e7ee2c3	0.2489119
105	0x3eb7561a	0.35807878
106	0xbec51b35	-0.3849732
107	0x3e312d3f	0.17302416
108	0x3e9842fe	0.2973861
109	0x3f0f2dcc	0.55929255
110	0x3f185533	0.59505004
111	0xbdc0d11a	-0.09414883
112	0x3dfc2403	0.12311556
113	0x3cc119a2	0.023571793
114	0x3ecd9350	0.40151453
115	0xbf01c326	-0.506884
116	0x3e9b88ee	0.30377907
117	0x3c374dd5	0.01118799
118	0x3e67ee46	0.22649488
119	0x3e64638a	0.22303596
120	0xbf47e604	-0.7808535
121	0xbfae8efa	-1.3637383
122	0xbedc3ae2	-0.43013674
123	0xbf0c7c10	-0.54876804
124	0xbe937a38	-0.28804183
125	0xbef9ac53	-0.48764285
126	0xbf5f43ab	-0.8721263
127	0xbf186c31	-0.59540087
128	0xbf39a879	-0.72522694
129	0xbe7d42c6	-0.24732503
130	0xbf9e953b	-1.2389292
131	0xbf895fb9	-1.0732337
132	0xbf60835e	-0.8770045
133	0xbef70567	-0.4824631
134	0xbf9701e9	-1.1797458
135	0x3f9a07c1	1.2033616
136	0xbd3b2eaa	-0.0456988
137	0x3fa1b1b2	1.2632353
138	0x3fac702f	1.3471736
139	0x3f9d9ca1	1.2313424
140	0x3f79c91c	0.97572494
141	0x3f122b8b	0.5709769
142	0x3f758055	0.95898944
143	0x3f03a529	0.5142389
144	0x3fbfd0d2	1.4985602
145	0xbd3b00d8	-0.0456551
146	0x3eacd634	0.33757174
147	0x3f821eed	1.0165688
148	0x3f8f5465	1.119763
149	0x3f1d5d43	0.6147043
150	0xbf2e6184	-0.6811755
151	0x3eaf5a2b	0.3424848
152	0xbfb4c0fd	-1.4121395
153	0xbfbf6162	-1.4951594
154	0xbfd4a7f0	-1.661375
155	0xbfc32f36	-1.5248783
156	0xbde649fc	-0.1124458
157	0xbf072f95	-0.5280698
158	0xbedba86c	-0.42901933
159	0xc0215194	-2.5206041
160	0x3ed32657	0.41240188
161	0xbdc720fa	-0.09723087
162	0xbf2f9186	-0.68581426
163	0xbf6f4c78	-0.9347606
164	0xbe97d079	-0.2965124
165	0xbfa1d752	-1.2643836
166	0xbf52ca0b	-0.82339543
167	0xbf67349a	-0.9031464
168	0xbf553f34	-0.83299565
169	0xbf7e220d	-0.9927071
170	0xbf7dd303	-0.99150103
171	0xbfbc67c6	-1.4719169
172	0xbf84ca36	-1.037421
173	0xbf79b29c	-0.9753816
174	0xbf239bca	-0.6390959
175	0xbf9d839a	-1.2305787
176	0xbf9af1d8	-1.2105055
177	0xbf6ad658	-0.9173331
178	0xbf927520	-1.1441994
179	0xbfa76ca0	-1.3080025
180	0xbfca9bcb	-1.5828794
181	0xbfd748e6	-1.6819122
182	0xbfcbd225	-1.5923506
183	0xbfa7afd1	-1.310053
184	0xbfa34804	-1.2756352
185	0xbfc4e78b	-1.5383161
186	0xbfc8630f	-1.565523
187	0xbfb4ad25	-1.411534
188	0xbfd69698	-1.6764708
189	0xbf8c30df	-1.0952414
190	0xbfbd0e73	-1.4770035
191	0xbfb69565	-1.4264342
192	0xbfc0e2f4	-1.5069261
193	0xbfc9cc74	-1.5765519
194	0xbfb3bdc7	-1.404229
195	0x3f7554dc	0.9583261
196	0xbdbaafc8	-0.09115559
197	0x3f411cd3	0.7543461
198	0x3f3916b4	0.7230027
199	0x3f794fb5	0.9738725
200	0x3f584bd3	0.844907
201	0x3f0d166e	0.5511235
202	0x3f2824b1	0.65680987
203	0x3ee8ff3c	0.45507228
204	0x3f9245b8	1.1427526
205	0x3e1cf367	0.15327226
206	0x3e92faca	0.28706962
207	0x3f534bc9	0.82537514
208	0x3f8ba9a9	1.0911151
209	0x3ec4250e	0.3830952
210	0x3f0bdc80	0.5463333
211	0xbe742bea	-0.23844877
212	0x3f97eb1b	1.1868623
213	0x3f7ace14	0.979707
214	0x3f92f11e	1.1479833
215	0x3f8911e7	1.0708588
216	0x3d49ffd4	0.049316242
217	0x3f40ef89	0.753655
218	0x3e8ea562	0.27860552
219	0x3fa3f564	1.2809262
220	0xbe2a2c4e	-0.16618463
221	0x3f05b8d7	0.5223517
222	0x3f133d1c	0.5751512
223	0x3f973a74	1.1814713
224	0x3e1307ee	0.14358494

onnx::MatMul_41 f4 [15, 15]
0	0x3f1a408c	0.6025474
1	0xbe8d1bdd	-0.2756032
2	0x3f4be283	0.79642504
3	0x3f7192d1	0.9436465
4	0x3f1bc7c2	0.6085168
5	0x3f0376ae	0.51352966
6	0xbf092499	-0.5357147
7	0xbf053f6f	-0.52049917
8	0xbf317035	-0.6931184
9	0x3f0db482	0.5535356
10	0x3f408927	0.7520928
11	0x3f23083c	0.6368444
12	0x3f41d4ba	0.7571522
13	0x3f7fabd6	0.99871576
14	0xbf700b23	-0.93766993
15	0x3f953f7b	1.1659998
16	0xbf958d65	-1.1683775
17	0x3f814eff	1.0102233
18	0x3fac6866	1.346936
19	0x3f9e51bb	1.2368692
20	0x3fbc0150	1.46879
21	0xbfb6a222	-1.4268229
22	0xbf743ff5	-0.9541009
23	0xbfca6694	-1.5812554
24	0x3fa72653	1.3058571
25	0x3f98f28b	1.1949018
26	0x3f9bc9f9	1.2171012
27	0x3f8a38f4	1.0798631
28	0x3f914a44	1.1350789
29	0xbfa172c0	-1.2613144
30	0x3f842232	1.0322936
31	0xbe927798	-0.28606868
32	0x3f7fc2ef	0.9990682
33	0x3f4eb14c	0.80739284
34	0x3f33b2fc	0.70194983
35	0x3f29ff33	0.6640503
36	0xbf292b79	-0.6608196
37	0xbf3c313d	-0.7351263
38	0xbf135db7	-0.5756487
39	0x3f0f39b6	0.55947435
40	0x3f07747a	0.52912104
41	0x3f377a75	0.7167123
42	0x3f3eae89	0.7448507
43	0x3f2d904b	0.677983
44	0xbee6a472	-0.45047337
45	0x3eb524ad	0.35379544
46	0xbedd439c	-0.43215644
47	0x3eab953f	0.33512303
48	0x3f082f9c	0.53197646
49	0x3f10d36b	0.565726
50	0x3ee09011	0.43859914
51	0xbf21574c	-0.6302383
52	0xbe377e87	-0.1791936
53	0xbe719756	-0.23592886
54	0x3eef9374	0.46792185
55	0x3efe66c9	0.49687794
56	0x3f3e24b8	0.7427478
57	0x3eda2b8d	0.42611352
58	0x3f358ac1	0.70914847
59	0xbe3dd4fd	-0.1853828
60	0x3ee46e5d	0.4461545
61	0xbf1e8dfa	-0.6193539
62	0x3f47823f	0.77933115
63	0x3f562ca1	0.8366185
64	0x3ea076f4	0.31340754
65	0x3f2f6584	0.68514276
66	0xbf36f83e	-0.7147254
67	0xbec71e73	-0.38890418
68	0xbf2068b3	-0.6265976
69	0x3f0e46c4	0.5557673
70	0x3ede4ded	0.43418828
71	0x3f5a8055	0.8535207
72	0x3f33be7b	0.70212525
73	0x3f839f96	1.0283077
74	0xbf347900	-0.7049713
75	0x3ee9aecc	0.45641172
76	0xbea0a866	-0.31378478
77	0x3e9dd5c0	0.3082714
78	0x3f4919b8	0.7855487
79	0x3f10af49	0.56517464
80	0x3ef110f1	0.47083238
81	0xbf19f136	-0.60133684
82	0xbeec6250	-0.46168756
83	0xbf1e32d6	-0.6179632
84	0x3ee9b776	0.45647782
85	0x3f083efb	0.532211
86	0x3eb6920b	0.35658297
87	0x3e9e28bc	0.30890453
88	0x3ef26268	0.47340703
89	0xbedf53d8	-0.43618655
90	0x3f17da1c	0.59317183
91	0xbeac29e0	-0.33625698
92	0x3f4b0a9f	0.7931308
93	0x3f8795fe	1.0592649
94	0x3ecb3759	0.39690664
95	0x3f674ca2	0.9035131
96	0xbf7535fb	-0.9578549
97	0xbf42aa6e	-0.76041305
98	0xbf59befa	-0.8505703
99	0x3ef64e49	0.48106602
100	0x3f14af2e	0.58079803
101	0x3f6470d0	0.8923464
102	0x3f323ed4	0.6962712
103	0x3f8718e4	1.0554471
104	0xbf2aed43	-0.6676828
105	0x3f06633e	0.5249518
106	0xbe93e1ee	-0.28883308
107	0x3f36d1f3	0.7141411
108	0x3f44287c	0.76624274
109	0x3e54e193	0.20789175
110	0x3f0a3f0c	0.5400245
111	0xbed25cce	-0.4108643
112	0xbeb99d71	-0.3625293
113	0xbf263456	-0.6492361
114	0x3f0d5e51	0.5522204
115	0x3ee46065	0.44604793
116	0x3f1f4801	0.62219244
117	0x3f345454	0.70441175
118	0x3f2dea22	0.67935383
119	0xbebf6cfb	-0.37387833
120	0x3f568598	0.837976
121	0xbe35116d	-0.17682429
122	0x3f4cc723	0.7999136
123	0x3f447b7c	0.7675092
124	0x3e6391b2	0.22223547
125	0x3f40cb68	0.75310373
126	0xbf3b86a4	-0.7325232
127	0xbee4eeb5	-0.4471337
128	0xbeb4f13e	-0.35340303
129	0x3f2afa4f	0.6678819
130	0x3f0fa7e8	0.5611558
131	0x3f3c79dc	0.7362344
132	0x3f2799f9	0.6546932
133	0x3f38b72a	0.72154486
134	0xbf39a106	-0.7251133
135	0x3f8d0b65	1.1019102
136	0xbf108b31	-0.5646239
137	0x3fa34e8e	1.2758348
138	0x3f6924b6	0.9107164
139	0x3f34de0c	0.70651317
140	0x3f8175c5	1.0114065
141	0xbf7e7129	-0.9939142
142	0xbf1f4d4e	-0.6222733
143	0xbf836a04	-1.0266728
144	0x3f6545a8	0.8955941
145	0x3f5bfdac	0.8593395
146	0x3fa1e17f	1.2646941
147	0x3f26172c	0.6487911
148	0x3f7c2c89	0.98505455
149	0xbf84e303	-1.0381778
150	0x3f92d507	1.1471261
151	0xbf6691d7	-0.90066284
152	0x3f809485	1.0045325
153	0x3fa653e6	1.2994354
154	0x3f4e484a	0.80579054
155	0x3f7cf797	0.9881529
156	0xbfb0a050	-1.3798923
157	0xbfa0a439	-1.2550117
158	0xbfb47834	-1.4099183
159	0x3f63c288	0.88968706
160	0x3f38a193	0.7212154
161	0x3f8986f4	1.074431
162	0x3f8ac6df	1.0841941
163	0x3faaac97	1.333392
164	0xbfa76ac7	-1.3079461
165	0x3f8c5df7	1.0966176
166	0xbf1d1f1c	-0.61375594
167	0x3f989a7b	1.1922144
168	0x3f7850f8	0.9699855
169	0x3f5e0cb3	0.8673813
170	0x3f8492dc	1.0357318
171	0xbfa33405	-1.275025
172	0xbf72664c	-0.9468734
173	0xbf90fa37	-1.132636
174	0x3f6fe2bc	0.93705344
175	0x3f2138ab	0.62977093
176	0x3fb1688a	1.3860028
177	0x3f5f5e92	0.8725368
178	0x3fa4e47a	1.2882226
179	0xbf8119f0	-1.008604
180	0x3f111fe8	0.5668931
181	0xbec727de	-0.38897604
182	0x3f62eabe	0.8863944
183	0x3f6ffbcf	0.93743604
184	0x3f1c48c3	0.61048526
185	0x3f52db92	0.8236629
186	0xbf1a0931	-0.60170275
187	0xbf1c82f4	-0.6113732
188	0xbf42a252	-0.7602893
189	0x3f1c37b1	0.6102248
190	0x3f018fdb	0.5061013
191	0x3f75f0fc	0.9607084
192	0x3f07014f	0.5273637
193	0x3f2403ae	0.64068115
194	0xbf4ecde5	-0.8078292
195	0x3f03aa54	0.51431775
196	0xbee298ec	-0.44257295
197	0x3ed3d2c5	0.41371742
198	0x3efc9c03	0.49337777
199	0x3ed6b474	0.4193455
200	0x3f41899e	0.7560061
201	0xbf1a7101	-0.6032868
202	0xbf3b9fd7	-0.7329077
203	0xbf3c480c	-0.73547435
204	0x3ef3227c	0.47487247
205	0x3eab026f	0.33400294
206	0x3ee2783b	0.44232354
207	0x3f2cd117	0.67506546
208	0x3f679765	0.90465385
209	0xbeb761c9	-0.35816792
210	0x3f2a2125	0.66456825
211	0xbeb63118	-0.3558433
212	0x3f010a6b	0.5040652
213	0x3f44f286	0.7693256
214	0x3f1707d7	0.5899634
215	0x3f21143f	0.6292152
216	0xbf2026bb	-0.625591
217	0xbf3a92ff	-0.7288055
218	0xbf3fe96f	-0.74965566
219	0x3f15e702	0.58555615
220	0x3e896e20	0.2684183
221	0x3f425bed	0.7592152
222	0x3f2d58b8	0.677135
223	0x3f198b5f	0.5997829
224	0xbf5fccff	-0.87422174

onnx::MatMul_42 f4 [15, 1]
0	0xbf342684	-0.7037127
1	0x3e9609c9	0.2930434
2	0xbf2c1057	-0.6721243
3	0xbf505e4c	-0.81393886
4	0xbf5cd36d	-0.8626011
5	0xbf50f381	-0.8162156
6	0x3f6a4999	0.9151855
7	0x3eca5ee7	0.3952553
8	0x3f1786fe	0.59190357
9	0xbf50326f	-0.81326956
10	0xbf6d956d	-0.9280613
11	0xbf4ea57a	-0.8072125
12	0xbf5fe9cd	-0.87466127
13	0xbf2d1629	-0.6761194
14	0x3f1a203e	0.6020545
