onnx/myModel_HL3_HD15_799.onnx (onnx, 4793 bytes, 9 tensors)

net.0.bias f4 [15]
-2.673294 -2.3443925 -2.2735832 -3.2400095 3.4163382 -3.1904829 2.7239094 2.3266068
0.34645456 -2.8456368 2.3660386 -2.3943737 2.646824 3.120933 2.8385472
00000000: 4017 2bc0 870a 16c0 6382 11c0 515c 4fc0
00000010: 49a5 5a40 df30 4cc0 8854 2e40 20e7 1440
00000020: 7e62 b13e ea1e 36c0 2d6d 1740 6b3d 19c0
00000030: 9065 2940 5ebd 4740 c2aa 3540

net.2.bias f4 [15]
-0.19668746 -0.3832645 0.43969476 0.21271732 -0.07728822 0.279202 -1.4189788 0.32710066
0.54108095 0.668281 1.0420791 0.56364363 -0.60649425 0.54527295 -0.39150032
00000000: 7068 49be 3f3b c4be ac1f e13e 92d2 593e
00000010: 4949 9ebd 91f3 8e3e 19a1 b5bf bd79 a73e
00000020: 4884 0a3f 7714 2b3f d962 853f f34a 103f
00000030: 3543 1bbf 0297 0b3f bb72 c8be

net.4.bias f4 [15]
-0.98692304 -0.19434404 -0.6150178 -0.33852008 -1.3583035 -0.052270923 -1.5035183 -1.6446365
-0.78677934 -0.7044084 -0.926002 -1.0965803 -0.11865669 -0.44875827 0.089590736
00000000: fda6 7cbf 2002 47be ce71 1dbf 8152 adbe
00000010: e4dc adbf 091a 56bd 4a73 c0bf 7383 d2bf
00000020: 5f6a 49bf 1c54 34bf 780e 6dbf be5c 8cbf
00000030: 4702 f3bd a5c3 e5be 597b b73d

net.6.bias f4 [15]
0.022680316 0.059414033 -0.25194985 -0.15864447 -1.0552052 0.40261835 -0.08806304 0.10085071
-1.1093333 0.4052077 0.23178142 -0.9427924 -0.03295651 -0.18653288 -1.4752587
00000000: 12cc b93c 215c 733d 92ff 80be b273 22be
00000010: f710 87bf fe23 ce3e 655a b4bd d18a ce3d
00000020: a2fe 8dbf 6277 cf3e 1c58 6d3e d85a 71bf
00000030: 68fd 06bd 7a02 3fbe 47d5 bcbf

onnx::MatMul_31 f4 [2, 15]
-0.76849884 -1.5834283 0.31192967 1.2828722 4.0220375 -2.1075637 -3.5904136 -2.5420277
-4.0250235 -2.710583 1.5433412 0.84258914 -0.85858774 0.4025014 0.078238204 1.6532787
-0.33988845 1.5982451 -0.10671736 -3.240927 1.0163692 -0.082584694 0.84325683 4.945887
0.8848952 1.391001 0.7213468 1.459909 1.3364377 1.5104798
00000000: 57bc 44bf c7ad cabf 3fb5 9f3e 2835 a43f
00000010: 88b4 8040 53e2 06c0 56c9 65c0 95b0 22c0
00000020: fecc 80c0 317a 2dc0 348c c53f ecb3 573f
00000030: 68cc 5bbf aa14 ce3e 5a3b a03d a39e d33f
00000040: dc05 aebe 4c93 cc3f a28e dabd 596b 4fc0
00000050: 6318 823f 2a22 a9bd aedf 573f b544 9e40
00000060: 7e88 623f 520c b23f 2faa 383f 4cde ba3f
00000070: 6410 ab3f 6757 c13f

onnx::MatMul_32 f4 [15, 15]
-0.22412127 -1.1237426 1.373313 0.5125379 3.15832 0.27312666 1.2227322 2.924162
1.0863836 1.387587 0.24204947 2.8890984 -1.0149264 2.5830188 -0.44535184 -1.0735371
-1.5785191 1.7659619 0.6735683 1.4809647 1.762468 -2.0907726 1.2802973 2.8862147
2.1096172 2.2046964 2.073321 -2.9745965 2.3519473 5.3438206 -0.46033636 -2.2005234
3.3493717 2.0694714 2.002614 2.1723256 1.046528 1.7683023 1.5921326 1.2392701
1.5987047 2.0095766 -1.4005048 1.6186321 0.07184672 1.8964604 -2.3437808 3.332017
3.205455 2.0737865 3.241057 -2.1555023 1.6940733 3.1117587 3.906841 2.931898
2.6017673 -1.6389979 2.0588434 4.139378 -0.81109536 1.5836494 0.23828362 -2.0553162
1.393411 0.10498041 -1.1096089 1.13948 0.25567636 0.19876815 0.05573627 0.45017248
0.32209563 0.7295721 0.5684803 1.0692523 -0.76391035 0.47685015 0.78661966 -0.1009595
1.0468698 1.6520901 0.7978453 1.5613785 1.74802 1.383688 1.1334217 -1.467958
1.5962108 6.051762 -0.14542376 -0.25734985 -0.71303594 -1.0804865 -2.0277607 -1.5102687
-0.87872446 -1.4990819 0.39043537 0.29140422 0.043023124 -0.33011222 -0.82996804 -1.0349023
2.468494 0.22584596 0.3378539 -0.61722326 -1.8387905 0.30339015 -1.059824 0.6892932
0.31754652 -0.99127555 -1.3986539 -0.91303873 0.5901894 0.12766358 0.26312485 -1.000628
-1.538875 -0.16369613 1.2028222 1.1344756 -0.6284744 1.0560092 -1.8480669 -0.69834304
-0.79684454 -1.2850145 0.13765499 -1.3222834 -0.48204783 -0.30073023 -2.2629306 1.7709398
-0.9710869 0.68908465 0.5470218 0.2440694 1.2862493 1.9345784 0.9711126 1.487506
1.6631122 0.9715672 1.534485 -1.5153381 1.8427912 8.011399 1.1433839 0.5926732
-1.1049169 -0.33739495 -1.3968092 -1.0865682 0.36159232 -1.1994102 -1.2630093 -0.65374917
-0.63634336 -0.81655264 1.646638 -1.4004042 -0.61491203 -0.08368059 -1.4453698 1.9986576
1.7698065 0.9167126 1.6849518 0.108864546 0.9827472 0.9695349 0.9941451 1.42927
1.3663156 -0.6803387 0.9714153 0.3354583 0.8076353 1.3150903 -0.93910235 -0.7979574
-0.83055127 -0.5667896 1.9446148 -1.0424995 -1.6350622 -2.007105 -1.4265832 -1.4074414
1.2547308 -0.936786 -0.3081268 0.92980564 1.6303864 -0.9118638 -0.9927421 -1.2589613
-0.7241113 1.7899561 -1.2538706 -1.1478394 -1.5909895 -1.55754 -1.789263 1.8623157
-1.4393173 -0.7863317 0.93593216 1.2270658 -0.7169402 -0.73530424 -1.4719864 -0.5551108
1.8637966 -1.282952 -1.4658353 -1.3316141 -1.412364 -1.3892418 1.4668026 -0.94210106
-0.7110361
00000000: 0c80 65be ccd6 8fbf b8c8 af3f af35 033f
00000010: ea21 4a40 42d7 8b3e 7d82 9c3f 7825 3b40
00000020: 9e0e 8b3f 739c b13f d1db 773e fde6 3840
00000030: 1ce9 81bf 2e50 2540 2805 e4be aa69 89bf
00000040: ea0c cabf 0a0b e23f f96e 2c3f 4090 bd3f
00000050: 8d98 e13f 38cf 05c0 c8e0 a33f beb7 3840
00000060: f803 0740 bf19 0d40 4bb1 0440 ca5f 3ec0
00000070: 4e86 1640 9400 ab40 35b1 ebbe 60d5 0cc0
00000080: 1b5c 5640 3872 0440 d42a 0040 6207 0b40
00000090: a1f4 853f bb57 e23f 00cb cb3f 67a0 9e3f
000000a0: 5ba2 cc3f e79c 0040 be43 b3bf 562f cf3f
000000b0: 6024 933d 37bf f23f 8100 16c0 c43f 5540
000000c0: 2d26 4d40 ebb8 0440 7a6d 4f40 c0f3 09c0
000000d0: 65d7 d83f 0e27 4740 af09 7a40 38a4 3b40
000000e0: 5b83 2640 afca d1bf 17c4 0340 c975 8440
000000f0: f2a3 4fbf 06b5 ca3f 9f00 743e 4d8a 03c0
00000100: 4b5b b23f f8ff d63d aa07 8ebf 7bda 913f
00000110: 03e8 823e e189 4b3e b74b 643d 027d e63e
00000120: b8e9 a43e 3dc5 3a3f ed87 113f 42dd 883f
00000130: a18f 43bf b425 f43e e85f 493f dbc3 cebd
00000140: d4ff 853f b077 d33f 973f 4c3f 40db c73f
00000150: 1fbf df3f b01c b13f f613 913f 0ce6 bbbf
00000160: a350 cc3f 09a8 c140 f7e9 14be 5cc3 83be
00000170: 8689 36bf 624d 8abf d5c6 01c0 7c50 c1bf
00000180: 16f4 60bf eae1 bfbf 25e7 c73e ef32 953e
00000190: 0439 303d 7804 a9be c978 54bf ae77 84bf
000001a0: cefb 1d40 2a44 673e 30fb ac3e 5802 1ebf
000001b0: 7d5d ebbf f455 9b3e 50a8 87bf 8575 303f
000001c0: 7595 a23e 3cc4 7dbf 1707 b3bf e8bc 69bf
000001d0: a716 173f 3eba 023e 4db8 863e 9414 80bf
000001e0: dbf9 c4bf f59f 27be 14f6 993f 7f36 913f
000001f0: b3e3 20bf 4f2b 873f 758d ecbf 9cc6 32bf
00000200: 01fe 4bbf 5b7b a4bf 6ef5 0c3e 9540 a9bf
00000210: f9ce f6be 50f9 99be dbd3 10c0 28ae e23f
00000220: 2799 78bf da67 303f 9f09 0c3f 54ed 793e
00000230: d1a3 a43f 44a0 f73f d69a 783f 9966 be3f
00000240: dce0 d43f a1b8 783f 016a c43f 99f6 c1bf
00000250: 95e0 eb3f b12e 0041 675a 923f 6eb9 173f
00000260: eb6d 8dbf 08bf acbe a5ca b2bf ab14 8bbf
00000270: a122 b93e 4686 99bf 4aaa a1bf 1b5c 27bf
00000280: 66e7 22bf 9809 51bf 09c5 d23f 7240 b3bf
00000290: e06a 1dbf bb60 abbd e101 b9bf 03d4 ff3f
000002a0: 0589 e23f adad 6a3f 80ac d73f 60f4 de3d
000002b0: 5295 7b3f 7033 783f 4b80 7e3f 52f2 b63f
000002c0: 6ee3 ae3f ad2a 2ebf acae 783f 31c1 ab3e
000002d0: 30c1 4e3f e154 a83f 0369 70bf f046 4cbf
000002e0: 029f 54bf 2019 11bf 23e9 f83f a070 85bf
000002f0: b849 d1bf 6974 00c0 479a b6bf 0a27 b4bf
00000300: 059b a03f 35d1 6fbf ccc2 9dbe be07 6e3f
00000310: 80b0 d03f e86f 69bf 5924 7ebf a525 a1bf
00000320: 5c5f 39bf 481d e53f d57e a0bf 67ec 92bf
00000330: 8ba5 cbbf 795d c7bf 9206 e5bf 5c60 ee3f
00000340: 8d3b b8bf 094d 49bf 4099 6f3f 7e10 9d3f
00000350: 6589 37bf e63c 3cbf 0d6a bcbf be1b 0ebf
00000360: e390 ee3f c537 a4bf 7ea0 bbbf 5572 aabf
00000370: 58c8 b4bf add2 b1bf 30c0 bb3f 892d 71bf
00000380: 7606 36bf

onnx::MatMul_33 f4 [15, 15]
-0.6614536 0.64589894 -0.6380483 -0.058647152 -0.82031834 0.338756 -1.645048 -1.8303498
-1.2158698 -0.798544 -0.89297885 -0.8498215 -0.21110886 -0.3114869 -0.24052806 -2.383321
-0.64948684 -1.5072455 -1.0710689 -2.5483828 -0.95393264 -1.6737897 -1.3418767 -2.5021987
-2.0991335 -1.6649879 -1.7329235 -1.2373642 -1.4013778 -0.32878962 1.6478693 -0.072951786
1.1072377 0.26313516 1.701098 1.160558 2.6407037 1.4474804 1.5912474 1.7598119
1.3003395 1.4812331 0.7061601 1.2597551 -0.52398854 2.1064444 2.5080185 -1.5324401
2.4605596 2.2007287 4.051784 -0.42055085 -1.3603218 3.1694856 3.2949588 2.7249007
-1.229529 3.0240862 3.083407 1.5973736 0.3134153 -0.85544527 2.9106548 -0.89868367
0.4355255 -1.9306953 3.1351793 2.9990408 0.41229966 -0.032505516 0.017055217 2.9925506
-0.9794752 -0.6124395 -0.88791126 0.9690706 -0.48883078 0.40365267 0.73102665 1.2001718
1.4593791 3.0460663 1.46796 1.4986378 1.708009 1.274379 0.9352841 0.9937529
1.1611464 -0.39846238 -1.8713986 -0.17742977 -0.84264207 -0.64470565 -1.9679044 -0.29897255
-1.4761802 -1.2799504 -1.8903853 -1.4837439 -1.4917413 -1.0718209 -0.50241596 -1.0194873
-0.17179877 0.57999796 0.44981205 2.4346523 -0.4861211 0.5938361 -2.0630374 2.3209114
2.6853242 0.22691381 -0.13964082 0.12157774 2.5559807 -0.866237 -0.24900992 -0.02634367
2.3821642 1.0933529 1.3088843 0.80984515 2.4673407 0.05517023 3.0056484 2.4239917
1.5003383 1.5650567 1.7452215 1.835728 0.8708536 1.3275225 0.38010892 2.4601116
1.9932479 0.7622975 0.65857816 2.9507508 -1.5718162 2.1502182 2.1861074 1.5376477
1.1737379 1.329961 1.8727448 0.71460134 0.63245386 1.0110582 1.9513166 1.5050905
-0.0013237429 1.2499164 2.1879919 2.1343102 2.501118 0.96669835 2.0138042 1.9963559
1.8824141 0.55061305 1.6323407 1.6925871 1.5326039 1.7045826 1.7493434 3.2404866
-0.036287997 1.9299915 -2.559654 1.851952 2.5210643 0.95930964 0.15927796 0.6338949
2.6168249 -0.36629128 -0.14398141 1.5546069 -2.2345986 -0.39889416 -1.7425414 -0.8326321
-2.150178 -0.49332845 -1.913826 -1.5306238 -2.0490322 -1.6201307 -1.74232 -1.999475
-0.9218026 -1.176814 -0.44632784 1.0053335 0.7853065 2.4156125 -0.5518167 0.880608
-1.2139951 2.6753507 2.0763202 0.37503132 0.44533223 0.4912248 2.2586136 -0.62288845
-0.30368304 -0.74561906 -1.5052768 0.861098 3.079446 -2.0826662 -1.5120052 -11.9765835
-0.28954205 1.2300334 -1.7017756 -2.4985332 -1.910341 1.1547378 -2.949588 -2.5420003
1.3081537
00000000: 0655 29bf a259 253f 2257 23bf ff37 70bd
00000010: 6200 52bf 6d71 ad3e ef90 d2bf e748 eabf
00000020: 9fa1 9bbf 616d 4cbf 439a 64bf e78d 59bf
00000030: ec2c 58be 367b 9fbe fd4c 76be 5588 18c0
00000040: c544 26bf 6ced c0bf c918 89bf b418 23c0
00000050: ee34 74bf be3e d6bf 9ec2 abbf 0624 20c0
00000060: 3458 06c0 531e d5bf 70d0 ddbf f361 9ebf
00000070: 5960 b3bf 1d57 a8be 62ed d23f bf67 95bd
00000080: f7b9 8d3f a7b9 863e 94bd d93f 2a8d 943f
00000090: 4a01 2940 0a47 b93f ffad cb3f 8441 e13f
000000a0: 8671 a63f 0c99 bd3f e9c6 343f a83f a13f
000000b0: 1d24 06bf fccf 0640 6083 2040 ff26 c4bf
000000c0: cf79 1d40 bdd8 0c40 37a8 8140 7152 d7be
000000d0: 061f aebf dad8 4a40 9be0 5240 c664 2e40
000000e0: 3561 9dbf a18a 4140 8a56 4540 bd76 cc3f
000000f0: f877 a03e 76fe 5abf 2b48 3a40 2210 66bf
00000100: 33fd de3e 0621 f7bf c7a6 4840 49f0 3f40
00000110: f118 d33e 8124 05bd 62b7 8b3c f385 3f40
00000120: e3be 7abf d6c8 1cbf 274e 63bf 0315 783f
00000130: 0748 fabe 90ab ce3e 9024 3b3f 3b9f 993f
00000140: efcc ba3f c0f2 4240 1de6 bb3f 5dd3 bf3f
00000150: 0aa0 da3f da1e a33f c76e 6f3f 9766 7e3f
00000160: 72a0 943f 4303 ccbe fd89 efbf 26b0 35be
00000170: 64b7 57bf 6e0b 25bf 4be4 fbbf ee12 99be
00000180: 79f3 bcbf 6ad5 a3bf 25f8 f1bf 52eb bdbf
00000190: 61f1 bebf 6d31 89bf 559e 00bf 8f7e 82bf
000001a0: 04ec 2fbe bf7a 143f c44d e63e 58d1 1b40
000001b0: dde4 f8be a505 183f ce08 04c0 d089 1440
000001c0: 5adc 2b40 185c 683e 01fe 0ebe c0fd f83d
000001d0: 3095 2340 b5c1 5dbf 75fc 7ebe aece d7bc
000001e0: 6175 1840 fdf2 8b3f 8589 a73f 0352 4f3f
000001f0: e9e8 1d40 2efa 613d 8b5c 4040 ae22 1b40
00000200: 160b c03f c753 c83f 6b63 df3f 23f9 ea3f
00000210: 43f0 5e3f 42ec a93f a39d c23e 7872 1d40
00000220: bf22 ff3f ee25 433f 9498 283f 1ad9 3c40
00000230: 4631 c9bf 2d9d 0940 2fe9 0b40 a4d1 c43f
00000240: 0b3d 963f 293c aa3f 1ab6 ef3f 1df0 363f
00000250: 7fe8 213f 5b6a 813f bec4 f93f cea6 c03f
00000260: 7181 adba 43fd 9f3f 0f08 0c40 8a98 0840
00000270: 5112 2040 8b79 773f 2be2 0040 9788 ff3f
00000280: f2f2 f03f faf4 0c3f 8af0 d03f b2a6 d83f
00000290: 5d2c c43f c32f da3f 7cea df3f 2264 4f40
000002a0: b9a2 14bd f609 f73f 5fd1 23c0 c30c ed3f
000002b0: 1e59 2140 5195 753f c319 233e f046 223f
000002c0: 0f7a 2740 888a bbbe dd6f 13be 5cfd c63f
000002d0: aa03 0fc0 db3b ccbe 990b dfbf 6127 55bf
000002e0: 849c 09c0 8c95 fcbe 40f8 f4bf 7beb c3bf
000002f0: 5823 03c0 7160 cfbf 5704 dfbf ccee ffbf
00000300: 41fb 6bbf d7a1 96bf 1585 e4be c5ae 803f
00000310: d909 493f 6599 1a40 dc43 0dbf 876f 613f
00000320: 3164 9bbf f238 2b40 6ee2 0440 1b04 c03e
00000330: 9602 e43e d181 fb3e 208d 1040 9e75 1fbf
00000340: 587c 9bbe e4e0 3ebf e9ac c0bf eb70 5c3f
00000350: a515 4540 674a 05c0 6389 c1bf 16a0 3fc1
00000360: db3e 94be bc71 9d3f c8d3 d9bf f8e7 1fc0
00000370: 0e86 f4bf 73ce 933f 0dc6 3cc0 22b0 22c0
00000380: 9571 a73f

onnx::MatMul_34 f4 [15, 15]
2.5374289 1.3439168 1.0619665 0.22870937 -0.29853088 1.3604807 2.4258833 1.8917954
-0.5880299 0.77927 1.1382872 -0.7906009 2.330971 1.4264402 0.072738856 0.8953252
0.6355884 0.78628796 -1.4528496 0.40720809 0.7271071 0.77254516 0.27586743 0.4602435
0.9737128 0.5437882 0.92901725 0.48400056 0.48346716 -1.2159665 -1.9840664 -1.4965373
-1.9968014 -1.4800419 1.0076463 -1.4528637 -1.8677229 -2.5457325 1.3419441 -0.8871216
-2.1921558 1.8786058 -1.9021415 -2.2408469 0.13047086 0.7085823 0.80358094 1.0763624
-0.29027572 -0.26875365 0.5577775 0.45593265 1.1185807 -0.4330884 0.14972648 1.2801765
-1.0521919 1.0961621 1.3367018 0.23330453 3.071981 1.6870531 1.5911673 -0.0923648
-0.5473469 1.4472312 2.8208697 2.4860544 -0.37538767 1.3924173 1.506407 -0.6060486
3.3012686 1.9151059 -0.25027868 1.0860866 1.614249 2.3340092 1.6659545 -2.2627487
1.5999943 1.0217322 2.8181007 -2.013431 0.863346 2.540664 -3.435734 0.88139933
2.394413 8.283255 -2.3169844 -2.5306034 -2.344679 0.2804111 0.6877059 -2.7169015
-2.427941 -2.2675083 0.50174415 -3.0571337 -2.5622365 0.676398 -2.0687375 -2.1966472
3.700054 -2.3979318 -2.1835952 -2.429104 -0.16971794 1.0775865 -2.256564 -2.3692894
-2.6676912 1.2696937 -2.0879676 -2.3733354 1.6702352 -2.442905 -2.5706224 2.4636762
2.2453825 1.3506786 1.386703 1.0306991 -1.3984586 1.3307707 2.2013738 2.0184991
-1.5747328 0.8995107 1.6455908 -2.1569333 2.5584354 2.2610166 0.3009923 2.0963805
1.8377413 1.9852663 0.9600448 -0.9397291 1.8331832 1.8791081 2.2649713 -1.0848889
1.0437332 1.7946985 -1.8443129 2.3709688 1.9706823 1.367699 1.6020643 1.1963062
1.341622 0.4124457 -0.6475394 1.027979 1.7078247 1.6311613 -0.7518137 0.52923656
1.4188764 -1.0887439 1.4636452 1.4762118 1.174291 -2.0335917 -2.1575172 -1.9617777
-0.7972253 0.8167591 -1.9780293 -1.6477579 -2.4691002 0.9093873 -1.5460273 -2.3550394
1.1650898 -2.0434062 -2.2568035 1.3254085 1.1211745 1.0124514 1.3342025 -0.39606357
-0.38317218 0.6470518 0.88029075 1.7761285 -0.42830133 0.22167034 1.6762593 -1.0425774
0.98227584 1.623876 1.1557491 1.0878295 1.0139306 1.4469308 0.12604809 -0.26849622
1.1125841 1.1063501 1.536651 -0.5748045 0.2877519 1.6719524 -1.086508 1.1883532
1.4269902 1.543213 0.55145484 0.04072687 -0.09935035 -0.001243127 -1.4739345 -0.12042769
0.4450473 0.29915377 -1.3689599 0.20048034 0.07595597 -0.9220125 0.53839535 0.20576371
-0.22158979
00000000: 3c65 2240 7705 ac3f 85ee 873f ca32 6a3e
00000010: 0ad9 98be 3b24 ae3f ac41 1b40 5a26 f23f
00000020: 2189 16bf 3d7e 473f 65b3 913f d264 4abf
00000030: a12e 1540 9895 b63f 1cf8 943d 0834 653f
00000040: ecb5 223f 2b4a 493f faf6 b9bf 947d d03e
00000050: b123 3a3f 85c5 453f 7f3e 8d3e 09a5 eb3e
00000060: 3e45 793f b435 0b3f 13d4 6d3f ecce f73e
00000070: 0289 f73e caa4 9bbf e3f5 fdbf 898e bfbf
00000080: 3097 ffbf 0372 bdbf 8efa 803f 70f7 b9bf
00000090: 8b11 efbf 48ed 22c0 d3c4 ab3f 671a 63bf
000000a0: 484c 0cc0 2876 f03f 5f79 f3bf 096a 0fc0
000000b0: 279a 053e a665 353f 7bb7 4d3f 3ec6 893f
000000c0: 059f 94be 149a 89be 82ca 0e3f 0170 e93e
000000d0: a72d 8f3f c3bd ddbe e651 193e d3dc a33f
000000e0: 39ae 86bf 0a4f 8c3f 0b19 ab3f 62e7 6e3e
000000f0: 569b 4440 5bf1 d73f 5fab cb3f c229 bdbd
00000100: ed1e 0cbf df3e b93f 2189 3440 841b 1f40
00000110: d032 c0be bb3a b23f f2d1 c03f 0026 1bbf
00000120: fc47 5340 3122 f53f 8724 80be e304 8b3f
00000130: b69f ce3f 6860 1540 ff3d d53f e0d0 10c0
00000140: 9dcc cc3f 1fc8 823f c35b 3440 0edc 00c0
00000150: 3e04 5d3f 3d9a 2240 11e3 5bc0 63a3 613f
00000160: 103e 1940 3688 0441 7949 14c0 68f5 21c0
00000170: 390f 16c0 0b92 8f3e 7e0d 303f b7e1 2dc0
00000180: 6363 1bc0 db1e 11c0 4e72 003f 14a8 43c0
00000190: affb 23c0 6b28 2d3f 3266 04c0 de95 0cc0
000001a0: afcd 6c40 b777 19c0 06c0 0bc0 7176 1bc0
000001b0: 8aca 2dbe 5bee 893f 8b6b 10c0 70a2 17c0
000001c0: 74bb 2ac0 5385 a23f 43a1 05c0 bae4 17c0
000001d0: 44ca d53f 8e58 1cc0 1485 24c0 dfac 1d40
000001e0: 59b4 0f40 09e3 ac3f 7c7f b13f f3ed 833f
000001f0: b100 b3bf b256 aa3f 4fe3 0c40 172f 0140
00000200: d890 c9bf 5546 663f b8a2 d23f 320b 0ac0
00000210: 68bd 2340 7fb4 1040 aa1b 9a3e 192b 0640
00000220: 1b3b eb3f 351d fe3f 7fc5 753f 1692 70bf
00000230: bfa5 ea3f 9d86 f03f 4af5 1040 a4dd 8abf
00000240: 0d99 853f aeb8 e53f 7212 ecbf f4bd 1740
00000250: 513f fc3f c310 af3f 7110 cd3f 9020 993f
00000260: 45ba ab3f 152c d33e 24c5 25bf d194 833f
00000270: 009a da3f e5c9 d03f dd76 40bf 0c7c 073f
00000280: be9d b53f f65b 8bbf ba58 bb3f 82f4 bc3f
00000290: 2b4f 963f 5e26 02c0 c314 0ac0 881b fbbf
000002a0: f516 4cbf 2017 513f 1030 fdbf bbe9 d2bf
000002b0: bd05 1ec0 9bcd 683f 39e4 c5bf f7b8 16c0
000002c0: aa21 953f 2bc7 02c0 786f 10c0 fca6 a93f
000002d0: a582 8f3f 0298 813f 26c7 aa3f d8c8 cabe
000002e0: 252f c4be 30a5 253f bc5a 613f 2e58 e33f
000002f0: 504a dbbe 8dfd 623e aa8f d63f 2d73 85bf
00000300: 6e76 7b3f 2bdb cf3f 96ef 933f ff3d 8b3f
00000310: 7ac8 813f 0735 b93f c012 013e 5678 89be
00000320: 2869 8e3f e19c 8d3f fbb0 c43f 6326 13bf
00000330: 3854 933e 8902 d63f b212 8bbf f51b 983f
00000340: 9da7 b63f 0188 c53f 252c 0d3f 38d1 263d
00000350: 3278 cbbd 6cf0 a2ba e3a9 bcbf cba2 f6bd
00000360: 3ddd e33e af2a 993e 143a afbf b84a 4d3e
00000370: ce8e 9b3d 0309 6cbf 47d4 093f b9b3 523e
00000380: 6fe8 62be

onnx::MatMul_35 f4 [15, 1]
-2.6919155 -1.4412247 -1.7692679 0.818667 -0.38807213 -1.4397168 -2.197181 -2.7148957
-0.50601995 -1.5015581 -2.1358984 -0.8865669 -2.518511 -2.1614254 0.71841174
00000000: 5848 2cc0 0d7a b8bf 5f77 e2bf 2994 513f
00000010: 64b1 c6be a448 b8bf 9d9e 0cc0 dac0 2dc0
00000020: 868a 01bf 0e33 c0bf 8fb2 08c0 0cf6 62bf
00000030: 492f 21c0 cb54 0ac0 d5e9 373f
