onnx/myModel_HL4_HD15_399.onnx (onnx, 6087 bytes, 11 tensors)

net.0.bias f4 [15]
00000000: 4d7e 16c0 0c8a 3640 6fe7 2040 895b 9dbe
00000010: ba7e 3dc0 f5f0 a33f b694 2bc0 aa33 20c0
00000020: 1a23 0fc0 6ce2 0d40 2898 0040 e1f5 4140
00000030: 3332 52c0 eea8 3040 c303 3ac0
-2.3514588 2.8521757 2.5141256 -0.30733898 -2.9608598 1.2807909 -2.6809516 -2.5031533
-2.2365174 2.2169447 2.0092869 3.0306323 -3.284314 2.7603106 -2.9064796

net.2.bias f4 [15]
00000000: 388e a93d cd63 cfbe aa85 833e efa9 c1be
00000010: bae7 eabd e620 54bd 58c5 5c3c d02b e9bd
00000020: 1dea 07be b255 bdbe 9113 a3be 98ea 40be
00000030: c97d 523d b2f4 41bf 0461 f5bd
0.08279079 -0.4050583 0.25687915 -0.37824962 -0.114699796 -0.051789187 0.013474785 -0.1138531
-0.13272901 -0.36979443 -0.31850865 -0.1883949 0.05138949 -0.75764 -0.11981395

net.4.bias f4 [15]
00000000: 5e47 bebf ca85 f2bf 6239 b1bf 85b8 c3bf
00000010: 2236 cebf 94bd e1bf c5f4 d9bf d55e a3bf
00000020: 88ec b2bf 374c efbf aff4 fb3f 32b9 bfbf
00000030: 51c0 ccbf 60df d8bf 1dda d9bf
-1.486553 -1.8947079 -1.3845637 -1.5290686 -1.611027 -1.763598 -1.7027823 -1.2763315
-1.3978434 -1.8695134 1.9684047 -1.4978392 -1.599619 -1.6943169 -1.7019688

net.6.bias f4 [15]
00000000: 3e97 043e 067e 9e3f 081e 2ebf b209 a8bf
00000010: 0ede 8fbf fe9e 74bf b3b7 11bd ccd8 d0be
00000020: 78f3 23bf 4e38 f1bf c357 2d3f 037d 953e
00000030: 7480 093c 9c32 09bf cd8a 3dbe
0.1294832 1.2382209 -0.68014574 -1.3127959 -1.1239641 -0.955551 -0.03557558 -0.40790403
-0.6404338 -1.8845308 0.6771204 0.2919694 0.008392442 -0.5359285 -0.1850998

net.8.bias f4 [15]
00000000: d7ce 62bf 21dd 1f3e b07b 7ebf f641 a2bf
00000010: aca5 2abf b7fd 88bf 7afd 613f 6176 163f
00000020: e3c8 7b3f 4bf6 58bf 7d88 35bf a4e2 92bf
00000030: f391 7bbf 241d 98bf 43bb 4b3f
-0.8859686 0.15611698 -0.9940748 -1.267638 -0.66659045 -1.0702428 0.882774 0.5877438
0.98353404 -0.84750813 -0.7091139 -1.1475415 -0.98269576 -1.1883893 0.79582614

onnx::MatMul_37 f4 [2, 15]
00000000: 3c39 ffbd a23d 2740 8614 c13e a18d 58c0
00000010: 2262 a73f 18a3 913f 2831 953f d51e cdbf
00000020: 69b5 273f ec0c c5be bf21 963f 98c3 14c0
00000030: 13c8 3fc0 2ae8 c33e 4e72 983f 342f f83f
00000040: 0eb0 03c0 9e68 b53f f040 9a40 cf04 aa3d
00000050: 719c 813f 3bc2 0e3f b5cb 08bf 119c d23f
00000060: 028a c33f 7199 08c0 a8d5 0abf 7cc1 833f
00000070: b886 bb3f a39c 58bf
-0.124620885 2.6131368 0.3771097 -3.3836443 1.3076823 1.1377897 1.1655626 -1.6025034
0.65511185 -0.3848642 1.1729048 -2.324438 -2.9965866 0.38263065 1.1909883 1.9389405
-2.0576205 1.4172552 4.820427 0.083016984 1.0125867 0.5576512 -0.5343583 1.6453878
1.5276492 -2.1343653 -0.54232264 1.0293422 1.4650488 -0.8461401

onnx::MatMul_38 f4 [15, 15]
00000000: aef3 9b3f 4e14 0b40 2689 8c3f 7e45 ec3f
00000010: 85e6 873f 2e72 ab3f 1ed6 ec3f 8991 0140
00000020: edde c43f e9da bc3f 060b 913e 635c 9d3f
00000030: fff9 ef3f 6aed 8e3f ba0c b53f d775 0bbd
00000040: 5201 41bf 5905 13bf 5198 1ebf f94d c5bf
00000050: 6363 47bf 57d3 573f 8c20 80be 70d4 9b3e
00000060: 6601 89bf 7988 833d a655 34bf fb50 043f
00000070: 1afa 2ac0 168c 1cbf 0ad8 7fbf f263 1ebf
00000080: 3d61 68bf 4c65 96bf 27d8 44bf e58c 63bf
00000090: 4f27 6dbf 7f14 2340 3e7f 2bbf 0e3f 0dbf
000000a0: f993 93be fd19 e63f 6598 a4bf abae 9bbe
000000b0: 73f4 4cbf 3ef3 87bf fa20 1b3f 9cb8 863e
000000c0: 2f39 62bf 0e83 443f 31e2 0cbf 11f2 81bf
000000d0: 897b 8640 5818 adbf 5851 793d 9cd7 f2bf
000000e0: 9476 2f3e 273f 5dbf 67ac 6f3f a27e 69bf
000000f0: 1d12 af3f 1e33 c63f c49d 1840 cc2e bf3f
00000100: 6644 0040 c3e6 c43f 6857 063f e4be 21bf
00000110: 843d 553f 1f3d af3f 8527 c83f 7880 41bf
00000120: 02f1 613f dff2 0c40 c94c 9e3f 0b23 26bf
00000130: 8314 aabe bd52 ebbe f579 15bf 156b 07be
00000140: 0304 a6be 2c14 5bbe 5ca9 0840 d92c 833c
00000150: ff40 9dbd c00f a7be 8834 b53f c50d 24bf
00000160: 0ed0 cebe 9b06 f2be 2354 5d3f 8039 e43f
00000170: b221 983f b365 2f3f 1bc3 bd3f 5812 843f
00000180: 2322 493f bbb8 c73f 0d03 a73f ac02 983f
00000190: a7d7 32bf 9fae 0f3f d74b 553f b80d e43f
000001a0: caea 533f 1c8c 6640 bc7a 0940 7f3f 6040
000001b0: e550 3340 d1e6 3c40 06e4 3b40 22d8 113f
000001c0: de27 e1bf 55a4 2040 77e7 1a40 c2b0 1b40
000001d0: c0c3 85bf 497f 4340 72e6 0e40 e6d9 1840
000001e0: 4c96 be3f d62d 1040 4400 913f 5f0e e33f
000001f0: 2d51 a23f b076 a93f c127 0d40 bd48 da3f
00000200: 1cf0 c43f f4a4 cb3f 2fb1 9e3f c9ef bf3f
00000210: 9629 e43f 1ccf ac3f 1527 b03f 8d20 8fbf
00000220: bb42 97bf 7055 a2bf d3f5 aebf f43e b8bf
00000230: 313f debf fe56 a1bf aaa6 0440 3d66 58bf
00000240: 7004 afbf b9f4 b9be ab74 7d3f 1faa 9bbf
00000250: 8550 84bf 5d2c b6bf af1f 27bf 0a10 d8bf
00000260: 2483 3a3f f0da 3cbf 5b6d 993e 99b4 0bbf
00000270: e6a7 4fc0 226a c5be bbeb 10c0 686b 98bf
00000280: 3417 333e 9a6b dbbe 0f3d 68bf a050 09be
00000290: 5bf0 91bf 2454 a9be c9c8 27c0 cffc 1bbf
000002a0: 9f5c 62bf edd6 1abf 1b8a c6be e1fc 2ac0
000002b0: 426a d9be ace8 0dc0 95b6 ddbf 597b 243f
000002c0: d4c3 f6be 0e0a 0dbf c68a a3bf c989 7dbf
000002d0: bbee 4840 0de9 f23f a2ab 1b40 0147 3140
000002e0: 328f f73f 73a6 3a40 faf7 c23e ece2 2340
000002f0: 436b 0940 d640 0540 9b1a 4c41 12f1 f13e
00000300: 0c23 3840 c0d3 8c3f 1861 3e40 77e6 d0bf
00000310: 78dc efbe e5fb 67bf 0f72 95bf b6c6 16bf
00000320: ad4f 99bf 7523 59bf e7c2 3a40 7093 1fbf
00000330: 92f8 5ebf 8553 4fbf f101 e33f e554 abbf
00000340: 09fe 04bf d116 a9bf 7f53 2740 70ed 1340
00000350: cd7b 4640 ad9d 2340 6e14 3840 58dc 2b40
00000360: 73ac 043f b164 e4bf c043 ed3f 2ca6 ee3f
00000370: 4879 da3f 8475 e4bf d470 1640 d08b bd3f
00000380: 334a 2540
1.218374 2.1731143 1.0979354 1.8458707 1.0617224 1.339422 1.8502843 2.0245078
1.5380532 1.4754306 0.28328723 1.2293819 1.8748168 1.1166203 1.4144509 -0.034047928
-0.7539264 -0.57430035 -0.61951166 -1.541442 -0.7788603 0.84306854 -0.2502483 0.30435514
-1.0703552 0.064225145 -0.7044319 0.51686066 -2.671515 -0.61151254 -0.99939024 -0.61871254
-0.90773374 -1.1749663 -0.7689232 -0.88886863 -0.92638105 2.548126 -0.6699103 -0.5517434
-0.28823832 1.7976681 -1.2859007 -0.304067 -0.800605 -1.0621107 0.60597193 0.2631272
-0.88368505 0.76762474 -0.5503264 -1.0151998 4.20258 -1.3523054 0.06086859 -1.8972049
0.17135078 -0.8642449 0.9362244 -0.9120885 1.3677403 1.548435 2.3846292 1.4936156
2.0041747 1.5382923 0.5247712 -0.631819 0.8329699 1.3690528 1.563706 -0.7558665
0.88258374 2.2023237 1.2367183 -0.6489722 -0.33218774 -0.45961562 -0.58389217 -0.13224442
-0.32424936 -0.21394414 2.1353369 0.016012596 -0.07678413 -0.32629204 1.4156656 -0.6408351
-0.40393108 -0.47270665 0.8645651 1.7830048 1.1885283 0.68514556 1.4825166 1.0318098
0.78567713 1.560325 1.3047806 1.1875815 -0.6986031 0.56125826 0.8331885 1.7816687
0.82780135 3.6023016 2.148116 3.5038755 2.8018124 2.951588 2.9357924 0.5697042
-1.7590292 2.51003 2.4203775 2.4326634 -1.0450363 3.0546439 2.2328153 2.3882995
1.4889617 2.2527976 1.1328206 1.7738761 1.2681023 1.3239346 2.2055514 1.7053448
1.5385776 1.5909715 1.2397822 1.4995052 1.7825191 1.3500705 1.3761927 -1.1181809
-1.181724 -1.2682323 -1.366877 -1.4394212 -1.7363034 -1.2604673 2.0726724 -0.84531003
-1.3673229 -0.3631952 0.99006146 -1.2161292 -1.0337073 -1.4232289 -0.6528272 -1.6879895
0.72856355 -0.7377157 0.29966244 -0.54572445 -3.2446227 -0.38557535 -2.2643878 -1.1907778
0.1748932 -0.4285553 -0.9071817 -0.13409662 -1.1401476 -0.33072007 -2.62163 -0.6093263
-0.8842258 -0.604842 -0.3877724 -2.6716845 -0.4246388 -2.2173262 -1.7321345 0.64250714
-0.4819628 -0.5509347 -1.2776725 -0.9903837 3.139571 1.8977371 2.4323506 2.7699587
1.9340575 2.9164093 0.38079816 2.5607252 2.1471717 2.0820823 12.756495 0.47254235
2.877139 1.1002121 2.9746761 -1.6320332 -0.46847892 -0.90618736 -1.1675433 -0.5889696
-1.197744 -0.8481973 2.918146 -0.62334347 -0.8709804 -0.80986816 1.7734967 -1.3385283
-0.51950127 -1.3210088 2.6144712 2.311367 3.1013062 2.5564988 2.876247 2.6853237
0.51825637 -1.7843229 1.8536301 1.8644462 1.7068262 -1.7848363 2.3506365 1.4808292
2.5826538

onnx::MatMul_39 f4 [15, 15]
00000000: e931 703f ca29 8b3f 79ba de3f 2af3 093f
00000010: 0d02 173f a74d 2540 851a 1d3f 235f b53e
00000020: 79d8 e63f 7835 973f f508 ecbf 4c0e 0940
00000030: c1be 2840 c236 433f dc01 843f 87e8 a63f
00000040: af70 e83f 8081 e63f d7b6 ac3f f13c d13f
00000050: 3d5c 2340 efbb eb3f 5234 ab3f 567a dd3f
00000060: a904 863f c55f 86bf cc93 8b3f 1a57 a83f
00000070: 513f ef3f 35df 9d3f 8515 a73f be2b a43f
00000080: 477e 323f 84ae bb3f a382 c23f 94d7 dd3f
00000090: 42f6 a23f 33cc 9d3f 8d0e 333f 5d9b f13f
000000a0: c7b7 bebf afb3 303e 4f4c 9d3e 3af8 a83f
000000b0: 6e96 af3f daaa 4f3f eb9a 8d3f de31 a03f
000000c0: 2637 8d3f 1213 583f 37da f53f 7c12 903f
000000d0: c602 1b3f aab6 883f 9057 ae3f acf0 aebf
000000e0: 54f4 e43f 51cd db3f a951 6d3f 9864 9e3f
000000f0: 7906 d13f c901 ee3f 95c1 783e 0fb3 d53f
00000100: 9aee ba3f cb5a a93f b366 d83f ef86 c33f
00000110: f3cb c33e e39f c83f e2bb b9bf 0457 1abf
00000120: 4600 9dbe 0b66 ec3f 4e21 b43f 9be6 863f
00000130: 82a0 d63f 4b3e 433f 3df4 893f 72d1 893f
00000140: 2eff e43f 3b83 993f bd38 2e3f 2e01 863f
00000150: a779 ef3f 266a 07c0 4323 bd3f 1266 ad3f
00000160: 589e 983f 371e c73f a475 debe 08c5 1dbf
00000170: c911 2840 81e1 e3be 01af 63bf 94f8 4a40
00000180: 9003 eabe fabd 47bf 9ec2 3540 c7a2 94be
00000190: 593d dfbe 3e7e 5940 9fe6 6b40 f1e9 59bf
000001a0: 1875 27be abc7 e7bf 847b 18c0 a90e 09c0
000001b0: 84a4 f6bf d64d f0bf 4cea 20c0 153a 14c0
000001c0: 6dbf c7bf 8b5d 05c0 3acb fdbf 9adc 2a40
000001d0: a042 efbf 1b48 1ac0 9aa3 0bc0 d773 0bc0
000001e0: 41f4 4d3e 2e88 61bd 06c6 0140 d4ee 35be
000001f0: 004e 8e3d 6287 ce3f 64c1 e8bd 80da d53b
00000200: 7783 ec3f 0916 003f 8143 2abf ea6f 3040
00000210: 5d70 2e40 0f6d 94bd e23e f63e 3688 5a3f
00000220: 75b6 c03f fc23 653f aadf 9b3f 62c9 9d3f
00000230: 3536 da3f 846d ab3f bc63 3e3f 06db 883f
00000240: b357 6a3f 0c2e 97bf afa2 833f d457 533f
00000250: 80a1 a23f 2521 903f 05bc d7bf 11d6 f1bf
00000260: 8654 da3f 1f52 ddbf aa6b f7bf afde b53c
00000270: 5ba5 c6bf 875c 03c0 8465 0a3f fca9 c6bf
00000280: a089 893f fb5a 7840 09bf 5b40 c540 ecbf
00000290: 1e67 b0bf 1062 c6bf 6979 cdbf 5ab9 b1bf
000002a0: 0e09 c8bf f711 a8bf 276f f3bf 5513 d9bf
000002b0: bac4 6abf 603f acbf ec73 f3bf 8b9e 0c40
000002c0: 05cf bdbf 7944 c5bf d009 c3bf cff0 d3bf
000002d0: 6f30 2b3f 24b2 0f3f 9c9a e83f 6dc9 153f
000002e0: afb3 933e 4789 0940 87a2 573f 39c8 d83e
000002f0: aed4 a93f 9cb9 9c3f f6e3 c5bf b014 0e40
00000300: 1b21 2440 41d1 ac3e 87b7 4d3f 74b9 eb3f
00000310: 6c03 0a40 b8d2 6cbf 4683 0840 8420 f93f
00000320: c70c ec3d 9354 0140 9be8 cf3f fcda 1fbf
00000330: 4e7a cf3f 9a2b 60bf 1ccd b6bf ff06 bdbf
00000340: 5851 1240 6cda d13f 7176 593f e039 6e3f
00000350: 9df1 703f 29ee 153f e027 603f be31 e33f
00000360: c535 893f c503 d43e 4970 9e3f 6a6a af3f
00000370: fc4e bcbf eeb2 ba3f a09d fb3f 01c0 5b3f
00000380: daa2 723f
0.93826157 1.0872128 1.7400657 0.53886664 0.58987504 2.5828645 0.6136859 0.35424146
1.8034812 1.1813192 -1.8440233 2.1414976 2.6366427 0.7625543 1.0313067 1.3039712
1.8159388 1.800827 1.3493298 1.6346723 2.5525048 1.8416728 1.3375342 1.7302959
1.0470172 -1.0497977 1.0904479 1.3151581 1.8691198 1.2333742 1.3053442 1.2825849
0.69723934 1.4662633 1.5196117 1.7331414 1.2731402 1.2327942 0.6994408 1.8875538
-1.4899834 0.17256044 0.3072228 1.3200753 1.3717782 0.81120074 1.1062902 1.2515218
1.1032455 0.844041 1.9207219 1.1255641 0.60551107 1.0680745 1.3620472 -1.3667197
1.7887063 1.7172033 0.9270273 1.2374449 1.63301 1.8594295 0.24292596 1.6695269
1.4604065 1.3230833 1.6906341 1.5275553 0.38241538 1.5673794 -1.4510462 -0.60289025
-0.3066427 1.8468641 1.4072664 1.0539125 1.6767733 0.76266927 1.0777661 1.0767043
1.7890375 1.1993173 0.68055326 1.046911 1.8709 -2.1158538 1.4776386 1.3546774
1.1923323 1.5556096 -0.43449128 -0.6162877 2.6260855 -0.44507983 -0.8893891 3.171422
-0.45705843 -0.78024256 2.8400035 -0.2903044 -0.43601492 3.3983302 3.685951 -0.8512259
-0.16353261 -1.8107809 -2.3825388 -2.1415198 -1.9268956 -1.8773754 -2.5143003 -2.316045
-1.5605294 -2.0838344 -1.9827645 2.6697145 -1.8692207 -2.410651 -2.1818604 -2.1789453
0.20112707 -0.05506151 2.0277114 -0.17766887 0.06948471 1.6135066 -0.11365011 0.0065262914
1.847762 0.5003362 -0.6650925 2.7568307 2.725608 -0.07247364 0.4809485 0.8536409
1.5055681 0.8950803 1.2177632 1.2327082 1.7047793 1.3392797 0.7437093 1.0691841
0.9154007 -1.1810927 1.0284022 0.8255589 1.2705536 1.1260115 -1.6854254 -1.8893453
1.7057045 -1.7290686 -1.9329731 0.02220091 -1.5519212 -2.0525224 0.5406115 -1.5520625
1.0745125 3.880553 3.4335349 -1.8457266 -1.3781469 -1.5498676 -1.6052676 -1.388469
-1.5627763 -1.3130482 -1.9018296 -1.6959025 -0.9170643 -1.345684 -1.9019752 2.1971767
-1.4828802 -1.5411521 -1.523737 -1.6557864 0.6687078 0.56131196 1.8172183 0.58510476
0.28848025 2.1490037 0.8423237 0.42340258 1.326803 1.2244143 -1.5460193 2.2200127
2.5645206 0.33753398 0.80358166 1.8415971 2.1564589 -0.9250903 2.1330123 1.9463048
0.115258746 2.020787 1.624286 -0.6244352 1.62092 -0.8756653 -1.4281344 -1.476776
2.2862148 1.6394782 0.8494635 0.9305706 0.9411867 0.5856653 0.87560844 1.7749555
1.0719534 0.41409126 1.2378017 1.370435 -1.4711604 1.4585855 1.9657478 0.8583985
0.9477974

onnx::MatMul_40 f4 [15, 15]
00000000: e8de b23f ae25 a1bf 5460 923f 2c90 523f
00000010: 584a ac3f 179d 983f 2a8d fa3e bd85 c23f
00000020: f7f1 ae3e 947e a73f cb66 6bbf b725 a5bd
00000030: 06fd 563f d12e a63f e203 483e f79d 0740
00000040: 775f 46bf fbbf ee3f c0e0 d03f e22f fd3f
00000050: 3570 f93f a8f7 913f 7ec8 0440 3ac0 813f
00000060: 34de 0440 38fb 5dbe 0767 af3e 583d fd3f
00000070: e718 2240 d204 5d3f 4735 b8bf f73c babf
00000080: afeb a7bf 6287 abbf 165c b8bf 6790 95bf
00000090: eccc f5bf bc82 e9bf dd46 dcbf 98ed f4be
000000a0: 1484 cebf 6cc8 ffbf 3e86 dfbf 956f b5bf
000000b0: 80d8 ffbf af2a ef3f f6a3 96bf 47d0 c53f
000000c0: 8dc9 493f 662d cd3f d7fc b93f 264f 8c3e
000000d0: 526a cc3f d952 bb3e b8e7 9b3f 9b8f 0abf
000000e0: 2a79 a0bc b1ce 9a3f f062 e33f 0afe 8a3e
000000f0: 92db ea3f 3d38 a3bf 04a1 b33f 03a6 5b3f
00000100: 177c d93f 7e90 df3f c6b4 d53e c5a2 e13f
00000110: d914 253f bcd5 ba3f 622e 78bf 0040 4f3e
00000120: f99c 8d3f 5b1b f63f e873 c03e cb43 e1bf
00000130: 240d 54c0 2992 f8bf d189 0cc0 816c e5bf
00000140: ad22 c3bf f010 21c0 ccd6 edbf 7d4c 29c0
00000150: 3e01 d2bf cf4f 45c0 48bd 45c0 5a41 0dc0
00000160: cfdc d4bf e766 1ac0 1e74 eb3f 19b6 69bf
00000170: f51b de3f b207 9e3f 5f15 de3f c3bb e73f
00000180: 75b3 363f 874a bc3f 715b 3b3f 3167 ef3f
00000190: 1ea7 debe 0191 493e f345 963f 1882 0140
000001a0: 75e3 3e3e 49e0 8f3f 94d6 bdbf 0970 1b3f
000001b0: 9d1c b73e 9bb1 6f3f df53 943f 1e69 85be
000001c0: accf 5a3f bf5e 34be e023 b43e 95d1 cabf
000001d0: a255 b5be d867 f53e ff32 6a3f 316b 03be
000001e0: 0823 a3bf e000 e3bf 3fc1 7fbf 7a0d a7bf
000001f0: 2d8d 4ebf 7767 7ebf b50a e1bf 395f 8bbf
00000200: 11f6 d0bf 96dc c9be 434d e6bf 6269 06c0
00000210: 1eec c3bf 0967 78bf bbfb 05c0 0b3c e93f
00000220: e56f 78bf c2e8 b73f ad78 a33f 6a19 ab3f
00000230: 2b8d a03f c9c0 573f b016 d23f 4d83 323f
00000240: 249b e13f aaf6 26bf 5b73 513e 129f c53f
00000250: d3a3 c23f 248a 383f 50f7 38bf 9dea 373f
00000260: b577 ddbf c122 03c0 9ada 04c0 7979 e2bf
00000270: 53b0 1bbf ba82 15bf 17d2 75bf 9590 81c0
00000280: c470 113f 4771 05bf ce0f 5abf 0ddc 80bf
00000290: 42d9 4fbf b31a 6bc0 6c5f cfbe a6e9 2cc0
000002a0: d9b5 1ec0 7be1 25c0 a0f2 36c0 0b9b 2ac0
000002b0: d5b7 4cc0 8648 14c0 3a1a 8dbf 8cbb 4bbf
000002c0: bff9 dabf 9537 39c0 ccc2 54c0 91fd 0fc0
000002d0: f0da 83c0 9656 c4bf b0f6 5cc0 79b2 40c0
000002e0: 423b 3bc0 5506 5ec0 8964 40c0 0194 6dc0
000002f0: 3e21 50c0 bdaf cabf 18f7 a5bf 1a47 0cc0
00000300: 9e2d 6bc0 8b34 76c0 9098 25c0 1853 0540
00000310: 5396 58bf ee78 bd3f a118 853f fa2d d03f
00000320: 7f45 dd3f 7c47 523f ba10 e33f c889 293f
00000330: 65fe a63f bc1c e9be ca27 d43d ed7d d43f
00000340: 710b 0740 a106 e23e d03a 993f 04e6 91bf
00000350: 4827 bb3f cc13 753f 341c b03f e51a bc3f
00000360: 43e3 a03d 3859 b63f d43f 763e 1519 c73f
00000370: 0754 5cbf 6c15 143e db07 813f 7197 d83f
00000380: b0c1 0bba
1.3974276 -1.2589624 1.1435647 0.8225124 1.3460188 1.192294 0.48935825 1.5197064
0.3416898 1.3085504 -0.91953725 -0.08063834 0.83979833 1.2983037 0.19532731 2.1190164
-0.7748942 1.8652338 1.6318588 1.9780238 1.9487368 1.1403704 2.074737 1.0136788
2.0760622 -0.21677864 0.3425829 1.9784346 2.53277 0.8633548 -1.4391259 -1.4549855
-1.31188 -1.340069 -1.4403102 -1.1684693 -1.9203162 -1.8243022 -1.7209126 -0.4783752
-1.6134057 -1.9983039 -1.7462842 -1.4174677 -1.9987946 1.8684901 -1.1768787 1.5454186
0.7882317 1.602948 1.4530286 0.27404135 1.5969946 0.36586645 1.218009 -0.54125375
-0.019589026 1.2094327 1.7764568 0.2714694 1.8348258 -1.2751538 1.4033513 0.8580019
1.6990994 1.746597 0.41739482 1.7627798 0.64484936 1.4596477 -0.96945775 0.20239258
1.1063529 1.9227098 0.3758843 -1.7598814 -3.313302 -1.9419605 -2.1959116 -1.7923738
-1.5244957 -2.5166588 -1.8581176 -2.6452935 -1.6406629 -3.0829961 -3.0896778 -2.2071137
-1.6629885 -2.4125307 1.8394811 -0.91293484 1.7352282 1.2346098 1.7350272 1.8104175
0.7136758 1.4710244 0.73186404 1.8703367 -0.43486875 0.19684221 1.1740097 2.0235653
0.18641455 1.1240321 -1.4831109 0.6071783 0.35764018 0.9363038 1.1588095 -0.2605676
0.8547313 -0.17614268 0.3518362 -1.5845209 -0.35416895 0.4793079 0.91484064 -0.12833859
-1.2745066 -1.7734642 -0.99904245 -1.3050988 -0.8068417 -0.99376625 -1.7581393 -1.0888435
-1.6325094 -0.39426106 -1.7992328 -2.100182 -1.5306432 -0.9703222 -2.0934894 1.8221449
-0.9704574 1.4367907 1.2771202 1.3367131 1.2543081 0.8427854 1.6413174 0.697316
1.762547 -0.6522013 0.20454161 1.543917 1.5206245 0.72085786 -0.7225237 0.71842366
-1.7302157 -2.0489962 -2.0758424 -1.769332 -0.60815924 -0.584026 -0.96023697 -4.048899
0.5681269 -0.5212597 -0.85180366 -1.0067154 -0.81190884 -3.6735046 -0.4050249 -2.7017608
-2.479849 -2.5918872 -2.8585587 -2.665713 -3.1987202 -2.3169265 -1.1023629 -0.7958305
-1.7107466 -2.8940175 -3.3243895 -2.2498515 -4.120476 -1.5338924 -3.4525566 -3.010893
-2.9254918 -3.4691365 -3.0061362 -3.7121584 -3.252029 -1.5834881 -1.2966032 -2.1918397
-3.6746593 -3.846957 -2.5874367 2.0831966 -0.84604377 1.480253 1.0398141 1.6264031
1.7286834 0.82140326 1.773948 0.6622586 1.3046385 -0.45529735 0.10359152 1.660093
2.1100733 0.44145682 1.1971073 -1.139832 1.4621363 0.9573333 1.3758607 1.4695708
0.07855847 1.4245977 0.24047786 1.555453 -0.86065716 0.14461297 1.0080522 1.6921216
-0.0005331291

onnx::MatMul_41 f4 [15, 15]
00000000: 9b03 b73f 2f33 17bf c183 dc3f 1757 0f40
00000010: 48e3 9e3f 8f31 c93f 105c b0bf 62a2 8abf
00000020: 742d d2bf 965f ae3f d400 b53f 7b80 e53f
00000030: 85cb d93f 4e88 0940 9d33 d8bf 790b dc3f
00000040: cf5c d5bf 1f54 c83f 54ef f63f 8bd1 e23f
00000050: ec96 0240 9d7a 01c0 f9ac c1bf 2466 0cc0
00000060: a88c ed3f 8e59 de3f ea5c e43f 9486 d13f
00000070: c5bf db3f 111e ecbf 52fb 953f 6079 a63b
00000080: aae8 9b3f e2e0 b03f e99b 2d3f aae3 833f
00000090: d99c 51bf 123a 27bf 48b6 57bf 10a0 333f
000000a0: 817e 073f 67f1 953f d97f 803f 0cc6 8a3f
000000b0: ba58 09bf b236 0bbd 80de 583e fb22 8e3b
000000c0: 0daa fb3e ba1a 593d 0735 733e d112 86be
000000d0: 1208 ac3e 96f5 df3c 3853 ba3d b9fa 58ba
000000e0: daf0 1b3f f2f8 0c3e ae73 053f 7ca0 623e
000000f0: 91c9 223f 5432 ccbe eaf3 843f e698 b83f
00000100: 72c5 b53e 81a1 8c3f db81 6bbf d659 bcbe
00000110: 336f 70bf d623 423f 82b0 fe3e a7e2 ac3f
00000120: 4f95 813f bc35 ba3f 0262 58bf 9a33 483f
00000130: 722c 2ebe 45e1 373f 0a78 c93f 4cc8 373f
00000140: 2fdd 843f f15a 71bf 9b85 0bbf b572 89bf
00000150: 2e22 493f 2bd6 353f 1a42 823f 113d 433f
00000160: 2e8e 8a3f ff34 33bf a74f 963d a6d9 a43e
00000170: 4e5c 9d3e 65d4 313f 4174 4dbe 92b7 e93e
00000180: e990 f2be 7d0f 3ebe 2077 d1be e389 64bd
00000190: 8cbe eebb df9d f33e 2a96 523e a34c 283f
000001a0: 788d 1bbe e36a 5d3f 9b9b 07be 8fc4 933f
000001b0: 5605 c93f 03d0 b43e a8a8 8d3f fd74 45bf
000001c0: 87d5 e4be a3ca 8ebf dbee 5e3f bf01 1f3f
000001d0: f5b2 a43f 9e30 943f 8a06 ac3f ade9 24bf
000001e0: 1df4 953e 12ff f73e d802 953e 14fc c53e
000001f0: acd7 cfbe 5e47 923e 7560 60be 2a45 103e
00000200: 6688 d83d c609 d93d db3a 6bbd d19b 9a3e
00000210: dbf1 0f3e 5b79 9a3e 0ec0 3fbe 2366 873f
00000220: 3b78 dbbe 68ce 9f3f ccf8 7c3f 1e6c 1f3f
00000230: 84c8 853f 5c1a 77bf 0830 09bf 0584 85bf
00000240: c849 5e3f ab95 483f 6f40 aa3f 9b5a 243f
00000250: ed03 7b3f 8376 80bf 0617 ae3f fe0d 8abf
00000260: 83ca 9b3f 2348 c33f e8ea 803f c1fb 9a3f
00000270: e31c d1bf d0be bdbf 005a d6bf abbc 8c3f
00000280: 4dba 6d3f 8124 a53f 061a a63f c562 c83f
00000290: 62b0 c6bf 5c33 253f 6d31 cebd 1b4e 403f
000002a0: 882f 153f 4dd6 c13e 58f2 1d3f 4c7f 5dbf
000002b0: 5905 fabe 73e3 3ebf 20fd f33e 2c16 153e
000002c0: 7f8b 793f fe16 dc3e 4313 643f 9cc5 14bf
000002d0: 32d9 053f c6d3 153d 963e 6c3f 6285 a13f
000002e0: dad7 d03e 5149 753f c4b5 15bf 5708 c0be
000002f0: a32c 54bf 52aa 0b3f a5ee a73e e7fb 953f
00000300: ed2b 123f 9e29 5c3f 8fb5 37bf 086c af3f
00000310: 9d97 45bf 96c1 ae3f 357f eb3f d49f 8a3f
00000320: 4450 ee3f 8175 bcbf 1f80 a8bf 5b2d dcbf
00000330: 4989 a93f 315d 833f e70e d33f e9a7 d43f
00000340: 1bea 0440 be9e 91bf d385 e53d 758a 933e
00000350: 8c75 c1bc a86b ab3e 757f cdbc a765 073e
00000360: 87f5 e1bd 2085 18be 1184 8bbe 4c86 953c
00000370: cae0 adbe 3d3d 913e f6d1 133e b08d 113e
00000380: c341 acbe
1.4297975 -0.59062475 1.7227708 2.2396905 1.2413111 1.5718249 -1.3778095 -1.0830805
-1.6420121 1.362292 1.4140878 1.7929834 1.7015234 2.1489444 -1.6890751 1.7191001
-1.6668948 1.5650672 1.9291787 1.7720197 2.0404615 -2.0231087 -1.5130912 -2.1937342
1.855855 1.737108 1.7840855 1.6369195 1.7167898 -1.8446676 1.1717322 0.005080387
1.2180378 1.3818629 0.67816025 1.0303853 -0.81879956 -0.65322983 -0.84262514 0.7016611
0.52927405 1.1714295 1.0039016 1.0841689 -0.5365101 -0.03398771 0.21178627 0.004337666
0.49153176 0.053004004 0.23750697 -0.2618623 0.33599907 0.027338784 0.09097904 -0.00082771067
0.60914385 0.1376684 0.5212964 0.22131532 0.63588816 -0.39882147 1.0386937 1.4421661
0.355022 1.0986787 -0.9199502 -0.3678729 -0.93919677 0.7583593 0.4974404 1.3506669
1.012369 1.4547648 -0.8452455 0.7820374 -0.17009142 0.7182811 1.5739758 0.71790004
1.038 -0.9427939 -0.5450074 -1.0738131 0.7856778 0.7102992 1.0176423 0.76265055
1.082464 -0.7000274 0.07339411 0.32197303 0.30734485 0.69464713 -0.20063879 0.45647866
-0.47376183 -0.18560596 -0.40911198 -0.05579556 -0.0072858986 0.47581384 0.20565096 0.6574194
-0.15190685 0.8649122 -0.13242953 1.154436 1.5704753 0.3531495 1.1067095 -0.77131635
-0.44694158 -1.115559 0.87083215 0.6211204 1.2867113 1.1577337 1.3439496 -0.6441906
0.29287806 0.4843679 0.29103732 0.38668883 -0.40594232 0.28570074 -0.21911795 0.14088884
0.10572891 0.10597567 -0.057429176 0.30197003 0.14057104 0.30170712 -0.18725607 1.0578045
-0.42865166 1.2484865 0.98817134 0.6227435 1.0451818 -0.96524596 -0.53588915 -1.0430914
0.8683133 0.78353375 1.3300914 0.6420075 0.98052865 -1.0036167 1.3600776 -1.078552
1.2171177 1.5256389 1.0071688 1.2108079 -1.633694 -1.4823856 -1.6746216 1.0995077
0.928624 1.2901765 1.2976692 1.5655142 -1.5522578 0.64531493 -0.10068021 0.7511918
0.5827565 0.3785881 0.6169791 -0.86522365 -0.48832205 -0.7456581 0.47654057 0.14559239
0.9747848 0.42986292 0.8909189 -0.5811403 0.5228454 0.036578916 0.92283 1.261883
0.40789682 0.95814997 -0.5848048 -0.37506363 -0.8288061 0.54556763 0.3279926 1.17175
0.57098275 0.86001 -0.7176141 1.3704844 -0.7718447 1.3652828 1.8398196 1.0830026
1.8618245 -1.4723359 -1.31641 -1.7201341 1.3245021 1.0262815 1.6488923 1.6613742
2.0767887 -1.1376569 0.112071656 0.28816572 -0.023615621 0.33480573 -0.02508519 0.13222371
-0.11033159 -0.14894533 -0.27249196 0.018252514 -0.33960563 0.28367034 0.14435562 0.14214206
-0.33643922

onnx::MatMul_42 f4 [15, 1]
00000000: ee90 53bf 934a 863e 1a18 50bf 1e3f 86bf
00000010: dedf 75bf 850c 7cbf b0ac 6a3f 868b c23e
00000020: 1e38 1c3f 73f3 6ebf 2b1c 84bf 10ac 7bbf
00000030: 0790 83bf 282a 63bf 189c 193f
-0.8264302 0.2622877 -0.81286776 -1.0488012 -0.9604472 -0.98456603 0.9166975 0.37997073
0.6102313 -0.93340224 -1.0321096 -0.9830942 -1.0278329 -0.887362 0.60003805
