onnx/myModel_HL3_HD15_549.onnx (onnx, 4793 bytes, 9 tensors)

net.0.bias f4 [15]
000000 05 c4 22 c0 6a 0b 0f c0 64 2d 14 c0 7b 25 4f c0
       -2.543214 -2.2350717 -2.3152704 -3.2366626
000010 7a 7e 62 40 6c 89 3f c0 69 20 27 40 ea 97 f6 3f
       3.5389695 -2.9927626 2.6113532 1.926511
000020 fd 5b 76 3c e0 bd 31 c0 76 e8 1c 40 20 e1 09 c0
       0.01503658 -2.777214 2.4516883 -2.1543655
000030 72 58 29 40 25 16 45 40 2e ab 38 40
       2.6460233 3.0794766 2.885448

net.2.bias f4 [15]
000000 df c1 17 be 86 b6 98 be d1 d6 ca 3e 57 fe 03 3e
       -0.1482005 -0.29826754 0.39617017 0.12889992
000010 83 fc 9f 3c 66 b9 8b 3e 08 d4 a9 bf 06 ca d4 3e
       0.019529587 0.27289885 -1.3267832 0.41560382
000020 93 4d f8 3e 94 2e 27 3f 2b 1d 81 3f da 78 14 3f
       0.48496684 0.6530545 1.0087026 0.57996905
000030 5b 5e 13 bf 2e 06 1b 3f 3d d0 98 be
       -0.5756585 0.60556304 -0.29846373

net.4.bias f4 [15]
000000 09 9c 78 bf e4 a5 51 be 7b ff 28 bf e5 db a1 be
       -0.9711309 -0.20473439 -0.6601483 -0.3161308
000010 fe 18 ad bf de 23 20 be 2d a7 bd bf de b1 ca bf
       -1.3523252 -0.15638682 -1.4816643 -1.5835531
000020 5d 1f 51 bf 6f 5e 41 bf d7 c3 6f bf 20 04 85 bf
       -0.8168848 -0.7553472 -0.936582 -1.0391884
000030 7c 06 c8 bd 14 93 ee be 24 ad 52 3e
       -0.09766862 -0.46596587 0.2057386

net.6.bias f4 [15]
000000 f6 0b 70 3d da f4 12 3e 27 d8 fe bd 8b 5f 1b be
       0.058605157 0.14351216 -0.124435715 -0.15173166
000010 b0 1a 83 bf a1 83 e6 3e 62 80 2b bd 3f e4 83 3e
       -1.0242519 0.450223 -0.041870482 0.25760075
000020 6a 8b 8c bf 55 ca 88 3e a1 cf c4 3e 3b 1e 74 bf
       -1.0980046 0.26716867 0.38439658 -0.9535863
000030 ec 00 41 3c cf bb 1b bd f4 8d 92 bf
       0.011780005 -0.038020905 -1.1449571

onnx::MatMul_31 f4 [2, 15]
000000 5d e0 41 bf 6f 4a c9 bf 3f c0 b4 3e ba 14 9b 3f
       -0.75732976 -1.572584 0.35302922 1.21157
000010 79 dd 77 40 be 63 09 c0 f2 8c 74 c0 0e 76 04 c0
       3.8728926 -2.1467128 -3.8211026 -2.0697055
000020 02 fc 75 c0 ca c2 2a c0 39 81 cd 3f 89 4a 80 3f
       -3.8435063 -2.668139 1.6055061 1.0022746
000030 dc 5e 4d bf ed 55 8b 3e af 8e fe 3d 1c a1 d5 3f
       -0.8022287 0.27213994 0.124295585 1.6689792
000040 0e b1 8c be 43 9f cf 3f a7 11 fc bd 9d fd 48 c0
       -0.27478832 1.6220478 -0.123080544 -3.1404793
000050 68 34 74 3f 00 7e 3a be ca 36 33 3f f4 dd 9f 40
       0.95392466 -0.18212128 0.70005476 4.995844
000060 f3 fd 5f 3f d8 5b ad 3f c3 36 3e 3f ce 3b bf 3f
       0.8749687 1.3543653 0.7430231 1.4940126
000070 ce e1 b4 3f 0e 31 b5 3f
       1.413141 1.4155595

onnx::MatMul_32 f4 [15, 15]
000000 9d ce 79 be 29 6c 5e bf 31 90 c1 3f 93 ea 00 3f
       -0.24395223 -0.8688379 1.5122129 0.5035793
000010 f8 0d 46 40 75 6d c6 3e 47 1b 1e 3f 65 47 30 40
       3.0946026 0.38755384 0.6176037 2.7543576
000020 3e ed 89 3f 06 62 ae 3f bf d1 75 3e c2 4b 20 40
       1.0775526 1.3623664 0.24005793 2.504624
000030 8a cb 6a bf d4 b2 1a 40 45 17 f0 bd 62 dc 7e bf
       -0.91716826 2.4171648 -0.11723188 -0.9955503
000040 fc 28 c9 bf 64 24 e0 3f 23 75 54 3f 22 c5 d7 3f
       -1.5715632 1.7511106 0.82991236 1.6857035
000050 21 18 e9 3f 2c 57 fb bf 6c 51 ab 3f 5b e0 2e 40
       1.8210489 -1.9635978 1.3384223 2.7324436
000060 03 28 03 40 ce 65 0d 40 51 5b f6 3f 68 66 2f c0
       2.0493171 2.2093387 1.9246618 -2.7406254
000070 6a a1 08 40 af 34 a4 40 4d 55 0e bf c7 f6 05 c0
       2.134852 5.131431 -0.5559891 -2.093187
000080 c4 02 3f 40 52 b9 01 40 83 d6 fa 3f 74 d5 03 40
       2.9845438 2.026936 1.9596714 2.0599031
000090 c0 cd ea 3e 81 af d6 3f b6 30 d1 3f 0b 6f a1 3f
       0.458601 1.677231 1.634299 1.2612013
0000a0 2c 0e d0 3f 39 5f ee 3f c2 9f ac bf 85 17 c8 3f
       1.6254325 1.862281 -1.3486254 1.5632178
0000b0 5e fc 42 3e 28 40 c5 3f 3c f3 1e c0 47 6d 4d 40
       0.19041583 1.5410204 -2.4835958 3.2097948
0000c0 3e 5d 52 40 3a c1 01 40 1a 69 48 40 a9 f9 f6 bf
       3.286941 2.0274186 3.131415 -1.929494
0000d0 5e da da 3f d0 99 42 40 16 75 71 40 f0 14 3f 40
       1.709789 3.040638 3.7727714 2.985653
0000e0 3e 8c 25 40 e3 c0 df bf 97 55 08 40 3e 89 77 40
       2.5866847 -1.7480739 2.130224 3.8677516
0000f0 e8 c3 00 bf 27 be a2 3f cf e5 0f 3e a5 69 01 c0
       -0.5029893 1.271428 0.14052509 -2.022073
000100 a5 a6 96 3f fe c9 a8 3c f4 81 87 bf 04 07 85 3f
       1.1769606 0.02060413 -1.0586534 1.0392766
000110 87 fa 73 3e 0d c3 76 3e 28 26 be 3d 9e a0 1b 3f
       0.23826037 0.24097843 0.092846215 0.6079196
000120 f8 16 12 3e 8b 58 30 3f 79 44 0d 3f 46 db 5d 3f
       0.14266574 0.68885106 0.55182606 0.8666271
000130 c7 ab 28 bf 51 22 e3 3e 77 0e 34 3f 32 c9 16 3f
       -0.6588711 0.4436212 0.7033457 0.5890075
000140 dc c3 6f 3f 4d 43 cc 3f 6f 33 70 3f 33 d3 bf 3f
       0.9365823 1.5958039 0.9382848 1.4986328
000150 0b d0 d9 3f de 32 af 3f 0a 1a 85 3f 7d bc b4 bf
       1.7016615 1.3687398 1.0398571 -1.4120022
000160 f2 5f be 3f 4f 6f b5 40 e8 94 47 be f0 08 23 be
       1.487303 5.6698375 -0.19490397 -0.15921378
000170 83 69 4e bf be bc 88 bf 6b 94 c9 bf 92 54 b8 bf
       -0.8062975 -1.06826 -1.5748419 -1.4400809
000180 07 2d 61 bf 35 7c a8 bf a1 7c 93 3e c1 b6 8b 3e
       -0.8795933 -1.3162905 0.28806022 0.27287868
000190 07 dc 02 3d b6 32 a5 be 9e ba 4c bf af 5e 7b bf
       0.031948116 -0.32265252 -0.79972255 -0.9819135
0001a0 78 0a da 3f a7 3d e1 3d e5 d6 f2 3e 2e 79 fd be
       1.7034445 0.109980874 0.47429577 -0.49506515
0001b0 04 0d dc bf e0 a6 be 3d 06 b0 5d bf 3e e0 35 3f
       -1.7191472 0.09309173 -0.86596715 0.7104529
0001c0 8c d3 8e 3d 86 b4 82 bf b0 d7 ac bf d2 df 5a bf
       0.06973943 -1.0211341 -1.3503323 -0.8549777
0001d0 76 3a 9d 3e 57 96 06 3e 9e b9 5d 3d d6 8d 45 bf
       0.30708665 0.13143288 0.054132096 -0.7716955
0001e0 dc 24 98 bf 9c 19 44 be 69 21 74 3f b2 c8 91 3f
       -1.1886249 -0.19150394 0.9536348 1.1389372
0001f0 4b f0 19 bf ed 7a 6d 3f 33 15 af bf 72 ec 33 bf
       -0.6013228 0.92765695 -1.3678344 -0.7028266
000200 e2 b0 0a bf d5 e8 73 bf bf 78 7c 3e 20 7c a0 bf
       -0.5417615 -0.9527715 0.24655436 -1.253788
000210 0e 0f e9 be 90 35 b0 be f5 8f 12 c0 ce 5d ba 3f
       -0.45519298 -0.34415865 -2.2900364 1.4559877
000220 aa 8b 6e bf 44 2a 3e 3f 3e c4 19 3f cd 36 35 3f
       -0.9318186 0.7428324 0.60065067 0.70786744
000230 4f c1 a0 3f 0a 60 d5 3f 96 a6 6f 3f ef b2 b8 3f
       1.2558993 1.6669934 0.93613565 1.4429606
000240 45 0f d7 3f 26 3e 84 3f 01 01 b3 3f 51 ee b7 bf
       1.6801535 1.0331466 1.3984681 -1.4369603
000250 83 c3 d6 3f 48 ab f2 40 e8 3b 89 3f 31 4a 21 3f
       1.6778415 7.5834084 1.0721407 0.6300383
000260 a5 6e 85 bf bc 9e d5 be a5 35 aa bf f4 a6 86 bf
       -1.0424391 -0.41722667 -1.3297621 -1.05197
000270 30 21 e9 3e 26 44 92 bf b8 ff a3 bf ed 72 2f bf
       0.45533133 -1.1427047 -1.2812414 -0.6853474
000280 fe 40 29 bf 28 a6 4d bf 4e 70 cc 3f ac 68 a7 bf
       -0.66114795 -0.8033166 1.5971773 -1.3078818
000290 c0 62 00 bf fb eb 95 bd 70 3d ad bf 8f a3 f3 3f
       -0.5015068 -0.073204 -1.3534374 1.9034289
0002a0 b2 6d d6 3f 6a 62 5b 3f d7 57 bf 3f 8d 0c 27 3e
       1.6752226 0.8569704 1.4948682 0.16313381
0002b0 35 69 74 3f 0a 5f 7d 3f 26 28 7a 3f 1d ed b5 3f
       0.95473033 0.98973143 0.9771751 1.4212986
0002c0 13 06 a8 3f 5b 2f 37 bf 77 3e 76 3f ee 09 96 3e
       1.3126854 -0.71556634 0.96189064 0.2930445
0002d0 eb ca 43 3f f9 0f a9 3f 35 b2 7d bf 16 cd 43 bf
       0.76481503 1.3208 -0.9910005 -0.7648481
0002e0 4e 99 6f bf 3d 2a 21 bf e8 e6 e9 3f 38 dd 94 bf
       -0.935933 -0.62955076 1.8273592 -1.1630011
0002f0 80 1e cf bf 89 41 f5 bf 97 df ae bf f7 7a be bf
       -1.6181183 -1.9160625 -1.3661984 -1.4881276
000300 b9 a4 a4 3f 1b e4 84 bf 05 fa c6 be ac 17 57 3f
       1.2862769 -1.0382112 -0.38862625 0.84020495
000310 99 a6 d3 3f d4 c3 64 bf 38 83 87 bf 33 4c 9b bf
       1.6535217 -0.8936131 -1.058692 -1.2132629
000320 85 8b 36 bf 6e 85 f7 3f 72 71 9b bf ef 7d 92 bf
       -0.7130664 1.9337595 -1.2143996 -1.1444682
000330 0a ff cb bf a5 b7 c5 bf 1e 63 e4 bf 79 32 eb 3f
       -1.5937207 -1.5446669 -1.7842748 1.8374778
000340 d1 0f b4 bf b3 b2 34 bf 3c 70 58 3f 6f 63 a0 3f
       -1.4067327 -0.70585173 0.84546256 1.2530345
000350 f7 c0 2d bf dd f2 4c bf bb 75 b8 bf 03 46 09 bf
       -0.67872566 -0.8005808 -1.4410928 -0.53622454
000360 03 d9 fe 3f a6 5e a0 bf 02 17 ba bf 71 11 a9 bf
       1.9909977 -1.2528884 -1.4538271 -1.3208448
000370 b3 5f b2 bf 68 9c b1 bf 21 4c ba 3f 75 5e 6a bf
       -1.3935455 -1.3875856 1.4554483 -0.9155038
000380 69 5f 22 bf
       -0.63426834

onnx::MatMul_33 f4 [15, 15]
000000 d0 d2 2c bf 54 4e 13 3f 6a 62 1c bf 77 18 95 3c
       -0.67509174 0.57541394 -0.6108767 0.018200142
000010 b3 f8 5a bf 32 06 29 3e 26 c9 cd bf 85 a3 e0 bf
       -0.85535735 0.1650627 -1.6077011 -1.7549902
000020 44 31 8d bf dd 82 46 bf 51 1c 4e bf 5d a5 42 bf
       -1.103066 -0.7754343 -0.8051196 -0.76033574
000030 25 cf 43 be b7 ab 98 be 69 29 07 be 90 2f 15 c0
       -0.19121988 -0.29818508 -0.1319939 -2.331028
000040 ed bb 00 bf 58 56 b7 bf ea 80 7c bf 79 20 20 c0
       -0.5028675 -1.4323225 -0.9863421 -2.501982
000050 a4 90 6d bf c9 e9 d8 bf a9 ce ab bf 7e 3f 1a c0
       -0.9279883 -1.6946346 -1.3422443 -2.4101253
000060 4e a1 08 c0 d5 b3 cf bf c9 3e d2 bf 0e 6d 94 bf
       -2.1348453 -1.6226755 -1.642541 -1.1595781
000070 99 30 b3 bf e2 c1 9a be e2 36 da 3f dd 96 49 3c
       -1.3999206 -0.30226046 1.7047999 0.012304035
000080 aa f2 85 3f 85 0f 9d 3e f2 81 df 3f f4 1e 88 3f
       1.046468 0.30675903 1.7461531 1.0634446
000090 f9 dd 20 40 b7 ce af 3f 94 52 ce 3f d9 48 e1 3f
       2.5135481 1.3734959 1.6118951 1.7600356
0000a0 d8 9a a9 3f 39 b8 af 3f e8 a9 3b 3f bf 73 a2 3f
       1.325038 1.3728095 0.7330613 1.2691573
0000b0 de c9 f7 be 2a c6 13 40 db d2 00 40 89 84 9b bf
       -0.483962 2.30897 2.0128696 -1.2149822
0000c0 26 97 13 40 02 72 1b 40 ec d7 4b 40 e4 f3 53 be
       2.3061004 2.4288335 3.1850538 -0.20698506
0000d0 96 f8 8c bf 39 8a 47 40 66 ee 4d 40 e5 84 2d 40
       -1.1013362 3.1178114 3.2176757 2.7112362
0000e0 ec 00 8d bf 3c b9 33 40 e7 67 3a 40 e3 96 93 3f
       -1.1015906 2.8081808 2.9125917 1.1530422
0000f0 2b 2d ab 3e c9 e7 4c bf ac a0 30 40 b4 06 56 bf
       0.33432898 -0.80041176 2.7598066 -0.8360398
000100 5b 5c ed 3e 6f b8 9e bf 7e 7c 3f 40 e6 26 30 40
       0.46359524 -1.2400035 2.9919734 2.7523742
000110 62 27 d6 3e 36 15 3b bc 77 fc 46 3d 58 68 2f 40
       0.41826922 -0.011418631 0.048580613 2.7407436
000120 75 53 6c bf 61 64 1b bf 44 88 84 bf 5d 2c 87 3f
       -0.92314845 -0.6070004 -1.0354085 1.0560414
000130 5f a2 9d be e2 8f f6 3e b5 74 3c 3f 87 e7 a4 3f
       -0.30787942 0.4815665 0.7361558 1.2883157
000140 14 28 af 3f 8f bf 2e 40 69 e9 b1 3f fe 5b ca 3f
       1.3684106 2.7304418 1.3899356 1.5809324
000150 3e f9 d4 3f 5d 32 a8 3f f6 0d 5c 3f 29 b0 71 3f
       1.6638563 1.314037 0.859588 0.94409424
000160 79 e1 8b 3f 47 72 d3 be f9 3c e2 bf 9f e3 da bd
       1.0928184 -0.41298124 -1.7674857 -0.106879465
000170 54 40 6e bf 1a a5 07 bf 3f 1a f1 bf b2 9e b1 be
       -0.93066907 -0.529863 -1.8836135 -0.34691387
000180 d4 8f be bf f9 70 aa bf 6e 1e de bf 05 b0 b1 bf
       -1.4887643 -1.3315727 -1.7353036 -1.3881842
000190 b3 ab a9 bf da 2f 8e bf d2 05 d9 be 0f 66 70 bf
       -1.3255523 -1.1108353 -0.42387253 -0.9390573
0001a0 76 fc 9e be af 4f 07 3f b1 1c c0 3e 6c f4 11 40
       -0.31051987 0.5285596 0.3752189 2.2805433
0001b0 75 50 f3 be f5 b5 0a 3f ef 95 c0 bf f0 00 14 40
       -0.4752232 0.54183894 -1.5045756 2.3125572
0001c0 73 bb 27 40 31 0d 5c 3e e4 1f 12 be b5 98 0d 3e
       2.620816 0.21489407 -0.14269978 0.13827784
0001d0 e1 5c 1a 40 4d 86 5e bf 2b f9 8a be 50 d1 e9 bd
       2.4119189 -0.86923677 -0.27143225 -0.11416876
0001e0 66 7f 11 40 19 a1 6a 3f ce 21 ae 3f 48 f7 56 3f
       2.2734008 0.91652066 1.3604066 0.8397107
0001f0 ee e4 16 40 6c 37 0e 3e 60 e0 2f 40 12 d0 10 40
       2.3577228 0.1388833 2.7480698 2.2626996
000200 66 dd c5 3f 1c 1b bd 3f c9 98 e7 3f 08 83 e3 3f
       1.545819 1.4773898 1.8093501 1.7774363
000210 fa b8 50 3f d7 57 9c 3f 25 e5 0f 3f 05 87 11 40
       0.8153225 1.2214307 0.5620902 2.273866
000220 10 32 ef 3f cb 65 56 3f 19 4c 32 3f 7f 83 30 40
       1.8687153 0.83749074 0.69647366 2.758026
000230 67 39 63 bf fc 59 0a 40 3a 5b fc 3f ea ee ba 3f
       -0.88759464 2.1617422 1.971534 1.4604161
000240 67 fa 83 3f c6 42 a2 3f 05 4b e8 3f e0 2f 37 3f
       1.0310792 1.2676628 1.8147894 0.71557426
000250 b3 63 08 3f f5 12 96 3f b8 89 01 40 bc 81 b5 3f
       0.5327713 1.1724535 2.0240307 1.4180217
000260 ae 1b 9f 3e 3a 7a 9d 3f 06 21 12 40 f6 f9 cc 3f
       0.31075805 1.2302926 2.2832656 1.6013782
000270 4e a8 10 40 e7 38 83 3f d0 c4 02 40 53 fe ed 3f
       2.2602725 1.025174 2.0432625 1.8593239
000280 df d9 f2 3f aa 36 27 3f 19 ca c4 3f 8d 1e c5 3f
       1.8972739 0.65317786 1.5374175 1.5399948
000290 2d 9a c1 3f 15 e5 c3 3f 69 a4 aa 3f 28 aa 38 40
       1.5125176 1.5304285 1.3331424 2.8853855
0002a0 41 27 8b bd 6d 50 df 3f a1 29 04 c0 b9 11 fc 3f
       -0.067945965 1.7446419 -2.0650408 1.9692909
0002b0 51 fd 26 40 62 45 63 3f a0 26 0c 3e 5b 93 22 3f
       2.6092112 0.88777745 0.1368661 0.63506097
0002c0 16 61 21 40 58 13 da be b6 a8 3c be 53 97 7c 3f
       2.5215507 -0.42592883 -0.18423733 0.986684
0002d0 9d 66 09 c0 2e 14 b0 be 42 a2 da bf e6 20 4e bf
       -2.146888 -0.34390396 -1.7080767 -0.8051895
0002e0 9a 0f 04 c0 c2 63 12 bf 4a a9 e5 bf 1e 69 be bf
       -2.0634522 -0.5718347 -1.7942288 -1.4875829
0002f0 76 79 07 c0 ba be d9 bf e2 32 e8 bf c7 3c fa bf
       -2.1167884 -1.701133 -1.8140528 -1.9549798
000300 43 c7 63 bf 18 50 9a bf 93 51 03 bf e7 87 69 3f
       -0.88975924 -1.2055693 -0.5129635 0.91222996
000310 c6 17 09 3f 6c 1b 0c 40 c7 a2 06 bf 39 c1 43 3f
       0.535519 2.1891737 -0.5259213 0.7646671
000320 4e b7 6a bf 12 87 24 40 35 a9 05 40 18 76 d4 3e
       -0.9168595 2.570744 2.0884526 0.41496348
000330 b4 12 ff 3e e3 93 11 3f 32 09 0e 40 b1 31 20 bf
       0.49818957 0.5686628 2.2193112 -0.62575823
000340 e9 c2 8f be a2 a2 d1 be f4 50 aa bf c4 2c 3d 3f
       -0.28078392 -0.4094439 -1.3305955 0.7389643
000350 fb 99 41 40 25 f2 ed bf b8 28 aa bf 3f e0 1b c1
       3.0250232 -1.8589522 -1.3293676 -9.742248
000360 97 35 89 bd af c9 ae 3f ca 22 c8 bf 84 f0 15 c0
       -0.066996746 1.3655299 -1.5635617 -2.342805
000370 b8 5e dc bf f5 7f b1 3f ec c8 2b c0 e3 6c 14 c0
       -1.7216406 1.3867174 -2.6841383 -2.319146
000380 cf 4a 0f 3f
       0.55973524

onnx::MatMul_34 f4 [15, 15]
000000 4c 67 1b 40 ee c7 af 3f 6e ef 91 3f 6d 7f 43 3e
       2.4281797 1.3732889 1.1401193 0.19091578
000010 70 02 2a be 87 ac b2 3f 1f 63 16 40 ac c1 ee 3f
       -0.16602492 1.3958901 2.3497999 1.8652854
000020 1a 3d eb be a6 a1 5c 3f 8a a4 9d 3f b0 a3 40 bf
       -0.45945054 0.86184156 1.2315838 -0.7524977
000030 d0 0a 0d 40 71 9d b7 3f 39 50 8e 3e 72 f0 60 3f
       2.203785 1.4344922 0.2779558 0.8786689
000040 a8 8c 1a 3f bb d3 46 3f b1 a8 ab bf e3 c6 e3 3e
       0.60370874 0.77666825 -1.3410856 0.44487676
000050 2a 5b 25 3f ce 03 47 3f 90 6d 93 3e 09 0f f3 3e
       0.6459223 0.7774018 0.28794527 0.47472408
000060 90 06 47 3f 1d 3c 07 3f 92 ed 61 3f ee 5d f1 3e
       0.7774439 0.528261 0.8825313 0.47141975
000070 6e 87 00 3f d6 c1 79 bf cc f9 fd bf 2f 71 bf bf
       0.5020665 -0.97561395 -1.9841857 -1.4956416
000080 3b f8 ee bf 33 a0 a5 bf 49 c8 71 3f 21 33 c2 bf
       -1.8669504 -1.2939514 0.94446236 -1.5171853
000090 35 ee ed bf 0f 73 15 c0 3b 50 9f 3f 93 a8 91 bf
       -1.858832 -2.3351476 1.2446359 -1.137957
0000a0 e9 d4 02 c0 94 7d d7 3f 1d ff f2 bf fc e0 03 c0
       -2.044245 1.6835198 -1.8984104 -2.060607
0000b0 8c a7 a7 3e 3a 12 26 3f 24 4b 4d 3f 1f bc 77 3f
       0.32745016 0.6487156 0.8019278 0.96771425
0000c0 cb da a5 3d 32 22 11 bf 5f ae 0f 3f eb cd d8 3e
       0.08098372 -0.566928 0.56125444 0.42344603
0000d0 cb 24 74 3f b8 9a 31 bf a8 a9 48 3e 69 bc 91 3f
       0.9536864 -0.6937671 0.19595969 1.1385623
0000e0 8c 76 93 bf 45 b8 80 3f 9f d9 9b 3f 01 91 1c 3f
       -1.1520553 1.0056235 1.2175788 0.6115876
0000f0 76 c9 3c 40 8d f3 dd 3f bd 38 d9 3f 52 dd 65 be
       2.9497962 1.7339951 1.697044 -0.22447708
000100 79 cb a4 be 87 ff bf 3f ab 17 2f 40 4f e9 1e 40
       -0.32186487 1.4999856 2.7358196 2.48299
000110 13 4c 25 be ca 01 c0 3f b3 c8 d0 3f 52 f0 05 bf
       -0.16142301 1.5000546 1.6311249 -0.52319825
000120 2f 62 4a 40 3a 6e f9 3f 15 94 e6 bd 54 43 76 3f
       3.1622427 1.9486763 -0.11258713 0.96196485
000130 2e b0 72 3f 38 2e c1 3f d3 b3 e9 3f 90 06 24 c0
       0.9480008 1.509223 1.8258003 -2.5629005
000140 74 02 86 3f 68 60 5c 3f 6e 45 e8 3f 67 d2 0d c0
       1.0469499 0.86084604 1.8146188 -2.215967
000150 05 5e 06 3f bf 5b d1 3f f3 43 3f c0 11 8e 49 3f
       0.5248721 1.6356124 -2.9885223 0.787324
000160 fc c5 b8 3f 0a 9f 84 40 09 d6 0f c0 01 8f 13 c0
       1.443542 4.144414 -2.2474387 -2.3056033
000170 85 65 0b c0 76 ca d2 3e 66 6d 21 3f 1a 52 1d c0
       -2.1780713 0.4117009 0.63057554 -2.458136
000180 7e 77 15 c0 1a 57 0a c0 72 93 e8 3e 8e 07 2f c0
       -2.3354182 -2.1615663 0.45424992 -2.734836
000190 2e e5 18 c0 ee 75 1d 3f 98 18 01 c0 70 39 04 c0
       -2.388988 0.6150807 -2.017126 -2.0660057
0001a0 fb dd 55 40 9a 79 17 c0 e8 ee 04 c0 28 8b 10 c0
       3.3416736 -2.366797 -2.0770817 -2.2584934
0001b0 fc 8e 2c 3d 27 85 89 3f 42 c9 0a c0 d4 e3 13 c0
       0.042128548 1.074376 -2.1685338 -2.3107805
0001c0 1e 7e 1e c0 e2 4d 9d 3f b3 e9 01 c0 7f fc 0b c0
       -2.4764476 1.2289393 -2.0298889 -2.1872861
0001d0 00 7f bb 3f 1b 50 1b c0 cb 40 19 c0 e6 30 01 40
       1.4648132 -2.4267642 -2.3945796 2.0186095
0001e0 78 01 0b 40 66 2d af 3f f6 7a b5 3f ab 93 52 3f
       2.1719646 1.368573 1.417815 0.82256573
0001f0 f3 fe 80 bf 27 b4 ad 3f 9e f2 09 40 18 d2 f3 3f
       -1.0077804 1.3570603 2.1554332 1.904849
000200 07 4c 9a bf 3a a1 86 3f f7 b3 d3 3f d2 68 fa bf
       -1.2054452 1.0517952 1.6539296 -1.9563239
000210 ae 96 1c 40 57 45 0d 40 15 72 f7 3e 08 e2 fe 3f
       2.4466968 2.2073572 0.48329225 1.9912729
000220 56 ca df 3f e1 25 ed 3f e3 1f 98 3f 6f b8 7c bf
       1.7483623 1.8527185 1.1884731 -0.98718923
000230 28 82 df 3f ec 9d e6 3f d7 86 04 40 27 16 91 bf
       1.7461596 1.8016944 2.07073 -1.1334885
000240 70 4d 89 3f c8 70 ce 3f 4e 1d f4 bf e3 68 0e 40
       1.0726757 1.6128168 -1.9071443 2.2251518
000250 ca c9 e7 3f 6f 5b 9d 3f 1c 93 c5 3f 41 fa 97 3f
       1.8108456 1.2293528 1.5435519 1.1873246
000260 15 d5 a8 3f b2 be 04 3f 42 a8 15 bf d4 06 82 3f
       1.3190027 0.5185348 -0.58459866 1.0158334
000270 76 7d d6 3f 10 fd c3 3f dd d3 30 bf 4a 26 17 3f
       1.6757038 1.5311604 -0.6907328 0.590428
000280 41 66 ae 3f fd 6f 8a bf a6 23 b0 3f 33 2c b5 3f
       1.3624955 -1.0815426 1.3760879 1.4154114
000290 41 b5 9d 3f d1 6e 01 c0 47 0e 06 c0 2c 09 e7 bf
       1.2320939 -2.0223887 -2.0946214 -1.8049674
0002a0 e9 12 0f bf 2b f2 43 3f 3b ac f9 bf 3b 04 cf bf
       -0.5588823 0.76541394 -1.9505686 -1.6173166
0002b0 11 04 12 c0 46 96 51 3f 89 10 cf bf 03 a5 0b c0
       -2.2814982 0.81869924 -1.6176921 -2.1819465
0002c0 70 c8 6f 3f 62 d0 02 c0 f0 6f 05 c0 90 e6 8c 3f
       0.9366522 -2.0439687 -2.0849571 1.1007862
0002d0 5a d1 83 3f 0c 4b 73 3f bd 76 90 3f 06 0d 80 3d
       1.0298264 0.9503639 1.1286236 0.06252484
0002e0 6a bc 56 bf b2 ac 1c 3f 23 01 4f 3f 97 f8 bf 3f
       -0.8388125 0.6120101 0.8086111 1.4997739
0002f0 cc 70 55 bf 97 6e b3 3e 29 7f b6 3f c8 37 98 bf
       -0.8337524 0.3504531 1.4257556 -1.1892023
000300 72 c4 5b 3f ca f5 b2 3f 6c 30 a0 3f 9b 69 7c 3f
       0.85846627 1.3981259 1.2514777 0.9859864
000310 1a 2a 6e 3f c9 b5 a1 3f d9 01 05 3f f8 ec 0e bf
       0.9303299 1.2633601 0.51955944 -0.55830336
000320 ea 8b 85 3f 1c ec 83 3f ec 08 a6 3f 93 df 56 bf
       1.0433323 1.030643 1.2971473 -0.839349
000330 e8 7a b5 3e d2 bb b8 3f 13 9e 9e bf 39 41 86 3f
       0.35445333 1.4432318 -1.239199 1.0488654
000340 ed 09 9d 3f 24 34 d0 3f a6 8c 10 3f 74 cf 00 3d
       1.2268654 1.6265912 0.5646461 0.031447843
000350 25 7c 90 bd cd 92 4d bd 73 71 a2 bf eb e0 4e be
       -0.07054929 -0.05018883 -1.2690872 -0.20202987
000360 0f 7d fb 3e 73 c8 bc 3e 09 3a 99 bf 65 5c 7f 3c
       0.4911885 0.3687168 -1.1970836 0.015585993
000370 53 f2 b9 3d 98 cf 4d bf f9 df 0e 3f 50 ed 91 3e
       0.09079423 -0.8039489 0.55810505 0.28501368
000380 f3 f3 ac bd
       -0.08444967

onnx::MatMul_35 f4 [15, 1]
000000 45 fb 2a c0 8a 44 ba bf 0f b1 d1 bf 39 5b 43 3f
       -2.6715863 -1.4552166 -1.6382159 0.7631107
000010 61 97 bb be 3f 40 b8 bf d1 8a 0c c0 57 73 19 c0
       -0.3663893 -1.4394606 -2.1959727 -2.3976648
000020 07 bb f4 be 5d 4f b2 bf 17 ef f9 bf 91 0e 56 bf
       -0.4779894 -1.393047 -1.952609 -0.83615977
000030 e7 e0 1f c0 2c a6 fd bf 31 1c 21 3f
       -2.498102 -1.9816337 0.6293364
