onnx/myModel_HL3_HD15_999.onnx (onnx, 4793 bytes, 9 tensors)

net.0.bias f4 [15]
000000 e3 78 2e c0 97 da 19 c0 98 6a 12 c0 f0 fe 4e c0
       -2.7261283 -2.4039667 -2.287756 -3.2343102
000010 5e 1c 5d 40 de 94 57 c0 69 15 34 40 8c e0 26 40
       3.4548564 -3.3684611 2.8138068 2.6074553
000020 44 aa c4 3e 76 76 3b c0 55 3a 11 40 48 3a 24 c0
       0.38411152 -2.9291053 2.2691853 -2.5660572
000030 64 bc 29 40 e3 a1 47 40 d5 38 35 40
       2.6521235 3.1192558 2.8315938

net.2.bias f4 [15]
000000 e9 58 5e be 81 d3 da be b3 7b df 3e fd 0e 8e 3e
       -0.21713604 -0.4273949 0.43649063 0.2774581
000010 1c 1a 14 be 82 a6 76 3e e9 39 bd bf 36 c3 8a 3e
       -0.14463085 0.24086955 -1.4783298 0.2710206
000020 c4 8a 12 3f 5f 3d 2f 3f 73 69 88 3f e6 22 0b 3f
       0.5724299 0.6845302 1.065718 0.54350126
000030 40 2f 1b bf 31 07 01 3f e0 10 ea be
       -0.6061897 0.504016 -0.45716

net.4.bias f4 [15]
000000 3f 16 80 bf a4 01 31 be 8b bb 17 bf f5 be d0 be
       -1.0006789 -0.17285782 -0.5927054 -0.4077069
000010 8b 72 ae bf 14 36 92 bb fb 8a c0 bf 15 42 d6 bf
       -1.3628706 -0.004462013 -1.5042413 -1.6738917
000020 d4 7c 47 bf 53 93 27 bf e6 e8 6f bf 9b 26 90 bf
       -0.7792485 -0.65459174 -0.9371475 -1.1261781
000030 73 0b 37 be 18 15 e5 be 6e 84 9d bb
       -0.17875461 -0.44742656 -0.0048070466

net.6.bias f4 [15]
000000 cc 2c 5f bc bd a3 3f 3b 00 4f bb be 09 18 9c bd
       -0.01362152 0.0029241883 -0.3658371 -0.07621772
000010 e7 c9 87 bf 61 be c5 3e 7a 5e 0d be 15 38 55 bd
       -1.0608491 0.3862181 -0.13805571 -0.052055437
000020 a1 30 8d bf d2 c5 fa 3e d4 d6 c7 3d e9 57 64 bf
       -1.1030465 0.4897905 0.09757772 -0.8919664
000030 6b a6 75 bd 5f ab a6 be f7 d2 da bf
       -0.05997316 -0.3255262 -1.7095631

onnx::MatMul_31 f4 [2, 15]
000000 62 2e 41 bf d0 d8 ca bf d9 4b 9e 3e 31 1a aa 3f
       -0.754614 -1.5847416 0.30917242 1.3289243
000010 df fe 80 40 29 4f 06 c0 4c bc 60 c0 43 05 36 c0
       4.031112 -2.0985816 -3.5114927 -2.8440711
000020 17 e9 81 c0 53 e7 2e c0 9b 9e c4 3f 77 8d 4d 3f
       -4.0597034 -2.732869 1.5360903 0.80293983
000030 08 ca 63 bf 5c 53 fd 3e 51 40 ab 3d cf bb d3 3f
       -0.8898015 0.4947766 0.08361877 1.654169
000040 39 44 bc be 3b 2b ce 3f a6 77 c1 bd 69 fc 51 c0
       -0.367708 1.6106943 -0.09446649 -3.281031
000050 14 5c 88 3f f6 da 71 bd 6e 47 70 3f 10 ea 9e 40
       1.06531 -0.059046708 0.93858993 4.966072
000060 43 20 6e 3f 03 ef b4 3f 56 f2 37 3f 3e 87 b7 3f
       0.9301798 1.413544 0.7185415 1.4338148
000070 f4 73 a9 3f 35 0d c9 3f
       1.3238511 1.5707155

onnx::MatMul_32 f4 [15, 15]
000000 44 eb 53 be 21 30 a7 bf c0 bc a8 3f 90 2d 0e 3f
       -0.20695215 -1.3061563 1.3182602 0.5553827
000010 7f 2e 49 40 a2 f9 7c 3e 64 72 e0 3f 4d 34 40 40
       3.143463 0.24704602 1.7534909 3.0031922
000020 b9 9a 8f 3f 7c 39 b4 3f f4 a3 96 3e d1 d5 46 40
       1.1219093 1.4080043 0.2942196 3.1068003
000030 c2 85 86 bf 11 03 2d 40 f1 f7 2e bf 98 92 8e bf
       -1.050957 2.7033122 -0.6834708 -1.1138487
000040 60 22 ce bf e9 11 dd 3f 07 c7 26 3f 28 9c af 3f
       -1.610424 1.7271091 0.6514744 1.371953
000050 fa ef d6 3f 77 b4 08 c0 a6 8e 99 3f 65 69 3e 40
       1.6791985 -2.1360147 1.1996658 2.9751828
000060 98 fa 07 40 a7 92 0e 40 26 87 0a 40 f2 da 4c c0
       2.12467 2.227701 2.1644988 -3.2008634
000070 d5 53 1a 40 9f ed aa 40 44 e8 aa be 08 70 11 c0
       2.4113667 5.3415065 -0.3338033 -2.2724628
000080 28 ac 63 40 fc 74 05 40 21 bc 02 40 49 6e 0d 40
       3.5573826 2.0852652 2.0427325 2.2098563
000090 dc 19 c6 3f b3 f1 e8 3f d9 78 c8 3f e1 09 a0 3f
       1.5476642 1.8198761 1.566188 1.2503015
0000a0 d6 4e c8 3f a8 a5 04 40 49 f3 b3 bf ab 82 d2 3f
       1.5649059 2.0726109 -1.405862 1.6446127
0000b0 f6 b5 9a 3c b2 b7 03 40 ce 5e 0e c0 e6 9f 56 40
       0.018885594 2.0580869 -2.2245364 3.3535094
0000c0 1e 33 4d 40 b8 4b 08 40 bf 51 51 40 c0 e5 12 c0
       3.206245 2.1296215 3.2706144 -2.2952728
0000d0 74 75 d8 3f b0 bf 46 40 23 49 7c 40 eb d0 36 40
       1.6910844 3.1054497 3.941964 2.8565013
0000e0 2f 6a 24 40 04 ea c8 bf 81 56 01 40 ea 37 8a 40
       2.568981 -1.5696416 2.0209048 4.3193254
0000f0 35 0a 6e bf 1f fe e1 3f 1d ee 8a 3e 3a 2f 03 c0
       -0.92984325 1.7655677 0.2713479 -2.0497575
000100 87 eb bd 3f f8 39 dd 3d c2 a7 93 bf f4 18 93 3f
       1.4837502 0.10802072 -1.1535571 1.149199
000110 2e 65 84 3e 96 1a 41 3e 68 8d b5 3c c5 ee a2 3e
       0.25858444 0.18857798 0.022162154 0.31822792
000120 75 3f c8 3e ae aa 3e 3f 5a f8 16 3f ae dd 9f 3f
       0.39110914 0.74479187 0.58972704 1.2489526
000130 0c 11 59 bf 4a ab 02 3f 67 41 52 3f 8e 28 54 bf
       -0.84791636 0.51042616 0.82131046 -0.8287438
000140 13 ab 93 3f 80 d2 d5 3f fc 09 59 3f 3d 8a d4 3f
       1.1536583 1.6704865 0.8478086 1.6604687
000150 05 c1 e6 3f 5d 4d b8 3f 1a b1 9e 3f 32 ea c0 bf
       1.8027655 1.4398609 1.2397797 -1.5071471
000160 76 ab d8 3f 02 fa ca 40 db 19 15 be 33 75 91 be
       1.6927326 6.3430185 -0.14560644 -0.28409728
000170 fe 04 28 bf 6f 20 92 bf 14 9a 19 c0 55 dc c6 bf
       -0.6563262 -1.1416148 -2.4000292 -1.553599
000180 57 89 5a bf 6f 25 c6 bf 59 a9 e6 3e 7e b2 9a 3e
       -0.85365814 -1.5480174 0.45051077 0.30214304
000190 c4 11 4e 3d 0d 55 b5 be e5 69 52 bf 26 00 88 bf
       0.05030991 -0.3541645 -0.8219283 -1.0625045
0001a0 4c 1e 30 40 05 af ca 3e 9b 10 75 3e ed 0f 39 bf
       2.7518492 0.39586654 0.23932116 -0.72289926
0001b0 f6 e6 f6 bf e7 35 d4 3e 34 3f 9a bf 43 ce 36 3f
       -1.9289234 0.41447374 -1.2050538 0.7140848
0001c0 34 2c dc 3e 7d 22 79 bf 34 ca b8 bf f6 c3 69 bf
       0.43002474 -0.9731825 -1.4436707 -0.9131464
0001d0 54 89 3a 3f 05 ef 09 3e 81 c9 aa 3e f2 16 9b bf
       0.72865796 0.13470085 0.3335686 -1.2116377
0001e0 75 78 db bf 35 2d 36 be 8d e8 a8 3f 18 e9 8b 3f
       -1.7146136 -0.17790683 1.3195969 1.093051
0001f0 64 8b 20 bf a8 cb 8d 3f 81 71 fb bf e9 ec 2c bf
       -0.62712693 1.1077776 -1.9644014 -0.67548996
000200 1f f4 67 bf 93 76 c5 bf af 5e 8f 3d 3d 41 ad bf
       -0.90606874 -1.5426811 0.07000481 -1.3535534
000210 cf d2 f9 be 6a 5d 8b be a3 28 09 c0 25 41 fd 3f
       -0.48793647 -0.27219707 -2.1431053 1.9785506
000220 97 ad 81 bf 0c ad 23 3f 5e 0b fb 3e fa cc aa be
       -1.01311 0.63935924 0.4903211 -0.3335951
000230 88 04 aa 3f d9 6d 00 40 02 1b 93 3f 19 ec c6 3f
       1.3282633 2.0067046 1.1492617 1.5540801
000240 4c 06 d2 3f d2 8c 76 3f 17 e3 d3 3f 54 cb ca bf
       1.6408172 0.96308625 1.6553677 -1.5843301
000250 64 52 fc 3f 2b 91 04 41 1b a5 98 3f 5f e3 16 3f
       1.9712644 8.285441 1.1925386 0.5894069
000260 a7 66 94 bf 8a 5d 92 be ac 7e b8 bf ee cb 8e bf
       -1.1593827 -0.2858699 -1.4413657 -1.1155984
000270 74 da 99 3e 01 03 9d bf 83 0e 9f bf 00 aa 22 bf
       0.3004948 -1.2266542 -1.2426304 -0.6354065
000280 69 7a 21 bf 0a 78 58 bf 53 ee d6 3f 12 4a b8 bf
       -0.6307741 -0.84558165 1.6791481 -1.4397604
000290 2f 5b 2d bf e8 a8 6e bd 29 b4 c3 bf bd 22 01 40
       -0.6771726 -0.05826655 -1.5289356 2.0177453
0002a0 24 ac ef 3f cf 6b 79 3f 75 b6 e2 3f 24 fc 0b 3d
       1.8724408 0.9743013 1.7711931 0.034176007
0002b0 58 73 77 3f 12 2b 71 3f f0 ac 83 3f 0c 0d b7 3f
       0.96660376 0.94206345 1.0287151 1.4300857
0002c0 f3 eb b0 3f 30 f8 24 bf 79 2c 74 3f 86 29 cd 3e
       1.3822006 -0.64441204 0.9538036 0.40070742
0002d0 dc 13 60 3f 72 91 a7 3f 13 ed 72 bf 44 c1 52 bf
       0.87530303 1.3091261 -0.94892997 -0.8232615
0002e0 fe 5b 40 bf 6a 97 12 bf 76 86 03 40 c4 6e 79 bf
       -0.7514037 -0.5726229 2.0550818 -0.9743464
0002f0 09 f5 d0 bf 24 15 02 c0 d2 e4 ba bf a8 f7 af bf
       -1.6324779 -2.0325403 -1.460108 -1.3747454
000300 c4 55 9c 3f cf 68 65 bf c8 2d 8a be 91 b9 7b 3f
       1.2213674 -0.8961305 -0.26988053 0.98330027
000310 ee bf cf 3f 01 aa 74 bf 49 f2 70 bf f8 77 a5 bf
       1.6230447 -0.95571905 -0.941197 -1.2927237
000320 24 3f 44 bf 41 59 da 3f 51 ee a3 bf 4e f7 92 bf
       -0.76658845 1.7058488 -1.2807103 -1.1481721
000330 8c 72 cb bf 9f 87 c8 bf 66 4e e7 bf 27 a3 ef 3f
       -1.5894332 -1.5666388 -1.80708 1.8721665
000340 30 c2 bb bf 6e a5 53 bf 0d 5e 81 3f c8 88 9b 3f
       -1.4668636 -0.826743 1.0106827 1.2151117
000350 ed a9 49 bf 15 f0 2c bf 71 7d bf bf 16 a8 1c bf
       -0.7877491 -0.67553836 -1.4960157 -0.6119398
000360 a2 80 e1 3f fd a2 a7 bf e5 18 bd bf 87 a9 ab bf
       1.7617381 -1.3096615 -1.4773222 -1.3411111
000370 0e 63 b6 bf d7 4d b4 bf d0 8a bb 3f 2e 14 79 bf
       -1.4248979 -1.4086255 1.4651737 -0.97296417
000380 d1 e3 40 bf
       -0.7534762

onnx::MatMul_33 f4 [15, 15]
000000 f6 27 27 bf d0 23 2e 3f 2a 90 1f bf 66 79 2f be
       -0.6529535 0.68023396 -0.6232935 -0.17136154
000010 f8 21 4c bf b1 82 cb 3e cf 43 d4 bf c0 21 ef bf
       -0.7973933 0.39748147 -1.6583194 -1.8682175
000020 94 47 a6 bf 17 9d 4b bf 77 de 78 bf 88 b0 67 bf
       -1.2990594 -0.79536575 -0.97214454 -0.9050374
000030 f3 af 94 be 17 67 ac be 88 6e 90 be 5b 56 1b c0
       -0.2904049 -0.336724 -0.2820933 -2.4271457
000040 2f 1b 40 bf 57 f2 c9 bf b0 34 9e bf 43 b3 25 c0
       -0.7504148 -1.5777081 -1.2359829 -2.5890663
000050 91 09 91 bf 15 3f d3 bf 1f aa a8 bf e2 f0 27 c0
       -1.1331044 -1.6503626 -1.3176917 -2.6240773
000060 6b 4a fe bf 31 c3 df bf c5 8d e7 bf fc 79 ac bf
       -1.986646 -1.7481443 -1.809014 -1.3474727
000070 43 bd af bf 79 e5 92 be ab 60 cb 3f be 37 20 be
       -1.3729633 -0.286907 1.5888876 -0.15646264
000080 9f ab 93 3f 69 c2 39 3e 84 b8 d3 3f e8 df 9b 3f
       1.153675 0.18140568 1.6540685 1.2177706
000090 62 c2 2e 40 25 3f c1 3f 8f 3f ca 3f 01 58 e4 3f
       2.7306142 1.5097395 1.5800647 1.7839357
0000a0 82 57 a2 3f 9a d6 c7 3f b6 80 26 3f 2c 21 a0 3f
       1.2682955 1.5612366 0.6504015 1.2510123
0000b0 b7 be 25 bf 86 ab f9 3f 0a 61 2f 40 10 85 d5 bf
       -0.6474413 1.950547 2.7402978 -1.6681232
0000c0 89 3d 1b 40 a4 6c 02 40 72 43 93 40 c8 c0 bb be
       2.4256308 2.037881 4.601983 -0.36670518
0000d0 a9 c6 bd bf 42 4c 4b 40 18 55 56 40 9a 6b 2b 40
       -1.4826251 3.1765294 3.3489437 2.6784425
0000e0 31 84 a0 bf 5a 86 43 40 32 4c 4a 40 40 db c2 3f
       -1.2540342 3.0550752 3.1609006 1.522316
0000f0 1e c4 ae 3e 26 ee 64 bf 25 f3 39 40 89 cc 77 bf
       0.34134 -0.89425886 2.9054654 -0.9679647
000100 74 ac e6 3e f7 ee 0d c0 69 74 4c 40 42 dd 4b 40
       0.45053446 -2.2177103 3.194605 3.1853795
000110 cc 50 f9 3e 63 5c e1 3d ae e5 2d 3d ef 76 46 40
       0.48694456 0.110039495 0.042455368 3.1010091
000120 f4 ff 7e bf c0 2b 00 bf 7e ef 15 bf aa 6f 6a 3f
       -0.99609303 -0.5006676 -0.5856856 0.91576636
000130 4d e5 28 bf 58 4f c6 3e b2 48 2a 3f f6 b7 92 3f
       -0.65974885 0.3873241 0.66517174 1.146239
000140 3f 92 ba 3f a0 57 4e 40 85 0b bf 3f fa e9 b7 3f
       1.4575881 3.2240982 1.492539 1.4368279
000150 07 b8 e8 3f 03 b1 9d 3f 83 67 73 3f aa 6f 80 3f
       1.8181161 1.2319645 0.9507982 1.0034077
000160 5e 87 9f 3f 36 8b ee be 30 8f f8 bf ee c7 83 be
       1.2463186 -0.46590585 -1.9418697 -0.25738472
000170 11 01 48 bf fa 91 45 bf 5d 03 02 c0 26 4a 89 be
       -0.7812663 -0.7717587 -2.0314553 -0.26814383
000180 a3 00 b9 bf 59 30 9b bf 5e 64 fc bf 2c dd c8 bf
       -1.4453319 -1.212413 -1.971813 -1.5692496
000190 a8 af cc bf 1b 99 84 bf 75 85 1b bf 37 15 8e bf
       -1.5991106 -1.0359224 -0.60750514 -1.1100224
0001a0 9e 7b 96 3d 6d 0d 22 3f 0f 9a 0e 3f 68 94 1f 40
       0.07347797 0.63301736 0.55703825 2.493433
0001b0 e8 c2 ed be db d2 25 3f f3 d5 0b c0 fe 59 13 40
       -0.46437764 0.64774865 -2.1849334 2.3023677
0001c0 3e 23 2b 40 6d 9d 9b 3e 54 c6 83 bd 8f 86 15 3e
       2.674026 0.30393544 -0.064343125 0.14602111
0001d0 8b 1b 29 40 a4 ad 50 bf 35 0a 28 be 3b f8 cd bc
       2.642306 -0.81514955 -0.16410144 -0.02514278
0001e0 d6 f2 1b 40 aa cd 94 3f 0b 1f a8 3f b7 66 36 3f
       2.4366965 1.1625264 1.3134474 0.7125048
0001f0 c7 53 21 40 8a 33 36 be 85 fd 48 40 c7 b5 1f 40
       2.5207384 -0.17793098 3.1404736 2.4954698
000200 ed bd b8 3f 79 72 d5 3f 8a 4e d8 3f 70 f3 f4 3f
       1.4432961 1.6675559 1.6898968 1.9136791
000210 2d 5b 56 3f a9 55 b6 3f 78 9b bf 3e ea 55 21 40
       0.83732873 1.4244891 0.374233 2.5208688
000220 e5 2e 00 40 6c c5 5c 3f fc 1c 0f 3f ae 4c 41 40
       2.0028622 0.8623874 0.559036 3.0203052
000230 94 45 1d c0 6f 9c 0a 40 de b1 13 40 dd 3b ca 3f
       -2.4573717 2.165798 2.3077312 1.5799519
000240 ec 73 ac 3f a0 f6 ac 3f ce 34 f8 3f ee 57 26 3f
       1.3472877 1.3512764 1.9391115 0.6497792
000250 67 c8 3c 3f 43 af 6a 3f c2 94 f1 3f 83 87 c3 3f
       0.7374329 0.9167368 1.8873522 1.527573
000260 dc eb b0 bd a7 23 8d 3f 07 50 07 40 fa c2 14 40
       -0.086387366 1.1026505 2.1142595 2.3244004
000270 cc 17 2a 40 82 34 73 3f 9a 2c f8 3f bc 30 09 40
       2.6577024 0.95001996 1.9388611 2.1435995
000280 5a 4a e8 3f 8c 36 07 3f cd 0c c9 3f b1 c7 e6 3f
       1.814769 0.52817607 1.5707031 1.8029691
000290 7e 49 b4 3f d7 19 e6 3f 28 8b 07 40 f9 df 5c 40
       1.4084928 1.7976636 2.1178684 3.4511702
0002a0 fb ee c6 3c 44 22 02 40 fc 09 1d c0 b9 22 e8 3f
       0.024283877 2.0333414 -2.4537344 1.8135597
0002b0 8e 38 1c 40 65 75 88 3f c6 73 1f 3e 86 9a 2b 3f
       2.4409518 1.0660826 0.15571508 0.6703266
0002c0 30 94 2f 40 96 75 9c be dd e1 f3 bd 2b ce eb 3f
       2.7434196 -0.3055846 -0.119083144 1.8422292
0002d0 e9 84 13 c0 a6 25 d4 be e4 c4 e1 bf ee 79 70 bf
       -2.3049872 -0.41434973 -1.7638211 -0.9393605
0002e0 f3 60 0d c0 c3 5d fb be 63 14 f9 bf 54 2a c5 bf
       -2.2090423 -0.49094972 -1.9459347 -1.5403543
0002f0 64 f3 01 c0 cf e0 c4 bf ce 98 df bf 36 28 02 c0
       -2.0304804 -1.5381106 -1.7468507 -2.0337043
000300 6f b0 80 bf 55 33 96 bf ce e6 e9 be 5d 6c 8a 3f
       -1.0053843 -1.1734415 -0.45683903 1.081432
000310 13 5d 80 3f a7 d7 22 40 3f 49 05 bf a4 16 77 3f
       1.0028404 2.5444124 -0.5206489 0.9651892
000320 59 0e 97 bf d0 49 2f 40 be 07 03 40 54 60 c8 3e
       -1.1801254 2.7388802 2.0473475 0.39135993
000330 ab 6d dc 3e 52 84 f4 3e eb 44 13 40 79 29 16 bf
       0.4305242 0.47757202 2.3010814 -0.5865703
000340 dc c3 91 be a7 aa 82 bf b4 bc d2 bf c0 51 65 3f
       -0.2846974 -1.0208329 -1.6463838 0.89577866
000350 b3 79 3d 40 89 fb 0f c0 8c e3 d3 bf f4 40 59 c1
       2.960553 -2.2497275 -1.6553817 -13.578358
000360 7f 61 a8 be 41 ac 9f 3f 0f c5 e8 bf ca 6b 25 c0
       -0.32886884 1.2474443 -1.8185138 -2.584704
000370 e5 95 01 c0 2f bb 88 3f 65 bc 48 c0 db bc 2a c0
       -2.0247738 1.0682124 -3.1364987 -2.6677768
000380 c4 53 c9 3f
       1.5728688

onnx::MatMul_34 f4 [15, 15]
000000 a5 f7 24 40 ef 6e b0 3f ca 8f 79 3f 2b 6f a4 3d
       2.577615 1.3783854 0.9748503 0.08029016
000010 a3 12 a4 be 92 1b af 3f 8f 89 1d 40 f8 bb 04 40
       -0.3204547 1.3680289 2.461521 2.0739727
000020 0e f5 1c bf d0 e5 44 3f d5 63 83 3f e1 d6 4c bf
       -0.61311424 0.76913166 1.0264841 -0.8001538
000030 29 8a 19 40 1d 37 c2 3f 6f d3 a7 be da 97 62 3f
       2.3990576 1.5173069 -0.327785 0.8851296
000040 85 6b 29 3f 7d 1c 47 3f 88 46 c3 bf aa c2 cd 3e
       0.66179687 0.77777845 -1.52559 0.4018758
000050 7d 81 4a 3f fd 7b 3f 3f 85 f5 77 3e 1f 07 f1 3e
       0.79103833 0.74798566 0.24214752 0.47075745
000060 37 ac 8a 3f 60 39 0a 3f 66 63 80 3f 14 86 f8 3e
       1.0833806 0.539938 1.0030334 0.48539793
000070 56 7d e7 3e b1 38 b2 bf be 8a fd bf 89 34 b8 bf
       0.4521281 -1.3923551 -1.9807966 -1.4391032
000080 6d 08 03 c0 3e dc d0 bf e8 5f 85 3f 66 e1 ad bf
       -2.0473893 -1.6317213 1.0419893 -1.3584411
000090 1f 1f ef bf 55 39 29 c0 d0 b7 b2 3f 17 d6 3f bf
       -1.8681372 -2.6441243 1.3962345 -0.7493605
0000a0 74 73 0f c0 55 44 ff 3f a4 ec f1 bf 2e 8e 14 c0
       -2.2414217 1.9942728 -1.8900342 -2.321178
0000b0 78 9d 63 3c a6 cd 29 3f d9 20 1f 3f 02 b8 81 3f
       0.013892524 0.6632942 0.62159497 1.013428
0000c0 47 0b 17 bf 72 6b 4c bd d6 05 be 3e c6 05 bf 3e
       -0.5900158 -0.049907155 0.37113827 0.37309092
0000d0 25 f4 8a 3f 87 cf 81 be 05 07 87 3d f3 fe a0 3f
       1.0855757 -0.25353643 0.06593136 1.2577804
0000e0 f3 3b 92 bf 8c 94 8d 3f 73 cb a4 3f 23 e1 5f be
       -1.1424545 1.1060958 1.2874588 -0.21863227
0000f0 ed 38 47 40 6c 8e db 3f f0 32 bf 3f b0 0b 3c be
       3.1128495 1.7152839 1.493742 -0.18363833
000100 76 bb 22 bf 5f b8 b9 3f 96 95 36 40 93 83 29 40
       -0.6356729 1.450939 2.85288 2.6486557
000110 b8 7e eb be 61 64 ae 3f 32 7a b0 3f d5 13 22 bf
       -0.45995116 1.3624383 1.3787291 -0.6331151
000120 fd cf 57 40 15 8f fe 3f f6 36 11 bf 35 f5 85 3f
       3.3720696 1.9887415 -0.5672449 1.0465456
000130 19 65 fe 3f c6 d5 38 40 7a f4 ba 3f cc be f1 bf
       1.9874603 2.8880477 1.4605858 -1.8886352
000140 39 04 f1 3f a8 87 89 3f 0b 68 5e 40 7a 41 e0 bf
       1.8829414 1.0744524 3.4751003 -1.7519982
000150 22 83 8b 3f 3d df 49 40 36 b0 7a c0 db 17 3f 3f
       1.0899394 3.1542504 -3.917005 0.74645776
000160 44 ef 42 40 b6 81 52 41 05 3d 17 c0 2e 30 2b c0
       3.0458536 13.156668 -2.3630993 -2.6748157
000170 17 ba 1c c0 f2 60 9b 3e aa d6 39 3f bb 8e 37 c0
       -2.448858 0.303474 0.72593176 -2.8680866
000180 16 9f 1f c0 da a6 15 c0 8e 9f 08 3f b7 7e 4d c0
       -2.4940848 -2.3383088 0.5336846 -3.210859
000190 f2 89 2a c0 d5 5a 42 3f fc 97 05 c0 45 d6 11 c0
       -2.6646695 0.7591985 -2.0874014 -2.278703
0001a0 3c 1e 72 40 28 4a 1a c0 c4 92 0d c0 d7 d3 20 c0
       3.7830954 -2.4107761 -2.2120829 -2.5129297
0001b0 b4 dc cf be 2f dc 89 3f 72 f1 11 c0 20 79 19 c0
       -0.4059807 1.077032 -2.2803617 -2.398018
0001c0 3b 71 2f c0 87 5c a6 3f fd 38 09 c0 e6 98 1d c0
       -2.741286 1.2996987 -2.1441033 -2.4624572
0001d0 1d 40 e9 3f 0c bb 1b c0 44 04 29 c0 b9 fb 2f 40
       1.8222691 -2.4332914 -2.6408854 2.749739
0001e0 2a 99 12 40 a3 4e ab 3f 57 1a a6 3f a4 39 79 3f
       2.2905984 1.3383373 1.2976788 0.9735358
0001f0 77 38 d2 bf a3 6d a3 3f a9 a2 10 40 25 80 0d 40
       -1.6423482 1.2767833 2.259928 2.2109463
000200 eb 37 e7 bf 19 12 4d 3f 6d bc c9 3f 0b 6d 18 c0
       -1.806394 0.8010574 1.5760628 -2.3816555
000210 c2 d6 28 40 6f 02 16 40 8a 6f 49 3d 90 82 08 40
       2.6381078 2.3438985 0.049178638 2.132969
000220 df d4 e7 3f e1 1d 02 40 ed 49 08 3f 8b db 64 bf
       1.8111838 2.0330737 0.532378 -0.89397496
000230 75 82 e4 3f 90 a3 f1 3f 39 03 16 40 78 38 86 bf
       1.7852312 1.887804 2.3439467 -1.0485983
000240 90 56 77 3f e1 e9 f2 3f 9f 15 f5 bf 1e d6 1c 40
       0.9661646 1.8977624 -1.9147223 2.4505687
000250 a3 94 02 40 7f fe d5 3f 5a 90 cf 3f f0 ef 95 3f
       2.040322 1.6718291 1.6215928 1.1713848
000260 c6 9e a4 3f 8d ae 08 3e 77 73 2e bf 2a 09 7b 3f
       1.2860954 0.13347836 -0.68144935 0.9806086
000270 52 3b dd 3f bc 80 dd 3f a0 c4 48 bf ab 5f 00 3f
       1.7283728 1.7304912 -0.78425026 0.5014598
000280 ed 8b b2 3f b4 e5 98 bf 82 17 c2 3f e0 70 c1 3f
       1.3948952 -1.19451 1.5163424 1.5112572
000290 e5 fe 86 3f 5e e2 02 c0 8a 55 0b c0 51 f3 03 c0
       1.0546538 -2.0450664 -2.177096 -2.0617259
0002a0 25 63 86 bf c2 8b 58 3f c0 90 fd bf 47 90 d5 bf
       -1.0499007 0.84588253 -1.9809799 -1.6684655
0002b0 1e d2 23 c0 3d 83 77 3f 10 8e c4 bf d0 19 1d c0
       -2.5596995 0.9668463 -1.5355854 -2.4547005
0002c0 d4 ca a6 3f dc 24 02 c0 ca 3e 16 c0 df 6f ba 3f
       1.3030648 -2.0334997 -2.3475823 1.456539
0002d0 76 f0 84 3f 97 55 53 3f 0b 5e ab 3f 92 c5 3f bf
       1.0385883 0.82552475 1.3388075 -0.74910843
0002e0 6b d4 da bd 43 e3 df 3e 5f d2 3f 3f 45 96 e3 3f
       -0.10685047 0.43728074 0.74930376 1.7780234
0002f0 a6 83 51 be e4 c2 5e bc b0 54 de 3f 33 95 95 bf
       -0.20460376 -0.01359627 1.7369595 -1.1686157
000300 72 c0 74 3f 80 f6 cf 3f 20 89 8e 3f 3c 86 8b 3f
       0.9560615 1.6247101 1.1135597 1.090034
000310 26 78 6a 3f aa 99 bd 3f 8e 60 88 be ae b7 bf bd
       0.9158958 1.481252 -0.26636165 -0.09361206
000320 d1 38 7f 3f 13 59 88 3f 8f 64 c8 3f f0 cd db be
       0.9969607 1.0652183 1.5655688 -0.42930555
000330 8f a6 1a 3e 84 cb e0 3f f8 68 8f bf cf d9 9e 3f
       0.151026 1.7562108 -1.1203909 1.241022
000340 b1 b7 ba 3f e5 77 cc 3f 16 a5 04 3f 67 2f a6 3d
       1.4587308 1.5974089 0.518144 0.0811451
000350 a8 58 00 be 56 c5 56 ba d6 04 ca bf b1 1b 32 bd
       -0.1253382 -0.00081928575 -1.5782726 -0.04348344
000360 21 b8 cb 3e 2b fb 86 3e 92 4f b9 bf e0 03 91 3e
       0.39788917 0.263635 -1.4477408 0.2832327
000370 80 ec 45 3d c8 5c 69 bf a4 0b 04 3f 6b 7e 1f 3e
       0.048321247 -0.911572 0.5158026 0.15575568
000380 1b 9e a9 be
       -0.33128437

onnx::MatMul_35 f4 [15, 1]
000000 42 c5 2c c0 37 ee b2 bf 75 97 e4 bf 75 39 7c 3f
       -2.6995397 -1.3978947 -1.7858721 0.9852517
000010 bc b9 c8 be 10 56 b6 bf e5 b8 0d c0 45 ba 37 c0
       -0.39204204 -1.4245014 -2.21441 -2.870744
000020 9f 6a 03 bf e8 53 cd bf b4 f0 0a c0 c5 ed 6b bf
       -0.51334566 -1.6041231 -2.1709414 -0.9215968
000030 86 33 22 c0 b5 5c 0d c0 36 58 47 3f
       -2.5343947 -2.2087834 0.77868974
