onnx/myModel_HL3_HD15_699.onnx (onnx, 4793 bytes, 9 tensors)

net.0.bias f4 [15]
-2.6271124 -2.3070343 -2.2841735 -3.2434075 3.4459186 -3.104456 2.6658287 2.1761847
0.27856082 -2.8160212 2.4054735 -2.2965117 2.647797 3.1144176 2.8523347
00000000: 9c22 28c0 73a6 13c0 e62f 12c0 fd93 4fc0
00000010: ee89 5c40 68af 46c0 f09c 2a40 9c46 0b40
00000020: 869f 8e3e b139 34c0 47f3 1940 0cfa 12c0
00000030: 8275 2940 9e52 4740 a78c 3640

net.2.bias f4 [15]
-0.17868832 -0.35340366 0.42779672 0.17531267 -0.04013453 0.28244057 -1.3900205 0.35982335
0.5176358 0.66189694 1.0278871 0.5722562 -0.59762436 0.56783366 -0.3519479
00000000: 12fa 36be 53f1 b4be 2c08 db3e 2a85 333e
00000010: 1b64 24bd 0d9c 903e 31ec b1bf c43a b83e
00000020: c883 043f 1472 293f ce91 833f 627f 123f
00000030: e9fd 18bf 8c5d 113f 8432 b4be

net.4.bias f4 [15]
-0.97899014 -0.19953369 -0.63285893 -0.32216194 -1.3563051 -0.0792924 -1.5026771 -1.6265619
-0.7928617 -0.72974384 -0.92667884 -1.0786451 -0.10657667 -0.45730215 0.14891599
00000000: 199f 7abf 8f52 4cbe 0b03 22bf 69f2 a4be
00000010: 689b adbf 0e64 a2bd b957 c0bf 2e33 d0bf
00000020: fcf8 4abf 7ed0 3abf d33a 6dbf 0b11 8abf
00000030: df44 dabd 8223 eabe 6f7d 183e

net.6.bias f4 [15]
0.036599673 0.0947471 -0.19639477 -0.1628064 -1.0444677 0.42213663 -0.06825609 0.16973303
-1.1051475 0.3525269 0.2967177 -0.95027107 -0.017046679 -0.1225229 -1.3552874
00000000: 8ae9 153d c40a c23d b61b 49be b9b6 26be
00000010: 1eb1 85bf 4b22 d83e d9c9 8bbd 7fce 2d3e
00000020: 7975 8dbf 687e b43e 62eb 973e f744 73bf
00000030: 7aa5 8bbc 49ed fabd 0f7a adbf

onnx::MatMul_31 f4 [2, 15]
-0.76705295 -1.5805073 0.32084116 1.2568085 3.9802167 -2.1199918 -3.655464 -2.361933
-3.9835253 -2.685796 1.566028 0.88916826 -0.8342114 0.34945244 0.080156684 1.6555855
-0.3157208 1.6013083 -0.109830074 -3.2126594 0.9952987 -0.10651829 0.7863198 4.9508634
0.88047576 1.3726418 0.72291803 1.4686953 1.3517511 1.4697846
00000000: 955d 44bf 104e cabf 4b45 a43e 1adf a03f
00000010: dfbb 7e40 f2ad 07c0 1ff3 69c0 e929 17c0
00000020: 14f2 7ec0 15e4 2bc0 9b73 c83f 88a0 633f
00000030: e18e 55bf 6eeb b23e 3029 a43d 3aea d33f
00000040: 28a6 a1be acf7 cc3f 97ee e0bd 369c 4dc0
00000050: e5cb 7e3f 4326 dabd 414c 493f 796d 9e40
00000060: dc66 613f bab2 af3f 2811 393f 35fe bb3f
00000070: 2e06 ad3f e721 bc3f

onnx::MatMul_32 f4 [15, 15]
-0.21844295 -1.0202608 1.4234798 0.4953837 3.1485958 0.30472636 0.9469042 2.8699818
1.0807891 1.3819548 0.22999987 2.752894 -0.9824074 2.5199807 -0.31509075 -1.0658916
-1.5704654 1.7718422 0.7087753 1.5754395 1.7973901 -2.0551891 1.3158715 2.8221364
2.0957565 2.1979003 2.0235226 -2.8664403 2.2851644 5.2660427 -0.507358 -2.163038
3.2066934 2.0594761 1.9830163 2.1331835 0.76775694 1.7341698 1.6128709 1.2425452
1.6167282 1.9604665 -1.3888793 1.5985925 0.11374128 1.7754598 -2.4084556 3.2940469
3.2295964 2.054294 3.2048697 -2.0767038 1.702026 3.0969098 3.8660202 2.961346
2.6049397 -1.6764435 2.088346 4.0496187 -0.71537435 1.4599053 0.20951273 -2.0505507
1.3193835 0.08557669 -1.1014379 1.1113017 0.25120866 0.21174526 0.07457819 0.51903963
0.2649246 0.7193202 0.56149167 0.9818101 -0.7220564 0.46671388 0.7585196 0.22008754
1.0010649 1.6534381 0.8312602 1.526951 1.7318769 1.3706014 1.0953795 -1.4506289
1.5540268 5.8998837 -0.1696656 -0.22665934 -0.74496526 -1.0747457 -1.8244991 -1.4814624
-0.8895329 -1.4353632 0.35018817 0.2886423 0.03910958 -0.31972247 -0.8253333 -1.0139124
2.215715 0.15578108 0.39395165 -0.56139976 -1.7973139 0.22682795 -0.98116165 0.68103623
0.23191299 -1.0077243 -1.3763548 -0.9021469 0.49524215 0.12878804 0.19589052 -0.9006577
-1.411951 -0.16562426 1.1237149 1.1478848 -0.6185118 1.0179268 -1.7254331 -0.69961154
-0.7073655 -1.142042 0.18624155 -1.2895329 -0.4781722 -0.31347525 -2.2998946 1.6427941
-0.95353127 0.7177903 0.5721495 0.46074203 1.2729173 1.866004 0.9253661 1.4604657
1.6780248 0.9898545 1.4788524 -1.4844174 1.7736782 7.8526278 1.1294804 0.60282695
-1.0816772 -0.37008905 -1.3714942 -1.0763066 0.3940987 -1.1801159 -1.2725321 -0.6676506
-0.64398164 -0.80748695 1.6278895 -1.3695558 -0.5642058 -0.085998446 -1.4094188 1.9610033
1.7290709 0.8900441 1.6137373 0.13480999 0.977422 0.97944874 0.97759646 1.4270067
1.3469121 -0.69510955 0.9726432 0.31531674 0.7767655 1.3161415 -0.95480996 -0.78286326
-0.8770255 -0.5848726 1.8782382 -1.0908078 -1.6359464 -1.981554 -1.4057258 -1.4354067
1.2687285 -0.9738545 -0.33319154 0.8992309 1.6372024 -0.9004299 -1.0210437 -1.2401888
-0.715079 1.8344605 -1.2380251 -1.149542 -1.5943769 -1.5538423 -1.7835133 1.8539683
-1.425452 -0.75147915 0.8988214 1.2347194 -0.6946015 -0.7634075 -1.4597448 -0.5408253
1.9068401 -1.2703816 -1.463224 -1.3304613 -1.4064109 -1.3849589 1.4637072 -0.92993253
-0.6768288
00000000: 82af 5fbe e897 82bf 9634 b63f efa2 fd3e
00000010: 9882 4940 1805 9c3e 5068 723f c8ad 3740
00000020: 4c57 8a3f e5e3 b03f 1685 6b3e 6a2f 3040
00000030: 0d7f 7bbf 5d47 2140 9353 a1be 236f 88bf
00000040: 0305 c9bf bacb e23f 4c72 353f 00a8 c93f
00000050: e110 e63f 3888 03c0 7a6e a83f e29d 3440
00000060: e020 0640 66aa 0c40 6581 0140 c273 37c0
00000070: 2240 1240 6c83 a840 37e2 01bf 376f 0ac0
00000080: 773a 4d40 75ce 0340 7ad3 fd3f 1486 0840
00000090: b88b 443f 47f9 dd3f 8e72 ce3f b90b 9f3f
000000a0: f3f0 ce3f 91f0 fa3f ccc6 b1bf ae9e cc3f
000000b0: 30f1 e83d 4442 e33f 2324 1ac0 aad1 5240
000000c0: b5b1 4e40 8e79 0340 961c 4d40 b7e8 04c0
000000d0: fddb d93f c533 4640 e06c 7740 b186 3d40
000000e0: 55b7 2640 b395 d6bf 76a7 0540 7a96 8140
000000f0: c622 37bf 2dde ba3f 818a 563e 393c 03c0
00000100: 8fe1 a83f d542 af3d ebfb 8cbf 223f 8e3f
00000110: 6c9e 803e c0d3 583e 73bc 983d c8df 043f
00000120: 32a4 873e 5e25 383f ebbd 0f3f e857 7b3f
00000130: b0d8 38bf 1ff5 ee3e 572e 423f a15e 613e
00000140: e522 803f dca3 d33f 78cd 543f 2173 c33f
00000150: 24ae dd3f de6f af3f 6535 8c3f 35ae b9bf
00000160: 5aea c63f d9cb bc40 d2bc 2dbe 6319 68be
00000170: 0bb6 3ebf 4491 89bf 3089 e9bf 8fa0 bdbf
00000180: 6eb8 63bf fbb9 b7bf dd4b b33e ecc8 933e
00000190: 5e31 203d aab2 a3be 0b49 53bf e2c7 81bf
000001a0: 46ce 0d40 1385 1f3e 08b4 c93e e5b7 0fbf
000001b0: 620e e6bf 9645 683e 692d 7bbf 6458 2e3f
000001c0: 997a 6d3e 1cfd 80bf 652c b0bf 19f3 66bf
000001d0: 6190 fd3e 03e1 033e 8697 483e 8191 66bf
000001e0: cfba b4bf 6899 29be e4d5 8f3f e4ed 923f
000001f0: ca56 1ebf 6d4b 823f feda dcbf be19 33bf
00000200: e815 35bf 6f2e 92bf 1bb6 3e3e 6a0f a5bf
00000210: fdd2 f4be d47f a0be 7931 13c0 1447 d23f
00000220: a01a 74bf 1bc1 373f 6478 123f 61e6 eb3e
00000230: f4ee a23f 38d9 ee3f cbe4 6c3f 8af0 ba3f
00000240: 84c9 d63f 1b67 7d3f 094b bd3f 6401 bebf
00000250: e307 e33f ba48 fb40 d092 903f de52 1a3f
00000260: 6674 8abf 507c bdbe 1f8d afbf 6ac4 89bf
00000270: 4ec7 c93e 0a0e 97bf 55e2 a2bf 26eb 2abf
00000280: fbdb 24bf 77b7 4ebf af5e d03f 9b4d afbf
00000290: cb6f 10bf f41f b0bd d667 b4bf 2802 fb3f
000002a0: 3252 dd3f eed9 633f f28e ce3f a10b 0a3e
000002b0: 5438 7a3f 27bd 7a3f c343 7a3f 28a8 b63f
000002c0: 9e67 ac3f b3f2 31bf 25ff 783f 3271 a13e
000002d0: 1bda 463f 5377 a83f 6d6e 74bf ba69 48bf
000002e0: be84 60bf 36ba 15bf 1c6a f03f 979f 8bbf
000002f0: b166 d1bf 90a3 fdbf d3ee b3bf 68bb b7bf
00000300: b265 a23f 874e 79bf 1598 aabe ff33 663f
00000310: d98f d13f 9382 66bf 8fb1 82bf 82be 9ebf
00000320: 6b0f 37bf 9acf ea3f 9b77 9ebf 3124 93bf
00000330: 8b14 ccbf 4ee4 c6bf 2a4a e4bf d54e ed3f
00000340: 3675 b6bf f060 40bf 2919 663f 490b 9e3f
00000350: 67d1 31bf ad6e 43bf ebd8 babf 8773 0abf
00000360: 5613 f43f dd9b a2bf ed4a bbbf 8e4c aabf
00000370: 4605 b4bf 5546 b1bf c25a bb3f 0f10 6ebf
00000380: a744 2dbf

onnx::MatMul_33 f4 [15, 15]
-0.6670015 0.6243032 -0.6312535 -0.021708576 -0.83597475 0.28814974 -1.63811 -1.8066003
-1.1666251 -0.7945165 -0.85586065 -0.8180709 -0.19747035 -0.30762553 -0.20967782 -2.3613195
-0.5920424 -1.4726377 -1.025938 -2.530111 -0.905175 -1.6898832 -1.3511257 -2.4509602
-2.125014 -1.6400782 -1.697411 -1.2030911 -1.40825 -0.33025694 1.6737603 -0.03186427
1.0859169 0.28844917 1.7192229 1.1318423 2.589581 1.4165497 1.6027491 1.7555603
1.3131434 1.4383329 0.72143656 1.2626328 -0.49706143 2.1928544 2.336194 -1.4183847
2.4418886 2.2905781 3.717489 -0.37410855 -1.2776059 3.1661892 3.285647 2.7381942
-1.1975942 2.975885 3.043901 1.5109936 0.3172918 -0.8301293 2.8746247 -0.8776147
0.44286484 -1.7015871 3.0806723 2.89314 0.39367154 -0.05146002 0.012901073 2.8986042
-0.9672774 -0.6333852 -0.99218017 1.0008774 -0.40660363 0.43296805 0.7422375 1.2298465
1.4431536 2.931439 1.4405391 1.5357739 1.6827062 1.2914759 0.9117555 0.978031
1.129779 -0.41772187 -1.8326727 -0.13869031 -0.87552786 -0.59072703 -1.9385579 -0.30728015
-1.4908144 -1.3085766 -1.8251017 -1.4419456 -1.4245925 -1.0915906 -0.4633783 -0.9828663
-0.27199167 0.5590745 0.41387087 2.381896 -0.4893248 0.57194936 -1.8964618 2.320728
2.665909 0.20951526 -0.1608548 0.120632745 2.5002637 -0.8809502 -0.27634442 -0.052704435
2.3438098 1.0368291 1.3130318 0.83137846 2.428965 0.12586504 2.9155712 2.363309
1.5282853 1.5202816 1.7740504 1.8034447 0.85541326 1.2793208 0.43606916 2.4020424
1.968076 0.75516963 0.6766844 2.889985 -1.2221528 2.1571603 2.1092455 1.5054607
1.0952209 1.3037583 1.8471802 0.7165384 0.579403 1.0699543 1.9855127 1.4764496
0.10142928 1.2697505 2.2286372 1.95824 2.41275 0.97997284 2.0394742 1.9375651
1.8991824 0.5813037 1.6144345 1.6352175 1.551129 1.6425753 1.5732017 3.0993142
-0.054130126 1.8620024 -2.4608681 1.8912213 2.560919 0.9239861 0.14247227 0.63100934
2.569102 -0.39789382 -0.16652511 1.3788775 -2.196242 -0.37637505 -1.7311813 -0.8066367
-2.1162493 -0.50342387 -1.8823503 -1.5222063 -2.070734 -1.6561092 -1.7637675 -1.9855839
-0.90025204 -1.1866977 -0.45843536 0.96780217 0.67960346 2.3295605 -0.55206096 0.83460116
-1.142966 2.6343648 2.0836918 0.3871242 0.45666426 0.51709926 2.241034 -0.6347654
-0.30595082 -0.5983734 -1.4338155 0.82089764 3.0869367 -1.9975655 -1.4393847 -11.133632
-0.2261154 1.2587092 -1.6426969 -2.4508252 -1.8410032 1.2294859 -2.8558419 -2.4664624
1.0831147
00000000: 9cc0 2abf 56d2 1f3f d499 21bf 2fd6 b1bc
00000010: 7102 56bf 5d88 933e 97ad d1bf ae3e e7bf
00000020: f953 95bf 6f65 4bbf af19 5bbf 186d 51bf
00000030: ab35 4abe 1881 9dbe c8b5 56be dc1f 17c0
00000040: 1790 17bf 647f bcbf f051 83bf 57ed 21c0
00000050: 8cb9 67bf 184e d8bf b0f1 acbf 88dc 1cc0
00000060: 3b00 08c0 15ee d1bf c344 d9bf e4fe 99bf
00000070: 8941 b4bf 7017 a9be c73d d63f 1c84 02bd
00000080: 53ff 8a3f 9caf 933e 7f0f dc3f 35e0 903f
00000090: b2bb 2540 8051 b53f e226 cd3f 33b6 e03f
000000a0: 1515 a83f 4b1b b83f 11b0 383f f49d a13f
000000b0: d67e febe ba57 0c40 3484 1540 a18d b5bf
000000c0: e747 1c40 d598 1240 57eb 6d40 288b bfbe
000000d0: 9788 a3bf d8a2 4a40 0a48 5240 933e 2f40
000000e0: c44a 99bf e674 3e40 46cf 4240 3d68 c13f
000000f0: 1274 a23e 5b83 54bf daf9 3740 5bab 60bf
00000100: 2ebf e23e 9bcd d9bf bc29 4540 3529 3940
00000110: 518f c93e bec7 52bd 065f 533c bb82 3940
00000120: 7e9f 77bf 8825 22bf 85ff 7dbf c01c 803f
00000130: 5a2e d0be fdad dd3e 4703 3e3f 9c6b 9d3f
00000140: 42b9 b83f b29c 3b40 9663 b83f 3d94 c43f
00000150: eb62 d73f 154f a53f cf68 693f 3d60 7a3f
00000160: 999c 903f a4df d5be 0595 eabf d504 0ebe
00000170: 9822 60bf e339 17bf aa22 f8bf d353 9dbe
00000180: 02d3 bebf 707f a7bf ef9c e9bf ac91 b8bf
00000190: 0c59 b6bf 3eb9 8bbf ec3f edbe 209d 7bbf
000001a0: 7e42 8bbe 821f 0f3f e2e6 d33e fc70 1840
000001b0: c888 fabe 466b 123f 43bf f2bf cf86 1440
000001c0: 419e 2a40 2b8b 563e 1fb7 24be 4d0e f73d
000001d0: 5204 2040 f485 61bf 047d 8dbe 9be0 57bd
000001e0: fb00 1640 d1b6 843f 6d11 a83f 38d5 543f
000001f0: 2a74 1b40 c4e2 003e b898 3a40 7440 1740
00000200: da9e c33f 9698 c23f 1514 e33f 47d7 e63f
00000210: 5dfc 5a3f c9c0 a33f 7544 df3e 10bb 1940
00000220: eae9 fb3f cc52 413f 303b 2d3f 84f5 3840
00000230: 816f 9cbf ea0e 0a40 e1fd 0640 f0b2 c03f
00000240: 3330 8c3f 8de1 a63f 6770 ec3f 106f 373f
00000250: c153 143f 43f4 883f 4825 fe3f 4dfc bc3f
00000260: 28ba cf3d 2f87 a23f fea1 0e40 9ca7 fa3f
00000270: 7f6a 1a40 80df 7a3f bf86 0240 2202 f83f
00000280: 6918 f33f 52d0 143f caa5 ce3f cf4e d13f
00000290: 658b c63f e83f d23f ac5e c93f 2a5b 4640
000002a0: 8db7 5dbd 1856 ee3f dd7e 1dc0 8a13 f23f
000002b0: 19e6 2340 5a8a 6c3f 40e4 113e d489 213f
000002c0: 2b6c 2440 bdb8 cbbe 8f85 2abe 0f7f b03f
000002d0: 3b8f 0cc0 3bb4 c0be 5997 ddbf be7f 4ebf
000002e0: a170 07c0 63e0 00bf dbf0 f0bf a8d7 c2bf
000002f0: e886 04c0 63fb d3bf 22c3 e1bf 9d27 febf
00000300: eb76 66bf b6e5 97bf 0ab8 eabe e2c1 773f
00000310: 7efa 2d3f 8517 1540 de53 0dbf 6ca8 553f
00000320: b64c 92bf 6f99 2840 355b 0540 2535 c63e
00000330: e6cf e93e 9e60 043f 1a6d 0f40 fc7f 22bf
00000340: 96a5 9cbe 002f 19bf 4487 b7bf 5926 523f
00000350: 5f90 4540 3ab0 ffbf c23d b8bf 5b23 32c1
00000360: cc8a 67be 621d a13f e443 d2bf 52da 1cc0
00000370: fea5 ebbf cb5f 9d3f 1dc6 36c0 85da 1dc0
00000380: 81a3 8a3f

onnx::MatMul_34 f4 [15, 15]
2.5012107 1.3442461 1.0981038 0.24184585 -0.25773418 1.3659476 2.4012523 1.8636944
-0.54908717 0.7970146 1.1862284 -0.7841026 2.2840629 1.4198215 0.22198753 0.890154
0.62267154 0.78473824 -1.4046856 0.4203633 0.69541204 0.7763072 0.28204122 0.4647329
0.9006217 0.53877026 0.9043818 0.47855842 0.49170068 -1.1285505 -1.9882387 -1.5033493
-1.947233 -1.4062606 0.9884254 -1.4841487 -1.8678408 -2.4677591 1.3108163 -0.98036885
-2.137619 1.8106291 -1.9067733 -2.1735668 0.19841854 0.6972592 0.8382853 1.0650926
-0.1374819 -0.3882403 0.5939907 0.45806286 1.0904373 -0.53658557 0.17237107 1.2511442
-1.0676972 1.0727389 1.3233298 0.41931805 3.0328302 1.6921066 1.6357771 -0.11346899
-0.47059596 1.4567108 2.7952344 2.4668412 -0.3041395 1.4203776 1.5650821 -0.5865153
3.251277 1.9174999 -0.13161483 1.0767611 1.3660835 2.0039284 1.7504841 -2.4222274
1.4006386 0.9846886 2.42033 -2.122024 0.73995864 2.1742945 -3.210805 0.8967572
2.012202 6.4265037 -2.2934537 -2.4463599 -2.2833622 0.3194696 0.6735591 -2.6211119
-2.394243 -2.2294703 0.49141395 -2.9475632 -2.501313 0.65296316 -2.0532706 -2.1500819
3.6053786 -2.3909433 -2.1523502 -2.3664613 -0.074401736 1.0798941 -2.231595 -2.3515463
-2.600017 1.2567163 -2.069368 -2.3046303 1.5893971 -2.4438517 -2.5084817 2.307069
2.214703 1.3601309 1.4183997 0.97657496 -1.2507644 1.3484088 2.176589 1.9676418
-1.4367554 0.9527537 1.6712252 -2.0713947 2.509996 2.244221 0.41897246 2.0611467
1.8339427 1.9638096 1.0788176 -0.9615528 1.8332334 1.8549539 2.2168798 -1.1054248
1.0703655 1.7492509 -1.8333831 2.3203356 1.9369239 1.3103491 1.5795002 1.2011065
1.352405 0.48086795 -0.6260367 1.034997 1.6932973 1.5973647 -0.7322621 0.54604053
1.4161772 -1.0746527 1.4276996 1.463466 1.2304784 -2.032489 -2.138765 -1.8998303
-0.693656 0.8011256 -1.9719956 -1.6391951 -2.4000297 0.87854534 -1.5710709 -2.2878633
1.0803056 -2.0491393 -2.1923437 1.2440809 1.10898 1.0369784 1.2906766 -0.2112252
-0.5610085 0.6820674 0.8803071 1.7131574 -0.58267003 0.29737693 1.6077114 -1.0560468
0.95891356 1.5764626 1.2076627 1.0601331 1.0204283 1.4072394 0.29697818 -0.3827384
1.125736 1.0917921 1.4805446 -0.67654485 0.33241758 1.60847 -1.1105436 1.1470761
1.383273 1.5823445 0.5621379 0.027601426 -0.0913561 -0.01140373 -1.3986312 -0.15847987
0.46803537 0.3213968 -1.307284 0.13171735 0.08192803 -0.89836574 0.5482735 0.23128353
-0.16691415
00000000: d613 2040 4210 ac3f aa8e 8c3f 70a6 773e
00000010: bcf5 83be 5fd7 ae3f 1eae 1940 8a8d ee3f
00000020: fa90 0cbf 2609 4c3f 55d6 973f f3ba 48bf
00000030: 162e 1240 b6bc b53f b350 633e 22e1 633f
00000040: 6767 1f3f 9be4 483f bdcc b3bf dc39 d73e
00000050: 8606 323f 12bc 463f b567 903e 78f1 ed3e
00000060: 258f 663f d9ec 093f 9185 673f 9c05 f53e
00000070: 31c0 fb3e 5874 90bf 9b7e febf c06d c0bf
00000080: ee3e f9bf 5900 b4bf 7209 7d3f 96f8 bdbf
00000090: 6815 efbf c4ef 1dc0 d4c8 a73f 74f9 7abf
000000a0: c0ce 08c0 b2c2 e73f 2611 f4bf b81b 0bc0
000000b0: 3b2e 4b3e 947f 323f de99 563f f454 883f
000000c0: 0ec8 0cbe 6fc7 c6be c60f 183f 3787 ea3e
000000d0: 7393 8b3f ac5d 09bf 0b82 303e 7e25 a03f
000000e0: 4daa 88bf 824f 893f df62 a93f dbb0 d63e
000000f0: e419 4240 f396 d83f 2561 d13f 6e62 e8bd
00000100: f4f1 f0be 8075 ba3f 1fe5 3240 bae0 1d40
00000110: 2cb8 9bbe efce b53f 9c54 c83f de25 16bf
00000120: ec14 5040 a370 f53f 0ac6 06be 4fd3 893f
00000130: d3db ae3f 5d40 0040 dd0f e03f c605 1bc0
00000140: 2048 b33f 8d14 7c3f b0e6 1a40 3ecf 07c0
00000150: ee6d 3d3f a427 0b40 d47d 4dc0 e191 653f
00000160: ebc7 0040 eba5 cd40 f2c7 12c0 2991 1cc0
00000170: 9b22 12c0 8591 a33e 5f6e 2c3f 4cc0 27c0
00000180: 473b 19c0 a4af 0ec0 9c9a fb3e e0a4 3cc0
00000190: 8315 20c0 9828 273f c968 03c0 f19a 09c0
000001a0: 86be 6640 3705 19c0 1bc0 09c0 1a74 17c0
000001b0: f05f 98bd f839 8a3f 74d2 0ec0 bc7f 16c0
000001c0: ae66 26c0 14dc a03f 8670 04c0 107f 13c0
000001d0: 5d71 cb3f 1168 1cc0 f78a 20c0 05a7 1340
000001e0: b2bd 0d40 c518 ae3f 1f8e b53f d100 7a3f
000001f0: 0c19 a0bf a998 ac3f 3c4d 0b40 b0db fb3f
00000200: 9ae7 b7bf abe7 733f b5ea d53f bb91 04c0
00000210: c6a3 2040 51a1 0f40 8f83 d63e d4e9 0340
00000220: a2be ea3f 1d5e fb3f b216 8a3f 5328 76bf
00000230: 64a7 ea3f 216f ed3f 5ce1 0d40 8f7e 8dbf
00000240: bd01 893f 74e7 df3f 4cac eabf 6180 1440
00000250: 1fed f73f 85b9 a73f 102d ca3f dcbd 993f
00000260: 9b1b ad3f 5334 f63e f143 20bf c87a 843f
00000270: f7bd d83f 7276 cc3f 8775 3bbf 50c9 0b3f
00000280: 4b45 b53f 388e 89bf dcbe b63f db52 bb3f
00000290: 5180 9d3f 4d14 02c0 87e1 08c0 a42d f3bf
000002a0: 7193 31bf 9116 4d3f 5a6a fcbf 25d1 d1bf
000002b0: 169a 19c0 59e8 603f da18 c9bf 5a6c 12c0
000002c0: 7447 8a3f 1925 03c0 5c4f 0cc0 0b3e 9f3f
000002d0: 0ef3 8d3f b5bb 843f e434 a53f 6b4b 58be
000002e0: 419e 0fbf f89b 2e3f ce5b 613f be48 db3f
000002f0: dd29 15bf ca41 983e 7dc9 cd3f 8b2c 87bf
00000300: 5c7b 753f 87c9 c93f b194 9a3f 71b2 873f
00000310: 659d 823f 6c20 b43f 860d 983e 4af6 c3be
00000320: 1e18 903f d8bf 8b3f 7c82 bd3f 0b32 2dbf
00000330: a332 aa3e 58e2 cd3f 4b26 8ebf 64d3 923f
00000340: 170f b13f 448a ca3f 45e8 0f3f 631c e23c
00000350: e818 bbbd b6d6 3abc 5906 b3bf 8c48 22be
00000360: 55a2 ef3e 1f8e a43e 1555 a7bf eae0 063e
00000370: e2c9 a73d 4cfb 65bf a75b 0c3f 97d5 6c3e
00000380: 8beb 2abe

onnx::MatMul_35 f4 [15, 1]
-2.6860645 -1.4584745 -1.7348876 0.78150624 -0.3809917 -1.4492471 -2.1939898 -2.6072369
-0.49714905 -1.4542724 -2.0836895 -0.86831284 -2.5109384 -2.1087065 0.6855961
00000000: 7be8 2bc0 4baf babf cc10 debf cb10 483f
00000010: 5811 c3be ee80 b9bf 546a 0cc0 f8dc 26c0
00000020: 528a febe 9925 babf 2b5b 05c0 c049 5ebf
00000030: 37b3 20c0 0cf5 06c0 3a83 2f3f
