onnx/myModel_HL4_HD15_499.onnx (onnx, 6087 bytes, 11 tensors)

net.0.bias f4 [15]
00000000: d67e 1bc0 6172 3140 b19c 2440 0c52 58be
00000010: ba8d 40c0 57ab ac3f dae8 2bc0 c86c 21c0
00000020: 51fe 09c0 4973 1240 5878 0740 4edc 5340
00000030: 95f1 45c0 041c 3540 c648 3bc0
-2.4296165 2.7726061 2.5720637 -0.21125048 -3.0086503 1.3489789 -2.6860871 -2.5222645
-2.1561472 2.2882864 2.1167202 3.3103213 -3.09287 2.829835 -2.9263167

net.2.bias f4 [15]
00000000: 0e4a 4e3d bd84 d0be 6fb2 793e fc95 c3be
00000010: 1dbe ccbd c100 95bd bafd 903a b8f6 bdbd
00000020: 3ade 3bbe c6ce c2be d564 9dbe fe69 47be
00000030: 448b aa3c f610 4dbf 465c e9bd
0.050363593 -0.4072627 0.24384473 -0.38200366 -0.09997199 -0.072755344 0.0011061945 -0.092755735
-0.18346491 -0.3804838 -0.3074099 -0.19474027 0.02081836 -0.80104005 -0.11394553

net.4.bias f4 [15]
00000000: 6b5c c0bf 53ac f4bf b1e5 b2bf 6a33 c5bf
00000010: b280 cfbf 3cf6 e7bf 4a7b dcbf aca1 a5bf
00000020: ded3 b2bf 82b6 eebf 7830 fe3f 2cfc c3bf
00000030: 6aad d2bf b8da d9bf fbb5 dbbf
-1.5028204 -1.9115089 -1.3976346 -1.5406315 -1.621115 -1.812202 -1.7225125 -1.2939963
-1.3970907 -1.8649447 1.9858541 -1.5311332 -1.6459172 -1.7019873 -1.7164911

net.6.bias f4 [15]
00000000: ff6c e43d edd9 a33f 62e2 60bf ec77 82bf
00000010: 4439 a8bf ef7c 8dbf d443 6cbe e9d9 e4be
00000020: d69e 55bf c93f f8bf eb50 303f c1c1 a93e
00000030: a286 bebd 909e 12bf 2ed4 d4be
0.11153602 1.2800881 -0.8784543 -1.0192847 -1.3142476 -1.1053752 -0.2307275 -0.44697502
-0.8344549 -1.9394466 0.6887347 0.33155635 -0.09303023 -0.572732 -0.4156813

net.8.bias f4 [15]
00000000: aa39 69bf 3648 f23d af4a 83bf 771e a7bf
00000010: cf41 2ebf 93df 8cbf 6f88 633f af73 123f
00000020: 79d2 7d3f 949b 5ebf f6d2 39bf 561f 97bf
00000030: f385 81bf b932 9dbf 4fde 4b3f
-0.91103613 0.118301794 -1.0257167 -1.3056172 -0.68069166 -1.100573 0.88880056 0.5720777
0.9914928 -0.86956143 -0.72587526 -1.1806438 -1.0119003 -1.2281104 0.7963609

onnx::MatMul_37 f4 [2, 15]
00000000: bd83 b4bd d5d7 3c40 4253 963e da04 62c0
00000010: 2c77 ad3f bbce 9e3f 4297 983f d044 d0bf
00000020: a7b3 373f 2cf3 d9be 2398 b13f 6bf7 18c0
00000030: 566b 3cc0 6f2c 993e f163 9b3f d9bf fd3f
00000040: a22e 0cc0 1d23 b33f 4f10 9640 674d 0c3e
00000050: 889b 853f a5d7 1b3f eaf6 08bf c931 d53f
00000060: 9671 cd3f 98f1 18c0 ff4c d2be d4de 7d3f
00000070: 759c b83f 4084 58bf
-0.088141896 2.9506733 0.29360396 -3.531546 1.3551993 1.2406839 1.192116 -1.6271
0.717585 -0.42568338 1.3874553 -2.3901012 -2.9440513 0.29916713 1.2139875 1.9824172
-2.1903462 1.3995091 4.689491 0.13701402 1.0438089 0.6087592 -0.5350176 1.6655818
1.6050289 -2.3897457 -0.41074368 0.99168134 1.4422747 -0.845768

onnx::MatMul_38 f4 [15, 15]
00000000: 5959 943f 4c0f 0f40 f50b 853f 28d2 fb3f
00000010: d428 843f 64e4 bc3f bbdc eb3f fa53 ec3f
00000020: 3927 bc3f 8ce9 c63f d5ac 883e fbf6 863f
00000030: 50fc f73f a701 963f 4150 c03f a04f 113c
00000040: 7fd2 31bf 486f 2bbf c6a1 21bf c45f c7bf
00000050: 9321 50bf bc1e 993f 1348 78be 5718 043f
00000060: 5573 94bf 3cd3 19bc 7ce0 31bf 1215 1f3f
00000070: c192 2fc0 3ae5 12bf e247 87bf e2c9 19bf
00000080: b8c3 69bf 6201 97bf 3374 46bf 6212 6cbf
00000090: bc62 70bf 49b9 2140 9df3 36bf d393 0bbf
000000a0: d677 79be ca70 e83f 9ec5 a8bf 1682 a8be
000000b0: e463 4bbf 0752 81bf 245f 353f 3388 8f3e
000000c0: fc6a 6bbf 2129 453f 430b 0fbf e3bb 79bf
000000d0: af2c c040 aac4 afbf 37bd d13d c802 ebbf
000000e0: ca69 6bbe 30e6 38bf e02f 6d3f b25d 76bf
000000f0: ac40 b53f 6b58 bf3f d696 2940 005a c43f
00000100: 563e 0940 4dbe c13f 4aba cb3e 0cef f8be
00000110: 7a1c 493f a446 b03f 417c d03f 1df4 59bf
00000120: 0f9e 503f 223b 0e40 0147 aa3f 4706 48bf
00000130: a5aa bdbe bf7f ffbe e6ca 1cbf ddc6 31be
00000140: 8373 bebe 7adf 67be eb3f 0b40 ca60 d8bc
00000150: 631c ddbd 8a32 95be 3df0 b43f 9f79 32bf
00000160: 0fe5 dabe 9f4b 01bf 7477 5c3f 9fe4 de3f
00000170: 258c a93f d320 383f f1e8 c73f b027 843f
00000180: 181b 3a3f 1f0b df3f 8b6e 9e3f 23a0 9b3f
00000190: 527a 35bf eb49 eb3e 4590 433f 43cd e93f
000001a0: d722 673f 43d7 7240 bad3 1240 0f48 6940
000001b0: a9ff 3140 2b48 3d40 5e6c 3840 c107 f33e
000001c0: adaf dfbf a168 1040 5951 2040 b979 4440
000001d0: 5be3 8fbf 152e 4640 8b36 0a40 1669 1a40
000001e0: 3562 b93f 6831 0d40 a4f8 933f dac7 e33f
000001f0: afd4 9f3f 7aa4 a63f 8638 0b40 07ff de3f
00000200: be4f c03f 5e4e c93f b900 a93f be5d b33f
00000210: b1e1 e73f 02fa a63f b3a4 b03f e2e6 94bf
00000220: 60ae 99bf 44e9 9fbf 084e b4bf bcc3 b7bf
00000230: 0d74 e8bf 17f3 a2bf 67ed e43f 4b58 62bf
00000240: 17a6 b1bf 8d02 8cbe c684 7e3f 4be1 9fbf
00000250: 4f41 8bbf 24df babf f453 34bf f5f4 e8bf
00000260: 0666 9b3f 1fe9 5cbf f5ea 203f 70fc 30bf
00000270: d8e7 68c0 9ec2 babe 88ae 26c0 12e8 a7bf
00000280: 2220 b8bc 40da e9be 2af4 92bf 5ac9 35be
00000290: f234 9ebf 0ba7 90be 7369 28c0 4090 33bf
000002a0: 681f 56bf 055d 1bbf 3c6c afbe e9fd 37c0
000002b0: fcbc e4be 0e23 15c0 9c75 ddbf 40ab 5c3f
000002c0: 05dc ffbe da9a 00bf 7e4e b5bf 5fbe 76bf
000002d0: bd1a 4640 4531 fc3f 462e 1e40 ea0b 2f40
000002e0: d303 0040 e87a 3640 5595 be3d 6e31 1d40
000002f0: 0939 e83f 383c 0940 f271 4a41 5cb1 b83e
00000300: e03f 3440 7b02 883f b317 3b40 9e1c d8bf
00000310: eaef e6be 39b5 69bf 7d72 96bf 7191 18bf
00000320: bbf5 9dbf 0065 5cbf 5068 3940 9157 2bbf
00000330: c2c9 5dbf b591 44bf 1dae e43f 26be afbf
00000340: 3a4d 0cbf 0bb3 a8bf 1585 2c40 6941 0d40
00000350: dcc5 4e40 442e 2640 7a09 3b40 605f 2c40
00000360: 3aef 043f f168 ebbf 548b 0740 a256 e03f
00000370: 7eb9 ed3f 2dab edbf ec1c 1a40 94af 9f3f
00000380: c982 2940
1.1589767 2.2353086 1.0394274 1.967351 1.032496 1.4757199 1.8426737 1.8463128
1.469947 1.5540023 0.2669436 1.0544122 1.9373875 1.1719254 1.5024492 0.008869082
-0.69461817 -0.66966677 -0.6313747 -1.55761 -0.8130123 1.1962504 -0.24246244 0.5159964
-1.1597697 -0.009388741 -0.6948316 0.62141526 -2.7433321 -0.5738102 -1.0568812 -0.60073674
-0.9131427 -1.1797297 -0.77521056 -0.9221555 -0.93900657 2.526934 -0.71465474 -0.54522437
-0.2436212 1.815942 -1.3185308 -0.32911748 -0.79449296 -1.0103158 0.708483 0.280336
-0.9196012 0.7701588 -0.5587656 -0.9755232 6.0054545 -1.3731892 0.10241168 -1.8360224
-0.22989574 -0.7222624 0.92651176 -0.9623672 1.4160361 1.4948858 2.6498313 1.5339966
2.1444297 1.51362 0.39790565 -0.48619878 0.78559077 1.3771558 1.6287919 -0.8513811
0.8149118 2.2223592 1.3302919 -0.7813458 -0.37044254 -0.4990215 -0.612471 -0.17361017
-0.37197503 -0.22643843 2.1757762 -0.02641334 -0.1079643 -0.2914012 1.4135815 -0.6971683
-0.42752883 -0.50506014 0.8611977 1.741352 1.3245894 0.71925086 1.5617963 1.0324612
0.7269759 1.7425269 1.2377485 1.2158245 -0.7088977 0.45954832 0.7639201 1.8265766
0.90287536 3.7943885 2.2941728 3.645023 2.7812293 2.9575298 2.8816142 0.47466853
-1.7475487 2.256386 2.504965 3.0699294 -1.1241258 3.0965626 2.159579 2.412664
1.4483095 2.2061405 1.1560254 1.7795365 1.2486781 1.3018944 2.175325 1.7421578
1.5024335 1.5727041 1.3203346 1.4012983 1.811575 1.3045046 1.3800262 -1.163296
-1.200634 -1.2493062 -1.4086313 -1.4356608 -1.8160416 -1.2730435 1.788495 -0.88415974
-1.3878812 -0.27345696 0.99421346 -1.2490629 -1.0879306 -1.4599347 -0.704406 -1.8199755
1.214051 -0.86293215 0.62858516 -0.6913519 -3.6391506 -0.36476606 -2.6044025 -1.3117697
-0.02247626 -0.45674324 -1.1480763 -0.17752591 -1.2359908 -0.28252444 -2.631436 -0.70141983
-0.8364167 -0.6068881 -0.34262264 -2.8748724 -0.44675434 -2.3302646 -1.7301517 0.86198807
-0.4997255 -0.50236285 -1.4164579 -0.96384233 3.095382 1.9702536 2.4715743 2.7351022
2.0002334 2.8512516 0.093058266 2.456142 1.8142406 2.1443005 12.652819 0.36072814
2.8163986 1.0625757 2.9233215 -1.6883733 -0.45104915 -0.9129215 -1.1753689 -0.59596926
-1.2340616 -0.86091614 2.8969917 -0.6693049 -0.86635983 -0.7678483 1.7865635 -1.3729904
-0.5480534 -1.317964 2.6956227 2.2071173 3.2308264 2.5965738 2.9224534 2.6933212
0.5192753 -1.83914 2.117879 1.7526438 1.8572233 -1.8567864 2.4080153 1.2475457
2.6486075

onnx::MatMul_39 f4 [15, 15]
00000000: 012f 683f ab48 853f 9fe1 f03f 656c fe3e
00000010: 05c4 0f3f c9d1 2240 5540 163f 6722 9c3e
00000020: bf89 f53f 2669 903f f27c f4bf fe90 1240
00000030: 802b 3640 d585 383f 6495 803f b9d2 a83f
00000040: 7d84 ec3f 244b e93f beb2 ae3f 86d2 d23f
00000050: 0d9e 2740 0033 ee3f c76a aa3f 473c e13f
00000060: 621c 8a3f 814a 87bf 98d8 913f 423c ab3f
00000070: f177 f13f 0d50 a13f bf3f ae3f cfc1 a73f
00000080: deeb 2b3f 52a4 c33f c97f cb3f f5fe dc3f
00000090: 1270 a73f a648 ad3f 1fb5 3e3f 2846 f93f
000000a0: ee51 bfbf 6e83 c0bd 5b48 cc3d fbef b03f
000000b0: ca09 b33f 21a9 543f 7321 913f 266b a03f
000000c0: e903 8f3f 9684 5e3f 19df ea3f 7c1e 953f
000000d0: 8c43 133f 9245 893f 8785 b03f be75 bebf
000000e0: b701 f43f f838 e03f 502e 723f c4fa a23f
000000f0: 85b6 d43f 1851 f13f 54c6 733e ff28 da3f
00000100: ef2c c03f a640 aa3f 3739 dc3f 1269 c83f
00000110: d1cc d03e ce49 cd3f e382 b8bf f58e 37bf
00000120: 957e dbbe 913b f13f f6f1 b63f 1675 863f
00000130: 6820 d73f 2624 473f 06c0 883f 68ea 893f
00000140: bce2 df3f d4b8 9b3f 233a 1e3f 44d1 893f
00000150: 04ce ef3f 8c43 0cc0 c94f c93f 5f5b ab3f
00000160: 4b1e 983f cce7 c83f b7c8 1fbf e517 48bf
00000170: 8a57 4040 ac08 23bf 0191 8cbf 6c8a 6040
00000180: 4142 23bf b189 75bf 79c4 4f40 9b79 f9be
00000190: 4bf5 cbbe 9f6c 6e40 5831 8240 55c8 84bf
000001a0: 484d 9dbe 6cd5 eabf 260b 1ac0 5397 09c0
000001b0: 8bfe f9bf e98e f3bf 8a6a 24c0 02bc 15c0
000001c0: ed9c cdbf 45e0 04c0 5290 fdbf eb7a 2b40
000001d0: 7bb5 f2bf fdbf 1cc0 5e3b 0dc0 e58c 0cc0
000001e0: f88f 113e d943 e2bd 289b 0b40 1431 7ebe
000001f0: f33f 7a3b c7cd cd3f a71f 2dbe daee 7fbd
00000200: d338 0440 17f6 cc3e 08fa 44bf 090d 3840
00000210: 3806 3940 2dd4 12be 514d dc3e 5206 6b3f
00000220: 4e23 ce3f 6a5d 413f b8cb a43f d92e a63f
00000230: c122 d03f d823 b83f 71d0 3e3f 5e7f 673f
00000240: 79bc 803f c5e1 a0bf 115f 8a3f 7da0 3d3f
00000250: a999 ac3f a9b4 9c3f 15ef dabf 847d f3bf
00000260: e724 e13f ddae e0bf deb9 fabf a46c 623d
00000270: 286b c6bf 5a68 0ac0 940f 0b3f 11ba c5bf
00000280: 7c35 863f 1df0 8140 7175 5a40 a5e2 efbf
00000290: 771c b0bf 52ac c9bf c80f cfbf cb67 b1bf
000002a0: 6c28 cabf d5a3 a9bf 1583 f9bf 9c1d dbbf
000002b0: af36 72bf c30d aabf 9374 f7bf 095c 1140
000002c0: 5166 bfbf 9dc6 c8bf f13c c4bf a1cb d7bf
000002d0: 3a88 2a3f 89d9 0c3f 5602 f43f f536 133f
000002e0: 138a 913e 1720 0a40 5338 573f f2df cd3e
000002f0: a98c b43f c991 9c3f 6996 d0bf f525 1340
00000300: 274c 2a40 21f7 a73e adaf 4f3f fe2e f73f
00000310: 75e7 1240 8fc7 9cbf 9bcd 0f40 69b6 0340
00000320: 5172 cfbd 16c1 0940 25d4 d53f e564 78bf
00000330: f05a e03f cf9b 5bbf 646e bbbf 7f30 dabf
00000340: 946c 1a40 e1a0 e03f a09c 5f3f 4b87 783f
00000350: 6f18 663f 8854 193f 7971 663f 3602 d33f
00000360: ccda 8f3f bc22 b53e ed3a 9c3f b7ae b23f
00000370: ed5e d0bf 0a48 cb3f 2ee0 fb3f 71f8 603f
00000380: ed23 7f3f
0.9069672 1.0412802 1.8818854 0.49692073 0.5615848 2.5440543 0.5869191 0.30494997
1.9182662 1.1282089 -1.910063 2.2900996 2.846405 0.7207921 1.004559 1.3189307
1.8477932 1.8226056 1.3648298 1.6470497 2.6190217 1.8609314 1.3313836 1.759652
1.0789912 -1.0569612 1.1394224 1.3377764 1.8864728 1.2602555 1.3613204 1.3106021
0.6715678 1.5284522 1.5898372 1.7265307 1.3081076 1.3537796 0.7449512 1.9474535
-1.4946878 -0.09400068 0.09974738 1.3823236 1.3987362 0.8307057 1.1338333 1.2532699
1.1173068 0.8692106 1.8349334 1.1649928 0.57524943 1.0724356 1.3790749 -1.4879682
1.9063023 1.7517385 0.9460192 1.2732778 1.66182 1.8852873 0.23806125 1.7043761
1.5013713 1.3300979 1.720496 1.5657065 0.40781263 1.6038148 -1.4414943 -0.7170251
-0.42870012 1.8846303 1.4292591 1.0504482 1.6806765 0.77789533 1.0683601 1.077466
1.7491069 1.216578 0.6180746 1.0766988 1.8734746 -2.1916227 1.5727473 1.3387259
1.1884245 1.5695739 -0.6241564 -0.7816146 3.005343 -0.6368511 -1.0981752 3.5084486
-0.6377297 -0.95913225 3.2463667 -0.4872559 -0.3983558 3.7253797 4.0685234 -1.0373636
-0.30723023 -1.8346381 -2.4069304 -2.149861 -1.9530805 -1.9027988 -2.5690026 -2.3396
-1.6063515 -2.0761883 -1.9809668 2.6793773 -1.8961633 -2.449218 -2.2067485 -2.1960995
0.14215076 -0.11048097 2.181345 -0.2482341 0.003818509 1.6078423 -0.16906606 -0.062483646
2.0659683 0.40031502 -0.7694402 2.8757956 2.8910046 -0.14338751 0.43027738 0.9180652
1.6104524 0.75533164 1.287467 1.2983047 1.6260606 1.4385939 0.74536806 0.9042872
1.0057517 -1.2568899 1.0810262 0.7407301 1.3484393 1.2242633 -1.7104212 -1.9022679
1.7589387 -1.7553364 -1.9587972 0.05527939 -1.5501451 -2.162619 0.54320645 -1.5447408
1.0485072 4.0605607 3.413418 -1.8741041 -1.3758687 -1.5755713 -1.6176691 -1.38598
-1.5793586 -1.3253123 -1.9493128 -1.7118411 -0.9461469 -1.328545 -1.9332451 2.2712424
-1.49531 -1.5685612 -1.5331098 -1.6859018 0.66614115 0.5501943 1.9063213 0.5750573
0.28425655 2.1582086 0.8407032 0.4020992 1.4105426 1.223199 -1.6295902 2.2991917
2.660898 0.32805732 0.81127435 1.9311216 2.295377 -1.22484 2.2469242 2.0580084
-0.10129226 2.15241 1.6705366 -0.9702895 1.7527752 -0.8578462 -1.4643064 -1.704605
2.412877 1.7549096 0.87348366 0.9708144 0.8988103 0.5989461 0.90016896 1.648505
1.1238647 0.35378063 1.2205483 1.3959569 -1.6278969 1.588136 1.9677789 0.8787909
0.99664193

onnx::MatMul_40 f4 [15, 15]
00000000: cbd1 ce3f 1609 a3bf 0e0a 8c3f 4b48 843f
00000010: 74b8 a83f b93a 9b3f fbc6 d83e 0002 d73f
00000020: 58c2 a63e b388 ab3f e896 6fbf bfc6 cbbd
00000030: c650 653f 6d9a ba3f 4245 213e ea7f 1840
00000040: c8bb 31bf b4ba ec3f cc27 e83f 30b6 ff3f
00000050: a5e2 0040 67b6 903f 100f 1140 f9b0 823f
00000060: c393 0940 46f7 edbd b080 d63e a93d 0140
00000070: 9e01 3040 6b29 5b3f eb95 cdbf 8d08 cdbf
00000080: 8ec3 cdbf 66bc 84bf 7205 d4bf 5e9e b3bf
00000090: 493b 09c0 2ffa 01c0 eaed e6bf 1a7d f2be
000000a0: f1cc e4bf 7d06 08c0 cc6f 01c0 ad7e c8bf
000000b0: 9567 07c0 379b 0840 db43 91bf 37f8 c23f
000000c0: b1b0 7f3f 080a cd3f 2918 c13f decd 773e
000000d0: ad3f e63f 9d5e b93e 4c5b 9f3f 5871 fbbe
000000e0: 9b22 033d 9083 a33f 06f0 fd3f db8b 7f3e
000000f0: 28a8 0640 c1ae a0bf 0626 b03f 0dc3 8c3f
00000100: 0fa5 d63f 8253 e53f 3eee b13e 7ebb fc3f
00000110: 0433 213f 48d0 bf3f 5928 78bf 81ec 243e
00000120: d26e 993f 64d9 0740 bce2 ab3e 913f e5bf
00000130: 0bd5 61c0 3336 0bc0 7371 ebbf 432f ffbf
00000140: 8a51 d9bf 8441 2fc0 9d02 f6bf 13db 2dc0
00000150: 2aca d7bf 92fe 53c0 b26e 52c0 8cde 15c0
00000160: 4922 dcbf 2a4d 22c0 3dcf 0540 8bd0 59bf
00000170: ef3c db3f 34a4 b53f 68f5 df3f 9b3c ef3f
00000180: 0ef0 333f d263 d33f 16a9 3c3f 31a5 f73f
00000190: 88c0 aebe ae86 993e 65b2 993f aae9 0e40
000001a0: 9104 373e f77a af3f d112 c3bf 8396 0f3f
000001b0: dc96 283f 35e4 613f 87e5 973f c19e dabe
000001c0: d1ca 873f bade 67be a48e a93e a9eb d6bf
000001d0: 701c 0abf 60eb 0f3f 9c55 8b3f ab7f 5bbe
000001e0: 8adb b8bf 7917 fabf f588 a6bf 4d0a 74bf
000001f0: a2ef 82bf 5ddd 9cbf 7707 07c0 dbf5 a4bf
00000200: a53f debf c77b c0be a0dc 01c0 5872 1bc0
00000210: d071 e9bf 81f2 8fbf 1ddc 0fc0 23fb fd3f
00000220: dc2c 8abf 3b56 af3f 839c b73f 88a4 a53f
00000230: f18d 9e3f 7a53 4c3f ff99 de3f c639 303f
00000240: efc3 ea3f d701 3cbf 3820 3e3e 3ce7 ca3f
00000250: c62e d03f 773c 313f 1c68 44bf 0318 453f
00000260: 15ed fcbf 92d7 d7bf 0eed 1ac0 e352 ffbf
00000270: 8910 4fbf 820e 21bf 9cb8 94bf a4e8 8ec0
00000280: f187 153f c0b7 f5be ff16 73bf ec27 8dbf
00000290: 80ea 85bf f302 7dc0 5798 e9be a0d1 43c0
000002a0: 7881 0dc0 d05e 36c0 a49e 4ac0 e85b 25c0
000002b0: a206 62c0 6eff 14c0 b600 8ebf 4ba5 59bf
000002c0: 90a6 c1bf 76a8 4dc0 2c0e 63c0 5ab5 10c0
000002d0: 0a41 8dc0 589c d4bf e252 74c0 e82c 2fc0
000002e0: 68d3 4bc0 80ec 71c0 7c87 43c0 73dc 81c0
000002f0: 3abb 51c0 7368 cbbf aa81 b8bf 6447 0ac0
00000300: 6ad3 81c0 a9a4 82c0 f515 28c0 cd54 1740
00000310: a394 3bbf 299c bb3f e788 a03f ec08 d13f
00000320: 8da1 e53f f92f 523f cf3c fe3f b69c 2b3f
00000330: 68d0 ad3f 2412 aabe 5a23 533e 6c73 dd3f
00000340: 5689 1540 2235 de3e e528 b03f 4a47 97bf
00000350: 5a24 b43f 07fd 8e3f b963 ae3f b7d0 bd3f
00000360: a0f9 d13c 3be2 c43f bd2c 6c3e 99dd cf3f
00000370: d23e 61bf 54c5 1a3e 2889 813f 6581 ea3f
00000380: 0d9e d5bc
1.6157774 -1.2737148 1.0940568 1.0334562 1.3181291 1.2127296 0.4233931 1.6797485
0.32570148 1.3401092 -0.9358964 -0.09950017 0.89576375 1.4578377 0.15749076 2.3828073
-0.69427156 1.8494477 1.8137145 1.9977474 2.0138333 1.1305665 2.2665443 1.0210258
2.1496437 -0.11619429 0.41895056 2.0193884 2.7500987 0.85610074 -1.6061376 -1.6018234
-1.6075304 -1.0369995 -1.6564162 -1.4032705 -2.1442435 -2.030895 -1.8041356 -0.4736107
-1.7875043 -2.125396 -2.0224485 -1.5663658 -2.1156971 2.1344736 -1.1348833 1.5231999
0.99878985 1.6018686 1.5085498 0.24199626 1.7988182 0.36204997 1.2449737 -0.49109912
0.032015424 1.2774525 1.9838874 0.24955694 2.1040134 -1.2553331 1.3761604 1.0997025
1.6769122 1.791611 0.34752077 1.9744718 0.6296847 1.4985437 -0.96936566 0.16105844
1.1986945 2.1226435 0.33571422 -1.7910024 -3.528628 -2.175183 -1.8393997 -1.9936298
-1.6978009 -2.7383738 -1.9219548 -2.7164962 -1.685857 -3.3124127 -3.2880063 -2.3417082
-1.7197963 -2.5359597 2.0907738 -0.85083836 1.712797 1.4190736 1.7496767 1.869037
0.7028817 1.6514838 0.73695505 1.9347287 -0.34131265 0.29985565 1.2007567 2.2330117
0.17872836 1.3709401 -1.5240117 0.5608904 0.65855193 0.8823884 1.1866921 -0.42699245
1.060877 -0.22643557 0.3311664 -1.6790668 -0.5394964 0.5621853 1.0885501 -0.2143542
-1.4441998 -1.9538413 -1.3010546 -0.9532822 -1.022938 -1.2255055 -2.1098306 -1.2887529
-1.7363173 -0.37594435 -2.029091 -2.428854 -1.8237858 -1.1245881 -2.2478096 1.9842266
-1.079494 1.369819 1.4344639 1.2940836 1.2387067 0.79814875 1.7390746 0.68838155
1.8341044 -0.7344031 0.18566978 1.5851817 1.6264274 0.6923289 -0.7672136 0.76989764
-1.9759852 -1.6862662 -2.4207187 -1.994717 -0.80884606 -0.6291276 -1.1618838 -4.4658985
0.58410555 -0.47991753 -0.94956964 -1.1027808 -1.0462189 -3.953305 -0.4562404 -3.0596695
-2.2110271 -2.849537 -3.1659327 -2.5837345 -3.5316548 -2.3280902 -1.1093967 -0.8501784
-1.5128956 -3.213407 -3.54774 -2.2610688 -4.4141893 -1.6610212 -3.8175588 -2.7371159
-3.1847782 -3.7800598 -3.0551443 -4.0581603 -3.2770524 -1.589125 -1.441457 -2.1606073
-4.0570574 -4.0826 -2.6263402 2.3645508 -0.73273677 1.4657031 1.2541779 1.6330848
1.7939926 0.8210445 1.9862307 0.67035997 1.3579226 -0.33216965 0.20618954 1.7300849
2.3365073 0.43399912 1.376248 -1.1818631 1.4073594 1.1170968 1.3624183 1.482932
0.025631726 1.538154 0.23063941 1.6239501 -0.8798648 0.15114337 1.0119982 1.8320738
-0.026076341

onnx::MatMul_41 f4 [15, 15]
00000000: 6f26 c93f 71c7 09bf 1dc8 f63f 7ad9 2740
00000010: 2037 a43f 8bef e83f d96d c3bf 7a98 8ebf
00000020: 8101 eebf 53c6 bd3f 4705 bd3f d89c 0540
00000030: 42ee f23f 8357 1f40 4e02 e7bf c2f6 de3f
00000040: 3eee d9bf 8925 ca3f 17d1 f73f 803e e63f
00000050: 69da 0340 ee2e 04c0 4e4a c6bf e55b 0fc0
00000060: 18b2 f03f 6f86 e13f 58b4 e53f b6ae d33f
00000070: 15e8 dc3f 1e48 f1bf 4c88 713f 9037 9f3e
00000080: 7473 843f 56d8 a93f 23b6 c13e 41a2 603f
00000090: b45b 19bf 27f5 bebe 7cea 2dbf e288 e93e
000000a0: b5e6 763e b1b5 863f 915d 4f3f 577e 7f3f
000000b0: ae78 99be 5ff8 ebbe f10a 1a3f 0b9d c4be
000000c0: d1bd 4e3e 8537 e7be 0b30 08be ea0f 223e
000000d0: 585b 3d3f a162 bd3e 423b b8be 9aa0 ffbe
000000e0: dfe7 883e fddc 8cbe 3aca 583e 7da1 203f
000000f0: ff80 d23e 01d9 c1bd 678b 5b3f df67 b03f
00000100: 40d9 833d 12a2 713f 76a3 33bf 110b b7bd
00000110: 3ca4 45bf eb5b 043f fb87 5f3e a676 9d3f
00000120: 541e 513f c378 ae3f f343 1cbf f38a 1b3f
00000130: dce9 033e d91e 193f 7d3b cd3f a3a7 eb3e
00000140: 07ce 733f f56b 46bf 4ab5 95be e39b 77bf
00000150: 3279 173f 00c3 ef3e 3e37 793f a832 213f
00000160: c3b8 893f 9a24 02bf 8a51 b9bd fab7 db3e
00000170: 8be1 083e dd8a 003f ed77 b7be c3b7 903e
00000180: 2fd4 a7be 2210 71bd ad83 8cbe 8f2e 60be
00000190: f68d 2bbe 93b2 943e 922f fe3c 2c99 f13e
000001a0: d5eb 67bc ee72 593f e953 5f3d ec59 993f
000001b0: 4e31 e43f 2afe 793e 4787 983f 0bbc 43bf
000001c0: 95cd a9be a350 96bf ddd1 553f a9ed 073f
000001d0: 1f20 b53f 83c6 983f 1502 c23f 1c3a 1bbf
000001e0: 3d31 153e 422c 133f d77f 0d3e e5b4 633e
000001f0: f12d 0ebf 89a2 073e 5a5a b1bd ab1b 7f3e
00000200: 0b4d 613e c944 32bd e36f 56be 8c07 103e
00000210: 7dff 8abc bfe7 123e 05fd 86bd 2f28 883f
00000220: 4a9e d3be 8633 a23f ea80 843f 94b0 1b3f
00000230: 97f4 883f c087 7abf 1101 08bf ad1c 89bf
00000240: 4374 5e3f f727 463f 74ca ae3f 782b 273f
00000250: 09bc 823f 76b9 81bf b7d4 af3f 07e6 8cbf
00000260: 829b 9c3f 041d c33f b115 833f f765 9c3f
00000270: 6024 d5bf edf7 c0bf 1af3 dabf 95b7 8e3f
00000280: 3ccb 713f 5e75 a53f 433b a73f d37d c83f
00000290: 5881 cabf c378 2f3f 9537 2bbe eb11 473f
000002a0: fc79 143f ce83 de3e 08ad 243f 0fab 6cbf
000002b0: 74ca 0cbf c69f 4dbf 5096 053f 62d6 4c3e
000002c0: 9661 7c3f 73c0 eb3e 9a6a 653f a842 24bf
000002d0: c56e cb3e 07e7 6c3e fb35 533f 467c a03f
000002e0: cf92 6d3e 39c8 623f 8657 f2be f91d 56be
000002f0: 419d 41bf 3fa8 d13e c2c0 243e 672a 8f3f
00000300: c92b f13e de52 543f 910a 17bf e7ae b53f
00000310: 8882 23bf 81f2 bc3f 9493 0740 f276 843f
00000320: 41bd 0040 6e98 c3bf 8d7c a1bf 47d9 ebbf
00000330: 6809 ad3f 81bd 7f3f 8a29 ec3f 0c33 e13f
00000340: de3d 1440 20e9 94bf fee7 673c 120e b03e
00000350: 0ca2 07be 6c9d 533e 2f44 edbd 418f c93c
00000360: c975 ffbc 693e a6bd ba2f 4ebe 2a03 a0bd
00000370: 4c91 ddbe ba65 273e 8f07 133d c8f2 a83c
00000380: b64b 86be
1.5714854 -0.5381995 1.927982 2.6226487 1.2829323 1.8198103 -1.5267898 -1.1140282
-1.8594209 1.4826149 1.4767236 2.087698 1.897896 2.4897163 -1.8047578 1.7419055
-1.7025831 1.5792705 1.9360684 1.7987823 2.0602057 -2.0653644 -1.5491426 -2.2399838
1.880435 1.7619151 1.7945662 1.6537693 1.7258326 -1.8850133 0.943486 0.31097078
1.0347733 1.3269145 0.37834272 0.8774758 -0.5990555 -0.3729641 -0.6793592 0.45612246
0.24111445 1.0524198 0.81002146 0.99802154 -0.29974884 -0.4608793 0.60172945 -0.38401064
0.20189597 -0.45159546 -0.13299577 0.15826383 0.73967505 0.3698931 -0.3598271 -0.49927217
0.26739404 -0.2751235 0.21170893 0.6274641 0.4111404 -0.09465218 0.85759586 1.3781699
0.064379215 0.94387925 -0.70171297 -0.089376576 -0.77203727 0.51702756 0.21829216 1.2301834
0.816869 1.3630604 -0.6104118 0.60758895 0.12882179 0.59812695 1.6033779 0.46026334
0.9523625 -0.7750848 -0.29239875 -0.9672224 0.59169304 0.4682846 0.9734992 0.6296792
1.075951 -0.508371 -0.090487555 0.429138 0.13367288 0.5021189 -0.35833684 0.282652
-0.3277907 -0.058853276 -0.2744421 -0.2189276 -0.16753373 0.2904249 0.031028543 0.47187173
-0.014155348 0.84940994 0.054523382 1.1980567 1.7827547 0.24413362 1.1916283 -0.76458806
-0.3316466 -1.1743358 0.8352335 0.53097016 1.4150428 1.1935581 1.5156885 -0.6063554
0.14569564 0.5748941 0.13818298 0.22236975 -0.5553885 0.13245596 -0.08659811 0.24912898
0.22002046 -0.04352263 -0.20941119 0.14065379 -0.01696753 0.14346217 -0.065912284 1.0637263
-0.41331702 1.2671974 1.0351841 0.6081631 1.0699643 -0.9786339 -0.5312663 -1.0711876
0.8689615 0.7740473 1.3655534 0.65300703 1.0213634 -1.0134723 1.373679 -1.1007699
1.2234957 1.524323 1.0240995 1.2218617 -1.6651726 -1.5075661 -1.7105439 1.1149775
0.94450736 1.2926443 1.306496 1.5663399 -1.5820723 0.6854364 -0.16720422 0.77761716
0.57998633 0.43459934 0.64326525 -0.92448515 -0.5499642 -0.8032192 0.52182484 0.20003656
0.98586404 0.46045265 0.89615786 -0.6416421 0.39732948 0.23135005 0.8250424 1.2537925
0.23200534 0.88586766 -0.473324 -0.20909871 -0.75630575 0.40948674 0.16089156 1.1184815
0.47103718 0.82938945 -0.590005 1.4194001 -0.6387105 1.4761506 2.1183825 1.0348799
2.0115511 -1.5280893 -1.2616135 -1.8425683 1.3518496 0.99898535 1.8450177 1.7593703
2.316276 -1.1633644 0.014154432 0.34385735 -0.1324541 0.2066552 -0.115852706 0.024604442
-0.031184094 -0.081173725 -0.20135394 -0.078131035 -0.43274915 0.163474 0.03589588 0.02062358
-0.26229638

onnx::MatMul_42 f4 [15, 1]
00000000: b77f 53bf eb4e 7a3e ef9a 50bf c925 88bf
00000010: 6cb8 75bf 72f8 7cbf de7c 663f 124a b93e
00000020: 288a 183f 9bbf 6ebf d004 84bf 4b4c 7dbf
00000030: 3bcb 83bf 5540 66bf 4060 153f
-0.8261675 0.24444167 -0.8148641 -1.0636531 -0.9598453 -0.988166 0.9003428 0.36189324
0.5958581 -0.93261117 -1.0313969 -0.9894454 -1.0296396 -0.8994191 0.5834999
