onnx/myModel_HL4_HD15_699.onnx (onnx, 6087 bytes, 11 tensors)

net.0.bias f4 [15]
0	0xc01c48d5	-2.4419453
1	0x4033b431	2.807873
2	0x40270d21	2.6101763
3	0x3d94f114	0.072725445
4	0xc0471b21	-3.1110308
5	0x3fb06b0f	1.3782672
6	0xc02821a4	-2.6270533
7	0xc01c009f	-2.437538
8	0xc00cdda3	-2.2010276
9	0x40149561	2.3216174
10	0x40170b9d	2.3600838
11	0x40721c13	3.7829635
12	0xc03b6dd1	-2.9285777
13	0x40385ae9	2.8805487
14	0xc03e5112	-2.9736981

net.2.bias f4 [15]
0	0x3b4e3209	0.0031462929
1	0xbeccf60f	-0.40031478
2	0x3e5eafcc	0.21746749
3	0xbec70aee	-0.38875526
4	0xbd97ff80	-0.0742178
5	0xbdb03a44	-0.08604863
6	0x3cb3dea6	0.021956753
7	0xbd8e58c9	-0.06950528
8	0xbe6090b2	-0.21930197
9	0xbebc5b5b	-0.3678845
10	0xbe9f501c	-0.31115806
11	0xbe5c3723	-0.21505408
12	0xbd58ea2a	-0.05295769
13	0xbf4ee4f1	-0.80818087
14	0xbdd7c95e	-0.105364546

net.4.bias f4 [15]
0	0xbfc787c7	-1.5588311
1	0xbff23597	-1.8922604
2	0xbfb2bdea	-1.3964207
3	0xbfc64f19	-1.5492889
4	0xbfce346b	-1.6109747
5	0xbfff617d	-1.9951626
6	0xbfd8cc82	-1.6937411
7	0xbfa861e0	-1.3154869
8	0xbfbb4315	-1.4629847
9	0xbfe79a55	-1.8093973
10	0x4002e291	2.0450785
11	0xbfc520bf	-1.5400618
12	0xbfdf7af7	-1.7459401
13	0xbfd3a504	-1.6534734
14	0xbfe3152b	-1.7740835

net.6.bias f4 [15]
0	0x3d9e5706	0.07731442
1	0x3fb3e794	1.4055047
2	0xbf900045	-1.1250082
3	0xbf152dd8	-0.58273077
4	0xbfb06909	-1.3782054
5	0xbfa4519a	-1.2837403
6	0xbe36cf6b	-0.17852561
7	0xbf26fc94	-0.65229154
8	0xbef3d1ab	-0.476209
9	0xbffcf786	-1.9763038
10	0x3f27cfd7	0.65551513
11	0x3efb4c68	0.4908173
12	0xbe3e6990	-0.18594956
13	0xbf1f6b86	-0.6227344
14	0xbef6c893	-0.481999

net.8.bias f4 [15]
0	0xbf6c7cc7	-0.92377895
1	0x3d3a2cdf	0.04545295
2	0xbf854d0f	-1.0414141
3	0xbfa7797b	-1.3083948
4	0xbf302c69	-0.68817765
5	0xbf8e3ded	-1.1112648
6	0x3f5d82f2	0.8652793
7	0x3f04bfa8	0.51854944
8	0x3f73fb40	0.9530525
9	0xbf616e59	-0.88059
10	0xbf3ba949	-0.73305184
11	0xbf990173	-1.1953567
12	0xbf830b23	-1.0237774
13	0xbf9e3bad	-1.2361962
14	0x3f4251af	0.7590589

onnx::MatMul_37 f4 [2, 15]
0	0xbd1940d4	-0.03741534
1	0x403aff42	2.9218297
2	0x3e6ec04c	0.23315543
3	0xc06c50a7	-3.6924226
4	0x3fb96119	1.4482757
5	0x3f9e5ad5	1.237147
6	0x3f9b3a59	1.2127181
7	0xbfcf1fac	-1.618154
8	0x3f45bff7	0.7724604
9	0xbeee7e09	-0.46580532
10	0x3fb57ed7	1.4179333
11	0xc025bdb7	-2.5897043
12	0xc038976e	-2.8842425
13	0x3e876f05	0.2645189
14	0x3f9eee8b	1.2416548
15	0x3ffa4c62	1.955456
16	0xc00d9e2b	-2.2127788
17	0x3fb21d2a	1.391515
18	0x409004c5	4.500582
19	0x3e13a9c3	0.14420228
20	0x3f8019b0	1.0007839
21	0x3f324c07	0.6964726
22	0xbf03f03a	-0.5153843
23	0x3fdc83aa	1.7227681
24	0x3fd512e5	1.6646391
25	0xc02343a3	-2.5510032
26	0xbeb15539	-0.34635332
27	0x3f774ea3	0.96604365
28	0x3fb531fe	1.4155881
29	0xbf5e2e95	-0.8678983

onnx::MatMul_38 f4 [15, 15]
0	0x3f977bd4	1.1834664
1	0x40115341	2.2707064
2	0x3f6ca228	0.9243493
3	0x4000dd6c	2.0135145
4	0x3f81fc6b	1.0155157
5	0x3fcac66d	1.5841805
6	0x3fea7147	1.831582
7	0x3fc27f6d	1.5195137
8	0x3fb614af	1.4225062
9	0x3fcaf35f	1.5855521
10	0x3e2e6094	0.17029029
11	0x3f705189	0.9387441
12	0x3ffcac8b	1.9740156
13	0x3f99f91f	1.2029151
14	0x3fc46bae	1.5345361
15	0xbba6afaa	-0.0050868588
16	0xbf207599	-0.6267944
17	0xbf4c0e8d	-0.797097
18	0xbf270de2	-0.6525556
19	0xbfc1d630	-1.514349
20	0xbf584879	-0.84485584
21	0x3fbbd418	1.4674101
22	0xbe6043f3	-0.2190092
23	0x3f16d879	0.5892406
24	0xbf9bc7c8	-1.2170343
25	0xbdc717af	-0.09721314
26	0xbf2cccdc	-0.6750009
27	0x3f19e9b0	0.60122204
28	0xc02c7625	-2.694711
29	0xbf106d67	-0.56416935
30	0xbf8cc1f9	-1.0996696
31	0xbf1a4934	-0.6026795
32	0xbf6d0531	-0.92586046
33	0xbf9cbbdf	-1.2244834
34	0xbf45da9a	-0.77286685
35	0xbf739428	-0.95147943
36	0xbf6ad335	-0.91728526
37	0x4020a9d9	2.5103667
38	0xbf3af004	-0.73022485
39	0xbf0bacf3	-0.54560775
40	0xbe6e91f2	-0.23297861
41	0x3fe47ac3	1.7849964
42	0xbfb0a4da	-1.3800309
43	0xbeb4c39c	-0.35305488
44	0xbf4eaa37	-0.8072848
45	0xbf635f43	-0.8881723
46	0x3f3f633f	0.7476081
47	0x3e4f1612	0.20223263
48	0xbf8238e7	-1.0173615
49	0x3f36b076	0.7136301
50	0xbf179190	-0.59206486
51	0xbf6702fb	-0.9023892
52	0x40dc5a0d	6.8859925
53	0xbfb333bd	-1.4000164
54	0x3dfdddac	0.12395796
55	0xbfebf7b4	-1.8434968
56	0xbf4145d5	-0.7549718
57	0xbf2778ac	-0.65418506
58	0x3f700da8	0.9377084
59	0xbf87ba01	-1.0603639
60	0x3fbe92d5	1.488856
61	0x3fbd75d4	1.4801583
62	0x403e8a2d	2.9771836
63	0x3fcc85c9	1.5978328
64	0x40176a80	2.3658752
65	0x3fc3b4e0	1.5289574
66	0x3eb3c08b	0.35107836
67	0xbeb1e4a1	-0.34744743
68	0x3f3f04d8	0.74616766
69	0x3fb19bef	1.3875712
70	0x3fdb6094	1.7138848
71	0xbf791232	-0.9729339
72	0x3f4954bf	0.7864494
73	0x400ed3ab	2.2316692
74	0x3fb9c017	1.4511746
75	0xbf5c8bc2	-0.86150753
76	0xbed51096	-0.41614217
77	0xbf12294f	-0.5709428
78	0xbf29e1c1	-0.663601
79	0xbe51bd70	-0.20482421
80	0xbec55725	-0.38543049
81	0xbe52e562	-0.20595315
82	0x40041403	2.0637214
83	0xbd78dcdb	-0.0607575
84	0xbe0676de	-0.13131282
85	0xbe913703	-0.28362283
86	0x3fbabe7b	1.458938
87	0xbf40e3a2	-0.7534734
88	0xbee15c3b	-0.4401568
89	0xbf0b1f18	-0.5434432
90	0x3f60a8e0	0.8775768
91	0x3fd6c990	1.6780262
92	0x3faf8eb7	1.3715428
93	0x3f3ece9c	0.7453401
94	0x3fd3e054	1.6552835
95	0x3f831f15	1.024386
96	0x3f406285	0.7515033
97	0x40000196	2.0000968
98	0x3f9b2fab	1.2123922
99	0x3f9ac034	1.2089906
100	0xbf37b020	-0.7175312
101	0x3ec6e6b5	0.3884789
102	0x3f2fd8ea	0.6869036
103	0x3fef2552	1.8683264
104	0x3f776843	0.96643466
105	0x407667d1	3.8500865
106	0x401d9dd0	2.462757
107	0x40802889	4.004948
108	0x40328b6c	2.7897596
109	0x403f5f52	2.990193
110	0x40346bce	2.8190799
111	0x3ef1bbb8	0.4721353
112	0xbfd942fc	-1.6973567
113	0x4028aeda	2.635672
114	0x402821c1	2.6270602
115	0x4060050b	3.5003078
116	0xbfa6b42e	-1.3023736
117	0x4041e6c9	3.029711
118	0x4009d7ea	2.1538033
119	0x401e420b	2.472781
120	0x3fb8415f	1.439495
121	0x400df645	2.218156
122	0x3f8c1a83	1.0945591
123	0x3fe3d8e2	1.7800562
124	0x3f9dc640	1.2326126
125	0x3fa3fe89	1.2812053
126	0x400c29fb	2.1900623
127	0x3ff157db	1.8854936
128	0x3fc2a5b1	1.5206815
129	0x3fc6de24	1.5536542
130	0x3facfb34	1.3514161
131	0x3fb0cdbd	1.3812786
132	0x3fec4cb5	1.8460909
133	0x3fa2c063	1.2714962
134	0x3fada3f4	1.356566
135	0xbf9921f5	-1.1963488
136	0xbf9ab0b5	-1.2085177
137	0xbf9f737b	-1.2457117
138	0xbfbae3ad	-1.4600731
139	0xbfb4c34f	-1.4122103
140	0xbff0c605	-1.8810431
141	0xbf9fb767	-1.2477845
142	0x3fb65a5e	1.4246328
143	0xbf62c0bf	-0.8857536
144	0xbfb1c220	-1.3887367
145	0xbe7a4aee	-0.24442646
146	0x3f62ddaa	0.8861948
147	0xbfa862bd	-1.3155133
148	0xbf8d93e5	-1.1060759
149	0xbfbf8635	-1.4962832
150	0xbf4f061b	-0.8086869
151	0xbfe9104c	-1.8208098
152	0x3ffc6b98	1.9720335
153	0xbf68db14	-0.90959287
154	0x3f8124ee	1.0089395
155	0xbf582cb5	-0.8444322
156	0xc074befe	-3.8241572
157	0xbeae7d4b	-0.34079966
158	0xc0361f6b	-2.8456676
159	0xbfabbd52	-1.3417151
160	0xbdc7b749	-0.09751756
161	0xbefe4264	-0.49660027
162	0xbfae25d3	-1.3605293
163	0xbe06a84f	-0.13150142
164	0xbfa5330c	-1.2906203
165	0xbe5e3708	-0.2170068
166	0xc02a5eeb	-2.6620433
167	0xbf4cce88	-0.8000264
168	0xbf46ec13	-0.7770397
169	0xbf24aa8e	-0.64322746
170	0xbe8d415f	-0.27588937
171	0xc04461a3	-3.0684593
172	0xbee3fd72	-0.445293
173	0xc0186bf1	-2.3815882
174	0xbfdc2e47	-1.7201623
175	0x3f735c22	0.9506246
176	0xbf22acb2	-0.6354476
177	0xbefd13f3	-0.49429283
178	0xbfc0e34f	-1.5069369
179	0xbf69d692	-0.91343033
180	0x4045ac18	3.0886288
181	0x40095244	2.145646
182	0x402de27c	2.7169485
183	0x402db5ed	2.7142289
184	0x400cde4f	2.2010686
185	0x40358231	2.8360713
186	0x3d9eff3b	0.07763525
187	0x40176633	2.3656127
188	0x3fe6d853	1.8034767
189	0x4012cb5e	2.2936625
190	0x4144319c	12.262112
191	0x3e540289	0.20704092
192	0x40349326	2.8214812
193	0x3f8c2311	1.0948201
194	0x403b1b8f	2.923557
195	0xbfdde786	-1.733628
196	0xbee5a2bc	-0.4485072
197	0xbf6d6bc4	-0.9274256
198	0xbf9c2bf9	-1.2200919
199	0xbf18f376	-0.5974649
200	0xbfa2163d	-1.2663037
201	0xbf56f72f	-0.8397092
202	0x4038c5a9	2.8870642
203	0xbf2ffb88	-0.6874318
204	0xbf5d73d8	-0.8650489
205	0xbf4227eb	-0.7584216
206	0x3fdfbc91	1.7479421
207	0xbfb83cc1	-1.4393541
208	0xbf124232	-0.57132256
209	0xbfaa786e	-1.3318002
210	0x4030ba36	2.7613654
211	0x4004f517	2.077459
212	0x405b8267	3.4298341
213	0x402ac81c	2.6684637
214	0x403d992e	2.9624743
215	0x402ff982	2.7496037
216	0x3f31e8ef	0.69496053
217	0xbffb9971	-1.9656202
218	0x4010ab5d	2.2604592
219	0x3fd7c9a9	1.6858417
220	0x40047529	2.069651
221	0xbfedcc65	-1.8578001
222	0x401ef62f	2.4837759
223	0x3f87cc2d	1.0609185
224	0x402f9287	2.7433183

onnx::MatMul_39 f4 [15, 15]
0	0x3f5a8492	0.85358536
1	0x3f874373	1.0567459
2	0x3fe71dd3	1.8055977
3	0x3f02f662	0.511572
4	0x3f1c174d	0.60973054
5	0x4011013c	2.2657003
6	0x3f202c78	0.62567854
7	0x3e81695f	0.25275704
8	0x3fe8e72a	1.8195546
9	0x3f88f0bb	1.0698465
10	0xbff93967	-1.9470643
11	0x401206d7	2.2816675
12	0x404874c7	3.1321275
13	0x3f4a17af	0.7894239
14	0x3f73a5f8	0.95175123
15	0x3fa08929	1.2541858
16	0x3fecdb39	1.8504401
17	0x3ff40329	1.9063464
18	0x3fa7dd40	1.3114395
19	0x3fcdd85a	1.608165
20	0x402a743d	2.6633446
21	0x3ff019ef	1.8757914
22	0x3fa02bcd	1.2513367
23	0x3feb6139	1.8389045
24	0x3f9b9d6c	1.2157416
25	0xbf855bef	-1.0418681
26	0x3f9c7db0	1.2225857
27	0x3f9e8648	1.2384729
28	0x3ff0a58f	1.8800524
29	0x3f9aa59a	1.2081788
30	0x3faff888	1.3747721
31	0x3fb054a2	1.3775828
32	0x3f492030	0.7856474
33	0x3fcc5d94	1.5966058
34	0x3fd7260a	1.6808484
35	0x3fdb68c6	1.7141349
36	0x3fb1c538	1.3888311
37	0x3fc74906	1.556916
38	0x3f5e84da	0.86921465
39	0x40057b40	2.0856476
40	0xbfb1d14b	-1.3891996
41	0xbebeee22	-0.37291056
42	0xbdc54ad4	-0.09633413
43	0x3fc13eff	1.509735
44	0x3faf2d4a	1.3685696
45	0x3f468a66	0.7755493
46	0x3f93da42	1.1550982
47	0x3fa06f42	1.2533953
48	0x3f8ec48b	1.115373
49	0x3f653687	0.8953633
50	0x3fea1de8	1.8290377
51	0x3f9bd29c	1.2173648
52	0x3ee15b12	0.44014794
53	0x3f90cb21	1.131199
54	0x3fb54e68	1.4164553
55	0xbfcc64ad	-1.5968224
56	0x40008656	2.0081992
57	0x3ff3348e	1.9000413
58	0x3f7ef58e	0.99593437
59	0x3f9d62f0	1.2295818
60	0x3fd02c96	1.6263607
61	0x3ff51739	1.9147712
62	0x3e94f231	0.29091027
63	0x3fdca0a1	1.723652
64	0x3fc52a23	1.5403484
65	0x3fa7fff8	1.312499
66	0x3fe25b30	1.7684078
67	0x3fcb8c6b	1.5902227
68	0x3ee799d6	0.45234555
69	0x3fd95f26	1.6982162
70	0xbfae76ef	-1.3630046
71	0xbf4d2d9a	-0.8014771
72	0xbf172948	-0.59047365
73	0x3ffa8daf	1.9574488
74	0x3fb05c16	1.3778102
75	0x3f752a67	0.95767826
76	0x3fda4410	1.7052021
77	0x3f2da5e9	0.67831284
78	0x3f87e404	1.061646
79	0x3f8cbfc6	1.0996025
80	0x3fdebe01	1.7401735
81	0x3fa3d87d	1.2800442
82	0x3e9a6821	0.3015757
83	0x3f83c2a3	1.0293773
84	0x3ff6108c	1.92238
85	0xc0153c39	-2.3318007
86	0x3fd6c6e7	1.677945
87	0x3faa19eb	1.328916
88	0x3f9f94c9	1.2467281
89	0x3fc1b95a	1.513469
90	0xbedb8105	-0.42871872
91	0xbf2ec29e	-0.6826571
92	0x405f3acb	3.4879634
93	0xbf14a669	-0.5806642
94	0xbf852b53	-1.0403847
95	0x405ee8e8	3.4829655
96	0xbf1502f2	-0.5820762
97	0xbf16566b	-0.58725613
98	0x4073739e	3.8039317
99	0xbedb335c	-0.42812622
100	0xbeaa74e1	-0.33292297
101	0x407d6b12	3.95966
102	0x4082d8d1	4.088967
103	0xbf8020f0	-1.0010052
104	0xbdd7b23a	-0.10532041
105	0xbff5922e	-1.9185236
106	0xc01a6c66	-2.412866
107	0xc009ab5d	-2.1510842
108	0xc0002d84	-2.002778
109	0xbff7b097	-1.9350766
110	0xc0312d46	-2.7683883
111	0xc014f968	-2.3277225
112	0xbfddb4db	-1.7320818
113	0xc00915a3	-2.1419456
114	0xbff579ea	-1.917783
115	0x402c1d4e	2.6892886
116	0xbff3aeec	-1.9037757
117	0xc0235f33	-2.5526855
118	0xc00cf959	-2.202719
119	0xc010d3a2	-2.262917
120	0x3e68a70a	0.2271997
121	0xbd7aaa73	-0.06119771
122	0x401a42e6	2.4103332
123	0xbe73e6ab	-0.23818462
124	0x3d241318	0.04005727
125	0x3fb2e34e	1.3975618
126	0xbe09ba1e	-0.13449904
127	0x3e233345	0.15937527
128	0x401b3a08	2.425417
129	0x3ee70aed	0.45125523
130	0xbf53aff7	-0.82690376
131	0x40360b90	2.8444557
132	0x403ed5a8	2.9817905
133	0xbdf424fa	-0.11921115
134	0x3ef97a21	0.4872599
135	0x3f54b180	0.83083344
136	0x3fd12f1d	1.6342503
137	0x3f3db779	0.7410808
138	0x3fa0543b	1.2525705
139	0x3fa30054	1.2734475
140	0x3fde251d	1.7355076
141	0x3fbf7add	1.495937
142	0x3f06b281	0.52616125
143	0x3f6a8e75	0.9162362
144	0x3f942d64	1.1576352
145	0xbfad31b8	-1.3530798
146	0x3fa3ef90	1.2807484
147	0x3f01d4db	0.50715417
148	0x3faed455	1.3658549
149	0x3f97a381	1.1846772
150	0xbfe631d6	-1.7983959
151	0xbfef35e0	-1.8688316
152	0x3fed49fe	1.8538206
153	0xbfdd0d32	-1.7269652
154	0xbff5ce43	-1.9203571
155	0x3e7ec2a7	0.24878941
156	0xbfbbab96	-1.4661739
157	0xc0172989	-2.36191
158	0x3f16d5ec	0.5892017
159	0xbfb65764	-1.424542
160	0x3f823cd7	1.0174817
161	0x4086413a	4.195462
162	0x4057b7da	3.3705964
163	0xbfe4e32a	-1.7881825
164	0xbfb8fe5a	-1.4452622
165	0xbfd6fd6f	-1.6796092
166	0xbfcf3912	-1.6189291
167	0xbfb5b9ca	-1.4197323
168	0xbfd312f9	-1.6490165
169	0xbfb02a26	-1.3762863
170	0xc00989b7	-2.1490304
171	0xbfd97f91	-1.6992055
172	0xbf8f1b1d	-1.1180149
173	0xbfb2f8ee	-1.3982217
174	0xbfedf03a	-1.8588936
175	0x400fdd99	2.2479002
176	0xbfc27171	-1.519087
177	0xbfdb8e53	-1.7152809
178	0xbfc5640c	-1.5421157
179	0xbfe1fb48	-1.765481
180	0x3f25ffc1	0.64843374
181	0x3f1add60	0.6049404
182	0x3ff3d915	1.9050623
183	0x3f1e27f2	0.617797
184	0x3eb3a735	0.35088506
185	0x4007a58c	2.1194792
186	0x3f6c53a1	0.9231511
187	0x3ecdf8f9	0.40229014
188	0x3fb3ff25	1.4062239
189	0x3fa93b45	1.3221213
190	0xbfd75dfe	-1.6825559
191	0x4012634c	2.2873106
192	0x402a307a	2.6592088
193	0x3eda5794	0.42644942
194	0x3f4c3367	0.79765934
195	0x3fed4c27	1.8538865
196	0x4013df21	2.3104937
197	0xbfaec78f	-1.365465
198	0x400f4a8e	2.2389255
199	0x40032d3e	2.0496364
200	0xbda6904a	-0.0813299
201	0x400c9535	2.1966069
202	0x3fc409fb	1.5315546
203	0xbf8d6e76	-1.1049335
204	0x3fef8dcf	1.8715152
205	0xbf4373e0	-0.76348686
206	0xbf9a43f8	-1.2051992
207	0xc0030d8e	-2.0477023
208	0x401caf87	2.4482133
209	0x3fd9cfca	1.7016537
210	0x3f4a9cbc	0.7914541
211	0x3f7d624c	0.98978114
212	0x3f56fe28	0.8398156
213	0x3f103c8b	0.5634238
214	0x3f661d3a	0.89888346
215	0x3fc2f1d7	1.5230054
216	0x3f962566	1.1730163
217	0x3d7a64e9	0.06113139
218	0x3fa05708	1.252656
219	0x3fb7f375	1.4371172
220	0xbfed1d84	-1.8524632
221	0x3fd48534	1.660315
222	0x40067aa5	2.1012356
223	0x3f669454	0.9007008
224	0x3f74234b	0.9536635

onnx::MatMul_40 f4 [15, 15]
0	0x3fd9b2b2	1.7007658
1	0xbfa3c0cb	-1.2793211
2	0x3f743dd3	0.95406836
3	0x3fa4e690	1.2882862
4	0x3fb946ec	1.4474769
5	0x3fa11d35	1.2587038
6	0x3ead0943	0.3379613
7	0x3fccafd0	1.5991154
8	0x3f20ff7d	0.62889844
9	0x3f9f4a33	1.2444519
10	0xbf7e25ba	-0.99276316
11	0xbe21c132	-0.15796354
12	0x3f26ff53	0.65233344
13	0x3fbf6c84	1.4954991
14	0x3e8cf489	0.27530316
15	0x401efe43	2.484269
16	0xbf6a319e	-0.9148196
17	0x3fdeee14	1.7416406
18	0x3fe9531c	1.8228488
19	0x4006053e	2.09407
20	0x40020ca5	2.0320218
21	0x3f94224f	1.157297
22	0x400ad4de	2.1692424
23	0x3f916be4	1.1361051
24	0x400837a7	2.1283967
25	0xbe40933a	-0.18806162
26	0x3ee1c4b5	0.44095388
27	0x3fe6ff68	1.8046694
28	0x40322502	2.7835088
29	0x3f705aec	0.93888736
30	0xbfd81ee9	-1.6884433
31	0xbfe9a3ce	-1.8253114
32	0xbffb3175	-1.9624468
33	0xbf2f3c9a	-0.68451846
34	0xbfd40809	-1.6564952
35	0xbfc423b8	-1.53234
36	0xc01a2251	-2.4083445
37	0xc0133229	-2.2999365
38	0xbf886eab	-1.0658773
39	0xbef935f4	-0.48673975
40	0xc00c1c02	-2.1892095
41	0xc01f359d	-2.4876473
42	0xc01b83f7	-2.4299295
43	0xbfd130ac	-1.6342978
44	0xbfdf777a	-1.7458336
45	0x400fc13a	2.2461686
46	0xbf9ca7b3	-1.2238678
47	0x3fabbc70	1.3416882
48	0x3f9426d8	1.1574354
49	0x3fd87786	1.6911476
50	0x3fc272d8	1.5191298
51	0x3e0d33bd	0.13789268
52	0x3fd8172a	1.6882069
53	0x3f23b917	0.639543
54	0x3f92a806	1.1457527
55	0xbf13f235	-0.57791454
56	0xbd2f95fb	-0.042867642
57	0x3f74b10f	0.9558267
58	0x40019efd	2.0253289
59	0x3ec53104	0.38513958
60	0x400b229e	2.1739879
61	0xbfa4082b	-1.2814993
62	0x3f9571a6	1.1675308
63	0x3faad7a4	1.3347058
64	0x3fd80d82	1.6879122
65	0x3fdeb3f2	1.7398665
66	0x3e817f68	0.25292516
67	0x3fec0920	1.8440285
68	0x3f722e99	0.9460235
69	0x3fb6d724	1.4284406
70	0xbf801421	-1.0006143
71	0x3de10cc6	0.109887645
72	0x3f6bf3bb	0.9216878
73	0x400748a4	2.1138086
74	0x3ef4c0ff	0.47803494
75	0xbfeac80e	-1.8342302
76	0xc07aeb32	-3.9206052
77	0xc01fcba7	-2.496805
78	0xbfbfc578	-1.4982138
79	0xc000fb16	-2.015325
80	0xbfea67df	-1.8312949
81	0xc03c7ada	-2.9449983
82	0xc0099137	-2.1494882
83	0xbfff46a2	-1.994343
84	0xbfdc6851	-1.7219335
85	0xc06e0edb	-3.7196567
86	0xc0674f78	-3.6142254
87	0xc02ae19f	-2.6700208
88	0xbfe290d2	-1.7700446
89	0xc007ba39	-2.1207411
90	0x400d1180	2.204193
91	0xbf952693	-1.1652397
92	0x3fc965b4	1.5734162
93	0x3fb72666	1.4308593
94	0x3feb48e1	1.8381616
95	0x3ff05d5c	1.8778491
96	0x3f304fe2	0.6887189
97	0x3fc53f02	1.5409853
98	0x3f6abe3a	0.9169651
99	0x3ff36063	1.901379
100	0xbf0261cf	-0.50930494
101	0x3e83b7a8	0.25726056
102	0x3f6e53b3	0.93096465
103	0x40118ca9	2.2742102
104	0x3e9b7b5c	0.30367553
105	0x3fb129db	1.3840898
106	0xbfaba5df	-1.3409995
107	0x3ea08886	0.3135416
108	0x3fb8e76e	1.4445627
109	0x3f5de769	0.8668123
110	0x3f8e5dfd	1.1122433
111	0xbf0be5b7	-0.5464739
112	0x3f728037	0.9472689
113	0x3ea42cce	0.32065433
114	0x3df86f2d	0.1213058
115	0xbfd166f2	-1.6359541
116	0xbf14c15a	-0.5810753
117	0x3eb26850	0.3484521
118	0x3f87a393	1.0596794
119	0xbd797dc7	-0.060910966
120	0xbfcfd388	-1.6236429
121	0xc007754d	-2.1165345
122	0xbfcd8368	-1.6055727
123	0xbec9464d	-0.39311448
124	0xbf83f821	-1.0310098
125	0xbfaf5e36	-1.3700626
126	0xc01039d8	-2.2535305
127	0xbfc6e02d	-1.5537163
128	0xbf830588	-1.0236063
129	0xbec66497	-0.3874862
130	0xc0149609	-2.3216574
131	0xc02ad657	-2.6693323
132	0xc005050b	-2.0784328
133	0xbfa07af8	-1.2537527
134	0xbff6b475	-1.9273821
135	0x40072df0	2.1121788
136	0xbfa0077f	-1.2502288
137	0x3f994128	1.1973009
138	0x3fb08e47	1.379342
139	0x3fb4769c	1.4098697
140	0x3fa3f3f4	1.2808824
141	0x3ef13f2e	0.47118515
142	0x3fd2f462	1.648083
143	0x3f72c7e3	0.9483625
144	0x3fe8de3e	1.8192823
145	0xbf7fab8f	-0.9987115
146	0xbe1105ba	-0.14162341
147	0x3f8ee883	1.1164707
148	0x3fd79dde	1.6845052
149	0x3f643ecd	0.89158326
150	0xbf5d012d	-0.8632992
151	0x3f6b6b0d	0.9196022
152	0xc012f3ed	-2.296138
153	0xbf244628	-0.6416955
154	0xc038680c	-2.8813505
155	0xc01ab2ab	-2.417155
156	0xbf3c0bea	-0.7345568
157	0xbf612a97	-0.8795561
158	0xbf3d9f01	-0.74070746
159	0xc095809d	-4.67195
160	0x3f11da18	0.5697341
161	0xbe9442eb	-0.28957304
162	0xbf83a0a5	-1.02834
163	0xbfa11293	-1.2583793
164	0xbf902ffe	-1.1264646
165	0xc07fd177	-3.9971597
166	0xbf21c197	-0.6318602
167	0xc05b8a2f	-3.430309
168	0xc0040450	-2.0627632
169	0xc037c664	-2.8714838
170	0xc0556934	-3.334546
171	0xc023a475	-2.5569127
172	0xc077ee52	-3.873921
173	0xbfda4b0d	-1.7054154
174	0xbf8e9c1c	-1.1141391
175	0xbf91ee7b	-1.1400903
176	0xbfce9895	-1.6140314
177	0xc0631e67	-3.5487306
178	0xc066b48f	-3.6047704
179	0xbffe5b33	-1.9871582
180	0xc09034df	-4.506454
181	0xbff88823	-1.9416546
182	0xc081b752	-4.053628
183	0xc026d1f8	-2.6065655
184	0xc0497a1d	-3.1480782
185	0xc0766884	-3.8501291
186	0xc0586a21	-3.3814776
187	0xc08888db	-4.266706
188	0xc0303960	-2.753502
189	0xbfc9a79e	-1.5754278
190	0xbffa9b86	-1.9578712
191	0xc02e2b2d	-2.7213852
192	0xc08f95bf	-4.4870296
193	0xc08567e0	-4.16893
194	0xc0120329	-2.2814429
195	0x401df44c	2.4680357
196	0xbf5f45f2	-0.87216103
197	0x3fa38e40	1.2777786
198	0x3facd9d5	1.3503977
199	0x3fd5f0ea	1.6714146
200	0x3fe13a72	1.7595961
201	0x3f4b6255	0.7944692
202	0x3fed229a	1.8526185
203	0x3f6a56fa	0.91538966
204	0x3fa6d3d2	1.3033392
205	0xbebefcf6	-0.3730237
206	0x3e5bc018	0.21459997
207	0x3fb9841f	1.4493445
208	0x4016db2b	2.357127
209	0x3f113010	0.5671396
210	0x3fbc6057	1.47169
211	0xbfad7fda	-1.3554642
212	0x3fab055c	1.336101
213	0x3f985ef8	1.1903982
214	0x3fc65a36	1.549628
215	0x3fcaccf5	1.5843798
216	0xbd8a57d9	-0.06755037
217	0x3fbdce9d	1.4828678
218	0x3ec67be6	0.38766402
219	0x3fcb5458	1.5885115
220	0xbf8766d7	-1.0578259
221	0x3c46c28a	0.012131343
222	0x3f3f735e	0.7478541
223	0x3ff1daa3	1.8894848
224	0x3d8e9f70	0.06964004

onnx::MatMul_41 f4 [15, 15]
0	0x3fb8fa0b	1.4451307
1	0xbef24cbb	-0.47324166
2	0x3fe84b64	1.8148007
3	0x402db60e	2.7142367
4	0x3f959936	1.1687381
5	0x3fe13017	1.7592801
6	0xbfb97d58	-1.4491377
7	0xbf831630	-1.0241146
8	0xbfe85abf	-1.8152694
9	0x3fae9bb2	1.3641264
10	0x3fad7a0c	1.3552871
11	0x4005360f	2.0814245
12	0x3fe93980	1.8220673
13	0x402498e9	2.571833
14	0xbfda773a	-1.7067635
15	0x3fdb3e0b	1.7128309
16	0xbfe0bfd5	-1.7558542
17	0x3fc5e717	1.5461148
18	0x3ff6b1ec	1.9273047
19	0x3fe4d2ef	1.7876872
20	0x40026dad	2.037944
21	0xc0056d0e	-2.0847812
22	0xbfc7a737	-1.5597905
23	0xc010fec1	-2.265549
24	0x3fee2b36	1.8606937
25	0x3fdfe688	1.7492228
26	0x3fe3b6d1	1.7790166
27	0x3fd05c68	1.62782
28	0x3fdc1458	1.7193708
29	0xbff2c683	-1.8966831
30	0x3f2eab72	0.68230355
31	0x3edfddfa	0.43724042
32	0x3f473e27	0.7782921
33	0x3f9b9790	1.2155628
34	0x3e09a6e7	0.13442574
35	0x3f289783	0.6585619
36	0xbec41103	-0.3829423
37	0xbe4b0719	-0.19826926
38	0xbf02a76e	-0.5103673
39	0x3e4724d2	0.1944764
40	0xbca9515a	-0.020668674
41	0x3f5e4b98	0.86834097
42	0x3f10e1d3	0.5659458
43	0x3f6063e9	0.8765245
44	0xbdb06511	-0.08613027
45	0xbf45edb7	-0.7731585
46	0x3f6b223e	0.91849124
47	0xbf2bd596	-0.6712278
48	0x3d2f3eb0	0.042784393
49	0xbf4ba7c2	-0.79552853
50	0xbec6c793	-0.38824138
51	0x3ee13658	0.43986773
52	0x3f86fba2	1.0545542
53	0x3f1d550b	0.6145789
54	0xbf2d6760	-0.6773586
55	0xbf5663ad	-0.83745843
56	0x3d3e8e64	0.046522513
57	0xbf0effa4	-0.55858827
58	0x3d1191ba	0.035539366
59	0x3f6c23cf	0.9224214
60	0x3edbe7a6	0.4295017
61	0xbed7301a	-0.42028886
62	0x3f4f1b3f	0.8090095
63	0x3fad04f6	1.3517139
64	0x3e88bebf	0.26708028
65	0x3f6404a7	0.890696
66	0xbf313e27	-0.6923546
67	0xbe9d8169	-0.30762795
68	0xbf3fd2fa	-0.749313
69	0x3f0ec4ff	0.5576934
70	0x3eb4a3e8	0.352813
71	0x3f92a203	1.1455692
72	0x3f50a206	0.8149723
73	0x3fa9bd26	1.3260849
74	0xbf27b8de	-0.6551646
75	0x3ede682f	0.4343886
76	0x3cda670c	0.026660465
77	0x3ec617db	0.38690075
78	0x3fc1f022	1.5151408
79	0x3edcf52e	0.43155807
80	0x3f439d78	0.76412153
81	0xbf1ad622	-0.6048299
82	0xbe94c509	-0.29056576
83	0xbf4f30b9	-0.8093372
84	0x3ede7eb9	0.43456057
85	0x3ec30347	0.38088438
86	0x3f4d1f93	0.80126303
87	0x3eea0d4c	0.4571327
88	0x3f79c37e	0.9756392
89	0xbebc079e	-0.3672456
90	0xbccb5201	-0.024819376
91	0x3eb13d7f	0.3461723
92	0x3e48529c	0.19562763
93	0x3f1c60e8	0.6108537
94	0xbe8ea6c9	-0.27861622
95	0x3ebbdf27	0.3669369
96	0xbee61883	-0.44940576
97	0xbe0d1ae0	-0.13779783
98	0xbecf4db5	-0.40488973
99	0xbe1158bf	-0.1419401
100	0xbda81595	-0.082072414
101	0x3ec2fa15	0.38081422
102	0x3dd9fd8d	0.10644064
103	0x3f13a9df	0.5768108
104	0xbde8be32	-0.11364402
105	0x3f09d520	0.5384083
106	0x3e8169cb	0.25276026
107	0x3f660f72	0.8986732
108	0x3fdc0321	1.7188455
109	0xbd151d82	-0.036405094
110	0x3f747ba2	0.9550115
111	0xbf039947	-0.5140576
112	0xbdab85b6	-0.08375113
113	0xbf775eea	-0.966292
114	0x3f0817f8	0.53161573
115	0x3e6e4ccf	0.23271488
116	0x3f9f3297	1.2437314
117	0x3f6d88b8	0.9278674
118	0x3fb839ae	1.4392602
119	0xbeaa9028	-0.33313107
120	0xbe8360fe	-0.25659937
121	0x3f781783	0.96910876
122	0xbe7e558e	-0.24837324
123	0xbbfddf51	-0.0077475687
124	0xbf7f35f1	-0.99691683
125	0xbe4b23aa	-0.19837824
126	0x3e7c8843	0.24661355
127	0x3f23b515	0.63948184
128	0x3effe7e4	0.49981606
129	0xbee5efea	-0.44909602
130	0xbf25d664	-0.6478026
131	0xbe21a9ad	-0.15787382
132	0xbec96a91	-0.39339116
133	0xbddb5a5d	-0.10710595
134	0x3e96e7f8	0.29473853
135	0x3f99a702	1.2004092
136	0xbf1ee234	-0.6206391
137	0x3fb11d28	1.3837023
138	0x3f90b449	1.1305019
139	0x3f458d81	0.7716904
140	0x3f97406a	1.1816533
141	0xbf8ef833	-1.1169494
142	0xbf383e25	-0.71969825
143	0xbf9a31a0	-1.2046394
144	0x3f81a239	1.0127631
145	0x3f6e5cc3	0.93110293
146	0x3fb927a2	1.446522
147	0x3f4a7324	0.7908194
148	0x3f8e97d7	1.1140088
149	0xbf95c5d1	-1.1700994
150	0x3fa87a32	1.3162291
151	0xbf8df22a	-1.1089528
152	0x3f960f41	1.1723405
153	0x3fbf5c58	1.4950056
154	0x3f7bd392	0.98369706
155	0x3f95f771	1.1716138
156	0xbfd1dedd	-1.6396137
157	0xbfbd7b0d	-1.4803177
158	0xbfd8703d	-1.6909252
159	0x3f889cf9	1.0672904
160	0x3f687674	0.90805745
161	0x3fa0d7c0	1.2565842
162	0x3fa16309	1.2608348
163	0x3fc516a9	1.539754
164	0xbfc6b59c	-1.5524173
165	0x3f531192	0.82448685
166	0xbea7bc24	-0.32760727
167	0x3f6bfaec	0.9217975
168	0x3f426d49	0.75948006
169	0x3f16e8d3	0.5894901
170	0x3f4c021e	0.7969073
171	0xbf8d38c0	-1.1032944
172	0xbf338812	-0.701295
173	0xbf7d47ee	-0.9893788
174	0x3f2c410b	0.6728675
175	0x3eb9ef43	0.36315355
176	0x3f938be1	1.1527063
177	0x3f1d5f41	0.6147347
178	0x3f89866e	1.074415
179	0xbf4e4c86	-0.80585515
180	0x3e7ec6db	0.24880545
181	0x3eac161f	0.33610627
182	0x3f2ec893	0.682748
183	0x3f9d963f	1.2311476
184	0x3d9c9a9d	0.07646678
185	0x3f49312e	0.7859067
186	0xbec9b3cd	-0.3939499
187	0xbdb399e6	-0.08769588
188	0xbf360c48	-0.7111249
189	0x3e87a003	0.26489267
190	0x3be6ccf8	0.007043477
191	0x3f859cc1	1.0438462
192	0x3eafd895	0.34344926
193	0x3f4c4b1d	0.79802114
194	0xbef95f79	-0.48705652
195	0x3fa52c4f	1.2904147
196	0xbf17ca24	-0.5929282
197	0x3fac6706	1.346894
198	0x4008815a	2.132895
199	0x3f6ee4e3	0.93318003
200	0x3ff52f42	1.9155047
201	0xbfb6d626	-1.4284103
202	0xbf97d1e4	-1.1860929
203	0xbfe1c790	-1.7639027
204	0x3f9da287	1.2315224
205	0x3f63245e	0.88727367
206	0x3fe3fc41	1.7811357
207	0x3fd4faa7	1.6638993
208	0x4014d3fb	2.3254383
209	0xbf87b82c	-1.060308
210	0xbe06c574	-0.1316126
211	0x3ef2285a	0.4729641
212	0xbe8bb1dc	-0.27284133
213	0x3e2061d0	0.15662313
214	0xbe8e9fd7	-0.27856323
215	0xbda2c8fc	-0.07948491
216	0x3d5fd5db	0.054647308
217	0x3d494ac3	0.049143564
218	0xbe176c8a	-0.14787498
219	0xbe62e8d8	-0.22159135
220	0xbf174c69	-0.5910097
221	0x3d996af0	0.074911
222	0xbdc5fd24	-0.09667423
223	0xbd2b4a42	-0.041818865
224	0xbe1e8150	-0.15479016

onnx::MatMul_42 f4 [15, 1]
0	0xbf55dd2f	-0.83540624
1	0x3e7bc061	0.24585105
2	0xbf52a20a	-0.822785
3	0xbf8737f3	-1.0563949
4	0xbf77f21a	-0.9685379
5	0xbf7cce2f	-0.9875211
6	0x3f65024f	0.8945665
7	0x3eb88161	0.36036208
8	0x3f171ae4	0.59025407
9	0xbf7061ad	-0.9389904
10	0xbf854720	-1.0412331
11	0xbf7c9e80	-0.9867935
12	0xbf837b25	-1.0271956
13	0xbf64a3fc	-0.8931272
14	0x3f14f383	0.5818407
