onnx/myModel_HL3_HD15_149.onnx (onnx, 4793 bytes, 9 tensors)

net.0.bias f4 [15]
0	0xc015578f	-2.3334692
1	0xbff40a09	-1.9065562
2	0xc013cb9e	-2.3093028
3	0xc0493d33	-3.1443603
4	0x40427a4b	3.0387142
5	0xc03b1307	-2.9230363
6	0x40065b6a	2.0993295
7	0x400c06db	2.1879184
8	0xbf3622f7	-0.711471
9	0xc01d97b1	-2.4623835
10	0x400f0ef6	2.2352881
11	0xc0125b06	-2.2868056
12	0x4027a5e3	2.6195
13	0x4029aa9a	2.6510377
14	0x40257f00	2.5858765

net.2.bias f4 [15]
0	0x3dc6e31f	0.09711289
1	0xbe1cab1c	-0.15299648
2	0x3e393d59	0.18089809
3	0x3da91c2e	0.08257328
4	0x3ea9b5db	0.33146557
5	0x3dfb2c67	0.122643284
6	0xbf222d3f	-0.6335029
7	0x3f286625	0.6578086
8	0x3e9c3fea	0.30517513
9	0x3efa256d	0.4885668
10	0x3f34f5ed	0.7068775
11	0x3f2bd571	0.6712256
12	0xbeb3d5b9	-0.35123995
13	0x3f34a803	0.70568866
14	0x3ddda013	0.10821547

net.4.bias f4 [15]
0	0xbf8c5382	-1.0962985
1	0xbee07001	-0.43835452
2	0xbf16d08e	-0.5891198
3	0xbf0ffec0	-0.5624809
4	0xbfbae400	-1.460083
5	0xbefbfd5c	-0.49216735
6	0xbf891b24	-1.0711408
7	0xbf96977c	-1.1764979
8	0xbf72baab	-0.9481608
9	0xbf63f9d6	-0.89053094
10	0xbf88c8c9	-1.0686275
11	0xbf4149f4	-0.7550347
12	0xbe97cb73	-0.29647407
13	0xbf28cc30	-0.65936565
14	0xbdcb238d	-0.0991889

net.6.bias f4 [15]
0	0x3ee3309d	0.44373026
1	0x3eac50c8	0.3365538
2	0x3e3f3581	0.18672754
3	0xbed9310d	-0.42420235
4	0xbf0c00ab	-0.5468852
5	0x3f11cad4	0.56950116
6	0x3e8b6d3f	0.27231786
7	0x3f2bf9d6	0.67178094
8	0xbf23a4b7	-0.6392321
9	0x3eaa4131	0.33252862
10	0x3f2a11cf	0.66433424
11	0xbf0da3fe	-0.5532836
12	0x3ebb5ffa	0.36596662
13	0x3eaf9e2b	0.3430036
14	0xbf00c619	-0.50302273

onnx::MatMul_31 f4 [2, 15]
0	0xbefe7df0	-0.49705458
1	0xbfc45d55	-1.5340983
2	0x3f4d9873	0.80310744
3	0x3fa0e8ef	1.2571086
4	0x3f6ba489	0.92047936
5	0xbfdfc6f2	-1.7482588
6	0xbff74c75	-1.9320208
7	0xbf1a4112	-0.6025554
8	0xbff6449d	-1.9239689
9	0xc00f7417	-2.2414606
10	0x3faa610b	1.3310865
11	0x3f7f9247	0.99832577
12	0xbef7c0fb	-0.4838942
13	0x3e69d2b4	0.22834283
14	0xbc020a70	-0.007937059
15	0x3fd124e8	1.6339388
16	0xbcc26176	-0.023728114
17	0x3fb1e420	1.3897743
18	0x3d40115c	0.046891555
19	0xbfb24f78	-1.3930502
20	0x3f40d69a	0.75327456
21	0xbed9ea9e	-0.4256181
22	0x3f823404	1.0172124
23	0x404cf90f	3.2027013
24	0x3f371584	0.71517205
25	0x3fbedc47	1.4910973
26	0x3edb8dfe	0.4288177
27	0x3fb31d34	1.3993287
28	0x3fbd4b08	1.4788523
29	0x3fb53942	1.4158099

onnx::MatMul_32 f4 [15, 15]
0	0xbf074349	-0.52837044
1	0xbfad19d4	-1.3523507
2	0x3ff605fe	1.9220579
3	0x3fc05cb9	1.5028297
4	0x3fee1cb4	1.860251
5	0x3fa30edf	1.2738913
6	0x3f5fdd11	0.87446696
7	0x3fa93c1b	1.3221468
8	0x3fb342f8	1.4004812
9	0x3fbac5f9	1.4591666
10	0x3f822dd2	1.0170233
11	0x3f7a64db	0.97810143
12	0xbf7a29f8	-0.9772029
13	0x3fbf02fc	1.4922786
14	0x3d5fb832	0.05461902
15	0xbe08396d	-0.13303156
16	0xbfe30197	-1.773486
17	0x3fe45772	1.7839186
18	0x4008e3f1	2.1389124
19	0x3fb0d6b8	1.3815527
20	0x3fc98df7	1.5746449
21	0xbfb078a1	-1.3786813
22	0x3f816457	1.0108746
23	0x401dc52c	2.4651594
24	0x3fedaf97	1.8569211
25	0x400f029a	2.2345338
26	0x3fb810e4	1.4380155
27	0xc01cbb57	-2.4489343
28	0x3fa855dd	1.3151203
29	0x409209fe	4.5637197
30	0xbf14b71e	-0.58091915
31	0xbfff39bd	-1.9939495
32	0x400fdd9f	2.2479017
33	0x3fd89f71	1.6923658
34	0x3ff83406	1.9390876
35	0x3ff4f36d	1.9136788
36	0x3eeef942	0.46674544
37	0x3fbb9e1e	1.4657629
38	0x3fd8a5e0	1.6925621
39	0x3fa8c5da	1.318538
40	0x3fbe0701	1.4845887
41	0x3fc347ee	1.5256326
42	0xbf8b3c38	-1.0877752
43	0x3fb9943b	1.4498361
44	0x3cf01a94	0.029309548
45	0x3ee1e5cb	0.4412063
46	0xc0189caa	-2.384562
47	0x40378ac5	2.8678448
48	0x4022835f	2.5392683
49	0x405fab4c	3.4948301
50	0x403847c8	2.8793812
51	0xbf9d8e9c	-1.2309146
52	0x403dea9f	2.9674451
53	0x4036466f	2.848049
54	0x405b4289	3.425936
55	0x401fb8a4	2.4956446
56	0x4050689a	3.2563844
57	0xbff3a8fa	-1.9035943
58	0x404acb48	3.1686573
59	0x403cd5a5	2.9505398
60	0x3da0693d	0.078325726
61	0x3ed49fd5	0.41528192
62	0xbf36521e	-0.7121905
63	0xbf68d130	-0.90944195
64	0x3dd19dbb	0.10235163
65	0xbf0e8ee4	-0.55686784
66	0xbed022c4	-0.40651524
67	0x3e086b8c	0.13322276
68	0x3e7af73b	0.24508373
69	0x3dfe2999	0.12410278
70	0x3e032e4b	0.12810628
71	0x3e9bc52d	0.3042387
72	0xbe42eab4	-0.19034845
73	0xbe23c18b	-0.159918
74	0x3f4293dc	0.76006866
75	0x3f6e1d13	0.93013114
76	0xbead5a04	-0.3385774
77	0x3f3c7209	0.73611504
78	0x3f3018dd	0.6878794
79	0x3fa0d551	1.2565099
80	0x3f67cc97	0.90546554
81	0x3f8d1494	1.1021905
82	0x3fa6bcef	1.3026408
83	0x3f9d8f88	1.2309427
84	0x3fb1afa5	1.3881727
85	0x3f91b300	1.1382751
86	0x3f31918a	0.693627
87	0xbf8cc31c	-1.0997043
88	0x3fb2ab4a	1.3958523
89	0x4092a06e	4.5820837
90	0x3eccd942	0.40009505
91	0x3e30245a	0.17201367
92	0xbf26fcec	-0.6522968
93	0xbf32177f	-0.695671
94	0xbe3afaf2	-0.1825979
95	0xbf768a0c	-0.9630439
96	0xbee290da	-0.44251138
97	0xbdd55a1f	-0.1041758
98	0xbdb241d8	-0.08703965
99	0x3d8dd9a7	0.069262795
100	0xbe4f244f	-0.20228694
101	0x3de7fef0	0.11327922
102	0xbebeca69	-0.37263802
103	0xbedb43e8	-0.42825246
104	0x3eb5d895	0.355168
105	0x3f1232d8	0.5710883
106	0x3ed27dab	0.41111502
107	0xbf141132	-0.5783874
108	0xbf95aeb0	-1.1693935
109	0xbf0c7dbe	-0.5487937
110	0xbf5d1984	-0.8636706
111	0x3f7cb708	0.98716784
112	0xbf1dc450	-0.61627674
113	0xbf76e045	-0.9643596
114	0xbf99321e	-1.196842
115	0xbf23c1b4	-0.6396744
116	0xbeaafdb6	-0.3339669
117	0x3e49a6f1	0.1969259
118	0xbf213277	-0.6296763
119	0xbef6516d	-0.48108998
120	0xbf157375	-0.583793
121	0xbf0becac	-0.5465801
122	0x3f2d7236	0.677524
123	0x3f622511	0.8833781
124	0xbec85421	-0.39126685
125	0x3f1d975b	0.61559075
126	0x3f1ff91c	0.62489486
127	0xbf031f76	-0.5121988
128	0xbcdf2568	-0.027239516
129	0xbd931c28	-0.07183105
130	0x3e9bac92	0.30405098
131	0xbf1edf7e	-0.6205977
132	0xbecb11b7	-0.39661953
133	0xbeb61913	-0.35566005
134	0xbf84a696	-1.0363338
135	0x3f85662f	1.0421809
136	0xbf542df0	-0.82882595
137	0x3f8b659d	1.0890385
138	0x3f741f1c	0.9535997
139	0x3fad75d9	1.3551589
140	0x3fa6eddd	1.304134
141	0x3f4e2d3a	0.8053776
142	0x3fa33463	1.2750362
143	0x3f9f1847	1.2429284
144	0x3fb84610	1.4396381
145	0x3f6d13fd	0.92608625
146	0x3f941998	1.157031
147	0xbf960234	-1.1719422
148	0x3fc6c8f5	1.5530077
149	0x40bf2825	5.9736505
150	0x3f24bf64	0.6435454
151	0x3f2e0f97	0.6799254
152	0xbf64f270	-0.8943243
153	0xbf44992b	-0.76796216
154	0xbf6c14e3	-0.9221937
155	0xbf622839	-0.88342625
156	0x3f805987	1.0027322
157	0xbf5695a7	-0.838221
158	0xbf9d9703	-1.231171
159	0xbf4ab961	-0.79189116
160	0xbf6b147a	-0.9182812
161	0xbf2bb9e6	-0.67080534
162	0x3fbece10	1.4906635
163	0xbf622626	-0.8833946
164	0xbeb12cfa	-0.34604627
165	0xbe3b2ee6	-0.18279609
166	0xbfa6bffd	-1.302734
167	0x3fc01790	1.5007191
168	0x3fad50f5	1.3540331
169	0x3f6d19c8	0.92617464
170	0x3f8f27d3	1.1184028
171	0x3f2525ed	0.64510995
172	0x3f6a462c	0.91513324
173	0x3f877bb6	1.0584629
174	0x3f8527b6	1.0402744
175	0x3f9cb153	1.2241615
176	0x3fa429d2	1.2825263
177	0xbf23283a	-0.63733256
178	0x3f719610	0.943696
179	0x3d406ba2	0.046977647
180	0x3f75b80c	0.9598396
181	0x3f9cd660	1.2252922
182	0xbf8191ae	-1.0122583
183	0xbf43c1ed	-0.7646778
184	0xbf60f8ec	-0.87879825
185	0xbf4ad747	-0.7923474
186	0x40144311	2.3165934
187	0xbf9d6789	-1.2297221
188	0xbfb5cf05	-1.4203802
189	0xbfc65c61	-1.5496942
190	0xbfa893cf	-1.3170108
191	0xbfc2c18b	-1.5215315
192	0x3fab4367	1.3379945
193	0xbf92ff69	-1.1484195
194	0xbf2fad62	-0.68623936
195	0x3f2d0f2a	0.67601264
196	0x3fca541f	1.5806922
197	0xbf50d4a6	-0.81574476
198	0xbf90a0a3	-1.1299022
199	0xbf8284bb	-1.0196756
200	0xbf421eaf	-0.7582807
201	0x40292b3c	2.6432638
202	0xbf8fb104	-1.1225896
203	0xbf816d05	-1.0111395
204	0xbfb8d38f	-1.4439563
205	0xbfc7fc7c	-1.5623927
206	0xbfd9e548	-1.7023096
207	0x3fdf869f	1.7462958
208	0xbfae09c6	-1.3596733
209	0xbf3c3761	-0.73522
210	0x3f3e4442	0.74322903
211	0x3f98f437	1.1949528
212	0xbf196aed	-0.5992878
213	0xbf5df566	-0.86702573
214	0xbfa31072	-1.2739394
215	0xbf18fd79	-0.5976177
216	0x402cd993	2.7007797
217	0xbf977871	-1.1833631
218	0xbfa9eb45	-1.3274924
219	0xbf92bf78	-1.1464682
220	0xbfb47b29	-1.4100085
221	0xbfa9f40c	-1.3277602
222	0x3fb23e89	1.3925334
223	0xbf633ce9	-0.88764817
224	0xbf351369	-0.7073274

onnx::MatMul_33 f4 [15, 15]
0	0xbf59adbb	-0.85030717
1	0x3db64867	0.089005284
2	0xbeca45d6	-0.39506406
3	0xbe3bb471	-0.18330552
4	0xbf851fad	-1.0400292
5	0xbe39ad1f	-0.18132447
6	0xbf8ce532	-1.1007445
7	0xbfa0caf9	-1.2561942
8	0xbf974624	-1.181828
9	0xbf6b18c4	-0.91834664
10	0xbf6962b0	-0.9116621
11	0xbeb8b833	-0.36078033
12	0xbeda4901	-0.42633823
13	0xbef9d715	-0.48796907
14	0xbe2d76d1	-0.16939856
15	0xc01265da	-2.2874665
16	0xbed386ea	-0.4131387
17	0xbfb9a1b5	-1.4502474
18	0xbf7d4985	-0.98940307
19	0xc01f5d7e	-2.4900813
20	0xbf88e94c	-1.0696197
21	0xbfafe903	-1.3742985
22	0xbf948f7c	-1.1606288
23	0xc0116e80	-2.2723694
24	0xc00074fb	-2.00714
25	0xbfc2868d	-1.5197312
26	0xbfc854f7	-1.5650929
27	0xbf8afe2c	-1.0858817
28	0xbfa63b13	-1.2986778
29	0xbf2d58d7	-0.67713684
30	0x3fee1e82	1.860306
31	0x3b1b8965	0.0023733017
32	0x3f691877	0.91052955
33	0x3e98a59c	0.2981385
34	0x3ff759cb	1.9324278
35	0x3f3f342c	0.7468898
36	0x3fef07c5	1.8674246
37	0x3fb34595	1.400561
38	0x3fd3b609	1.6539928
39	0x3fd5db4e	1.6707551
40	0x3faea41c	1.3643832
41	0x3faa1951	1.3288976
42	0x3f1eb516	0.61995065
43	0x3f91ee55	1.1400858
44	0xbbfbbb14	-0.0076822136
45	0x3fe4592d	1.7839714
46	0x3ed15dd1	0.4089189
47	0x3eb5133c	0.35366237
48	0x3f08ca4e	0.5343369
49	0x400637c5	2.097154
50	0x3f75f4ea	0.96076834
51	0x3f9e8658	1.2384748
52	0x3f6360da	0.8881966
53	0x400260bd	2.0371544
54	0x3fdc81ba	1.722709
55	0x3fcd810b	1.6055006
56	0x3f3c692a	0.7359797
57	0x3f63a0ef	0.8891744
58	0x3f88744d	1.0660492
59	0x3da1044f	0.0786215
60	0x3f391557	0.72298187
61	0xbed3e6cd	-0.41387025
62	0x3fcc3aea	1.5955479
63	0xbdac4463	-0.08411481
64	0x3f65905f	0.8967342
65	0x3e3ecad8	0.18632066
66	0x40055673	2.0834014
67	0x4005328d	2.0812104
68	0x3f863718	1.0485563
69	0x3f3c7a96	0.7362455
70	0x3f27d93d	0.65565854
71	0x3ff7ac07	1.9349374
72	0xbe0cc5bc	-0.13747305
73	0x3df4a9b4	0.11946431
74	0xbe99a583	-0.30009088
75	0x3f988ae6	1.1917388
76	0xbe83eb0d	-0.25765267
77	0x3f3806de	0.7188548
78	0x3ed8c095	0.42334428
79	0x3fbdacb7	1.4818333
80	0x3f394304	0.7236788
81	0x3fef28e8	1.8684359
82	0x3fcc9c60	1.5985222
83	0x3fc58495	1.5431086
84	0x3faed11c	1.3657565
85	0x3f9f0ec8	1.2426386
86	0x3f82dad3	1.022303
87	0x3ef72b53	0.4827524
88	0x3f261f44	0.6489146
89	0xbe04fd65	-0.12987287
90	0xbfd01732	-1.6257079
91	0xbed95f7d	-0.42455664
92	0xbf6717a1	-0.9027043
93	0xbf1a9b78	-0.60393476
94	0xbfdd2ad6	-1.7278697
95	0xbf21054f	-0.62898725
96	0xbf960d9d	-1.1722904
97	0xbf8417c5	-1.0319754
98	0xbfd3d4d8	-1.654933
99	0xbfb6bea7	-1.4276932
100	0xbf9edf19	-1.2411834
101	0xbf69f998	-0.91396475
102	0xbf092b48	-0.53581667
103	0xbf825ef4	-1.0185227
104	0xbe5e2c4e	-0.21696588
105	0x3f1f3def	0.6220388
106	0x3e0e8b1b	0.13920252
107	0x3f986758	1.1906538
108	0x3dfd2fc0	0.12362623
109	0x3f22f5bf	0.6365623
110	0xba902bbc	-0.0010999362
111	0x3ff24554	1.8927407
112	0x400956cd	2.145923
113	0x3f29ff74	0.66405416
114	0x3f040ac0	0.51578903
115	0x3f0a6682	0.54062665
116	0x3fe2d718	1.7721891
117	0xbe1f2f8c	-0.15545481
118	0x3ecbf7f5	0.39837614
119	0x3d95abd6	0.07308166
120	0x3fea2de6	1.8295257
121	0x3ee0cf47	0.4390814
122	0x3f88374b	1.0641874
123	0x3f2a0f8b	0.66429967
124	0x3ff19c51	1.8875829
125	0x3f6d42df	0.9268016
126	0x4001219f	2.017677
127	0x3fec2277	1.8448018
128	0x3fc57b15	1.5428187
129	0x3fd57e2f	1.6679133
130	0x3fdeeaba	1.7415383
131	0x3fbaf220	1.4605141
132	0x3f45bccf	0.77241224
133	0x3fa101aa	1.2578633
134	0x3e047960	0.12936926
135	0x3fbaffa9	1.4609271
136	0x3e292cd3	0.16521005
137	0x3fac2351	1.3448278
138	0x3f07e0e6	0.5307754
139	0x3fe3f249	1.7808315
140	0x3f30f881	0.69129187
141	0x400e3ed5	2.222585
142	0x3fe4b0d4	1.7866464
143	0x3faedadf	1.3660544
144	0x3f9846f5	1.1896654
145	0x3f7b1490	0.9807825
146	0x3fec86b9	1.8478614
147	0x3f31c498	0.69440603
148	0x3f3463aa	0.70464575
149	0x3e40a434	0.18812639
150	0x3fd0c662	1.6310542
151	0x3f0a564a	0.54037917
152	0x3f8001d0	1.0000553
153	0x3ef898ff	0.48554227
154	0x3ff1804c	1.8867278
155	0x3f573273	0.84061354
156	0x3fef5c4d	1.8700043
157	0x3fc96966	1.573529
158	0x3fe92ac2	1.8216174
159	0x3fc16372	1.5108473
160	0x3fc34430	1.5255184
161	0x3f976165	1.1826597
162	0x3f4ccd32	0.80000603
163	0x3f7127f0	0.94201565
164	0x3f21d9f9	0.63223225
165	0x3f8d1f61	1.1025201
166	0x3da2d834	0.07951394
167	0x3fdf9b20	1.7469215
168	0x3e924d07	0.28574392
169	0x3fa34712	1.2756064
170	0x3e4f8519	0.20265616
171	0x4012ccc6	2.2937484
172	0x401b780a	2.4292016
173	0x3f83f5cb	1.0309385
174	0x3f28a498	0.6587615
175	0x3f2d9d0f	0.6781778
176	0x40075ada	2.1149201
177	0x3e47b4fd	0.19502635
178	0x3ecc540c	0.39907873
179	0x3d10a5bd	0.03531431
180	0xc00bf44e	-2.1867862
181	0xbf64c06d	-0.8935612
182	0xbfb30b6a	-1.3987858
183	0xbf84b557	-1.036784
184	0xc007cb25	-2.121774
185	0xbf720b72	-0.94548714
186	0xbf89f9b0	-1.0779324
187	0xbf66b939	-0.9012638
188	0xc00e883a	-2.2270646
189	0xbff51bce	-1.914911
190	0xbffc4ea0	-1.9711494
191	0xbfc02007	-1.5009774
192	0xbf9110ea	-1.1333287
193	0xbfb6be8f	-1.4276904
194	0xbf4cc752	-0.7999164
195	0x3f6b3c45	0.9188884
196	0x3df2b52a	0.118509606
197	0x3f9f6201	1.2451783
198	0xbd7d2e37	-0.061811652
199	0x3f486bbb	0.78289384
200	0x3e2e46af	0.17019151
201	0x400f4e7f	2.239166
202	0x3feb461d	1.8380772
203	0x3f31cef5	0.69456416
204	0x3f7895b1	0.9710341
205	0x3f5b04c4	0.85554147
206	0x3fed832f	1.8555659
207	0xbdc33151	-0.09530891
208	0x3e54a288	0.20765126
209	0x3d520829	0.051277313
210	0xbf8d7005	-1.1049811
211	0xbf26ce02	-0.6515809
212	0x3ffc4489	1.9708415
213	0xbf80a69a	-1.0050843
214	0xbf8a19f8	-1.0789175
215	0xbfe46c8d	-1.7845627
216	0x3fc7d62d	1.5612236
217	0x3fcf1ca0	1.6180611
218	0xbf8e3f84	-1.1113133
219	0xbfb674c8	-1.4254389
220	0xbf9b2ec5	-1.2123648
221	0x3fc57baa	1.5428364
222	0xbf95d773	-1.1706375
223	0xbf89a13a	-1.0752327
224	0xbf22e0de	-0.6362437

onnx::MatMul_34 f4 [15, 15]
0	0x4003b322	2.0578084
1	0x3f4ab2e0	0.7917919
2	0x3f18f5c3	0.5975
3	0x3ec08869	0.37604073
4	0xbe7b9c98	-0.24571455
5	0x3f4107ec	0.7540271
6	0x3ffb23d3	1.9620308
7	0x3fc40e12	1.5316794
8	0xbf02ee64	-0.51145005
9	0x3ecf1b1a	0.40450364
10	0x3f074c0b	0.5285041
11	0xbf35a114	-0.7094891
12	0x3fe7569d	1.8073307
13	0x3f7d5801	0.9896241
14	0xbe576322	-0.2103391
15	0x3f222b86	0.6334766
16	0x3ea08971	0.3135486
17	0x3f092b54	0.5358174
18	0xbce11279	-0.027474629
19	0xbe819011	-0.25305226
20	0x3e87562d	0.26432934
21	0x3f03f800	0.5155029
22	0x3ddb0b83	0.10695555
23	0xbe81c8be	-0.25348467
24	0x3ed64ac3	0.41853914
25	0x3e6571f4	0.22406751
26	0xbe32b37a	-0.17451277
27	0x3e7607be	0.24026391
28	0x3eaab31d	0.33339778
29	0xbe938ba9	-0.2881749
30	0xbf79a26a	-0.9751345
31	0xbf4656d3	-0.77476233
32	0xbf69659f	-0.91170686
33	0x3dee170e	0.11625491
34	0xbd7a8887	-0.06116536
35	0xbf6bf6be	-0.92173374
36	0xbf70e826	-0.9410423
37	0xbf893c68	-1.072156
38	0x3e4a0136	0.19727024
39	0xbf48aa76	-0.783851
40	0xbf884a4d	-1.0647675
41	0x3e9befc9	0.3045638
42	0xbf6701ed	-0.90237314
43	0xbf70c87d	-0.9405592
44	0x3f2b93d5	0.6702245
45	0x3ed91795	0.42400804
46	0x3ec29b06	0.38008898
47	0x3eb84e61	0.35997298
48	0xbd17c59d	-0.037053693
49	0xbdffee1c	-0.12496588
50	0x3e3a59f2	0.18198374
51	0x3e4b1828	0.19833434
52	0x3e96bd3d	0.29441252
53	0xbe49d587	-0.1971036
54	0x3e7b0ea4	0.24517304
55	0x3ee34dbc	0.44395244
56	0xbeebbe9a	-0.46043855
57	0x3f2c7823	0.67370814
58	0x3f1701bf	0.5898704
59	0xbe9b5996	-0.30341786
60	0x402144f0	2.5198326
61	0x3f86b9dc	1.052547
62	0x3f8b5463	1.0885128
63	0x3db756a2	0.08952071
64	0xbf11af08	-0.569077
65	0x3f3bf899	0.73426205
66	0x4012711b	2.2881534
67	0x40076af8	2.1159039
68	0xbec3a689	-0.38212994
69	0x3f63e5ea	0.89022696
70	0x3f57deb7	0.8432421
71	0xbf23a334	-0.63920903
72	0x402d9896	2.712438
73	0x3fbac064	1.4589963
74	0xbec1faf8	-0.37886786
75	0x3f33ef64	0.70287156
76	0x3e0a3f6c	0.13500756
77	0x3efb7a71	0.49116853
78	0xbcb0b5a1	-0.021570982
79	0xbee04dc3	-0.43809327
80	0x3eb8fe12	0.3613134
81	0x3f1f1613	0.6214306
82	0x3f40bc3e	0.75287235
83	0xbce43a4b	-0.027859828
84	0x3eb34508	0.35013604
85	0x3f040091	0.51563364
86	0xbeb15c0c	-0.3464054
87	0x3ed7ea9d	0.42171183
88	0x3ec132c1	0.37734035
89	0xbd505c45	-0.050869245
90	0xbfc3a5a8	-1.5284929
91	0xbfa76125	-1.3076521
92	0xbfa51a66	-1.2898681
93	0x3f37d3d5	0.71807605
94	0x3f164fd1	0.5871554
95	0xbfacd736	-1.3503177
96	0xbfd45d93	-1.6591057
97	0xbfb20747	-1.3908471
98	0x3ed1bb61	0.4096327
99	0xbfb19eb3	-1.3876556
100	0xbfb7df30	-1.4364986
101	0x3f0c0811	0.5469981
102	0xbfac43c5	-1.3458182
103	0xbfa0a970	-1.2551708
104	0x3fbaabbe	1.4583662
105	0xbfc26b4a	-1.5188992
106	0xbf953999	-1.1658202
107	0xbfa30d0e	-1.2738359
108	0x3f4a1f96	0.78954446
109	0x3f15231a	0.58256686
110	0xbfa09041	-1.2544023
111	0xbfc195c6	-1.5123832
112	0xbfb5dafe	-1.4207456
113	0x3f353e11	0.7079783
114	0xbf976ed2	-1.1830695
115	0xbf930c31	-1.1488096
116	0x3f2db09d	0.67847615
117	0xbfccb5bc	-1.5992961
118	0xbfb2ae4c	-1.3959441
119	0x3f8ba455	1.0909525
120	0x3ffb94bb	1.9654764
121	0x3f341221	0.7034016
122	0x3f404af8	0.75114393
123	0x3df40c1a	0.11916371
124	0xbe3ab607	-0.182335
125	0x3f19dc5b	0.6010186
126	0x3ff83638	1.9391546
127	0x3fb4f636	1.4137638
128	0xbeadfcc1	-0.33981898
129	0x3f1c7104	0.6110995
130	0x3f42fd06	0.76167333
131	0xbf845430	-1.0338192
132	0x4009761c	2.1478338
133	0x3fce1c61	1.610241
134	0xbe0a66f9	-0.13515843
135	0x3fe35b32	1.7762206
136	0x3f58dceb	0.84712094
137	0x3f6a6533	0.9156067
138	0x3ed7da8b	0.42158923
139	0xbdbecc27	-0.09316283
140	0x3f4666ae	0.77500427
141	0x3fcad13b	1.5845102
142	0x3fa717e7	1.305417
143	0xbe3e6d52	-0.1859639
144	0x3ef25239	0.47328356
145	0x3eec060b	0.4609836
146	0xbf56ba6e	-0.8387822
147	0x3fef94d9	1.87173
148	0x3f724c5c	0.94647765
149	0x3d767975	0.060174424
150	0x3fb42db3	1.4076446
151	0x3f24c9dd	0.6437052
152	0x3f3954b6	0.72394884
153	0x3ea1064d	0.3145012
154	0xbe65be2c	-0.22435826
155	0x3ed33d2e	0.41257614
156	0x3fc42bc3	1.5325855
157	0x3f8ede2e	1.1161554
158	0xbe935591	-0.2877622
159	0x3e990d38	0.29892898
160	0x3f1444ce	0.5791749
161	0xbf13de40	-0.57761
162	0x3f9523d9	1.1651565
163	0x3f69160e	0.9104928
164	0x3ddf8c3b	0.10915419
165	0xbf9500f7	-1.164092
166	0xbfa3ab00	-1.278656
167	0xbf5d5362	-0.8645536
168	0x3e9be6ca	0.30449516
169	0x3e39642b	0.18104617
170	0xbf976370	-1.1827221
171	0xbf523a50	-0.8212023
172	0xbf9aa4d8	-1.2081556
173	0x3e4b42b8	0.1984967
174	0xbf80c7d4	-1.0060983
175	0xbf9934d4	-1.1969247
176	0x3d1e5148	0.038651735
177	0xbf9a09cf	-1.2034243
178	0xbf8b5d65	-1.0887877
179	0x3f37bfaa	0.7177683
180	0x3f140686	0.57822454
181	0x3e29648e	0.16542265
182	0x3e077ea5	0.13231905
183	0xbe86e02f	-0.26342914
184	0xbe82c88d	-0.25543633
185	0xbdc897a0	-0.09794545
186	0x3eb612ec	0.3556131
187	0x3ee9ee4c	0.4568962
188	0xbe3e75e0	-0.18599653
189	0x3e310ca9	0.17289986
190	0x3eaf74e9	0.34268883
191	0xbe5031dd	-0.20331521
192	0x3e88feeb	0.26756987
193	0x3ebee237	0.37281963
194	0xbe355a85	-0.17710312
195	0x3f37c3a4	0.717829
196	0x3e39390d	0.1808817
197	0x3ebe8bf5	0.37216154
198	0x3e569512	0.20955303
199	0xbd43ca28	-0.047800213
200	0x3ea67082	0.32507712
201	0x3f430d21	0.7619191
202	0x3eed3da7	0.463361
203	0xbe8b4598	-0.27201533
204	0x3dcb6d08	0.099329054
205	0x3edc0979	0.42975977
206	0xbee1bff3	-0.44091758
207	0x3f246e91	0.6423121
208	0x3eb5bb60	0.35494518
209	0x3e78900f	0.24273704
210	0x3ed144f6	0.40872926
211	0x3e3ea536	0.1861771
212	0x3dd6e5e1	0.10493065
213	0xbed07b11	-0.40718892
214	0xbeadd818	-0.3395393
215	0xbe1cb8c2	-0.15304855
216	0x3ea44360	0.32082653
217	0x3ee7f5e0	0.45304775
218	0xbea20ecb	-0.3165191
219	0x3dc0b050	0.09408629
220	0x3e255ae7	0.16147958
221	0xbea90fbb	-0.33019814
222	0x3eda46c0	0.42632103
223	0x3eeab050	0.4583764
224	0x3c68bbec	0.01420496

onnx::MatMul_35 f4 [15, 1]
0	0xbff9a62b	-1.9503835
1	0xbf9cedcf	-1.2260073
2	0xbfa6161b	-1.2975496
3	0x3d340db4	0.04395838
4	0xbd4c35d3	-0.04985602
5	0xbf98ca4d	-1.1936737
6	0xbfd11809	-1.633546
7	0xbfbec6cf	-1.4904422
8	0xbd845ab4	-0.06462613
9	0xbfa6ca58	-1.30305
10	0xbfb560c4	-1.4170156
11	0xbe053c6c	-0.1301133
12	0xbfe745a7	-1.8068131
13	0xbfb34f45	-1.4008566
14	0x3df8c067	0.12146073
