onnx/myModel_HL4_HD15_799.onnx (onnx, 6087 bytes, 11 tensors)

net.0.bias f4 [15]
0	0xc01d81dc	-2.461051
1	0x4035f842	2.8432775
2	0x40273b6f	2.6130025
3	0x3e5673ae	0.20942566
4	0xc04a11d2	-3.1573377
5	0x3fb436e0	1.4079247
6	0xc02741f1	-2.6133997
7	0xc01a280f	-2.408695
8	0xc010c770	-2.2621727
9	0x401398ef	2.3062093
10	0x401baacc	2.4322996
11	0x407dbe6f	3.9647481
12	0xc0398baa	-2.8991494
13	0x403922fc	2.8927603
14	0xc04047ba	-3.0043778

net.2.bias f4 [15]
0	0xbc8000fd	-0.015625471
1	0xbecb8d90	-0.3975644
2	0x3e4c8b1f	0.19974945
3	0xbec83b85	-0.3910791
4	0xbdaaf2f3	-0.0834712
5	0xbdb6ddb6	-0.08929007
6	0x3ca0cfcb	0.019630333
7	0xbd6f739a	-0.058459856
8	0xbe700b83	-0.23441891
9	0xbec2d9e8	-0.38056874
10	0xbe9ee7a8	-0.31036115
11	0xbe4da333	-0.20081787
12	0xbda2b05f	-0.07943796
13	0xbf4e98cc	-0.807019
14	0xbdcd9c2d	-0.10039554

net.4.bias f4 [15]
0	0xbfcb2029	-1.586919
1	0xbff3a758	-1.9035444
2	0xbfb16d88	-1.3861551
3	0xbfc8310f	-1.5639971
4	0xbfcf82d9	-1.6211807
5	0xc001c985	-2.0279248
6	0xbfd81c3f	-1.688362
7	0xbfa7b3f6	-1.3101795
8	0xbfbefb87	-1.492051
9	0xbfe8a327	-1.817479
10	0x40046a45	2.0689862
11	0xbfc51ea8	-1.539998
12	0xbfe77fd3	-1.8085884
13	0xbfd1bb07	-1.6385201
14	0xbfe6c0da	-1.8027604

net.6.bias f4 [15]
0	0x3d9fc7c9	0.07801778
1	0x3fb6805b	1.4257921
2	0xbf98256f	-1.1886424
3	0xbf11ddff	-0.56979364
4	0xbfae4e8a	-1.3617718
5	0xbfa5cce1	-1.2953149
6	0xbe0ecf53	-0.13946275
7	0xbf3cc482	-0.7373735
8	0xbea90d0f	-0.33017775
9	0xbffc3493	-1.9703544
10	0x3f1f5850	0.6224413
11	0x3f107187	0.5642323
12	0xbe4e9c4b	-0.20176809
13	0xbf261d46	-0.6488842
14	0xbec6a83a	-0.38800222

net.8.bias f4 [15]
0	0xbf6eb448	-0.9324384
1	0x3c38566e	0.011251075
2	0xbf86a909	-1.0520335
3	0xbfa8ac7d	-1.3177639
4	0xbf315baf	-0.69280523
5	0xbf8f7ffb	-1.1210932
6	0x3f5b66c5	0.8570369
7	0x3efd67c2	0.49493223
8	0x3f707c67	0.9393982
9	0xbf6349f0	-0.88784695
10	0xbf3ce1b1	-0.7378188
11	0xbf9a9ed6	-1.2079723
12	0xbf84178b	-1.0319685
13	0xbf9faec1	-1.2475206
14	0x3f3e91b9	0.74441105

onnx::MatMul_37 f4 [2, 15]
0	0xbd036de4	-0.03208722
1	0x40361f4d	2.8456604
2	0x3e59fd93	0.21288137
3	0xc0703b43	-3.753617
4	0x3fbce0e8	1.4756136
5	0x3f9bb420	1.2164345
6	0x3f9a4c3c	1.2054515
7	0xbfcebbb0	-1.6151028
8	0x3f48994a	0.783589
9	0xbef592c2	-0.4796353
10	0x3fb36a99	1.4016906
11	0xc029cd01	-2.6531374
12	0xc035d988	-2.841402
13	0x3e836bd4	0.25668204
14	0x3fa08831	1.2541562
15	0x3ffa2224	1.9541669
16	0xc00d3734	-2.2064943
17	0x3fb37907	1.402131
18	0x408f3220	4.474869
19	0x3e0e34bc	0.13887304
20	0x3f749398	0.9553771
21	0x3f3bff3a	0.7343632
22	0xbf01beda	-0.5068184
23	0x3fe07d68	1.7538271
24	0x3fd8688b	1.6906904
25	0xc025edd0	-2.59264
26	0xbec95929	-0.39325836
27	0x3f73fd46	0.9530834
28	0x3fb4bf27	1.4120835
29	0xbf5e24e2	-0.8677503

onnx::MatMul_38 f4 [15, 15]
0	0x3f9dad34	1.2318482
1	0x4014b24a	2.323382
2	0x3f5db36b	0.86601895
3	0x400371d0	2.0538216
4	0x3f801f22	1.0009501
5	0x3fcf44fa	1.6192925
6	0x3fe7164a	1.8053677
7	0x3fb9e300	1.45224
8	0x3fb4f6e7	1.4137849
9	0x3fc8f223	1.5698894
10	0x3df94488	0.121712744
11	0x3f6cbcef	0.9247579
12	0x3ffd386e	1.9782846
13	0x3f9b3774	1.2126298
14	0x3fc9e7d7	1.5773877
15	0xbcf24550	-0.029574066
16	0xbf12e8fa	-0.57386744
17	0xbf4a9845	-0.79138595
18	0xbf2cfde4	-0.67574906
19	0xbfbe2d3d	-1.4857556
20	0xbf5c3833	-0.86023253
21	0x3fc4a54a	1.5362942
22	0xbe52f454	-0.20601016
23	0x3f145ef3	0.5795738
24	0xbfa03a05	-1.2517706
25	0xbdddf237	-0.108372144
26	0xbf29c22f	-0.66311926
27	0x3f1491fa	0.5803524
28	0xc02a478a	-2.6606164
29	0xbf14a450	-0.5806322
30	0xbf8d6b9a	-1.1048462
31	0xbf1bff8e	-0.6093682
32	0xbf704985	-0.9386218
33	0xbf9dcdd3	-1.2328438
34	0xbf4991a8	-0.7873788
35	0xbf75937f	-0.95928186
36	0xbf6b66ad	-0.91953546
37	0x4021f43c	2.530532
38	0xbf3d1121	-0.7385426
39	0xbf10abc5	-0.565121
40	0xbe6979e5	-0.22800405
41	0x3fe55de8	1.7919283
42	0xbfb3a481	-1.4034578
43	0xbeba1348	-0.36342835
44	0xbf4d7921	-0.80262953
45	0xbf5b8562	-0.857504
46	0x3f55ca16	0.83511484
47	0x3e312204	0.17298132
48	0xbf878d29	-1.0589954
49	0x3f333f88	0.70018816
50	0xbf1f2f47	-0.62181515
51	0xbf66b2f1	-0.9011679
52	0x40cf39f4	6.4758244
53	0xbfb8315e	-1.4390066
54	0x3dc0dab1	0.09416712
55	0xbff1f601	-1.89032
56	0xbf66ece0	-0.9020519
57	0xbf32ee0e	-0.6989449
58	0x3f70029d	0.9375399
59	0xbf8cb032	-1.099127
60	0x3fc4776c	1.5348945
61	0x3fbb8342	1.4649432
62	0x40452bf8	3.0808086
63	0x3fd1d0ec	1.6391883
64	0x401ae57b	2.4202564
65	0x3fc76612	1.5578024
66	0x3eb312c7	0.34975263
67	0xbe9cdd1f	-0.30637452
68	0x3f3a15bb	0.7268941
69	0x3fb18330	1.386816
70	0x3fe0ad9f	1.7552985
71	0xbf8312ba	-1.024009
72	0x3f512fea	0.81713736
73	0x400f0c9b	2.2351444
74	0x3fc0a6dd	1.5050923
75	0xbf5ea8e3	-0.8697645
76	0xbedf7dea	-0.43650752
77	0xbf1c07d8	-0.6094947
78	0xbf2becfa	-0.6715847
79	0xbe66e14f	-0.22546886
80	0xbec2aacc	-0.38020933
81	0xbe559281	-0.20856668
82	0x3ffd1b23	1.9773906
83	0xbda62cd5	-0.0811402
84	0xbe1e8912	-0.15481976
85	0xbe8d42dc	-0.27590072
86	0x3fbea506	1.4894111
87	0xbf45ab87	-0.77214855
88	0xbee0d958	-0.4391582
89	0xbf0b5456	-0.5442556
90	0x3f6d1aeb	0.926192
91	0x3fd22458	1.6417341
92	0x3faeed47	1.3666161
93	0x3f4a1a24	0.7894614
94	0x3fd4150a	1.6568921
95	0x3f86492b	1.0491079
96	0x3f457631	0.7713347
97	0x4007aa93	2.119786
98	0x3f9b0aae	1.2112634
99	0x3f989059	1.1919051
100	0xbf375e5c	-0.71628356
101	0x3ebdbe97	0.3705947
102	0x3f33c473	0.7022163
103	0x3ff052b1	1.8775235
104	0x3f825214	1.0181298
105	0x4075e422	3.8420491
106	0x40223885	2.5346997
107	0x408617c8	4.190403
108	0x40325688	2.7865314
109	0x403ef2c5	2.9835675
110	0x40331bf6	2.7985816
111	0x3ecf8a48	0.40535188
112	0xbfccd8f0	-1.6003704
113	0x403f8f99	2.9931395
114	0x402a6dcc	2.6629515
115	0x4061aa07	3.5260026
116	0xbfad1a1e	-1.3523595
117	0x4040d3a4	3.0129175
118	0x40094e78	2.1454144
119	0x401f5968	2.489832
120	0x3fbe0023	1.4843792
121	0x400e94a0	2.2278214
122	0x3f87bc12	1.060427
123	0x3fe7a7f5	1.8098131
124	0x3f9a6a14	1.2063622
125	0x3fa40d31	1.2816526
126	0x400c2a90	2.1900978
127	0x3ffcaa15	1.9739405
128	0x3fc589ab	1.5432638
129	0x3fc38343	1.5274433
130	0x3faeb51e	1.3649023
131	0x3fac81ac	1.3477073
132	0x3fef5b80	1.8699799
133	0x3fa148e0	1.2600365
134	0x3faff841	1.3747636
135	0xbf9868e9	-1.1907016
136	0xbf9b3058	-1.2124128
137	0xbfa097bd	-1.2546307
138	0xbfbb1f5e	-1.4618948
139	0xbfb64053	-1.423838
140	0xbff324d1	-1.899561
141	0xbf9f464c	-1.2443328
142	0x3fae187e	1.3601224
143	0xbf5f6681	-0.87265784
144	0xbfb4308e	-1.4077318
145	0xbe6b17fc	-0.22958368
146	0x3f5a89e1	0.85366637
147	0xbfaad0a3	-1.3344921
148	0xbf8ef7c2	-1.116936
149	0xbfbf38ff	-1.4939269
150	0xbf5f54c8	-0.8723874
151	0xbfe9cd27	-1.8265733
152	0x40184d55	2.37972
153	0xbf6887a5	-0.9083198
154	0x3f8eabf7	1.114623
155	0xbf6008b3	-0.87513274
156	0xc0768c61	-3.852318
157	0xbea8b01c	-0.3294686
158	0xc0394b1a	-2.8952088
159	0xbfa7f128	-1.312047
160	0xbd9b3338	-0.075781286
161	0xbf01c4b6	-0.5069078
162	0xbfb2839f	-1.3946418
163	0xbd80929e	-0.06277965
164	0xbfa6aabf	-1.3020858
165	0xbe549feb	-0.20764129
166	0xc02b38c8	-2.6753407
167	0xbf5c6c01	-0.861023
168	0xbf424f95	-0.7590268
169	0xbf2c2d29	-0.6725641
170	0xbe833537	-0.25626537
171	0xc04bed30	-3.1863518
172	0xbeebf13a	-0.4608248
173	0xc0190320	-2.3908157
174	0xbfde6a8e	-1.7376268
175	0x3f6732c0	0.90311813
176	0xbf278919	-0.6544357
177	0xbf008a2d	-0.5021084
178	0xbfc448a6	-1.533467
179	0xbf62cc4a	-0.8859297
180	0x4047311b	3.1123722
181	0x400d6e8d	2.2098725
182	0x403360be	2.8027797
183	0x402f3813	2.7377975
184	0x4010c4b9	2.262007
185	0x403641d2	2.8477674
186	0x3dc22d9c	0.094813555
187	0x401c9487	2.4465654
188	0x3ff5d754	1.9206338
189	0x4016b97b	2.3550708
190	0x41403b43	12.014468
191	0x3e321912	0.17392376
192	0x4036ebbe	2.8581386
193	0x3f8d596f	1.1042918
194	0x403d43f0	2.9572716
195	0xbfdee778	-1.7414389
196	0xbee71e5b	-0.45140347
197	0xbf70d540	-0.94075394
198	0xbf9d2e86	-1.2279823
199	0xbf1cede2	-0.6130048
200	0xbfa31aaf	-1.2742518
201	0xbf57a508	-0.8423619
202	0x403a04af	2.9065359
203	0xbf325d92	-0.69674027
204	0xbf620900	-0.8829498
205	0xbf40fc71	-0.75385195
206	0x3fe02ce7	1.7513703
207	0xbfbb7eb6	-1.4648044
208	0xbf14950c	-0.5803993
209	0xbfa9e5d6	-1.3273265
210	0x4031fa0f	2.7808874
211	0x4000fea2	2.0155416
212	0x405fe534	3.4983644
213	0x402c5f53	2.6933181
214	0x403d3da5	2.9568875
215	0x40324e51	2.78603
216	0x3f41de8d	0.7573021
217	0xc002c74d	-2.0434144
218	0x400fbdaa	2.2459512
219	0x3fd7b59e	1.68523
220	0x4009101e	2.1416087
221	0xbfeb9efd	-1.8407894
222	0x40213b1b	2.5192325
223	0x3f8589ec	1.0432715
224	0x40319d68	2.7752323

onnx::MatMul_39 f4 [15, 15]
0	0x3f58c913	0.84681815
1	0x3f87022c	1.0547538
2	0x3fddaca1	1.7318307
3	0x3f009ac9	0.50236183
4	0x3f1cf13b	0.6130559
5	0x400d9033	2.2119262
6	0x3f2360e0	0.63819695
7	0x3e8dc877	0.27692005
8	0x3fe2db7c	1.7723231
9	0x3f891f3c	1.0712657
10	0xbffea078	-1.9892721
11	0x400d05fa	2.2034898
12	0x404fa64c	3.244525
13	0x3f4c71cb	0.79861134
14	0x3f74bb9a	0.9559876
15	0x3f9df4cc	1.2340331
16	0x3fec849f	1.8477973
17	0x3ff503ea	1.914182
18	0x3fa746f3	1.3068527
19	0x3fce5173	1.6118606
20	0x402bcdeb	2.6844432
21	0x3ff28e6f	1.8949717
22	0x3fa1c4fd	1.2638241
23	0x3fe9922d	1.8247734
24	0x3f9e8d23	1.2386822
25	0xbf82539d	-1.0181767
26	0x3f9f9a24	1.2468915
27	0x3f988cb4	1.1917939
28	0x3ff557c7	1.9167413
29	0x3f96d33e	1.1783216
30	0x3faff0dc	1.374538
31	0x3fb18622	1.3869059
32	0x3f61e600	0.8824158
33	0x3fcd79ba	1.6052773
34	0x3fd8c39a	1.6934693
35	0x3fe08313	1.7540001
36	0x3fb4de84	1.4130406
37	0x3fd992b2	1.6997893
38	0x3f721bc4	0.94573617
39	0x40080b5f	2.125694
40	0xbfac74ad	-1.3473107
41	0xbeef5a43	-0.46748552
42	0xbe109a6e	-0.1412141
43	0x3fc573ef	1.5426005
44	0x3fad639e	1.3546026
45	0x3f46eb3f	0.7770271
46	0x3f9380bd	1.1523663
47	0x3f9b3d14	1.2128015
48	0x3f8ebf83	1.1152195
49	0x3f670baa	0.9025217
50	0x3fea93a3	1.8326305
51	0x3f9d6645	1.2296835
52	0x3ee59027	0.44836542
53	0x3f8ef16b	1.1167425
54	0x3fb4f925	1.4138533
55	0xbfd42c31	-1.6575986
56	0x40035f83	2.0527046
57	0x40033522	2.050118
58	0x3f81c68e	1.0138719
59	0x3f9e23c5	1.2354666
60	0x3fcdf52e	1.6090448
61	0x3ff3b922	1.9040873
62	0x3ea9d5ef	0.3317103
63	0x3fdc34b0	1.7203579
64	0x3fc523c8	1.5401545
65	0x3faab498	1.3336363
66	0x3fe31268	1.7739992
67	0x3fd18a0d	1.6370255
68	0x3ee902ef	0.4551005
69	0x3fda634f	1.7061557
70	0xbfa898ff	-1.3171691
71	0xbf502c5e	-0.813177
72	0xbf2140e5	-0.62989646
73	0x3ffd4bac	1.9788718
74	0x3fad25a3	1.3527111
75	0x3f6d0810	0.9259043
76	0x3fd9f6e0	1.7028465
77	0x3f1898d8	0.5960822
78	0x3f865443	1.0494465
79	0x3f8cb5ae	1.0992944
80	0x3fe23663	1.7672848
81	0x3fa6eac3	1.3040394
82	0x3e0e971a	0.13924828
83	0x3f771fac	0.965327
84	0x3ff950d4	1.9477792
85	0xc019f472	-2.4055448
86	0x3fddb29b	1.7320131
87	0x3fb173b5	1.3863436
88	0x3fa27b1d	1.2693821
89	0x3fc04053	1.501963
90	0xbea3b39f	-0.31972978
91	0xbf2673f1	-0.6502066
92	0x406bdd0a	3.6853662
93	0xbf06e106	-0.5268711
94	0xbf7c1696	-0.98471963
95	0x40617916	3.5230155
96	0xbf1110fd	-0.5666655
97	0xbecd9834	-0.40155184
98	0x408135d0	4.037819
99	0xbee4d7ea	-0.4469598
100	0xbea34360	-0.3188734
101	0x4080e664	4.028124
102	0x407ef43c	3.983657
103	0xbf7a9850	-0.9788866
104	0xbbb2dcee	-0.005458466
105	0xbff8be7c	-1.9433131
106	0xc01acdf5	-2.4188206
107	0xc008ea0b	-2.1392848
108	0xc000df77	-2.0136392
109	0xbff8722d	-1.9409844
110	0xc033744e	-2.8039737
111	0xc0145cf5	-2.3181736
112	0xbfdf73e2	-1.745724
113	0xc00b269f	-2.1742322
114	0xbff75821	-1.932377
115	0x402e2ddd	2.7215493
116	0xbff3684f	-1.9016207
117	0xc0274af6	-2.6139503
118	0xc00bb2a9	-2.1827796
119	0xc012650e	-2.287418
120	0x3e96e358	0.29470325
121	0xbd1e3249	-0.038622174
122	0x401e0e24	2.469613
123	0xbe532d6b	-0.20622794
124	0x3d9c7dbb	0.07641169
125	0x3fa8119f	1.3130378
126	0xbdf71e10	-0.12066281
127	0x3ea07f8d	0.31347314
128	0x40216bf7	2.5222147
129	0x3eddbdc0	0.4330883
130	0xbf5e7acc	-0.86906123
131	0x4034e99c	2.8267584
132	0x403fd857	2.9975793
133	0xbdc19d04	-0.094537765
134	0x3f0b41d8	0.54397345
135	0x3f48d487	0.7844929
136	0x3fce353d	1.6109997
137	0x3f391e26	0.7231163
138	0x3f9d0726	1.2267807
139	0x3fa0c1ba	1.2559121
140	0x3fe5eaf6	1.7962329
141	0x3fc02f9a	1.5014527
142	0x3ed6dca8	0.41965222
143	0x3f643f20	0.8915882
144	0x3f96007a	1.1718895
145	0xbfb08723	-1.379124
146	0x3fb842bc	1.4395366
147	0x3ee71183	0.45130548
148	0x3fb03dab	1.376882
149	0x3f932e18	1.1498442
150	0xbfe9e99a	-1.8274415
151	0xbfeea2d0	-1.8643436
152	0x3ff1ce17	1.8891019
153	0xbfdcb7c1	-1.7243577
154	0xbff52f4f	-1.9155062
155	0x3eb3a1d0	0.3508439
156	0xbfb672e8	-1.4253817
157	0xc01a560a	-2.4115014
158	0x3f17a7df	0.59240526
159	0xbfaccea6	-1.3500564
160	0x3f7fdbeb	0.99944943
161	0x4087b5db	4.240949
162	0x4059d06f	3.4033468
163	0xbfdfe75a	-1.7492478
164	0xbfbba8ab	-1.4660848
165	0xbfdd848e	-1.7306077
166	0xbfd14e0a	-1.6351941
167	0xbfb4e868	-1.4133425
168	0xbfd6f37f	-1.6793059
169	0xbfb35060	-1.4008904
170	0xc00baf0b	-2.1825588
171	0xbfd975d4	-1.6989083
172	0xbf954361	-1.1661187
173	0xbfb6843f	-1.4259108
174	0xbff030fa	-1.8764946
175	0x40110724	2.2660608
176	0xbfc2a1f3	-1.5205673
177	0xbfe3e885	-1.7805334
178	0xbfc43252	-1.5327857
179	0xbfe8567e	-1.8151395
180	0x3f23436e	0.63774765
181	0x3f1a9f9d	0.603998
182	0x3fef3efc	1.8691096
183	0x3f1d4b2c	0.6144283
184	0x3eb7488a	0.3579753
185	0x40087c8f	2.1326025
186	0x3f726f15	0.9470075
187	0x3ed20fb8	0.41027617
188	0x3fb09dff	1.3798217
189	0x3fadb357	1.3570355
190	0xbfde041d	-1.7345005
191	0x4011d909	2.2788718
192	0x402bc56b	2.6839244
193	0x3ee72a88	0.45149636
194	0x3f4b7396	0.79473245
195	0x3fe9dfe0	1.8271446
196	0x40120e3f	2.2821195
197	0xbfb6cd40	-1.4281387
198	0x400e98ba	2.2280717
199	0x40028c8d	2.0398285
200	0xbd859701	-0.06522942
201	0x400c26c5	2.1898663
202	0x3fbe3130	1.4858761
203	0xbf97a903	-1.1848453
204	0x3feee51d	1.866367
205	0xbf37d22b	-0.71805066
206	0xbf81ebc4	-1.0150075
207	0xc0087ceb	-2.1326244
208	0x401d888f	2.4614599
209	0x3fd61f30	1.6728268
210	0x3f45e87b	0.7730786
211	0x3f7c1bef	0.98480123
212	0x3f4763e3	0.7788679
213	0x3f0c5048	0.5481
214	0x3f65095d	0.8946741
215	0x3fbe96c3	1.4889759
216	0x3f978bbe	1.1839521
217	0xbcbe8e0b	-0.02326109
218	0x3f9cdb25	1.2254378
219	0x3fb7dc20	1.4364052
220	0xbff8d9f7	-1.9441518
221	0x3fd67b3c	1.6756358
222	0x400f312d	2.2373765
223	0x3f68f42e	0.9099759
224	0x3f7366c8	0.95078707

onnx::MatMul_40 f4 [15, 15]
0	0x3fda7b66	1.7068908
1	0xbf9b4b5f	-1.2132376
2	0x3f6b6386	0.91948736
3	0x3fad955e	1.3561208
4	0x3fc593fd	1.5435787
5	0x3faceea7	1.3510331
6	0x3eb31c70	0.34982634
7	0x3fc94b75	1.5726153
8	0x3f1e3af8	0.6180873
9	0x3f9d4c74	1.2288957
10	0xbf73b380	-0.9519577
11	0xbdb9ba72	-0.09068765
12	0x3f1f5c27	0.6224999
13	0x3fbebdfa	1.4901726
14	0x3ea523bc	0.32253826
15	0x401fd7c6	2.4975448
16	0xbf654f08	-0.8957372
17	0x3fde4234	1.7363954
18	0x3fe772ce	1.8081911
19	0x4009e13a	2.1543717
20	0x40054b75	2.0827305
21	0x3fa1b7b1	1.2634183
22	0x4007fb9a	2.1247315
23	0x3f763a0a	0.9618231
24	0x4008bba9	2.1364539
25	0xbd6b693e	-0.057473414
26	0x3f1bb0d4	0.60816693
27	0x3fee1da5	1.8602797
28	0x40305eb9	2.7557814
29	0x3f582103	0.8442537
30	0xbfd8e899	-1.6945983
31	0xbff2f3a3	-1.8980602
32	0xc006717d	-2.1006768
33	0xbf2a935e	-0.66631114
34	0xbfcf6430	-1.620245
35	0xbfc140b6	-1.5097873
36	0xc020e152	-2.5137525
37	0xc01a8d2e	-2.414867
38	0xbf671cd6	-0.90278375
39	0xbeefd0eb	-0.4683908
40	0xc01553d7	-2.3332422
41	0xc025b969	-2.5894415
42	0xc024f355	-2.5773518
43	0xbfd3a02e	-1.6533258
44	0xbfc04624	-1.5021405
45	0x4010c45e	2.2619853
46	0xbf9974e5	-1.1988798
47	0x3fa22eb1	1.2670499
48	0x3f96a9ec	1.1770606
49	0x3fe0b372	1.7554762
50	0x3fc97306	1.5738227
51	0x3dfa129f	0.12210583
52	0x3fcd5339	1.6041023
53	0x3f148ee4	0.58030534
54	0x3f905e21	1.1278726
55	0xbf0d321c	-0.55154586
56	0xbb3bb5bd	-0.002864226
57	0x3f5ebd67	0.87007755
58	0x400058e7	2.0054262
59	0x3edae709	0.4275439
60	0x400becfa	2.186339
61	0xbf9c6911	-1.2219564
62	0x3f8d090c	1.1018386
63	0x3fac9094	1.3481622
64	0x3fde085b	1.73463
65	0x3fe3d26e	1.7798593
66	0x3e83ce9a	0.25743562
67	0x3fe2bbce	1.7713563
68	0x3f65765f	0.89633745
69	0x3fb584e7	1.4181184
70	0xbf6f3525	-0.9344047
71	0x3e3c4dcc	0.18389052
72	0x3f5c8587	0.86141247
73	0x40058d4e	2.0867496
74	0x3f043055	0.5163625
75	0xbfe9002e	-1.820318
76	0xc081dec7	-4.0584445
77	0xc025e792	-2.592259
78	0xbfc2f084	-1.522965
79	0xbffd81b0	-1.9805202
80	0xbfe691bc	-1.8013225
81	0xc0404f59	-3.004843
82	0xc00ea31e	-2.228706
83	0xbff8512f	-1.9399775
84	0xbfdb05c0	-1.711113
85	0xc075267d	-3.8304741
86	0xc06b3c11	-3.6755412
87	0xc030b81d	-2.7612374
88	0xbfe4354c	-1.7828765
89	0xbff78f8f	-1.9340686
90	0x400ecfd4	2.2314348
91	0xbf9af733	-1.2106689
92	0x3fc4da00	1.5379028
93	0x3fb315e3	1.3991054
94	0x3ff1b63d	1.888374
95	0x3ff5c0ad	1.9199425
96	0x3f3fd5e6	0.7493576
97	0x3fbca26b	1.4737066
98	0x3f4411d2	0.7658969
99	0x3ff41582	1.9069064
100	0xbee6d548	-0.45084596
101	0x3eb82692	0.35966927
102	0x3f6e79ca	0.93154585
103	0x401017c4	2.2514505
104	0x3e8b3069	0.27185372
105	0x3fae95f3	1.3639511
106	0xbf9f3484	-1.2437901
107	0x3e6a4dca	0.22881237
108	0x3fd05c07	1.6278085
109	0x3f70896e	0.939597
110	0x3f973a4f	1.1814669
111	0xbf1c84a2	-0.6113988
112	0x3f682783	0.9068529
113	0x3f074b3e	0.52849185
114	0x3d3a3ec5	0.045470018
115	0xbfd1b1c1	-1.6382371
116	0xbf139b44	-0.5765879
117	0x3e7f2d30	0.24919581
118	0x3f870300	1.054779
119	0x3e073f8a	0.13207832
120	0xbfd66b4b	-1.6751493
121	0xc00a7829	-2.163584
122	0xbfd5fb42	-1.6717303
123	0xbea2eddd	-0.318221
124	0xbf7c6fc9	-0.9860807
125	0xbfab4422	-1.3380167
126	0xc0121955	-2.2827961
127	0xbfcd0620	-1.6017494
128	0xbf5cbc0e	-0.8622445
129	0xbeb6af94	-0.3568083
130	0xc01a1af0	-2.4078941
131	0xc02c1906	-2.6890273
132	0xc007c7e3	-2.121575
133	0xbfa5510a	-1.2915356
134	0xbfdd30a1	-1.7280465
135	0x40097fbb	2.148421
136	0xbfa1d30c	-1.2642531
137	0x3f8573fe	1.0426023
138	0x3faa0043	1.328133
139	0x3fb9c6a2	1.4513743
140	0x3fa9309d	1.3217961
141	0x3ea3a063	0.31958303
142	0x3fc265ce	1.5187318
143	0x3f57c2bb	0.8428151
144	0x3fea8585	1.8321997
145	0xbf894f91	-1.0727407
146	0xbe6fc4b8	-0.23414886
147	0x3f5b3d3b	0.85640305
148	0x3fd64516	1.6739833
149	0x3f72ca17	0.94839615
150	0xbf5bf8f4	-0.8592675
151	0x3f71f4eb	0.9451434
152	0xc0175f38	-2.3651867
153	0xbf1ac3d7	-0.6045508
154	0xc03e8e64	-2.9774408
155	0xc0208745	-2.5082562
156	0xbf30c500	-0.690506
157	0xbf798b81	-0.9747849
158	0xbf09f092	-0.53882706
159	0xc0999c0d	-4.800299
160	0x3f0a2eee	0.5397786
161	0xbe564fd1	-0.20928885
162	0xbf8513ae	-1.0396631
163	0xbfa5f424	-1.2965131
164	0xbf81d532	-1.0143187
165	0xc07d2456	-3.9553428
166	0xbf3301cb	-0.6992461
167	0xc0601a7a	-3.501616
168	0xc008c1bd	-2.1368248
169	0xc035f9a5	-2.843362
170	0xc054ee8d	-3.32706
171	0xc01f44ca	-2.4885736
172	0xc07fbb2f	-3.9957998
173	0xbfd1f619	-1.6403228
174	0xbf8cc497	-1.0997494
175	0xbf9a92eb	-1.2076086
176	0xbfcbd300	-1.5923767
177	0xc061ded3	-3.529225
178	0xc067c702	-3.6215215
179	0xbfe952ff	-1.8228453
180	0xc090e8af	-4.5284038
181	0xc001bdc9	-2.0272086
182	0xc0825f2f	-4.074119
183	0xc02792d3	-2.6183364
184	0xc046726c	-3.1007338
185	0xc0733166	-3.79989
186	0xc05f40a0	-3.4883194
187	0xc0887ac6	-4.264987
188	0xc03483da	-2.8205476
189	0xbfc4c4fb	-1.5372614
190	0xc0089e05	-2.1346447
191	0xc039b619	-2.9017394
192	0xc091df5d	-4.558516
193	0xc086ac37	-4.2085223
194	0xc009de2b	-2.154185
195	0x401ff70f	2.4994543
196	0xbf5af0e5	-0.85523826
197	0x3f9d0024	1.2265668
198	0x3fa94150	1.3223057
199	0x3fdbb148	1.7163477
200	0x3fe5c1a0	1.7949715
201	0x3f58ad05	0.84639007
202	0x3fe33136	1.7749393
203	0x3f4d5982	0.80214703
204	0x3fa600f3	1.296904
205	0xbe8fe41c	-0.2810372
206	0x3ea92360	0.330348
207	0x3fb745f5	1.4318224
208	0x401577ba	2.3354325
209	0x3f0fe5f2	0.56210244
210	0x3fbcf5ad	1.4762474
211	0xbfac36a4	-1.3454175
212	0x3fa8148b	1.3131269
213	0x3f9d4000	1.2285156
214	0x3fd3d4c8	1.6549311
215	0x3fd7e703	1.6867374
216	0xbd630677	-0.055426087
217	0x3fbabd27	1.4588975
218	0x3e97a358	0.2961681
219	0x3fcd8192	1.6055167
220	0xbf8540a8	-1.0410357
221	0x3d7e7402	0.062122352
222	0x3f36f505	0.7146762
223	0x3ff13c91	1.8846608
224	0x3d790690	0.060797274

onnx::MatMul_41 f4 [15, 15]
0	0x3fb78c51	1.4339696
1	0xbf002e2d	-0.5007046
2	0x3fe58a34	1.7932801
3	0x402dfa4d	2.7184021
4	0x3f960507	1.1720284
5	0x3fdf341b	1.7437776
6	0xbfb96e97	-1.4486874
7	0xbf85245f	-1.0401725
8	0xbfe879a6	-1.8162124
9	0x3fadb7bc	1.3571696
10	0x3fad6103	1.3545231
11	0x4003e15c	2.0606298
12	0x3fe84fda	1.8149369
13	0x40249e9d	2.572181
14	0xbfdade8d	-1.7099167
15	0x3fd521b6	1.6650913
16	0xbfe01cd5	-1.7508799
17	0x3fc067a2	1.5031626
18	0x3ff33c28	1.9002733
19	0x3fdfc727	1.7482651
20	0x3ffef94a	1.9919827
21	0xc0032b6b	-2.049525
22	0xbfc3ce79	-1.5297385
23	0xc00e9c93	-2.2283065
24	0x3fe893ad	1.8170067
25	0x3fdb47a5	1.7131239
26	0x3fdf55ec	1.7448096
27	0x3fcb34ea	1.5875523
28	0x3fd8ab05	1.6927191
29	0xbfee518f	-1.861864
30	0x3f21b87d	0.6317213
31	0x3ee6a1fe	0.45045465
32	0x3f393901	0.72352606
33	0x3f97a5a5	1.1847426
34	0x3db34f1d	0.08755324
35	0x3f1bed3a	0.60908854
36	0xbeb3d7b7	-0.35125515
37	0xbe320458	-0.1738447
38	0xbef8459c	-0.48490608
39	0x3e14426c	0.14478463
40	0xbd8ca774	-0.06867877
41	0x3f529225	0.8225425
42	0x3f0353cb	0.5129973
43	0x3f580bd6	0.8439306
44	0xbd62dc25	-0.055385727
45	0xbf476bd8	-0.7789893
46	0x3f67830d	0.9043434
47	0xbf2e852a	-0.6817194
48	0x3d03f579	0.032216523
49	0xbf4c6c81	-0.79853064
50	0xbecc1ac5	-0.39864174
51	0x3ee14b71	0.4400287
52	0x3f855b91	1.0418569
53	0x3f1c3756	0.61021936
54	0xbf2ebf0a	-0.6826025
55	0xbf574011	-0.8408213
56	0x3cd35fcc	0.025802515
57	0xbf10334a	-0.5632826
58	0x3cacc5a0	0.021090329
59	0x3f6a5c01	0.91546637
60	0x3f080a75	0.53140956
61	0xbf1ab122	-0.60426533
62	0x3f5e99f7	0.8695368
63	0x3fad2084	1.3525548
64	0x3edbd3d9	0.42935064
65	0x3f6eb5f8	0.9324641
66	0xbf429454	-0.7600758
67	0xbeef76e6	-0.467704
68	0xbf4d2d62	-0.80147374
69	0x3f2ac9c6	0.6671413
70	0x3efde670	0.49589872
71	0x3f91bad1	1.1385137
72	0x3f6626ce	0.8990296
73	0x3fa931fe	1.3218381
74	0xbf405073	-0.75122756
75	0x3ef28475	0.47366682
76	0xbde2866e	-0.11060797
77	0x3ec65deb	0.3874353
78	0x3fbf29e0	1.4934654
79	0x3f09d2ce	0.5383729
80	0x3f40edb1	0.7536269
81	0xbf1f79f7	-0.6229548
82	0xbec9bc27	-0.3940136
83	0xbf50b544	-0.8152659
84	0x3ef68a5e	0.4815244
85	0x3eee58a8	0.46552014
86	0x3f433875	0.7625802
87	0x3ef3d41c	0.47622764
88	0x3f73188a	0.9495932
89	0xbed0b539	-0.40763262
90	0x3c8aa8e5	0.016926238
91	0x3e927569	0.28605202
92	0x3e759999	0.23984374
93	0x3f2bbb9b	0.6708314
94	0xbe67df34	-0.22643739
95	0x3ed1faaa	0.41011554
96	0xbf01be69	-0.5068117
97	0xbe406c99	-0.18791427
98	0xbeeaaf5b	-0.4583691
99	0xbdc0d6b0	-0.094159484
100	0xbcbaa8c3	-0.02278555
101	0x3edd4806	0.43219012
102	0x3e1f3a8b	0.15549676
103	0x3f225125	0.63405067
104	0xbe2a0292	-0.16602543
105	0x3ee61da0	0.44944477
106	0x3e93b321	0.28847602
107	0x3f4cfc19	0.8007217
108	0x3fd4fef1	1.6640302
109	0xbde304a3	-0.11084869
110	0x3f5e425f	0.86820024
111	0xbee5a87b	-0.44855103
112	0xbcdb5ae3	-0.026776737
113	0xbf678676	-0.90439546
114	0x3ee47f60	0.4462843
115	0x3e1dcbbe	0.15409753
116	0x3f94e2c2	1.1631701
117	0x3f569fdf	0.83837694
118	0x3fb0b99e	1.3806646
119	0xbe880a4c	-0.26570356
120	0xbed319e6	-0.41230696
121	0x3f8f23be	1.1182783
122	0xbeccf8ea	-0.40033656
123	0xbdc0ab49	-0.0940767
124	0xbf94cc3f	-1.1624831
125	0xbea89039	-0.32922533
126	0x3ebea9cf	0.3723893
127	0x3f49eb98	0.7887511
128	0x3f1cbbf0	0.6122427
129	0xbf1ab37b	-0.60430115
130	0xbf4fce2a	-0.81173956
131	0xbe8cd4ec	-0.27506196
132	0xbf09e377	-0.5386271
133	0xbe503667	-0.20333253
134	0x3edccccc	0.43124998
135	0x3f9ff9f2	1.2498152
136	0xbf33937a	-0.70146906
137	0x3fb5d725	1.4206282
138	0x3f911139	1.1333381
139	0x3f557dfc	0.8339536
140	0x3f9b0332	1.211035
141	0xbf94a40c	-1.1612563
142	0xbf4af128	-0.79274225
143	0xbf9f4650	-1.2443333
144	0x3f884cd1	1.0648443
145	0x3f7d7b8b	0.99016637
146	0x3fb9f0f8	1.4526663
147	0x3f56790b	0.83778447
148	0x3f8ed47c	1.1158595
149	0xbf9ce2c7	-1.2256707
150	0x3fa67447	1.3004235
151	0xbf8f7da2	-1.1210215
152	0x3f95e884	1.1711583
153	0x3fbfc0e6	1.4980743
154	0x3f7a5d6d	0.97798806
155	0x3f939b17	1.1531705
156	0xbfce7b57	-1.613139
157	0xbfbc6f68	-1.4721498
158	0xbfd471b1	-1.6597196
159	0x3f8727d5	1.0559031
160	0x3f6928a6	0.9107765
161	0x3fa0b4df	1.2555197
162	0x3fa15079	1.2602683
163	0x3fc5bbe9	1.5447971
164	0xbfc42ac0	-1.5325546
165	0x3f65451b	0.8955857
166	0xbed51ab5	-0.41621938
167	0x3f8075df	1.0035971
168	0x3f5aa794	0.85411954
169	0x3f2b8f2e	0.6701535
170	0x3f5e6e02	0.8688661
171	0xbf96709f	-1.1753119
172	0xbf46dc3c	-0.776798
173	0xbf8747a1	-1.0568734
174	0x3f3fde7d	0.74948865
175	0x3ee805f0	0.4531703
176	0x3f9eb0ef	1.2397746
177	0x3f33110f	0.69947904
178	0x3f957b72	1.1678298
179	0xbf60bda5	-0.87789375
180	0x3e6bc282	0.23023418
181	0x3ea38b47	0.31942198
182	0x3f29290e	0.6607827
183	0x3f9d1b27	1.2273911
184	0x3d8657ad	0.065596916
185	0x3f44d121	0.76881605
186	0xbecde7fe	-0.40216058
187	0xbdb70aef	-0.08937632
188	0xbf3808f8	-0.71888685
189	0x3e807784	0.25091183
190	0xb747eed4	-1.1916931e-05
191	0x3f83e5c8	1.0304499
192	0x3ea6d4f3	0.32584342
193	0x3f4acc5b	0.7921807
194	0xbefaeecf	-0.49010321
195	0x3fa3f7ee	1.2810037
196	0xbf205878	-0.6263499
197	0x3fa923a9	1.3214008
198	0x4006f4e9	2.1086981
199	0x3f71b99c	0.9442384
200	0x3ff1b2d6	1.8882701
201	0xbfb56c38	-1.4173651
202	0xbf9a9dbc	-1.2079387
203	0xbfe0139f	-1.7505988
204	0x3f9cf36f	1.226179
205	0x3f647725	0.892443
206	0x3fde696e	1.7375925
207	0x3fd38f5e	1.6528127
208	0x40130ee3	2.2977836
209	0xbf87a334	-1.0596681
210	0xbe7f373c	-0.24923414
211	0x3f138b1e	0.5763415
212	0xbec5ec27	-0.38656732
213	0x3dd0fb7e	0.10204218
214	0xbecff27f	-0.40614697
215	0xbe335796	-0.1751388
216	0x3e113631	0.14180829
217	0x3e212d40	0.15739918
218	0xbd950d89	-0.07277972
219	0xbead5e24	-0.33860886
220	0xbf3717d3	-0.7152073
221	0xbbd9a2b1	-0.006641709
222	0xbe531664	-0.2061401
223	0xbdd87e6d	-0.10570989
224	0xbd6bea60	-0.057596564

onnx::MatMul_42 f4 [15, 1]
0	0xbf57a573	-0.8423683
1	0x3e7b6e3e	0.24553773
2	0xbf54c0ef	-0.83106893
3	0xbf87dc91	-1.0614187
4	0xbf7984c3	-0.97468203
5	0xbf7e5921	-0.9935475
6	0x3f64c8cf	0.8936891
7	0x3eb80e1f	0.35948274
8	0x3f16e71d	0.589464
9	0xbf71fbbc	-0.9452474
10	0xbf861446	-1.0474937
11	0xbf7e2ac6	-0.9928402
12	0xbf843036	-1.0327213
13	0xbf65f400	-0.8982544
14	0x3f14d3b6	0.58135545
