onnx/myModel_HL2_HD15_99.onnx (onnx, 3508 bytes, 7 tensors)

net.0.bias f4 [15]
00000000: 0acd 85c0 72dd 5cc0 7a0b 88c0 a10a 40c0
00000010: 65c4 3e40 973a 5940 87c2 b13f fb2d 4e40
00000020: a288 5940 d8e7 6ac0 4508 6a3e b371 2c40
00000030: d49a d7bd 9697 7940 01bc 59c0
-4.181279 -3.451016 -4.251401 -3.0006487 2.980737 3.394201 1.388749 3.2215564
3.3989644 -3.6704006 0.22854717 2.6944396 -0.10527578 3.899877 -3.4020998

net.2.bias f4 [15]
00000000: 225a 5d3d 227b a6bd 0ec2 c53d b2c7 dd3e
00000010: b6f4 203d ff7c 2bbd d73a 2e3e 5cb5 f53c
00000020: 9f9e bfbe 1ef0 a6be c8b7 79be b557 be3e
00000030: 4994 c8be dba6 ae3e 8f9e 2e3e
0.054041035 -0.081289545 0.096561536 0.43316418 0.039295875 -0.041867252 0.17014633 0.029993705
-0.37425706 -0.3260507 -0.24386513 0.3717629 -0.39175633 0.34111676 0.17052673

net.4.bias f4 [15]
00000000: 10e8 de3e 8c83 453e 9bf5 dd3e 1037 9cbf
00000010: ff25 093f 253b be3e 9b80 913e b7db e8be
00000020: 646f fcbd c288 8bbe 73ed 05bf 9ffe be3e
00000030: d48f 203f bae8 ad3e aa58 db3e
0.43536425 0.19288462 0.43351445 -1.2204304 0.535736 0.371545 0.2841843 -0.4548013
-0.123259336 -0.27252775 -0.52315444 0.37303635 0.62719464 0.3396662 0.42841083

onnx::MatMul_25 f4 [2, 15]
00000000: 1e21 de3f 2924 2c3f 5ccf a83f a63b 32bf
00000010: 9a15 f53f 8e55 9a3d c6e8 a4bd 851d c23e
00000020: e03a ee3f d4ce 0ac0 a9e7 aabf 3d68 94bf
00000030: af01 4c3f 5920 2b3f 7173 45c0 9d57 113f
00000040: dd23 f03f 7f39 82bf 20ae ca3f 6bef 843f
00000050: 983d 0540 ab30 d1be 4c67 db3f a946 ac3f
00000060: 2776 2f3f 4435 fc3f fc0e 90bc 3f65 74bf
00000070: 4d5c e83f f9f4 963f
1.7353857 0.67242676 1.3188281 -0.69622266 1.9147217 0.075358495 -0.080522105 0.37913147
1.8611717 -2.1688738 -1.3351947 -1.1594311 0.7969007 0.66846234 -3.085171 0.5677431
1.8760945 -1.0173796 1.5834389 1.0385565 2.0818844 -0.40857443 1.7140899 1.3459064
0.6853966 1.9703755 -0.01758527 -0.9546699 1.8153168 1.179351

onnx::MatMul_26 f4 [15, 15]
00000000: 44a9 3740 a54d f73f 260e 6940 7ff6 da3f
00000010: 471c 4c40 7bfd 3340 d2e1 1a40 44e7 363f
00000020: d61e 1f40 8408 5d3f dc9c 7a3f 0c7a d23e
00000030: 7976 b63f 300d 3040 c38c 2940 5d8c 0d40
00000040: c073 ef3f ef5f 4d40 257f d93f cdf9 2740
00000050: 79d5 0c40 1b53 eb3f 00be d23e 4aaa 0640
00000060: 059d 663f 5b03 ae3f 5274 94be e327 fb3f
00000070: f763 4140 fdc3 1b40 bc5a 4740 f4d1 0440
00000080: 18d8 9040 bbe2 a93f 5249 5d40 acea 4e40
00000090: 4b53 2a40 f848 cb3e 3a1c 2e40 8227 4b3f
000000a0: f596 cd3f 5685 c23e ed03 e93f 5285 5840
000000b0: 04c4 3040 5da1 1740 0abc ee3e b9cb 4f40
000000c0: e3bc 613f 136f 3740 e729 2740 9f8b e03f
000000d0: f9a0 c03e e3e6 ff3f 8d64 773f 0788 a53f
000000e0: 6f68 88be b163 fe3f 757b 2340 c8a4 e53f
000000f0: 7151 73bf ad4a b0bd 0164 a7bf d892 a6be
00000100: 076b 70bf 161b 69bf 94ad a2bf ee26 86bf
00000110: 1ac2 16bf fe8b 13bf 5466 56bf a2f5 cd3e
00000120: 167c 34bf 1d2d 6bbf f11e 81bf 356e b4bf
00000130: 43fb 02bf e6d4 d6bf 52c1 86bf 234d a6bf
00000140: 4ba1 c0bf 6ea1 debf 43ef 81bf 7137 9dbf
00000150: 3585 98bf e5f8 b2bf 1ab4 1a3f 6e8e a6bf
00000160: 839d 90bf 99dd b5bf 8506 0cbf 716d f4bd
00000170: 93ca 05be c81b 8b3e e16a 00be 53f0 e6be
00000180: d3ef 37bd fcb6 2a3e 5fee 1fbf 3504 37bf
00000190: 07a3 10bf 0b31 7e3f dbfe 37bf 5a14 493f
000001a0: 3a92 06bd dae5 9ebf 5bdb bcbe 35d1 a0bf
000001b0: 12f4 57bf 006d b8bf b4dc 96bf a1ff aebf
000001c0: 6f93 01bf 1f07 5dbf fc3f 90bf f377 93bf
000001d0: ed92 203f 1e19 89bf 15e8 4fbf 1f90 94bf
000001e0: 18f1 5fbf e657 1cbf a021 c9bf ec22 3ebf
000001f0: 3e28 83bf d4bf 7abf c3ae 83bf 8296 94bf
00000200: d4e9 47bf f82c 21bf 4988 3cbf c112 7d3e
00000210: 44ba 3bbf 0b38 8bbf c924 93bf 57d5 8240
00000220: 1224 4b3f d351 a440 fe13 e23e 4958 9740
00000230: 0ce8 8c40 8e90 5b40 2d51 853b 6eb6 5640
00000240: 6671 f33f d3e6 0840 04b0 34bf 7776 2940
00000250: a982 5f40 ad9e 5d40 3ef3 223e 0b03 0d3e
00000260: afbf b8bd fc99 70bd 4c70 283e 94b9 b43e
00000270: c1c4 8f3e ec66 febe 6bb7 463e 6613 c0bd
00000280: 4745 693e 3b28 ecbe 9a83 943c a9f1 90bf
00000290: 5533 843e b2f4 93bf 1deb 0cbf e27e a0bf
000002a0: a232 953d 7c46 9cbf eb79 5cbf 3064 1abf
000002b0: 60e9 3f3d f623 66bf dcd0 83bf 5c5f 38bf
000002c0: 4c5c 5a3f 6522 21bf 9ba0 cc3d a999 61bf
000002d0: 8b2c 833e b7e6 333e 8eeb cf3e ea8d 6e3e
000002e0: 3de8 863e e96c 913e c3da aa3d 9962 c23e
000002f0: 0a6c b5bd 0fe1 3bbf 16c6 133d 2118 233f
00000300: 308d 9a3c c754 973f 670c a03d 3840 acbf
00000310: 0882 5abf 7c42 06c0 1d3a 1abf ed84 02c0
00000320: de40 ebbf f587 f5bf 55a6 90bf f02d a2bf
00000330: 263d aebf 284f edbf 2c8e 953f 41fd c5bf
00000340: c306 83bf ad97 c5bf 217f dabe 42c7 bdbf
00000350: 4aea 96bd 0994 1cbf f18f 19bf edd2 28bf
00000360: a049 dfbe 629a e2bf 74aa 51bf abbd 45bf
00000370: 9a6e 65bf aeac b43f cde0 6bbf c3f2 3740
00000380: 7c8a 13bf
2.8697062 1.932057 3.6414886 1.7106475 3.189226 2.8123462 2.420033 0.71446633
2.486257 0.8634112 0.978956 0.4110874 1.4254905 2.750805 2.6492164 2.211692
1.8707199 3.2089803 1.6991926 2.6246216 2.2005293 1.8384737 0.41160583 2.1041436
0.9008334 1.3594774 -0.28994995 1.9621547 3.0217264 2.4338372 3.114913 2.0753145
4.5263786 1.3272318 3.4576 3.2330732 2.6613338 0.39704108 2.7204728 0.7935716
1.6061693 0.37992352 1.8204323 3.3831372 2.7619638 2.3692238 0.46627837 3.2468092
0.88178843 2.8661544 2.6119325 1.7542609 0.37622812 1.9992336 0.96637803 1.2932137
-0.26642177 1.9874173 2.5544102 1.7940912 -0.95046145 -0.08607993 -1.3077394 -0.32533908
-0.9391331 -0.91056955 -1.2709222 -1.048063 -0.58889925 -0.57635486 -0.8374989 0.40226465
-0.7050184 -0.9186571 -1.0087568 -1.4096133 -0.51164645 -1.6783721 -1.0527747 -1.299229
-1.5049223 -1.7393014 -1.0151142 -1.2282544 -1.1915652 -1.3982207 0.60431063 -1.3012216
-1.1298069 -1.4208251 -0.5469745 -0.11934937 -0.13065557 0.27169633 -0.12540771 -0.45105228
-0.04490645 0.16671365 -0.624731 -0.71490794 -0.5649876 0.99293584 -0.71873254 0.7854668
-0.032854296 -1.2413895 -0.36886105 -1.2563845 -0.84356797 -1.4408264 -1.1786103 -1.3671762
-0.5061559 -0.8633899 -1.1269526 -1.1520981 0.6272419 -1.071079 -0.81213504 -1.1606482
-0.87477255 -0.6107162 -1.5713387 -0.74272037 -1.0246656 -0.97948956 -1.0287708 -1.1608431
-0.7809117 -0.6295924 -0.73645455 0.24714185 -0.73331094 -1.0876478 -1.1495601 4.0885425
0.79351914 5.1349883 0.44155878 4.729527 4.403326 3.430698 0.004068515 3.3548846
1.9018981 2.1390884 -0.7058108 2.6478555 3.4923499 3.4628098 0.15913102 0.13770692
-0.09020936 -0.0587406 0.16449088 0.35297835 0.280798 -0.49687898 0.19405906 -0.093787
0.22780333 -0.46124443 0.018129159 -1.1323749 0.25820413 -1.155905 -0.55046254 -1.2538722
0.07285048 -1.220901 -0.8612353 -0.60309124 0.046853423 -0.8989862 -1.0298114 -0.72020507
0.85297084 -0.62943107 0.099915706 -0.8812509 0.2561992 0.1756848 0.406094 0.23296323
0.2634906 0.28403404 0.08342507 0.3796585 -0.088584974 -0.7339029 0.03607758 0.6370869
0.018866152 1.1822747 0.078148656 -1.3457098 -0.8535466 -2.097808 -0.60244924 -2.0393631
-1.8379171 -1.9182116 -1.130076 -1.2670269 -1.3612411 -1.8539782 1.1684012 -1.5467912
-1.0236439 -1.5436913 -0.42675117 -1.4826434 -0.07368906 -0.61163384 -0.5998526 -0.6594685
-0.4361086 -1.7703364 -0.81900716 -0.77242535 -0.8962189 1.4115198 -0.92139894 2.874192
-0.57633185

onnx::MatMul_27 f4 [15, 15]
00000000: c872 4a3e fb76 943f 4461 bd3f 5cce 2f40
00000010: 7867 99be ccc5 b0be d804 aa3f 2c90 d93f
00000020: 055d eb3f 8e53 9f3e 9d79 1e3f 90aa a53c
00000030: 166f ccbc f621 2b3e f881 00bf 7c6d 24bf
00000040: e5ca 16be 881f c2be 9c0d c73e 5683 13bf
00000050: 029f d6be 4a97 0fbe 5a11 663d b7d9 cfbc
00000060: be2e 5e3f 8b36 873f 2473 04bf 0c22 1fbf
00000070: 66ba 14bf 979d 40bf 3bf4 d03f fb0c 3240
00000080: 3eb9 5e40 59c2 9b40 87d3 cc3f 398b 1e3f
00000090: 1ae6 6940 0940 6140 4fea 7e40 0314 523e
000000a0: 7078 64bc 9c83 2a3f 95ce f93f 00f8 a23f
000000b0: 88fb 073f b124 2bbf f98a 03bf 3286 72bf
000000c0: 0239 00bf 111a 7dbf 0e91 59bf 5852 4abf
000000d0: b39e 01bf 2752 80bf 9a42 3b3f acc2 573f
000000e0: 9a4a 84bf 8cb7 9bbf ac21 6ebf 786a 84bf
000000f0: dab2 493f 752b d43f a6c6 0340 3d44 6840
00000100: 4207 a33e eaaa 443e db5f fb3f b760 2240
00000110: 1af4 3740 174e c83e e61a 4e3f df52 b7bd
00000120: 0c5d 2f3f 1e6c e53e d7d5 ad3c a9a2 2e3f
00000130: 215a e43f 751d 0240 94dc 5240 4626 fd3e
00000140: 02c2 ae3e 463f e43f 29f9 0440 424b 2e40
00000150: 5fc6 2c3f a084 333f 0352 1fbe 1137 243f
00000160: c9dc 803e ee3a 35be 8f1b 853e ef19 3d3f
00000170: 1be0 5c3f 3249 1c40 ca4f d33d 8e98 0dbe
00000180: 38db 6c3f 64fa c43f dc74 ec3f 8eea 173e
00000190: b034 1a3f 70dd 1cbe 9b9b 39be 589d eb3d
000001a0: dcc5 25be 2422 bbbe 51cd 87be 6790 89be
000001b0: 7a09 743e 4f17 51bf d42c 8abe 992c f4be
000001c0: bf00 3ebe 284d 05bc dced 013f a855 223f
000001d0: f26c 15bf eb5e 4cbf 6621 06bf 1a8a 02bf
000001e0: b775 353c dae7 523f edb7 7c3f 88e8 1340
000001f0: adce fcbe 8f44 3ebe 881e 493f 2c79 813f
00000200: 81c2 b43f 1b45 143f d5da 1a3f 7679 22be
00000210: 50d1 cdbb d395 8a3d 44a8 f6be f8ff b5bd
00000220: ed17 a43d 2e3e 583d 2491 ea3e bbfd 84bd
00000230: 8653 d9bd c75b 9b3e 54b7 b23e c0de 4d3e
00000240: 2b00 23be 6a56 063e 77a8 37be 0161 bcbe
00000250: c27f ccbd aa2e 9abc c1d2 51be cda5 243f
00000260: 30f3 203f c5aa 973f a8dc fbbe 76db 86be
00000270: 93fe 413e 3e46 6b3f cf1a 793f 6446 c43e
00000280: d09c 443e 129b 843d 162e 40bd 3f06 45bd
00000290: bea8 5bbd 51de 393e d26e c5bd a966 a5bb
000002a0: 3f12 b5bf d076 d03e 0b71 0d3e 4fcd 3ebd
000002b0: 236e 18bf 3722 38bf 9d32 c1be 9abf 0bbf
000002c0: d84c ac3d 7dae 113e 91e8 463e c955 ba3e
000002d0: b3a9 6c3e 5f16 9d3e 0d4a 3c3f 8479 cd3f
000002e0: 0911 0dbe 1e49 893e d48a c93e 610d 7c3f
000002f0: 5cca 473f 482a b03e 79f4 cc3e 95ab a7bd
00000300: 21ba 3ebc 2fe8 5abe 7640 01be 5169 1ec0
00000310: dd8a 1ec0 46bb 37c0 c9f3 0fc0 61bb 2cc0
00000320: 768a 13c0 9c03 30c0 a7c8 09c0 affa 22c0
00000330: e865 1140 d5fa 2940 a0fa 05c0 b4ce 15c0
00000340: f66b 0fc0 f741 19c0 58ac 913e 2b97 873f
00000350: 2b62 903f 8ea3 2240 d1b5 07bd ddf0 1cbd
00000360: 5263 af3f 49fd e43f 9779 fd3f 45d5 333f
00000370: d294 453f 30ba ce3d 3f87 c7bc 4929 a93d
00000380: 4e10 14be
0.19770348 1.159881 1.4795308 2.7469702 -0.29961753 -0.34525907 1.3282728 1.6997123
1.8387762 0.31118435 0.6190432 0.020222932 -0.024955314 0.16712174 -0.50198317 -0.6422956
-0.14725836 -0.3791468 0.3887757 -0.5762228 -0.41918188 -0.14022556 0.05616889 -0.02537237
0.8679007 1.056352 -0.5173819 -0.62161326 -0.5809692 -0.75240463 1.6324533 2.7820423
3.4800563 4.867474 1.6002053 0.61931187 3.6546693 3.5195334 3.983051 0.20515446
-0.01394473 0.6660707 1.9516169 1.2731934 0.5311818 -0.6685286 -0.5138393 -0.94736016
-0.50086987 -0.988679 -0.8498696 -0.79031897 -0.5063278 -1.0025071 0.731485 0.8428142
-1.0335267 -1.2165389 -0.9302013 -1.0344992 0.7878853 1.6575762 2.0589995 3.629165
0.31841475 0.19205824 1.9638628 2.537153 2.8742738 0.39122078 0.80509794 -0.08951353
0.68501353 0.4480905 0.02122013 0.6821695 1.7840005 2.033048 3.294713 0.49443263
0.3413239 1.783181 2.0777075 2.7233434 0.6749019 0.70124245 -0.15558629 0.64146525
0.25168446 -0.17698261 0.25997588 0.73867697 0.8627946 2.4419675 0.10317953 -0.13827726
0.92522 1.5388913 1.8473163 0.1483557 0.60236645 -0.15318847 -0.18125765 0.1150462
-0.16188759 -0.36549485 -0.2652383 -0.26867983 0.2383174 -0.8167619 -0.26987326 -0.47690275
-0.18554972 -0.008136071 0.5075357 0.6341195 -0.5836936 -0.79832333 -0.5239471 -0.50991976
0.011075429 0.8238503 0.9871815 2.3110676 -0.4937643 -0.1858084 0.7856221 1.0115104
1.4121858 0.57917947 0.6049016 -0.15866646 -0.0062810555 0.06766858 -0.4817525 -0.08886713
0.08012376 0.052793674 0.45813859 -0.06493708 -0.10611634 0.30343458 0.34905493 0.20104504
-0.15918033 0.13118902 -0.17935358 -0.36792758 -0.09985305 -0.01882108 -0.20490552 0.6431549
0.62871075 1.184899 -0.49191785 -0.2633931 0.18944769 0.91904056 0.9730653 0.38334954
0.19200444 0.0647489 -0.04691895 -0.04810166 -0.053627722 0.18151213 -0.09640278 -0.0050476384
-1.4146193 0.40715647 0.13812654 -0.046582516 -0.59543055 -0.7192721 -0.37733927 -0.54589236
0.08413094 0.14226718 0.19424655 0.36393574 0.2311161 0.3068113 0.7355049 1.6052709
-0.1377603 0.26813596 0.3936373 0.98457915 0.7804315 0.34407258 0.40030268 -0.081870236
-0.011641056 -0.21377634 -0.12622246 -2.475178 -2.4772255 -2.8708053 -2.2492545 -2.6989367
-2.305326 -2.7502203 -2.1528718 -2.5465505 2.2718449 2.6559346 -2.093422 -2.3407412
-2.2409644 -2.3946512 0.284518 1.0593008 1.1279958 2.5412326 -0.033132378 -0.038315643
1.3702185 1.7889796 1.9802731 0.702473 0.77180207 0.10094106 -0.024356483 0.08259828
-0.14459345

onnx::MatMul_28 f4 [15, 1]
00000000: 0795 c2bf 1985 bdbf 8ea9 dbbf c4c9 07c0
00000010: 8d34 c4bf 6790 c1bf 1b93 cabf 8c3d b0bf
00000020: dda0 debf 245d 7d3f ac96 b03f 466c 9abf
00000030: d5fe a3bf 05c3 a8bf d182 bcbf
-1.520173 -1.4806243 -1.7161119 -2.1216898 -1.5328537 -1.5122193 -1.5826143 -1.3768783
-1.7392842 0.98970246 1.3795981 -1.2064292 -1.2812144 -1.3184515 -1.4727422
