onnx/myModel_HL3_HD15_349.onnx (onnx, 4793 bytes, 9 tensors)

net.0.bias f4 [15]
00000000: aa1e 1bc0 6d12 05c0 4829 18c0 28ee 4ac0
00000010: 8209 6b40 716e 3bc0 9566 2e40 a0f2 cd3f
00000020: 4904 0bbf aac3 32c0 ce16 1640 2453 03c0
00000030: 1fb1 2940 0495 4240 5984 3940
-2.4237466 -2.0792496 -2.3775196 -3.170786 3.6724553 -2.9286158 2.725011 1.6089668
-0.54303414 -2.7931924 2.345142 -2.0519495 2.6514356 3.0403452 2.8987029

net.2.bias f4 [15]
00000000: cb49 ebbd c41b 8dbe 1f1d b53e ef14 023e
00000010: bdab cd3d da86 783e 01dd 97bf 79e6 033f
00000020: 103d e33e ba15 1f3f b686 773f 3b70 193f
00000030: 27cd 0bbf c68e 293f 03b9 53be
-0.11488684 -0.27560246 0.3537378 0.12703298 0.10042522 0.24270192 -1.186432 0.5152355
0.44382524 0.6214253 0.9668993 0.59936875 -0.5460991 0.6623348 -0.20676045

net.4.bias f4 [15]
00000000: cdcd 7cbf a5e9 93be 76ed 30bf adee adbe
00000010: 2aa3 abbf a7b5 99be bebc b1bf e544 bfbf
00000020: cbf8 55bf 9ec4 44bf 6f31 77bf 9170 7abf
00000030: 3a47 cebd 86d9 f3be 311e f93c
-0.9875153 -0.28889194 -0.69112337 -0.33971158 -1.3409169 -0.30021402 -1.3885725 -1.49429
-0.8358275 -0.76862514 -0.96559805 -0.9782801 -0.10072179 -0.47626895 0.030409904

net.6.bias f4 [15]
00000000: 1991 ed3d 729f 493e 68d0 55bd 75e6 16be
00000010: 7802 81bf de41 ec3e a392 9438 adcd b93e
00000020: be47 8dbf d46c 303e 051b f43e a388 6bbf
00000030: 38c7 993d 2a08 923d a81c 33bf
0.11599941 0.1968973 -0.052200705 -0.1473635 -1.0078878 0.46144003 7.084503e-05 0.3628973
-1.1037519 0.17229015 0.47676864 -0.92005366 0.07508701 0.071304634 -0.699656

onnx::MatMul_31 f4 [2, 15]
00000000: eccb 3abf b90b cabf 0b6f dc3e dd4f 933f
00000010: 682f 6440 4aba 0cc0 50ca 77c0 3fd2 ccbf
00000020: 7992 64c0 e8f9 2ac0 8176 d13f 24b2 9a3f
00000030: 940a 40bf 023e 913e 360a 463e de71 dd3f
00000040: 0617 3dbe ba1e d23f 6eda 03be 7af5 3bc0
00000050: 0890 683f c8fb 89be 01f2 1a3f 1dce a340
00000060: 4002 643f 9229 ac3f 30f4 3f3f b541 c73f
00000070: c35c c33f bef0 b53f
-0.7296741 -1.5784827 0.4305347 1.1508747 3.5653934 -2.1988702 -3.8717232 -1.6001662
-3.57144 -2.671503 1.636429 1.2085614 -0.7501614 0.2836762 0.19339833 1.7300375
-0.18465814 1.6415627 -0.12876293 -2.9368577 0.90844774 -0.26949906 0.6052552 5.1189103
0.89065933 1.3450186 0.74981976 1.5566927 1.5262684 1.4214094

onnx::MatMul_32 f4 [15, 15]
00000000: b87a dbbe 0a9e 4dbf 23fd c73f 530d 243f
00000010: c010 3c40 0ffa 1c3f 5286 213f 8469 2340
00000020: e7c7 883f dd48 a33f 0677 af3e 73c7 0c40
00000030: 01a5 57bf 6565 1340 bfbc 003e cd2b febe
00000040: 01d7 ccbf a068 d43f 4ab3 953f fa2a e03f
00000050: 0fc5 de3f bb6e e1bf cbdd b13f b81e 2940
00000060: a938 f73f 8981 0c40 8c98 d63f 1c04 27c0
00000070: 7dea f63f 7c2d 9f40 6157 21bf 2b4b 02c0
00000080: c3d5 2b40 5383 f73f f2a8 fc3f 7426 fd3f
00000090: 62ec 2e3f 3675 d13f e2d8 ca3f 02e1 a13f
000000a0: 9bf7 ca3f a7f7 e23f bc40 97bf 413d c23f
000000b0: 385a 9e3e 0f2f 913f e474 25c0 c85a 4a40
000000c0: 3d71 5b40 69f7 f63f 6a38 4340 23cf d0bf
000000d0: 6c18 cf3f 4520 3940 6027 6940 ea15 4140
000000e0: bfc0 1a40 665b f5bf 39fc 0440 edac 5740
000000f0: 349c 86bd 89b8 853f d2f0 4ebd 7a9d f6bf
00000100: caad 663f 031d 81be 422b 6fbf 8fd2 5d3f
00000110: 367d 4b3e 055f 7f3e 45d1 7e3d b639 1f3f
00000120: 739a 83bd 827e 083f c43d 1c3f df2c 5a3f
00000130: 6034 01bf 7a8c cd3e 2128 183f 056d 643f
00000140: 1a17 563f 7dcc 903f f14a 933f e039 b83f
00000150: 549d c93f 36b5 a23f 488e 663f 01e7 a3bf
00000160: 8a1f c03f a8c9 b440 c2b5 0abe 0025 21bd
00000170: 4dfd 6dbf ee4c 62bf 83ca b1bf 7cb8 b4bf
00000180: 1922 6ebf a9da 8fbf 733c 5e3e 88d9 5c3e
00000190: 776d a4bb 4ace b6be 55af 36bf b46f 73bf
000001a0: 5c8f 743f 8c61 8a3e 7616 023f 2578 04bf
000001b0: 2279 c1bf 124b 22be 0981 4bbf 1567 4b3f
000001c0: 912b 3dbe 2e70 82bf 6ad8 abbf 601f 44bf
000001d0: b6b9 b93c 7914 3e3e b1df 5dbe 2801 12bf
000001e0: f061 53bf 2d7a c0be 640e 323f 7149 873f
000001f0: e201 26bf f692 3a3f 2d12 ffbe a971 42bf
00000200: 8f1f 99be fea1 24bf 7787 823e 4516 99bf
00000210: 795f b0be b853 fcbe 6fe4 09c0 7427 b13f
00000220: 252b 5abf 85ee 393f 1570 1e3f 1959 733f
00000230: 1ecc 973f 7683 6e3f 76e7 8c3f 82a5 b53f
00000240: be34 cc3f f036 803f 5801 a13f 315a a9bf
00000250: eeea d43f 3bd7 ed40 4d72 5e3f 5366 1c3f
00000260: 497d 69bf a46d ecbe 00bb a1bf 9a78 73bf
00000270: 5d41 1b3f 790f 88bf 79e1 a3bf 9eeb 34bf
00000280: f2c8 30bf 9693 46bf 9815 c13f ab1b 96bf
00000290: 6f40 efbe 9914 b6bd ad02 abbf f148 f53f
000002a0: 3d6a cf3f 4bc7 533f 67e4 ae3f 3c1f f33e
000002b0: 7133 6a3f 1299 713f 481e 843f 6d33 b53f
000002c0: 6506 a53f a96f 25bf c023 6b3f eaed 883e
000002d0: d661 643f 1463 a33f 8053 83bf fdc9 3dbf
000002e0: 7d4c 76bf 4c60 34bf b19f 0340 069b 9abf
000002f0: 4616 c8bf cba1 e2bf 1434 a8bf 7a3b c3bf
00000300: c0c2 ad3f c6f0 8dbf e06f ffbe bf02 4a3f
00000310: ef4f d23f 01e9 5dbf 1b18 8bbf b5f0 96bf
00000320: c65f 3bbf 910e 1540 5475 95bf b0e1 92bf
00000330: b045 c8bf 8727 c5bf 02ca e1bf e993 ec3f
00000340: ded1 b0bf 965b 29bf eba2 4e3f b963 9f3f
00000350: f199 25bf 1528 54bf 9045 b4bf 04e9 0dbf
00000360: 592e 1740 bc7e 9abf e535 babf f129 a4bf
00000370: 5e81 b1bf 6ce5 aebf abad bc3f 5e13 64bf
00000380: d1a6 17bf
-0.42867064 -0.80319273 1.5624126 0.6408283 2.9385223 0.6131906 0.6309558 2.5533152
1.0686005 1.2756611 0.34270495 2.1996734 -0.8423615 2.3030636 0.12572001 -0.49642792
-1.6003114 1.6594429 1.169534 1.7513115 1.7403888 -1.7611917 1.3895811 2.6425
1.9314166 2.1954062 1.6765304 -2.6096258 1.929031 4.9743023 -0.63023955 -2.035838
2.684922 1.9336952 1.9739058 1.977736 0.6832944 1.6363895 1.5847437 1.2646792
1.5856813 1.7731827 -1.181663 1.5174943 0.30928206 1.1342486 -2.5852594 3.1617908
3.4287865 1.9294254 3.0503182 -1.6313213 1.6179328 2.8925946 3.6430283 3.0169625
2.4180143 -1.9168518 2.0778944 3.3699296 -0.06572762 1.0446941 -0.050522633 -1.9266808
0.9010893 -0.25217447 -0.9342538 0.8664941 0.19871983 0.24938591 0.062211294 0.62197435
-0.06425943 0.53318036 0.61031747 0.8522472 -0.5047054 0.40146238 0.5943623 0.8922885
0.83629 1.1312405 1.1507245 1.4392662 1.5751138 1.2711551 0.90060854 -1.2804872
1.5009625 5.6496162 -0.13545898 -0.039341927 -0.9296463 -0.88398635 -1.3889927 -1.41188
-0.9302078 -1.1238605 0.21702747 0.21567357 -0.005017932 -0.3570426 -0.71361285 -0.9509232
0.9553125 0.27027547 0.5081552 -0.51745826 -1.5115092 -0.1584895 -0.7949377 0.79454166
-0.1847365 -1.0190485 -1.3425419 -0.76610374 0.022671562 0.18562497 -0.21667363 -0.57033014
-0.82571316 -0.37593213 0.6955321 1.0569288 -0.6484662 0.72880495 -0.49818555 -0.7595468
-0.2990689 -0.6430968 0.25493976 -1.1959921 -0.3444784 -0.49282622 -2.1545675 1.3840165
-0.85222083 0.72629577 0.61889774 0.9505783 1.1859167 0.93169343 1.1008136 1.4191134
1.5953596 1.0016766 1.2578535 -1.3230649 1.6634195 7.4325233 0.8689316 0.61093634
-0.91206795 -0.461774 -1.2635193 -0.951059 0.6064661 -1.0629722 -1.2803184 -0.70672023
-0.6905662 -0.7756895 1.5084715 -1.1727194 -0.46728846 -0.088906474 -1.3360192 1.9162885
1.6204296 0.8272597 1.3663453 0.47484767 0.91484743 0.9437419 1.0321741 1.4156319
1.2892576 -0.64623505 0.91851425 0.26744014 0.89211786 1.2764611 -1.0259857 -0.74136335
-0.9621046 -0.7045944 2.0566218 -1.2078559 -1.5631797 -1.7705625 -1.3140893 -1.5252526
1.3575058 -1.1089103 -0.4989004 0.7891044 1.6430644 -0.8668366 -1.0866731 -1.1792208
-0.73193014 2.329014 -1.1676431 -1.1475124 -1.5646267 -1.5402688 -1.7639773 1.8482639
-1.3814046 -0.66155374 0.80717343 1.2452308 -0.6468802 -0.8287366 -1.4083729 -0.5543368
2.3622038 -1.2069926 -1.4547697 -1.28253 -1.3867605 -1.3663764 1.4740499 -0.8909205
-0.59238917

onnx::MatMul_33 f4 [15, 15]
00000000: 6e69 34bf 0c3c d33e 518a 15bf db61 2c3d
00000010: e8a6 5dbf ee6f 363c 7935 c0bf b81d d5bf
00000020: d095 86bf e122 42bf 49c9 47bf c792 2fbf
00000030: 577e 4cbe 4a30 96be 95d0 62bd 761a 15c0
00000040: acb9 e8be 5627 b2bf cd93 7bbf 9094 1ec0
00000050: 046f 90bf 83b2 d1bf d872 a4bf 5309 17c0
00000060: 8110 07c0 2de7 cebf 36ef cabf 88d3 90bf
00000070: b913 afbf 3c53 14bf fe98 e33f 479e 35bd
00000080: 23fb 723f f1b7 9b3e 7a73 ee3f 39e9 723f
00000090: d7c6 1340 26fc a73f b69c d13f 1acf de3f
000000a0: 28ad aa3f 744a a33f 2784 383f 768b 9f3f
000000b0: d5f2 e5be b6af 1b40 9463 b73f 17ad 73bf
000000c0: 3c5d e93f c79e 2a40 99bf 2140 4d5d 143e
000000d0: f1d7 38bf 1ca5 3b40 c6d9 3740 449a 2140
000000e0: e20f 4dbf 060e 1340 0cf6 1a40 9488 ff3e
000000f0: cebf b03e 6d6a 4fbf 5bda 1d40 1029 28bf
00000100: a735 fb3e 7023 cdbe 50e3 3340 6e30 2740
00000110: 1254 123f bcd2 2b3e 8596 293e 43e8 2340
00000120: d48c 39bf 5160 dbbe 3f1c 69bf d5fc 953f
00000130: f564 98be 0940 083f 294e 273f 64ba ba3f
00000140: 965a 963f a885 1540 3c2e aa3f 2373 d03f
00000150: 2bbc cb3f 7e33 aa3f a298 493f 1f8b 513f
00000160: 313c 793f c2fb d0be bcc8 d8bf 9b43 37be
00000170: 1aad 7ebf 43c0 05bf 94cb e2bf 915d f4be
00000180: f9b7 b9bf cce6 a8bf c2d1 d9bf cdd6 b3bf
00000190: 222a a4bf 4116 8fbf e57d ddbe 55db 73bf
000001a0: ee55 88be edb9 e43e a9f0 903e cf41 0540
000001b0: 14cb b0be 9f14 f23e e210 32bf c17d 1140
000001c0: 81d5 2340 5e78 9d3e 4c3d 0fbb 0111 443e
000001d0: 865d 1440 c49f 36bf c511 06be ec20 07be
000001e0: 7f63 0440 311f 403f 5ef0 ae3f df4b 663f
000001f0: d63c 0a40 180e e93e 2198 2340 46ee 0640
00000200: ef0e c83f cd3c c73f c436 e93f ceac da3f
00000210: a958 4f3f a9fb 9e3f cf3d 2c3f da12 fa3f
00000220: 0aad d83f 81c5 913f dddd 3e3f 4cc6 1b40
00000230: 0000 5cbe 3a94 0840 d855 d03f 3d62 bd3f
00000240: de44 923f 97db 9e3f 1fa2 d23f b280 303f
00000250: f589 123f 17a3 903f 90a7 fe3f 9ba3 a73f
00000260: b485 0c3f 7797 8a3f c12f 1340 56ed 9b3f
00000270: 7547 0040 c5af 883f 17c9 0240 b319 e43f
00000280: 4a48 ee3f b581 353f d815 aa3f c949 ae3f
00000290: a3a4 a43f 9c57 a53f c3fd 833f b145 2740
000002a0: 2e3d 28bc 5b21 c33f 8314 5cbf 09bd 0b40
000002b0: c5af 2640 b272 603f e199 703e 282e 1b3f
000002c0: 58f1 1d40 9ea4 a2be 1f6d cbbd 8d04 f33e
000002d0: 6117 06c0 4384 e0be 50ba d1bf edf4 61bf
000002e0: 6c30 fcbf 49de 42bf 0101 d0bf f38a b2bf
000002f0: 7937 08c0 9c01 e2bf dcc3 eebf d293 f1bf
00000300: ab8c 71bf 34da a1bf 607e 4fbf cf76 503f
00000310: 769e a13e 32cd f83f cdc5 bebe 07e1 2b3f
00000320: eef1 9ebe f9f6 2240 bc85 0640 e4ad ed3e
00000330: 5912 1e3f 8d36 1e3f af47 0d40 3e38 f3be
00000340: 9ece 17be fcc3 c5bd 7b40 a0bf 3ee9 223f
00000350: b9bb 2940 f3dc ddbf 4d08 98bf c430 b7c0
00000360: c827 a03e ad29 b53f 0d22 bfbf 9613 0ac0
00000370: f035 cbbf e073 b43f 35f6 1ec0 a66b 0bc0
00000380: d59c 75be
-0.7047337 0.4125675 -0.5841418 0.04208551 -0.86582804 0.011135085 -1.5016319 -1.6649694
-1.0514469 -0.7583447 -0.7804151 -0.6858334 -0.1997007 -0.29333717 -0.0553747 -2.32974
-0.45454156 -1.3918254 -0.982724 -2.4778175 -1.1283879 -1.6382602 -1.2847548 -2.359944
-2.1103823 -1.6164299 -1.5854251 -1.1314554 -1.3677894 -0.57939506 1.7781065 -0.0443404
0.94914454 0.30413774 1.8628991 0.9488712 2.3090112 1.3123825 1.6375949 1.7406952
1.3334093 1.2757096 0.7207665 1.2464435 -0.4491183 2.4325995 1.4327264 -0.9518599
1.8231578 2.665941 2.5273192 0.14488716 -0.722045 2.9319525 2.8726668 2.5250406
-0.8010236 2.297731 2.4212675 0.49908888 0.34521335 -0.8102177 2.4664524 -0.65687656
0.4906437 -0.400661 2.810749 2.612331 0.5715953 0.16779608 0.16561325 2.5610511
-0.7248051 -0.4284692 -0.91058725 1.1717783 -0.29764524 0.5322271 0.6535364 1.4588132
1.1746395 2.3362827 1.329536 1.6285137 1.5916799 1.3296964 0.78748524 0.81852907
0.9735747 -0.40817076 -1.6936259 -0.17896883 -0.9948288 -0.52246493 -1.7718377 -0.47727636
-1.4509269 -1.3195434 -1.7017138 -1.4049927 -1.2825358 -1.1178666 -0.43260112 -0.9525655
-0.2662806 0.446731 0.2830861 2.0821416 -0.34529936 0.47281358 -0.6955701 2.2733004
2.5599062 0.30755895 -0.0021856604 0.19147111 2.3182082 -0.71337533 -0.13092716 -0.13196152
2.0685728 0.75047594 1.3667104 0.8995952 2.1599631 0.45518565 2.5561602 2.108293
1.5629557 1.556543 1.8219838 1.7083986 0.8099466 1.242055 0.6728181 1.9537003
1.6927807 1.1388398 0.74557287 2.433978 -0.21484375 2.134047 1.6276197 1.4795605
1.1427267 1.2410764 1.6455725 0.68946373 0.57241756 1.1299771 1.9894886 1.3096803
0.54891515 1.0827473 2.2997897 1.2181804 2.0043614 1.0678641 2.0435236 1.7820343
1.8615811 0.7090104 1.3287916 1.3616267 1.2862743 1.2917361 1.0311817 2.6136286
-0.010268493 1.5244554 -0.859688 2.1834128 2.6044781 0.8767501 0.234962 0.60617304
2.4678555 -0.31766218 -0.099329226 0.4746441 -2.095177 -0.43850908 -1.6384983 -0.8826435
-1.9702277 -0.7612043 -1.6250306 -1.3948654 -2.1283858 -1.7656741 -1.8653522 -1.8873236
-0.9435527 -1.2644715 -0.8105221 0.8143129 0.3156621 1.9437621 -0.37260285 0.6714024
-0.31043953 2.546324 2.1019125 0.4642173 0.61746746 0.6180199 2.2075002 -0.47503847
-0.14824912 -0.09656522 -1.2519678 0.6363715 2.6520827 -1.7333053 -1.1877533 -5.724703
0.3128035 1.4153343 -1.4932266 -2.1574454 -1.5875835 1.4097862 -2.4837773 -2.1784453
-0.23985608

onnx::MatMul_34 f4 [15, 15]
00000000: 239d 1240 649b b13f fe1b 953f 05eb c53d
00000010: 0924 28be 95cf b03f cb28 0e40 6d5e f13f
00000020: 16f9 e0be f3c3 5f3f 31e7 9d3f a2e0 35bf
00000030: 449a 0440 9813 bb3f 502a 8f3d 6a05 5c3f
00000040: ec39 143f 9d95 413f 9327 a6bf ba20 fa3e
00000050: fdfc 0c3f 6959 423f 0a65 913e 9f40 003f
00000060: ca00 1b3f ed36 fa3e 7193 6d3f 5a3e eb3e
00000070: d6c9 053f cb24 1fbf c8ec f1bf 16e6 b3bf
00000080: f0de d8bf 7732 8ebf ba9b 4b3f 4de9 bfbf
00000090: c4eb e3bf 3a07 05c0 1ea5 883f c6b0 a5bf
000000a0: b07e edbf a672 bc3f 02ea e5bf 3e30 eabf
000000b0: 1478 2d3f 873e 133f 9708 223f 1122 383f
000000c0: 7148 a53e 694a 3dbf f9d4 b73e 6c02 be3e
000000d0: f7cd 2a3f 60c9 58bf 8e60 183e 8cfd 5c3f
000000e0: ebd3 9bbf 42cb 643f 6c6b 7a3f fcea fb3e
000000f0: 05be 3240 e9cd e23f d38c e03f 297b d1be
00000100: fadf 78be 3ffa c13f 99a8 2540 1032 2140
00000110: cc05 85bd 7dfd c43f 544d d53f 1e29 d6be
00000120: 8ad7 4040 fe99 ff3f cd82 bfbe af0a 523f
00000130: fbd0 d63e 0fd4 6a3f 6218 dc3f 6b29 18c0
00000140: 19e2 083f 64cc 3f3f da4b 983f ca29 02c0
00000150: ac1c 4b3e 6f1b 813f 9a73 2fc0 09df 1e3f
00000160: 92b0 573f 5ea3 d53f 809a 08c0 f55d 05c0
00000170: ee0d 00c0 affb 123f 5284 053f 830a 0ec0
00000180: a953 0ec0 1886 01c0 987e af3e d001 19c0
00000190: a663 0cc0 0ba0 133f 04c5 f5bf b0e4 f2bf
000001a0: 83a2 2b40 8fc6 10c0 ddfe f3bf 74bf 02c0
000001b0: 2f2a 443e aa8b 793f 3e13 02c0 780f 0dc0
000001c0: 90f4 0ec0 a7bb 8d3f 93f9 fbbf 77d9 fbbf
000001d0: d53f a53f 48c1 14c0 7a2a 0ac0 7710 e03f
000001e0: 4dea 0840 a1af ab3f f2b9 ae3f 721b 053f
000001f0: 5afa 3abf 08b2 a33f 64a1 0940 720d eb3f
00000200: 9669 6abf 11bf 8a3f e499 c53f e9ae e3bf
00000210: 9415 1940 a097 0940 55ba 443e 89af f43f
00000220: 8d08 bf3f e99c c83f a5f6 9d3f b3d9 81bf
00000230: 0542 b73f 88c3 e03f e738 e43f 9462 93bf
00000240: 8274 623f 9201 a33f bdc3 03c0 435e 0640
00000250: 0179 c43f 1262 3e3f 15ec c03f e45c 8f3f
00000260: fea5 9b3f 9379 023f 9636 19bf 1951 643f
00000270: a75e d43f 18f9 b73f 3e52 2fbf 8ab0 0f3f
00000280: 5f73 9a3f 15b4 8abf 444c a93f 3988 aa3f
00000290: 357c 593f f932 f8bf ffcf fdbf 4da1 d0bf
000002a0: 4dc4 bbbe 57fd 1b3f 544a f2bf fd0a c5bf
000002b0: ed75 03c0 2ae3 223f 453a d9bf 249a ffbf
000002c0: 3600 373f e4cd fabf 90b1 efbf 8539 913f
000002d0: 25a6 5f3f f197 213f 8018 3a3f 4025 c03e
000002e0: 1b6d 8ebf be82 8d3e 6ebf 2c3f 0d3d 873f
000002f0: 8c38 8cbf c5b1 6d3e 1979 803f 67f7 b1bf
00000300: 409b 263f bd82 7f3f f4d2 543f b7c2 5d3f
00000310: 1821 223f 3286 683f 2665 443f 4ca8 47bf
00000320: 0f99 363f 886d 703f febc 6b3f 4072 86bf
00000330: a971 4f3e 805c 873f 3658 bcbf 29d1 603f
00000340: 2a03 613f a20a 9d3f 5e7f 033f f366 e13d
00000350: ea99 ae3c a291 16be aa5a 89bf 888a 56be
00000360: 6848 df3e 550b f63e 6e96 83bf 6c4d babd
00000370: f727 193e 3d8e 13bf ee49 093f 9c86 dc3e
00000380: 9e76 dc3d
2.2908409 1.3875546 1.1649168 0.09663967 -0.16419996 1.3813349 2.2212398 1.8856941
-0.43940037 0.8740837 1.2336179 -0.7104589 2.0719156 1.4615355 0.06990492 0.8594576
0.5790088 0.75618917 -1.2980827 0.48853093 0.5507353 0.7591768 0.283974 0.50098604
0.6054808 0.4887003 0.928031 0.45946008 0.522611 -0.62165517 -1.8900385 -1.4054592
-1.6943035 -1.1109151 0.79534495 -1.4993073 -1.7806325 -2.078566 1.067539 -1.2944572
-1.8554287 1.4722488 -1.7962039 -1.8295972 0.6776135 0.57517284 0.6329436 0.7192698
0.3228183 -0.73941666 0.35904673 0.37111223 0.6672053 -0.84682274 0.14880583 0.8632438
-1.2174047 0.89372647 0.9782016 0.49202716 2.7928479 1.7719089 1.7542976 -0.40914276
-0.2430419 1.5154494 2.5884154 2.5186806 -0.06495246 1.5389858 1.6664224 -0.41828245
3.0131555 1.996887 -0.3740448 0.8204755 0.41956314 0.91729826 1.7194941 -2.377528
0.5347 0.7492125 1.1898148 -2.0338006 0.19835156 1.0086497 -2.7414308 0.62059075
0.842538 1.6690481 -2.13443 -2.0838597 -2.0008502 0.5741529 0.5215503 -2.2193916
-2.2238562 -2.0238094 0.3427627 -2.3907356 -2.193582 0.5766608 -1.9200749 -1.897604
2.681794 -2.262119 -1.9062153 -2.0429354 0.19156717 0.97478735 -2.0324244 -2.2040691
-2.233677 1.1072892 -1.9685539 -1.967574 1.2910105 -2.324297 -2.1588426 1.7505025
2.1393006 1.3412973 1.3650496 0.51995003 -0.73038256 1.2788706 2.1504755 1.8363478
-0.9156736 1.0839559 1.5437589 -1.7787753 2.391942 2.1498795 0.19211705 1.9116069
1.4924484 1.5672885 1.2340895 -1.0144562 1.4317023 1.7559671 1.7829865 -1.1514459
0.88459027 1.2734854 -2.058822 2.0995033 1.5349427 0.74368393 1.5072047 1.1200223
1.2160032 0.5096676 -0.59848917 0.89186245 1.6591386 1.4372892 -0.68484867 0.5612875
1.2066458 -1.0836207 1.32264 1.3322822 0.8495515 -1.9390556 -1.98291 -1.6299225
-0.36673203 0.6093344 -1.8928933 -1.5393978 -2.0540726 0.63627875 -1.6970907 -1.9968915
0.71484697 -1.9594083 -1.8726063 1.1345679 0.8736289 0.6312247 0.72693634 0.3752842
-1.1127046 0.2763881 0.674796 1.0565506 -1.0954757 0.23212345 1.0036956 -1.3903626
0.6508064 0.99808866 0.8313439 0.86625236 0.6333175 0.90829766 0.7671684 -0.77991176
0.713273 0.9391713 0.92085254 -1.0503616 0.20258202 1.0575104 -1.471442 0.87819153
0.8789545 1.226887 0.5136622 0.11005964 0.021313626 -0.14703992 -1.0730793 -0.20951283
0.4360993 0.4805552 -1.0280282 -0.09096798 0.14956652 -0.57638913 0.5362843 0.4307145
0.10764812

onnx::MatMul_35 f4 [15, 1]
00000000: afef 21c0 9bec aebf 07af b5bf 65f1 3d3f
00000010: 4568 b3be 6071 abbf 61b2 06c0 8f4a 01c0
00000020: 88e9 e7be b2a9 a9bf 686a d5bf af9b 48bf
00000030: ac64 17c0 a641 dcbf c414 063f
-2.5302541 -1.3665956 -1.4194039 0.74196464 -0.3504049 -1.3393974 -2.1046374 -2.0201757
-0.45295358 -1.3254912 -1.6673098 -0.78362554 -2.3655195 -1.7207534 0.52375436
