onnx/myModel_HL4_HD15_999.onnx (onnx, 6087 bytes, 11 tensors)

net.0.bias f4 [15]
-2.5376897 2.9000819 2.6155622 0.458596 -3.2286546 1.4957949 -2.6486287 -2.3703363
-2.3387241 2.2779746 2.5684958 4.259896 -2.8423297 2.9032562 -3.0655951
00000000: 8269 22c0 f19a 3940 5f65 2740 18cd ea3e
00000010: 47a2 4ec0 3576 bf3f 2283 29c0 97b3 17c0
00000020: a8ad 15c0 56ca 1140 3c62 2440 1151 8840
00000030: bbe8 35c0 f3ce 3940 b632 44c0

net.2.bias f4 [15]
-0.038334366 -0.3877876 0.1671641 -0.40449464 -0.12327025 -0.08901135 0.0020194328 -0.032227986
-0.25337416 -0.41067517 -0.30563858 -0.16048652 -0.111864075 -0.7886935 -0.10560791
00000000: 7f04 1dbd 198c c6be 112d 2b3e ec19 cfbe
00000010: 1d75 fcbd 954b b6bd 7658 043b 7e01 04bd
00000020: 42ba 81be 0444 d2be a97c 9cbe 9456 24be
00000030: fe18 e5bd d1e7 49bf f648 d8bd

net.4.bias f4 [15]
-1.6383407 -1.9295431 -1.3385955 -1.6003915 -1.6404682 -2.0650647 -1.6853083 -1.3573759
-1.5296929 -1.8644699 2.0895457 -1.5824387 -1.9347007 -1.6095752 -1.8517671
00000000: 26b5 d1bf 45fb f6bf 1957 abbf a1d9 ccbf
00000010: ddfa d1bf 052a 04c0 2fb8 d7bf 7ebe adbf
00000020: facc c3bf f3a6 eebf 1ebb 0540 5a8d cabf
00000030: 46a4 f7bf 8f06 cebf b406 edbf

net.6.bias f4 [15]
0.05774935 1.4630477 -1.2769583 -0.5832333 -1.3563353 -1.2687725 -0.114686266 -0.8290528
-0.1627075 -1.9772947 0.60641235 0.6722084 -0.25028056 -0.6949641 -0.34225056
00000000: 958a 6c3d 2645 bb3f 5f73 a3bf c74e 15bf
00000010: 659c adbf 2367 a2bf a2e0 eabd ce3c 54bf
00000020: cb9c 26be fe17 fdbf d73d 1b3f da15 2c3f
00000030: c624 80be 2be9 31bf 773b afbe

net.8.bias f4 [15]
-0.95605046 -0.051695906 -1.0791073 -1.3480759 -0.70885795 -1.1472404 0.8473952 0.4553243
0.9214493 -0.9083849 -0.7539325 -1.2393494 -1.0543684 -1.2805005 0.72333854
00000000: b9bf 74bf 16bf 53bd 3020 8abf c08d acbf
00000010: b777 35bf c6d8 92bf e4ee 583f 4420 e93e
00000020: 1ae4 6b3f ea8b 68bf b801 41bf 00a3 9ebf
00000030: 8bf5 86bf 71e7 a3bf b72c 393f

onnx::MatMul_37 f4 [2, 15]
-0.035374314 2.6972358 0.19767183 -3.8782904 1.5104952 1.2168345 1.1792667 -1.602636
0.7938239 -0.46904555 1.3835274 -2.7143514 -2.7665355 0.24140541 1.2786672 1.9561309
-2.2138224 1.4324763 4.440311 0.11676789 0.85385257 0.8000594 -0.50420654 1.8077829
1.7679635 -2.667052 -0.50751936 0.9391143 1.4260085 -0.8859959
00000000: a8e4 10bd 839f 2c40 7c6a 4a3e e935 78c0
00000010: e857 c13f 3cc1 9b3f 36f2 963f 2d23 cdbf
00000020: 0b38 4b3f bd26 f0be 6d17 b13f efb7 2dc0
00000030: eb0e 31c0 fb32 773e 5eab a33f 7f62 fa3f
00000040: 44af 0dc0 625b b73f 0717 8e40 0124 ef3d
00000050: 1596 5a3f b1d0 4c3f ae13 01bf 6e65 e73f
00000060: a14c e23f fbb0 2ac0 caec 01bf cb69 703f
00000070: 7287 b63f a1d0 62bf

onnx::MatMul_38 f4 [15, 15]
1.295439 2.4995687 0.7632458 2.1341155 0.98107517 1.6803483 1.7638936 1.4570985
1.4020197 1.5362269 0.046596408 0.90143687 2.0058134 1.2276095 1.6622193 -0.060022276
-0.4536376 -0.6825959 -0.73268247 -1.4229211 -0.8971876 1.6450552 -0.17658976 0.57524973
-1.3586452 -0.11603557 -0.6162105 0.57889926 -2.6002443 -0.6191137 -1.1127092 -0.6366789
-0.9645675 -1.2507483 -0.82210785 -0.9668785 -0.9363437 2.6475294 -0.7525523 -0.6074477
-0.21817778 1.8057554 -1.4373338 -0.36809567 -0.8065749 -0.8243844 1.1288979 0.12959006
-1.1094667 0.71536034 -0.64806104 -0.8778932 5.1194935 -1.4703617 0.05012956 -1.9807935
-1.0741667 -0.7689199 0.95978034 -1.1579295 1.6164144 1.4132656 3.262995 1.7054045
2.494482 1.6119592 0.33912683 -0.2579338 0.708013 1.3752255 1.8250542 -1.1079781
0.89983225 2.241665 1.5855931 -0.89428574 -0.4665972 -0.6780595 -0.6794522 -0.2729453
-0.36862996 -0.22621569 1.8298793 -0.11960347 -0.19447324 -0.26269618 1.5663702 -0.7966016
-0.42602822 -0.54773474 1.0241536 1.5849003 1.3671384 0.8745307 1.649762 1.1122277
0.8047546 2.353308 1.2221409 1.1732551 -0.7230818 0.3460503 0.7761624 1.8895655
1.1106514 3.862697 2.6431608 4.4773464 2.7440987 2.9477541 2.7797022 0.14926125
-1.3570347 3.7506049 2.6893392 3.5901697 -1.4238005 2.9899437 2.156849 2.4882538
1.5736883 2.2297957 1.022797 1.8598168 1.1564782 1.2734553 2.1852922 2.1936376
1.597754 1.4725939 1.3974947 1.2255374 1.921379 1.2280985 1.4010046 -1.1562887
-1.2463402 -1.2734778 -1.4685806 -1.4520817 -1.9242772 -1.2435415 1.3679307 -0.82250524
-1.4568489 -0.18507914 0.77834034 -1.3473141 -1.1403215 -1.498963 -0.95670694 -1.8875695
3.4144926 -0.9230853 1.2092633 -0.9038954 -3.9488318 -0.30285323 -2.9777076 -1.2670567
-0.017816223 -0.52160555 -1.4273525 0.09191292 -1.3341886 -0.1962787 -2.679625 -0.9608503
-0.7397847 -0.7378521 -0.21434896 -3.4783378 -0.5545849 -2.4401782 -1.7616769 0.80851626
-0.6194296 -0.52317184 -1.5326511 -0.8513258 3.1924613 2.2875621 2.9124897 2.7993855
2.3525834 2.8967586 0.06722491 2.4733393 2.2333589 2.458067 11.593094 0.1276587
2.9402637 1.1473137 3.0221052 -1.7527916 -0.46845388 -0.9675971 -1.2445371 -0.6502655
-1.2813897 -0.86016256 3.0100625 -0.71159005 -0.92150795 -0.74460053 1.763115 -1.5005825
-0.5814124 -1.3313061 2.8197987 1.9443873 3.5882227 2.7460895 2.8916955 2.8594587
0.7931187 -2.208358 2.2111053 1.7211988 2.2431684 -1.7883484 2.5858018 1.0698508
2.829849
00000000: f2d0 a53f eff8 1f40 1464 433f 5995 0840
00000010: be27 7b3f a715 d73f 44c7 e13f 3482 ba3f
00000020: 6275 b33f 15a3 c43f e0db 3e3d 91c4 663f
00000030: 3f5f 0040 4f22 9d3f 9ac3 d43f ebd9 75bd
00000040: 3043 e8be 9bbe 2ebf 1491 3bbf 4722 b6bf
00000050: 16ae 65bf 2b91 d23f f2d3 34be 9143 133f
00000060: 16e8 adbf 0fa4 edbd f9bf 1dbf be32 143f
00000070: 676a 26c0 3c7e 1ebf 416d 8ebf 63fd 22bf
00000080: e5ed 76bf 8518 a0bf a975 52bf 5985 77bf
00000090: 39b4 6fbf 1f71 2940 44a7 40bf b181 1bbf
000000a0: ff69 5fbe fe22 e73f 8efa b7bf 0977 bcbe
000000b0: b17b 4ebf db0a 53bf ba7f 903f 42b3 043e
000000c0: 0103 8ebf db21 373f 54e7 25bf 9cbd 60bf
000000d0: e4d2 a340 d034 bcbf a754 4d3d a48a fdbf
000000e0: 4b7e 89bf efd7 44bf 2ab4 753f 0937 94bf
000000f0: abe6 ce3f e3e5 b43f e9d4 5040 b24a da3f
00000100: 98a5 1f40 ae54 ce3f 08a2 ad3e e60f 84be
00000110: 5740 353f 6407 b03f 609b e93f 3ad2 8dbf
00000120: 685b 663f 7077 0f40 b7f4 ca3f e9ef 64bf
00000130: d4e5 eebe 4f95 2dbf 94f0 2dbf 7dbf 8bbe
00000140: 11bd bcbe 16a5 67be 7c39 ea3f aaf2 f4bd
00000150: fe23 47be 1d80 86be d27e c83f 15ee 4bbf
00000160: 5f20 dabe 5838 0cbf 7717 833f 03de ca3f
00000170: 64fe ae3f 3ee1 5f3f 672b d33f 7a5d 8e3f
00000180: 6604 4e3f 999c 1640 1d6f 9c3f 392d 963f
00000190: e41b 39bf 812d b13e 94b2 463f 48dd f13f
000001a0: d329 8e3f 6d36 7740 8c29 2940 6c46 8f40
000001b0: 509f 2f40 01a8 3c40 a4e6 3140 f1d7 183e
000001c0: 50b3 adbf e909 7040 221e 2c40 57c5 6540
000001d0: 183f b6bf 3d5b 3f40 d009 0a40 8d3f 1f40
000001e0: 9e6e c93f f9b4 0e40 03eb 823f 7a0e ee3f
000001f0: 7a07 943f 9500 a33f d4db 0b40 8f64 0c40
00000200: 3483 cc3f f57d bc3f 1be1 b23f 69de 9c3f
00000210: bfef f53f 5532 9d3f 1e54 b33f 4501 94bf
00000220: 1388 9fbf 5201 a3bf 73fa bbbf d0dd b9bf
00000230: b74e f6bf 5e2c 9fbf 5a18 af3f b48f 52bf
00000240: 067a babf 6385 3dbe 5041 473f ca74 acbf
00000250: 0ef6 91bf 05de bfbf bfea 74bf e19b f1bf
00000260: 0c87 5a40 514f 6cbf 24c9 9a3f b065 67bf
00000270: a9b9 7cc0 940f 9bbe c392 3ec0 ea2e a2bf
00000280: 54f3 91bc f187 05bf 7db3 b6bf d73c bc3d
00000290: b1c6 aabf 49fd 48be fa7e 2bc0 49fa 75bf
000002a0: 8862 3dbf e0e3 3cbf 4b7e 5bbe 169d 5ec0
000002b0: 47f9 0dbf e12b 1cc0 a17e e1bf ecfa 4e3f
000002c0: f092 1ebf 97ee 05bf e92d c4bf 7df0 59bf
000002d0: 4951 4c40 6b67 1240 3b66 3a40 2229 3340
000002e0: ba90 1640 7e64 3940 37ad 893d 314b 1e40
000002f0: 5aef 0e40 f850 1d40 507d 3941 f6b8 023e
00000300: 482d 3c40 2ddb 923f 2c6a 4140 7a5b e0bf
00000310: 30d9 efbe 72b4 77bf fe4c 9fbf cd77 26bf
00000320: 9404 a4bf 9d33 5cbf dda4 4040 c42a 36bf
00000330: f2e7 6bbf 249e 3ebf c1ad e13f 1613 c0bf
00000340: 71d7 14bf 3d68 aabf 9577 3440 afe1 f83f
00000350: 71a5 6540 eebf 2f40 8a11 3940 5f01 3740
00000360: d409 4b3f bd55 0dc0 c082 0d40 3e50 dc3f
00000370: 1290 0f40 9ae8 e4bf c77d 2540 dff0 883f
00000380: 3f1c 3540

onnx::MatMul_39 f4 [15, 15]
0.84396285 1.0461243 1.600794 0.48132196 0.6163334 2.1450188 0.64928186 0.41518235
1.6917734 1.1016481 -2.0900335 2.0676422 3.4382164 0.8135786 0.96523446 1.2150342
1.8608618 1.9323207 1.3068143 1.6537521 2.756272 1.9662539 1.2472179 1.8171077
1.2736783 -0.9828911 1.2277044 1.1141313 2.0491128 1.1475259 1.3708993 1.4089155
1.1152507 1.6161826 1.712808 1.7945575 1.458755 1.9168448 1.0754114 2.1864738
-1.3146561 -0.67790085 -0.17228594 1.5794941 1.3321323 0.8017112 1.1423619 1.1126913
1.1151769 0.9169846 1.8084483 1.2286268 0.47068465 1.0896741 1.3940722 -1.747945
2.21279 2.3229117 1.0347373 1.263524 1.5852661 1.8820487 0.43016908 1.7086132
1.5380181 1.3626294 1.7734231 1.6978894 0.44175646 1.6994112 -1.2536368 -0.8361009
-0.6916356 2.007094 1.3185301 0.8966089 1.6972963 0.397489 1.0289786 1.1057566
1.8093973 1.3357146 -0.10125727 0.8208732 2.0023851 -2.5331461 1.9225161 1.4619217
1.3163912 1.4983637 -0.19678697 -0.6330526 4.1187706 -0.45991382 -0.9121406 3.6826632
-0.5583454 -0.30796796 4.514186 -0.5064422 -0.41001043 4.09688 3.8681154 -0.9496482
0.14380302 -1.9775193 -2.4280074 -2.081251 -2.0366504 -1.9447579 -2.831158 -2.3049905
-1.800088 -2.207237 -1.9894606 2.7752044 -1.941161 -2.7371056 -2.1396372 -2.319554
0.38546222 -0.00023055461 2.5770237 -0.16777691 0.13109002 1.1170962 -0.0943674 0.3678395
2.6839395 0.3909262 -1.0220093 2.8186176 3.0540407 -0.053596552 0.65420073 0.7138193
1.5516514 0.6686745 1.1534535 1.2156851 1.9264721 1.4852233 0.14670199 0.88078755
1.1622727 -1.4314381 1.9344428 0.34965956 1.3847873 1.1116678 -1.8441772 -1.8497984
1.9331388 -1.7247599 -1.905337 0.46789625 -1.367742 -2.3865168 0.5677472 -1.2301184
0.9689792 4.3828382 3.4191473 -1.7067676 -1.4796063 -1.8138695 -1.66342 -1.3528273
-1.7433617 -1.4379215 -2.2020495 -1.6975491 -1.3000045 -1.4323494 -1.9391928 2.2992785
-1.5598114 -1.9019567 -1.5047752 -1.8917536 0.6158503 0.5771128 1.7954462 0.5896293
0.35924855 2.1405394 0.9610913 0.41291273 1.3529176 1.3922745 -1.8373859 2.2787902
2.7897604 0.4863375 0.782876 1.7987531 2.2241693 -1.5612309 2.1905067 2.0209632
-0.033458713 2.1589222 1.3481755 -1.3230131 1.82774 -0.6653388 -0.565886 -2.2752545
2.4804163 1.6534975 0.7681781 0.97658634 0.6451154 0.5260787 0.8951707 1.4098909
1.1884756 -0.14415163 1.1672311 1.4276705 -2.0773506 1.75955 2.4748576 0.92908454
0.9663736
00000000: f30d 583f 67e7 853f d1e6 cc3f d56f f63e
00000010: 07c8 1d3f fd47 0940 5637 263f c892 d43e
00000020: 088c d83f ce02 8d3f 1cc3 05c0 4054 0440
00000030: bd0b 5c40 b046 503f 9b19 773f 3e86 9b3f
00000040: b830 ee3f 4956 f73f b145 a73f 26ae d33f
00000050: c366 3040 35ae fb3f d6a4 9f3f fc96 e83f
00000060: e407 a33f c09e 7bbf 6b25 9d3f db9b 8e3f
00000070: aa24 0340 21e2 923f a179 af3f 5857 b43f
00000080: 89c0 8e3f 12df ce3f 4b3d db3f 0fb4 e53f
00000090: 7cb8 ba3f 2c5b f53f 15a7 893f 30ef 0b40
000000a0: a746 a8bf e98a 2dbf ba6b 30be dd2c ca3f
000000b0: 5083 aa3f f23c 4d3f ea38 923f ab6c 8e3f
000000c0: 1ebe 8e3f 81bf 6a3f 3c7b e73f a543 9d3f
000000d0: 94fd f03e 717a 8b3f f570 b23f a9bc dfbf
000000e0: 5a9e 0d40 96aa 1440 4672 843f 28bb a13f
000000f0: 00ea ca3f f9e6 f03f 1f3f dc3e d6b3 da3f
00000100: c7dd c43f a46a ae3f 87ff e23f 7154 d93f
00000110: e72d e23e 4e86 d93f 2c77 a0bf b50a 56bf
00000120: 080f 31bf 3a74 0040 98c5 a83f 2988 653f
00000130: 0141 d93f ae83 cb3e 92b5 833f 6f89 8d3f
00000140: 559a e73f b2f8 aa3f f95f cfbd bf24 523f
00000150: 1427 0040 111f 22c0 0215 f63f 4020 bb3f
00000160: 827f a83f 62ca bf3f 8682 49be bc0f 22bf
00000170: f8cc 8340 d379 ebbe 0c82 69bf c1b0 6b40
00000180: b9ef 0ebf faad 9dbe 3674 9040 32a6 01bf
00000190: e3ec d1be a419 8340 348f 7740 251c 73bf
000001a0: 1941 133e 5a1f fdbf 7964 1bc0 3733 05c0
000001b0: 7b58 02c0 d4ed f8bf b131 35c0 f784 13c0
000001c0: 4969 e6bf 5f43 0dc0 a5a6 febf f39c 3140
000001d0: f777 f8bf bd2c 2fc0 d1ef 08c0 9373 14c0
000001e0: 4e5b c53e 08c1 71b9 f5ed 2440 b6cd 2bbe
000001f0: 763c 063e 02fd 8e3f b243 c1bd 7555 bc3e
00000200: aac5 2b40 7b27 c83e 33d1 82bf 3b64 3440
00000210: 6775 4340 0f88 5bbd b379 273f ddbc 363f
00000220: 839c c63f 412e 2b3f 5da4 933f 929b 9b3f
00000230: a396 f63f cc1b be3f 0c39 163e 4b7b 613f
00000240: 5ac5 943f 5d39 b7bf d29b f73f 9406 b33e
00000250: b640 b13f 214b 8e3f 000e ecbf 32c6 ecbf
00000260: 1871 f73f efc4 dcbf 15e2 f3bf 1990 ef3e
00000270: 2b12 afbf b1bc 18c0 e157 113f 8574 9dbf
00000280: 050f 783f 3640 8c40 4fd3 5a40 5c77 dabf
00000290: bd63 bdbf e02c e8bf f2ea d4bf 7229 adbf
000002a0: 7a26 dfbf d00d b8bf 61ee 0cc0 4a49 d9bf
000002b0: 8c66 a6bf 3a57 b7bf 7837 f8bf 6127 1340
000002c0: e6a7 c7bf 5173 f3bf 799c c0bf fb24 f2bf
000002d0: 5ea8 1d3f aabd 133f 2ed1 e53f f2f1 163f
000002e0: 6def b73e 99fe 0840 140a 763f 4c69 d33e
000002f0: 672c ad3f 0d36 b23f 762f ebbf b3d7 1140
00000300: 6f8b 3240 3b01 f93e 906a 483f 8b3d e63f
00000310: ca58 0e40 6ad6 c7bf 4331 0c40 7657 0140
00000320: 010c 09bd c82b 0a40 0491 ac3f 7e58 a9bf
00000330: 62f3 e93f a553 2abf e8dd 10bf c59d 11c0
00000340: 24bf 1e40 cea5 d33f 52a7 443f 9001 7a3f
00000350: 4826 253f 18ad 063f e829 653f 4e77 b43f
00000360: f81f 983f 7c9c 13be d467 953f e8bd b63f
00000370: 50f3 04c0 ef38 e13f 1164 1e40 7cd8 6d3f
00000380: 4364 773f

onnx::MatMul_40 f4 [15, 15]
1.6927623 -1.050461 0.9666736 1.4408815 1.71018 1.5517387 0.43339294 1.7294472
0.48552656 1.2030278 -0.8761214 0.055486027 0.74390095 1.5100175 0.1899296 2.4796338
-0.8123397 1.8360945 1.8616203 2.2325425 2.16626 1.4619627 2.2398305 0.6723969
2.142697 0.16187805 0.8177968 2.1344807 2.6920648 0.5628564 -1.7232037 -1.9380358
-2.3421614 -0.6454763 -1.5924591 -1.4491264 -2.7394817 -2.62631 -0.68194205 -0.450665
-2.5315306 -2.7542617 -2.8827724 -1.6802404 -1.3053647 2.2568984 -1.0983864 1.226933
1.2417132 1.8509926 1.6879897 0.097223975 1.5911393 0.45021236 1.0937232 -0.5193524
0.024745729 0.83722216 1.973191 0.34400994 2.1835403 -1.0893759 1.0921563 1.3929046
1.792448 1.8612845 0.28414032 1.805761 0.792206 1.4033651 -0.8460825 0.2753835
0.89883155 2.0418844 0.4463893 -1.7797997 -4.1978765 -2.6714842 -1.569321 -1.9545382
-1.7198606 -3.125509 -2.2437994 -1.9286138 -1.7067267 -3.9788 -3.806531 -2.8582609
-1.7799789 -1.870475 2.2514515 -1.2327768 1.566052 1.42242 1.933458 1.9798405
0.82305235 1.5036479 0.55618244 1.9008946 -0.36029315 0.42691815 1.0556316 2.1980412
0.12501706 1.3294865 -1.1580106 0.110319816 1.7230934 1.0683088 1.3860404 -0.8172611
0.9475501 0.7618835 -0.045315452 -1.8245362 -0.68189883 0.037894547 1.114292 0.38239205
-1.7682589 -2.2029417 -1.7152625 -0.2620728 -0.92161065 -1.2353556 -2.3573549 -1.5418583
-0.7004756 -0.29519528 -2.566788 -2.7339356 -2.1691854 -1.3232919 -1.5934969 2.1991782
-1.1987439 0.7855489 1.3004588 1.4753401 1.3789436 0.04360771 1.2459571 0.60848045
1.8412592 -1.1872746 -0.40532324 0.4125648 1.649861 0.8175388 -0.86506665 0.9836113
-2.4630516 -0.6669227 -3.162394 -2.594541 -0.6657647 -1.0787961 -0.29591298 -5.061118
0.5245413 -0.09720696 -1.0883499 -1.3605527 -0.92091215 -3.9068642 -0.71922404 -3.5068214
-2.2334242 -2.8481963 -3.3343318 -2.3200984 -4.1315026 -1.6238539 -1.0955727 -1.1546409
-1.4822726 -3.380138 -3.6949759 -1.82664 -4.6011434 -2.0701344 -4.037148 -2.5386612
-3.0636296 -3.7536643 -3.574427 -4.1951346 -3.1806107 -1.4714093 -2.3106563 -3.0832841
-4.596999 -4.2887216 -2.3855891 2.5359924 -0.7987635 1.2582618 1.3269254 1.7555348
1.8558648 0.94024754 1.8185524 0.6568561 1.2769495 -0.14969636 0.4515025 1.5662454
2.2935758 0.45620388 1.4531989 -1.232395 1.3495628 1.3125299 1.8348926 1.8904659
0.023622068 1.56419 0.05943043 1.6284186 -0.96469927 0.18404976 0.81421477 1.898567
-0.1678532
00000000: 6fac d83f 8275 86bf ec77 773f ce6e b83f
00000010: 2ee7 da3f 609f c63f aee5 dd3e 875e dd3f
00000020: f096 f83e d1fc 993f 7e49 60bf 5145 633d
00000030: 4b70 3e3f 4148 c13f e87c 423e 52b2 1e40
00000040: 7ff5 4fbf 2505 eb3f 9349 ee3f fae1 0e40
00000050: 01a4 0a40 9821 bb3f 6259 0f40 3422 2c3f
00000060: f321 0940 5cc3 253e 225b 513f 559b 0840
00000070: ca4a 2c40 5b17 103f f091 dcbf 8f11 f8bf
00000080: f9e5 15c0 ef3d 25bf b3d5 cbbf f97c b9bf
00000090: ab53 2fc0 7715 28c0 c193 2ebf 90bd e6be
000000a0: 9904 22c0 d345 30c0 587f 38c0 1e12 d7bf
000000b0: 3116 a7bf 0671 1040 ed97 8cbf 240c 9d3f
000000c0: 75f0 9e3f 53ed ec3f 0c10 d83f 5d1d c73d
000000d0: 74aa cb3f 3c82 e63e 1fff 8b3f 47f4 04bf
000000e0: 8eb7 ca3c 3154 563f 8691 fc3f 1222 b03e
000000f0: 20bf 0b40 ab70 8bbf c7cb 8b3f b34a b23f
00000100: f06e e53f 923e ee3f d77a 913e 2d23 e73f
00000110: 03ce 4a3f 78a1 b33f dd98 58bf 11ff 8c3e
00000120: d319 663f 3cae 0240 238d e43e 7ad0 e3bf
00000130: 0155 86c0 99f9 2ac0 83df c8bf 4f2e fabf
00000140: 6424 dcbf 5708 48c0 699a 0fc0 d1dc f6bf
00000150: 0576 dabf a9a4 7ec0 349e 73c0 bfed 36c0
00000160: 59d6 e3bf ba6b efbf c817 1040 a1cb 9dbf
00000170: 6474 c83f dc11 b63f 8d7b f73f 6a6b fd3f
00000180: 8fb3 523f 8977 c03f f961 0e3f 8450 f33f
00000190: 5878 b8be 0495 da3e f01e 873f b5ac 0c40
000001a0: 7904 003e 9d2c aa3f b139 94bf 5bef e13d
000001b0: 538e dc3f 58be 883f c669 b13f 0638 51bf
000001c0: a592 723f cc0a 433f b29c 39bd 678a e9bf
000001d0: ec90 2ebf 5037 1b3d 1fa1 8e3f e4c8 c33e
000001e0: 4f56 e2bf fffc 0cc0 b98d dbbf 682e 86be
000001f0: adee 6bbf 2220 9ebf e7de 16c0 9d5b c5bf
00000200: 5e52 33bf d623 97be 4146 24c0 cdf8 2ec0
00000210: efd3 0ac0 a161 a9bf b5f7 cbbf 56bf 0c40
00000220: 7170 99bf bc19 493f 6f75 a63f f2d7 bc3f
00000230: 3981 b03f 009e 323d 867b 9f3f 60c5 1b3f
00000240: 62ae eb3f 9df8 97bf 8786 cfbe b23b d33e
00000250: a52e d33f 394a 513f 0275 5dbf f3cd 7b3f
00000260: a3a2 1dc0 72bb 2abf aa64 4ac0 f60c 26c0
00000270: 8e6f 2abf fe15 8abf e881 97be aef4 a1c0
00000280: 5748 063f 7114 c7bd 0d4f 8bbf 9726 aebf
00000290: e6c0 6bbf 100a 7ac0 111f 38bf c36f 60c0
000002a0: 6cf0 0ec0 d948 36c0 b165 55c0 7e7c 14c0
000002b0: 4535 84c0 72da cfbf ba3b 8cbf 46cb 93bf
000002c0: 1cbb bdbf 2e54 58c0 7c7a 6cc0 57cf e9bf
000002d0: 913c 93c0 157d 04c0 5130 81c0 6d79 22c0
000002e0: 8212 44c0 093c 70c0 69c3 64c0 8b3e 86c0
000002f0: 208f 4bc0 2457 bcbf cbe1 13c0 8754 45c0
00000300: 9e1a 93c0 353d 89c0 7ead 18c0 b34d 2240
00000310: c47b 4cbf b90e a13f b1d8 a93f 5db5 e03f
00000320: fa8c ed3f 10b4 703f 53c6 e83f b927 283f
00000330: 1573 a33f 014a 19be 562b e73e bb7a c83f
00000340: f2c9 1240 8e93 e93e 6c02 ba3f 1fbf 9dbf
00000350: 79be ac3f fb00 a83f c3dd ea3f c9fa f13f
00000360: 1183 c13c 6137 c83f 536d 733d 0570 d03f
00000370: 88f6 76bf 8a77 3c3e 6170 503f 3e04 f33f
00000380: b6e1 2bbe

onnx::MatMul_41 f4 [15, 15]
1.4488767 -0.56842536 1.7909844 2.7012858 1.2032522 1.7392858 -1.4727398 -1.0962589
-1.8404856 1.3769685 1.382197 2.0289109 1.8293321 2.5515332 -1.7461183 1.6353676
-1.7748983 1.4858867 1.8873336 1.7320374 1.9553174 -2.0194097 -1.5226151 -2.19106
1.792212 1.7054923 1.725132 1.5724133 1.6811836 -1.8416442 0.59606165 0.44634378
0.68190616 1.1196567 0.057617407 0.55931324 -0.3318831 -0.16586424 -0.46447194 0.11145394
-0.09543755 0.76328117 0.4694799 0.7809649 -0.040942233 -0.747955 0.8282091 -0.66118455
0.023792995 -0.7607925 -0.38308182 0.40062928 0.97215086 0.5666294 -0.65026575 -0.8039188
0.016067518 -0.53483236 0.00991913 0.8614463 0.6950443 -0.81778574 0.9833395 1.3476557
0.6391207 1.0200667 -0.8632879 -0.67517906 -0.8871635 0.83567625 0.69003755 1.13265
1.0488452 1.3133878 -0.8891968 0.6158641 -0.3216921 0.47875226 1.4738865 0.7370434
0.8166554 -0.71442634 -0.58698636 -0.88748866 0.6292846 0.6464814 0.74720585 0.5927978
0.92723596 -0.532202 0.09506917 0.19000714 0.32780454 0.7170879 -0.12889227 0.4690148
-0.5721294 -0.2702012 -0.5094039 -0.0074020005 0.090361774 0.49157825 0.24503042 0.6804478
-0.23913366 0.42840138 0.25486496 0.7666636 1.5826832 -0.12250604 0.8233147 -0.44435987
-0.03684038 -0.8916468 0.42949688 0.14525193 1.0958583 0.8033596 1.2977221 -0.2668753
-0.59917116 1.2854499 -0.5857137 -0.23915939 -1.3592604 -0.49830997 0.5212583 0.9570836
0.74820465 -0.78970563 -1.0046347 -0.44074842 -0.7194077 -0.3606002 0.5864754 1.2817937
-0.7941518 1.4318194 1.0914595 0.8866159 1.2145072 -1.1884482 -0.86760163 -1.2637074
1.1019231 1.037308 1.4155096 0.870938 1.0755957 -1.2688653 1.3886502 -1.195596
1.2969103 1.5838523 1.0821549 1.2215936 -1.626996 -1.540042 -1.6600523 1.148376
1.0342135 1.3490303 1.3817579 1.6368556 -1.5720575 1.0466694 -0.56248325 1.1796194
0.9959296 0.83374685 1.0050071 -1.2862033 -0.91557395 -1.1543293 0.90636206 0.6356823
1.3901875 0.8742393 1.3103718 -1.0024385 0.23241982 0.2650286 0.65975994 1.1700805
0.08433571 0.7470924 -0.41716233 -0.11835988 -0.72064835 0.2608347 0.029823173 0.99529195
0.32458472 0.73698086 -0.51058894 1.3091558 -0.703745 1.3230562 2.0516348 0.9945449
1.8755168 -1.430279 -1.2763618 -1.7576482 1.2578992 0.9366517 1.6771744 1.6703482
2.238447 -1.093891 -0.3422568 0.63224137 -0.47939864 0.048077587 -0.5026747 -0.2572019
0.19661818 0.2243853 -0.025089506 -0.4287546 -0.8060311 -0.08180206 -0.29471654 -0.17028308
0.0018125531
00000000: cb74 b93f 5384 11bf fa3e e53f dee1 2c40
00000010: 2b04 9a3f eba0 de3f bd82 bcbf 3652 8cbf
00000020: 0895 ebbf 8140 b03f d5eb b03f add9 0140
00000030: 8e27 ea3f 524c 2340 ce80 dfbf ba53 d13f
00000040: de2f e3bf 8931 be3f 2694 f13f 67b3 dd3f
00000050: d747 fa3f 023e 01c0 0de5 c2bf 543a 0cc0
00000060: 3467 e53f 924d da3f 20d1 dc3f d744 c93f
00000070: 0631 d73f ffba ebbf 7f97 183f 2c87 e43e
00000080: 6791 2e3f e950 8f3f 3b00 6c3d 272f 0f3f
00000090: 95ec a9be 51d8 29be 44cf edbe f741 e43d
000000a0: c374 c3bd 6566 433f ab5f f03e 51ed 473f
000000b0: 0bb3 27bd fb79 3fbf 8305 543f 6443 29bf
000000c0: 87e9 c23c 4cc3 42bf 4d23 c4be 481f cd3e
000000d0: e1de 783f a00e 113f d177 26bf 9fcd 4dbf
000000e0: 07a0 833c c6ea 08bf d983 223c bf87 5c3f
000000f0: 6cee 313f 685a 51bf 23bc 7b3f fb7f ac3f
00000100: 6a9d 233f 8c91 823f 7000 5dbf 89d8 2cbf
00000110: 261d 63bf e1ee 553f 4da6 303f adfa 903f
00000120: 8f40 863f 171d a83f 67a2 63bf 45a9 1d3f
00000130: d4b4 a4be 041f f53e 50a8 bc3f e0ae 3c3f
00000140: 5410 513f a5e4 36bf bd44 16bf 7532 63bf
00000150: cc18 213f ce7f 253f e248 3f3f 99c1 173f
00000160: 565f 6d3f 643e 08bf a0b3 c23d 3b91 423e
00000170: ffd5 a73e 1393 373f 56fc 03be b522 f03e
00000180: 1377 12bf d057 8abe 4b68 02bf 7b8c f2bb
00000190: 980f b93d 25b0 fb3e 41e9 7a3e d431 2e3f
000001a0: 74df 74be 6d57 db3e a97d 823e 1144 443f
000001b0: 5d95 ca3f 72e4 fabd c1c4 523f 2383 e3be
000001c0: f0e5 16bd f742 64bf 04e7 db3e ecbc 143e
000001d0: 1645 8c3f faa8 4d3f c21b a63f e1a3 88be
000001e0: 4863 19bf 9f89 a43f 55f1 15bf 33e6 74be
000001f0: 3ffc adbf 7c22 ffbe 2f71 053f 6e03 753f
00000200: 578a 3f3f 262a 4abf df97 80bf c7a9 e1be
00000210: 1a2b 38bf 97a0 b8be 4023 163f d111 a43f
00000220: 884d 4bbf dc45 b73f f2b4 8b3f 42f9 623f
00000230: f974 9b3f 121f 98bf 241b 5ebf 2ac1 a1bf
00000240: d10b 8d3f 82c6 843f 6b2f b53f cbf5 5e3f
00000250: 1fad 893f 2e6a a2bf 4abf b13f 4a09 99bf
00000260: 2801 a63f acbb ca3f 0d84 8a3f 2e5d 9c3f
00000270: 6841 d0bf 1920 c5bf 987c d4bf fcfd 923f
00000280: 1c61 843f 06ad ac3f 71dd b03f 7c84 d13f
00000290: 2e39 c9bf 43f9 853f e7fe 0fbf c5fd 963f
000002a0: 3ef5 7e3f 6f70 553f 13a4 803f 4fa2 a4bf
000002b0: 0e63 6abf 10c1 93bf 5807 683f 13bc 223f
000002c0: aaf1 b13f 26ce 5f3f 43ba a73f e84f 80bf
000002d0: 76ff 6d3e d4b1 873e 07e6 283f 33c5 953f
000002e0: 33b8 ac3d 7341 3f3f 4d96 d5be aa66 f2bd
000002f0: 697c 38bf 208c 853e ba4f f43c 74cb 7e3f
00000300: f82f a63e c7aa 3c3f f5b5 02bf 6b92 a73f
00000310: a228 34bf e859 a93f fc4d 0340 7f9a 7e3f
00000320: ef10 f03f 6213 b7bf d35f a3bf 9efa e0bf
00000330: d702 a13f 68c8 6f3f a7ad d63f f8cd d53f
00000340: b742 0f40 9f04 8cbf 493c afbe 92da 213f
00000350: bd73 f5be 01ed 443d 4aaf 00bf f8af 83be
00000360: 4756 493e 43c5 653e 8288 cdbc b985 dbbe
00000370: 0e58 4ebf d787 a7bd 16e5 96be b05e 2ebe
00000380: 3193 ed3a

onnx::MatMul_42 f4 [15, 1]
-0.8528433 0.24348108 -0.84468085 -1.0779467 -0.9835831 -1.0077888 0.8943348 0.3575942
0.5903724 -0.9556148 -1.0557266 -1.0086238 -1.0456947 -0.9143759 0.5807672
00000000: f053 5abf 1b53 793e 013d 58bf 28fa 89bf
00000010: 1acc 7bbf 39ff 80bf 20f3 643f 9616 b73e
00000020: a522 173f 2ca3 74bf 0d22 87bf 961a 81bf
00000030: 53d9 85bf 8a14 6abf 29ad 143f
