onnx/myModel_HL4_HD15_649.onnx (onnx, 6087 bytes, 11 tensors)

net.0.bias f4 [15]
-2.4379048 2.7887683 2.6059742 -0.0025866942 -3.084004 1.363495 -2.6405358 -2.4502187
-2.168963 2.326847 2.3090222 3.6783898 -2.9535503 2.8720646 -2.9587543
00000000: a206 1cc0 2e7b 3240 48c8 2640 8785 29bb
00000010: 5260 45c0 0187 ae3f 8afe 28c0 62d0 1cc0
00000020: 4ad0 0ac0 10eb 1440 05c7 1340 bd6a 6b40
00000030: f806 3dc0 e8cf 3740 3b5c 3dc0

net.2.bias f4 [15]
0.015827684 -0.39975446 0.22631808 -0.38897097 -0.07315054 -0.08236119 0.020992676 -0.07457277
-0.21102783 -0.36411807 -0.311799 -0.21535105 -0.034598086 -0.80787945 -0.109968
00000000: 0fa9 813c 9eac ccbe edbf 673e 3427 c7be
00000010: f3cf 95bd fcac a8bd d5f8 ab3c 9cb9 98bd
00000020: ae17 58be af6d babe 1ea4 9fbe fc84 5cbe
00000030: b9b6 0dbd 30d1 4ebf e736 e1bd

net.4.bias f4 [15]
-1.543211 -1.8901227 -1.3977009 -1.5438285 -1.6082053 -1.9665678 -1.6987004 -1.3164383
-1.4450071 -1.81063 2.0283616 -1.5361776 -1.7185458 -1.6613119 -1.7580795
00000000: f087 c5bf 8aef f1bf dde7 b2bf 2c9c c5bf
00000010: acd9 cdbf 7eb8 fbbf 046f d9bf 0d81 a8bf
00000020: fef5 b8bf b9c2 e7bf add0 0140 78a1 c4bf
00000030: 4ff9 dbbf dea5 d4bf c008 e1bf

net.6.bias f4 [15]
0.08001416 1.3826025 -1.0746835 -0.60096925 -1.3920048 -1.2640883 -0.19689012 -0.5967407
-0.6066301 -1.985111 0.6678885 0.45176598 -0.16743678 -0.608992 -0.5406139
00000000: 77de a33d 1ef9 b03f 3b8f 89bf 1fd9 19bf
00000010: 372d b2bf a5cd a1bf 909d 49be 00c4 18bf
00000020: 1c4c 1bbf 1e18 febf befa 2a3f df4d e73e
00000030: 8c74 2bbe e6e6 1bbf ac65 0abf

net.8.bias f4 [15]
-0.9204112 0.06399668 -1.0371395 -1.3061355 -0.6865759 -1.1077961 0.8710085 0.53205156
0.962163 -0.87784207 -0.7314315 -1.1906489 -1.0206627 -1.2326828 0.768234
00000000: 12a0 6bbf b110 833d fdc0 84bf 732f a7bf
00000010: 70c3 2fbf 43cc 8dbf 6afa 5e3f 8834 083f
00000020: 5050 763f 42ba 60bf 183f 3bbf 2f67 98bf
00000030: 13a5 82bf 8dc8 9dbf fcaa 443f

onnx::MatMul_37 f4 [2, 15]
-0.04115121 2.9607184 0.24307375 -3.667 1.4330761 1.250961 1.2165895 -1.6250949
0.7633785 -0.45451793 1.4276239 -2.5509553 -2.91114 0.2671794 1.2343432 1.9632275
-2.2143962 1.3881059 4.5190854 0.14731699 1.0213327 0.67429614 -0.5191427 1.7093664
1.6537559 -2.5312815 -0.3355916 0.9655512 1.4187461 -0.86616457
00000000: 2c8e 28bd 697c 3d40 53e8 783e 21b0 6ac0
00000010: 0a6f b73f 7d1f a03f 34b9 9b3f 1c03 d0bf
00000020: c66c 433f 93b6 e8be 61bc b63f da42 23c0
00000030: 1e50 3ac0 bdcb 883e f5fe 9d3f 0a4b fb3f
00000040: abb8 0dc0 74ad b13f 599c 9040 44da 163e
00000050: 08bb 823f ac9e 2c3f 89e6 04bf 85cc da3f
00000060: 46ae d33f 8400 22c0 aad2 abbe 5d2e 773f
00000070: 7999 b53f f6bc 5dbf

onnx::MatMul_38 f4 [15, 15]
1.1591574 2.2548707 0.9524994 1.9972008 1.0209293 1.5648797 1.843292 1.5840662
1.4286424 1.5890143 0.19622274 0.94601923 1.9716201 1.1976678 1.5172573 0.0049969936
-0.6450706 -0.78276175 -0.64415383 -1.525724 -0.83701825 1.4271098 -0.2252614 0.5937451
-1.2014667 -0.08838684 -0.67702365 0.6170073 -2.7121136 -0.55992806 -1.0919896 -0.5997145
-0.92000973 -1.2189263 -0.76711404 -0.9449646 -0.91833633 2.5104966 -0.72641706 -0.53858185
-0.23628889 1.7867695 -1.3636383 -0.3476024 -0.809813 -0.90210664 0.7277596 0.22111784
-0.9904871 0.7270565 -0.5729866 -0.90574574 6.997882 -1.379605 0.13509911 -1.8210067
-0.6644824 -0.6333672 0.93700683 -1.0361309 1.46751 1.4844257 2.9172194 1.57763
2.3312416 1.5183959 0.35275975 -0.37314084 0.75922054 1.3872947 1.6894612 -0.9460924
0.78162616 2.2288706 1.4217321 -0.8551638 -0.40501416 -0.5525241 -0.65801686 -0.19541936
-0.38671136 -0.20675798 2.1041355 -0.051079053 -0.12143345 -0.28798082 1.4438771 -0.74229634
-0.43978593 -0.5425857 0.85848516 1.6956257 1.3733523 0.72680527 1.6491959 1.0182154
0.7407929 1.9383808 1.2149074 1.2169579 -0.7209738 0.40006202 0.6914161 1.8618779
0.9418093 3.8590271 2.4272635 3.9171784 2.7875865 2.9906862 2.8355334 0.48558268
-1.725156 2.4817367 2.6051295 3.4684696 -1.2623817 3.04812 2.1586618 2.4604235
1.4207599 2.211306 1.1122478 1.7658932 1.2428594 1.2803968 2.1888864 1.8448607
1.511371 1.5623717 1.3442032 1.3889581 1.835263 1.2756473 1.347358 -1.1912796
-1.207535 -1.2421304 -1.457055 -1.4087766 -1.8680848 -1.2507924 1.4887642 -0.8893898
-1.3827902 -0.25132394 0.909029 -1.2990507 -1.1022614 -1.4968917 -0.7763622 -1.8227768
1.7953407 -0.90952265 0.9450169 -0.819404 -3.8107374 -0.3460651 -2.8144135 -1.34792
-0.106580466 -0.48730427 -1.3308449 -0.15522009 -1.2848166 -0.22319789 -2.6517453 -0.7710035
-0.7899489 -0.63154125 -0.28642428 -3.0141118 -0.4452574 -2.3806396 -1.7143792 0.96907365
-0.6091173 -0.48999375 -1.4896606 -0.92961615 3.08967 2.1078186 2.6636622 2.707742
2.1636145 2.8358805 0.0607119 2.346034 1.7558256 2.2589304 12.379361 0.23306288
2.8115983 1.0899221 2.9104395 -1.7247661 -0.44695103 -0.9212218 -1.2147138 -0.59105915
-1.2594231 -0.8405952 2.8859801 -0.68300366 -0.85864514 -0.7614569 1.7517779 -1.4217315
-0.56632817 -1.334171 2.748525 2.11084 3.3902051 2.6527064 2.9599156 2.7307374
0.6546248 -1.9312307 2.2608907 1.6907955 2.0269759 -1.8642963 2.46408 1.0785925
2.7225327
00000000: 455f 943f cd4f 1040 00d7 733f 47a4 ff3f
00000010: d0ad 823f fa4d c83f fef0 eb3f aec2 ca3f
00000020: c1dd b63f d264 cb3f 9dee 483e 512e 723f
00000030: 0c5e fc3f 2e4d 993f 7d35 c23f d2bd a33b
00000040: 5923 25bf 1363 48bf 44e7 24bf ed4a c3bf
00000050: d446 56bf 89ab b63f edaa 66be aeff 173f
00000060: a9c9 99bf 2904 b5bd 6c51 2dbf 31f4 1d3f
00000070: 4593 2dc0 7257 0fbf 51c6 8bbf e486 19bf
00000080: c285 6bbf c705 9cbf 9661 44bf 33e9 71bf
00000090: 1718 6bbf faab 2040 78f6 39bf 80e0 09bf
000000a0: b7f5 71be ddb4 e43f b38b aebf f1f8 b1be
000000b0: e84f 4fbf 76f0 66bf 744e 3a3f b76c 623e
000000c0: 9090 7dbf 6020 3a3f 40af 12bf f4de 67bf
000000d0: a6ee df40 e696 b0bf 6c57 0a3e bf16 e9bf
000000e0: 851b 2abf 5a24 22bf aedf 6f3f f09f 84bf
000000f0: 5ed7 bb3f a901 be3f b9b3 3a40 c8ef c93f
00000100: 1033 1540 cc5a c23f ed9c b43e 510c bfbe
00000110: 475c 423f df92 b13f 4440 d83f 1d33 72bf
00000120: a718 483f d1a5 0e40 51fb b53f 04ec 5abf
00000130: 045e cfbe 3872 0dbf cb73 28bf 031c 48be
00000140: 08ff c5be 5db8 53be 28aa 0640 4538 51bd
00000150: 1ab2 f8bd 3972 93be f7d0 b83f 2207 3ebf
00000160: 9f2b e1be e5e6 0abf afc5 5b3f 430a d93f
00000170: 02ca af3f e90f 3a3f da18 d33f e254 823f
00000180: 9aa4 3d3f dd1c f83f 1682 9b3f 47c5 9b3f
00000190: bd91 38bf eed4 cc3e a500 313f 0452 ee3f
000001a0: 6a1a 713f 4dfa 7640 4958 1b40 0db3 7a40
000001b0: d167 3240 6767 3f40 6179 3540 4b9e f83e
000001c0: e9d1 dcbf c6d4 1e40 71ba 2640 68fb 5d40
000001d0: b995 a1bf 6614 4340 8427 0a40 9477 1d40
000001e0: 76db b53f 0a86 0d40 235e 8e3f ca08 e23f
000001f0: 0416 9f3f 0be4 a33f b716 0c40 6524 ec3f
00000200: 9b74 c13f ccfb c73f da0e ac3f 61c9 b13f
00000210: e6e9 ea3f 6948 a33f 3a76 ac3f da7b 98bf
00000220: 8290 9abf 21fe 9ebf c780 babf cb52 b4bf
00000230: 671d efbf f719 a0bf d38f be3f 0daf 63bf
00000240: 45ff b0bf 88ad 80be 20b6 683f 4b47 a6bf
00000250: e716 8dbf 269a bfbf acbf 46bf c050 e9bf
00000260: b9cd e53f 7ad6 68bf a1ec 713f 76c4 51bf
00000270: 1fe3 73c0 722f b1be 5a1f 34c0 a488 acbf
00000280: dc46 dabd f27f f9be 2059 aabf 04f2 1ebe
00000290: df74 a4bf fd8d 64be 32b6 29c0 7c60 45bf
000002a0: 173a 4abf b0ac 21bf 34a6 92be 35e7 40c0
000002b0: c7f8 e3be 665c 18c0 c770 dbbf 3615 783f
000002c0: 1def 1bbf 76e0 fabe 33ad bebf 53fb 6dbf
000002d0: 27bd 4540 80e6 0640 7179 2a40 a54b 2d40
000002e0: a978 0a40 117f 3540 0bad 783d 6c25 1640
000002f0: e5be e03f 5192 1040 dd11 4641 09a8 6e3e
00000300: 3af1 3340 9182 8b3f a444 3a40 23c5 dcbf
00000310: c4d6 e4be 31d5 6bbf be7b 9bbf a74f 17bf
00000320: c734 a1bf 3f31 57bf e6b3 3840 54d9 2ebf
00000330: 2bd0 5bbf d7ee 42bf 423a e03f 4cfb b5bf
00000340: e2fa 10bf 1ec6 aabf d5e7 2f40 0118 0740
00000350: 1ff9 5840 f1c5 2940 426f 3d40 67c4 2e40
00000360: 7e95 273f 9132 f7bf 6fb2 1040 fd6b d83f
00000370: f9b9 0140 43a1 eebf 7db3 1d40 520f 8a3f
00000380: fa3d 2e40

onnx::MatMul_39 f4 [15, 15]
0.8606517 1.0550932 1.8431634 0.51154876 0.6036437 2.3070922 0.61571133 0.2698162
1.847392 1.07587 -1.9330612 2.3174312 3.0703137 0.78029674 0.95326746 1.2683047
1.8519915 1.893283 1.316286 1.6097151 2.6534643 1.8693055 1.2428194 1.8388835
1.1972177 -1.0579289 1.2110453 1.2608613 1.8698125 1.2269391 1.3770207 1.3704741
0.7433228 1.589664 1.6710203 1.6979868 1.3747128 1.4993871 0.83060694 2.0617175
-1.4183973 -0.32025665 -0.0653788 1.4899678 1.378377 0.78033113 1.1526326 1.2626116
1.112292 0.88798416 1.8180686 1.2051512 0.45457312 1.1310549 1.4118794 -1.5706997
1.9907479 1.8266443 0.98308 1.231786 1.638037 1.9169581 0.27275306 1.7233973
1.5377448 1.3063403 1.7624967 1.5737783 0.44698352 1.6881367 -1.3902012 -0.7873962
-0.5668251 1.9451597 1.3937172 0.9788034 1.7038124 0.71333814 1.064484 1.0970098
1.7250246 1.2649043 0.39404538 1.0556026 1.9098624 -2.2965274 1.6593859 1.3021859
1.234235 1.5234201 -0.49522707 -0.70718473 3.3867066 -0.61077064 -1.0718799 3.4873276
-0.59633136 -0.7195165 3.6862562 -0.4269894 -0.35866493 3.923303 4.1417723 -1.0169665
-0.16215305 -1.9010879 -2.41044 -2.152465 -1.9962155 -1.9311804 -2.736407 -2.3328464
-1.7209373 -2.122093 -1.916634 2.672032 -1.9006884 -2.5255666 -2.21007 -2.2460625
0.19097926 -0.07606226 2.3699663 -0.25578493 0.018944088 1.4438835 -0.14555107 0.06054814
2.3635364 0.4499096 -0.82145876 2.8617077 2.9730537 -0.13473329 0.46216694 0.85668576
1.6403961 0.74280167 1.2612191 1.2793301 1.7026426 1.4884053 0.57040274 0.924574
1.1399201 -1.3410538 1.2217884 0.5416227 1.3595436 1.204943 -1.7767096 -1.8730283
1.832324 -1.731467 -1.9256603 0.18930067 -1.4886223 -2.3072674 0.5803219 -1.4609779
1.0255154 4.175363 3.3549519 -1.8085357 -1.4295186 -1.6516556 -1.613649 -1.4153101
-1.6344757 -1.3646103 -2.11567 -1.7009917 -1.0935667 -1.3773966 -1.8580995 2.2399971
-1.512519 -1.6820016 -1.5446488 -1.7390822 0.65290225 0.598105 1.9164099 0.6119453
0.340373 2.1102197 0.9045492 0.40266362 1.4179217 1.299613 -1.6649609 2.298308
2.6528141 0.40828913 0.79872406 1.873924 2.3210602 -1.3409939 2.2422757 2.0533018
-0.09282296 2.1958747 1.5501561 -1.0706983 1.8656529 -0.7935343 -1.2842821 -1.997173
2.4410448 1.7231203 0.80570287 0.98874664 0.8632363 0.56866276 0.8981323 1.5390725
1.1622308 0.121772885 1.26032 1.4323239 -1.8039283 1.6551626 2.033487 0.8939904
0.9589359
00000000: ab53 5c3f 4b0d 873f c7ec eb3f dcf4 023f
00000010: 6588 1a3f 66a7 1340 429f 1d3f 5925 8a3e
00000020: 5777 ec3f 1cb6 893f 8d6e f7bf cb50 1440
00000030: 0580 4440 87c1 473f 5609 743f cf57 a23f
00000040: 0f0e ed3f 1957 f23f 0f7c a83f 250b ce3f
00000050: 5cd2 2940 6745 ef3f b514 9f3f 8960 eb3f
00000060: 6e3e 993f 376a 87bf 8803 9b3f e763 a13f
00000070: 0456 ef3f 570c 9d3f 3742 b03f b26b af3f
00000080: 674a 3e3f 1c7a cb3f fee3 d53f a257 d93f
00000090: 97f6 af3f ebeb bf3f a8a2 543f 2ef3 0340
000000a0: 0b8e b5bf aef8 a3be 52e5 85bd 44b7 be3f
000000b0: a86e b03f c8c3 473f 7789 933f 429d a13f
000000c0: 965f 8e3f ee52 633f 79b6 e83f 6542 9a3f
000000d0: cfbd e83e 68c6 903f 77b8 b43f b00c c9bf
000000e0: d4d0 fe3f 7bcf e93f 22ab 7b3f 2aab 9d3f
000000f0: 32ab d13f e25e f53f 4aa6 8b3e 4898 dc3f
00000100: d2d4 c43f 2936 a73f 7e99 e13f 9171 c93f
00000110: 06db e43e dd14 d83f 1df2 b1bf cc92 49bf
00000120: 731b 11bf fefa f83f 5365 b23f dc92 7a3f
00000130: 8616 da3f 549d 363f 0341 883f d16a 8c3f
00000140: 9bcd dc3f 62e8 a13f 51c0 c93e fc1d 873f
00000150: 5f76 f43f 4efa 12c0 c266 d43f 07ae a63f
00000160: 6afb 9d3f 6eff c23f 678e fdbe 0f0a 35bf
00000170: cdbf 5840 775b 1cbf 5c33 89bf 6030 5f40
00000180: 2ca9 18bf 3c32 38bf 9feb 6b40 5b9e dabe
00000190: eea2 b7be 6517 7b40 6689 8440 f52b 82bf
000001a0: 730b 26be d956 f3bf a644 1ac0 fdc1 09c0
000001b0: fd83 ffbf eb30 f7bf 4b21 2fc0 5b4d 15c0
000001c0: ac47 dcbf 5fd0 07c0 4354 f5bf 9302 2b40
000001d0: c249 f3bf e2a2 21c0 c971 0dc0 7dbf 0fc0
000001e0: 1190 433e 88c6 9bbd 87ad 1740 3ef6 82be
000001f0: a230 9b3c 2dd1 b83f 570b 15be 5401 783d
00000200: 2e44 1740 8d5a e63e 1f4b 52bf 3826 3740
00000210: 8346 3e40 86f7 09be 25a1 ec3e c24f 5b3f
00000220: 80f8 d13f 4028 3e3f a16f a13f 17c1 a33f
00000230: 31f0 d93f 1184 be3f ea05 123f e2b0 6c3f
00000240: e7e8 913f a7a7 abbf 9063 9c3f c9a7 0a3f
00000250: 8605 ae3f 923b 9a3f 386b e3bf 64bf efbf
00000260: 9889 ea3f b6a0 ddbf 097c f6bf 09d8 413e
00000270: 2d8b bebf 45aa 13c0 fa8f 143f 5301 bbbf
00000280: 1744 833f 939c 8540 88b7 5640 197e e7bf
00000290: 77fa b6bf 7369 d3bf 0d8c cebf e228 b5bf
000002a0: 8036 d1bf 8dab aebf 2367 07c0 19ba d9bf
000002b0: fef9 8bbf 884e b0bf 34d6 edbf 1d5c 0f40
000002c0: 399a c1bf d44b d7bf 0db7 c5bf 3f9a debf
000002d0: 9a24 273f 691d 193f eb4c f53f 72a8 1c3f
000002e0: 5f45 ae3e d70d 0740 8990 673f ed29 ce3e
000002f0: 757e b53f b859 a63f 701d d5bf 7a17 1340
00000300: b5c7 2940 460b d13e 2e79 4c3f bedc ef3f
00000310: 408c 1440 b0a5 abbf 7281 0f40 4c69 0340
00000320: f719 bebd 3689 0c40 846b c63f a40c 89bf
00000330: b7cd ee3f 1025 4bbf 5b63 a4bf 5da3 ffbf
00000340: 143a 1c40 358f dc3f 8b42 4e3f 801e 7d3f
00000350: 0efd 5c3f e293 113f 00ec 653f 5400 c53f
00000360: fbc3 943f 1064 f93d 2a52 a13f 6456 b73f
00000370: 1fe7 e6bf 5edc d33f a724 0240 8edc 643f
00000380: d37c 753f

onnx::MatMul_40 f4 [15, 15]
1.6906664 -1.2986246 0.98737264 1.2633367 1.3919686 1.2208833 0.351848 1.6248964
0.5931364 1.2524953 -1.0033711 -0.17026037 0.70491034 1.4992195 0.21395908 2.4683034
-0.88978505 1.7595383 1.8547353 2.0502493 2.0052187 1.128536 2.1990058 1.1964023
2.1225793 -0.22350734 0.3831163 1.8237494 2.7907746 0.91380113 -1.6844329 -1.7768815
-1.8838139 -0.6916372 -1.6858604 -1.5355783 -2.3458996 -2.2412484 -1.2164174 -0.5008616
-2.1045702 -2.420596 -2.3413148 -1.6236882 -1.9217602 2.2302446 -1.2182804 1.390306
1.1631945 1.648087 1.4949424 0.16156533 1.7314551 0.62953043 1.1547571 -0.58028626
-0.046954233 1.0324227 2.0314317 0.31669688 2.162899 -1.2954971 1.2162547 1.3368367
1.6554693 1.7249732 0.27077997 1.8870478 0.9231595 1.4338497 -1.0225782 0.092517905
0.9880675 2.125527 0.40825346 -1.8360385 -3.8269591 -2.432091 -1.4871078 -2.0426939
-1.8350463 -2.900159 -2.0985363 -2.100589 -1.7319924 -3.6417944 -3.5625026 -2.5996041
-1.760737 -2.2950828 2.1837728 -1.1097202 1.6033187 1.4678715 1.7977668 1.8546171
0.6777422 1.5772368 0.95880646 1.8959924 -0.5118247 0.2265753 0.97122365 2.279486
0.2519873 1.3925809 -1.4032868 0.37304485 1.3168576 0.8349714 1.1010044 -0.5137178
0.98510426 0.1531881 0.16536212 -1.656518 -0.5842839 0.41193643 1.0736463 -0.15482602
-1.5960711 -2.0859053 -1.5555503 -0.43840492 -1.0616995 -1.3737417 -2.233061 -1.510205
-1.1697505 -0.40467206 -2.2722826 -2.6478865 -2.0421796 -1.2301174 -2.0730958 2.0872753
-1.2233807 1.2678682 1.4275081 1.3717457 1.256928 0.5656825 1.6925797 0.9603853
1.8087958 -0.94950056 -0.07466834 1.2685068 1.68361 0.7918651 -0.8522437 0.8915353
-2.2373908 -0.72335666 -2.8155165 -2.3403032 -0.75783575 -0.81278217 -0.91386634 -4.6237946
0.57855284 -0.33481804 -1.0134697 -1.2299225 -1.1864748 -4.0136743 -0.5899917 -3.3676858
-2.0195222 -2.8986926 -3.334099 -2.5726452 -3.8068745 -1.8237263 -1.1280321 -1.0851567
-1.6074978 -3.518046 -3.5996923 -2.1282735 -4.5039635 -1.8803232 -4.0304213 -2.5678856
-3.1900015 -3.8797624 -3.300899 -4.25557 -2.7834167 -1.5980933 -1.843335 -2.5978506
-4.418644 -4.1558766 -2.437162 2.4480572 -0.8573148 1.3190367 1.3780019 1.6364717
1.7431747 0.78986335 1.8961705 0.9301487 1.3053062 -0.4005811 0.17614602 1.5000398
2.3641171 0.50815064 1.4587609 -1.3351083 1.3541092 1.1949546 1.4848337 1.5347359
-0.053343102 1.4985257 0.41340122 1.57918 -1.0453644 0.01386086 0.8016099 1.8894075
0.025408475
00000000: c267 d83f 5539 a6bf 74c4 7c3f 04b5 a13f
00000010: 072c b23f e745 9c3f 6c25 b43e 9bfc cf3f
00000020: cad7 173f c451 a03f 776e 80bf bc58 2ebe
00000030: 0175 343f 6de6 bf3f 1718 5b3e aff8 1d40
00000040: f4c8 63bf 8d38 e13f f767 ed3f 4937 0340
00000050: 8155 0040 de73 903f 83bc 0c40 b623 993f
00000060: 57d8 0740 1cdf 64be d227 c43e 9f70 e93f
00000070: 0d9c 3240 dfee 693f 7f9b d7bf da70 e3bf
00000080: d020 f1bf 230f 31bf 46ca d7bf d48d c4bf
00000090: 3823 16c0 9d70 0fc0 91b3 9bbf 7738 00bf
000000a0: 47b1 06c0 0beb 1ac0 1ad8 15c0 04d5 cfbf
000000b0: 3dfc f5bf 54bc 0e40 9df0 9bbf 8cf5 b13f
000000c0: 8fe3 943f 84f4 d23f 465a bf3f 6271 253e
000000d0: 52a0 dd3f e828 213f 15cf 933f a48d 14bf
000000e0: 1553 40bd 6d26 843f fa02 0240 1826 a23e
000000f0: f06c 0a40 d9d2 a5bf 3cae 9b3f 771d ab3f
00000100: 6be6 d33f eccb dc3f aca3 8a3e c88a f13f
00000110: 2e54 6c3f 6388 b73f d8e3 82bf 077a bd3d
00000120: fef1 7c3f a208 0840 9906 d13e 4f03 ebbf
00000130: e6ec 74c0 61a7 1bc0 8c59 bebf 7fbb 02c0
00000140: cce2 eabf 349c 39c0 6b4e 06c0 0d70 06c0
00000150: edb1 ddbf 2913 69c0 0b00 64c0 ea5f 26c0
00000160: d45f e1bf a3e2 12c0 efc2 0b40 500b 8ebf
00000170: 8c39 cd3f 37e3 bb3f 391d e63f 1864 ed3f
00000180: 8380 2d3f e5e2 c93f 5774 753f e1af f23f
00000190: f206 03bf 5b03 683e 1da2 783f 19e3 1140
000001a0: 7b04 813e 1740 b23f e79e b3bf bcff be3e
000001b0: ca8e a83f b0c0 553f b6ed 8c3f 0283 03bf
000001c0: cb2f 7c3f 57dd 1c3e b054 293e c808 d4bf
000001d0: a193 15bf 55e9 d23e 3e6d 893f b68a 1ebe
000001e0: 0f4c ccbf 797f 05c0 461c c7bf 9c76 e0be
000001f0: c5e5 87bf c5d6 afbf 79ea 0ec0 664e c1bf
00000200: 62ba 95bf 2d31 cfbe 146d 11c0 f976 29c0
00000210: 12b3 02c0 7d74 9dbf 9aad 04c0 eb95 0540
00000220: bd97 9cbf 8149 a23f 96b8 b63f 5d95 af3f
00000230: 04e3 a03f 91d0 103f 74a6 d83f d0db 753f
00000240: 9f86 e73f 7812 73bf b7eb 98bd 6e5e a23f
00000250: 8880 d73f acb7 4a3f a52c 5abf a83b 643f
00000260: 6931 0fc0 e72d 39bf 6c31 34c0 87c7 15c0
00000270: 8601 42bf 7e12 50bf 25f3 69bf 20f6 93c0
00000280: 0a1c 143f 456d abbe 60b9 81bf 1a6e 9dbf
00000290: 68de 97bf 0570 80c0 b209 17bf 2a88 57c0
000002a0: da3f 01c0 2e84 39c0 e161 55c0 38a6 24c0
000002b0: d5a3 73c0 dd6f e9bf 5b63 90bf 6ae6 8abf
000002c0: 7dc2 cdbf aa27 61c0 5c61 66c0 a235 08c0
000002d0: 7820 90c0 6eae f0bf 36f9 80c0 3d58 24c0
000002e0: fc28 4cc0 074e 78c0 ee41 53c0 a12d 88c0
000002f0: 8023 32c0 528e ccbf 67f2 ebbf 2f43 26c0
00000300: 8865 8dc0 f1fc 84c0 76fa 1bc0 f8ac 1c40
00000310: fc78 5bbf 32d6 a83f 5e62 b03f e877 d13f
00000320: 5920 df3f 7c34 4a3f b7b5 f23f 3a1e 6e3f
00000330: 4614 a73f f718 cdbe 9f5f 343e 4e01 c03f
00000340: b24d 1740 2916 023f adb8 ba3f d4e4 aabf
00000350: 7353 ad3f 46f4 983f 080f be3f 3a72 c43f
00000360: 4c7e 5abd b1cf bf3f 53a9 d33e 9222 ca3f
00000370: 80ce 85bf a918 633c 4e36 4d3f 1bd8 f13f
00000380: 6f25 d03c

onnx::MatMul_41 f4 [15, 15]
1.4649441 -0.46743318 1.8391398 2.7099063 1.178696 1.7764889 -1.4602357 -1.027005
-1.8244221 1.3807852 1.3682631 2.0960388 1.8359349 2.5695343 -1.7178315 1.7310518
-1.7504714 1.5634681 1.9347174 1.8011342 2.053714 -2.092239 -1.567882 -2.2728431
1.8763242 1.7620093 1.7898877 1.6433045 1.7264915 -1.9058563 0.72935927 0.41942146
0.8274856 1.2397448 0.17757675 0.70141304 -0.41805786 -0.22518569 -0.538365 0.2410617
0.02510501 0.905953 0.61261874 0.90187377 -0.120299794 -0.76363 0.91974837 -0.6603566
0.045887504 -0.787153 -0.37927744 0.43491757 1.0544182 0.61276 -0.6683545 -0.82891166
0.057934888 -0.5515209 0.04110984 0.91996175 0.37392306 -0.29671016 0.7792511 1.3449317
0.16286336 0.87017995 -0.65318984 -0.20446259 -0.72017187 0.49578875 0.264327 1.1469464
0.77077794 1.3222977 -0.5976351 0.4355467 0.096446775 0.40856752 1.5306746 0.38668162
0.7873656 -0.6126018 -0.24484691 -0.8221022 0.43012995 0.35195804 0.8321936 0.46680892
0.9937067 -0.3626586 -0.039559957 0.37051812 0.1807084 0.58065635 -0.29829028 0.34772316
-0.4210475 -0.11794938 -0.37633002 -0.16006105 -0.104259886 0.35695276 0.08809463 0.5480133
-0.09065275 0.61144394 0.21837817 0.9759851 1.7522035 0.02319126 1.0205859 -0.5720141
-0.1338264 -1.0196368 0.60166407 0.29738247 1.2994211 0.99652904 1.4747176 -0.393797
-0.12432866 0.8370949 -0.12056296 0.068120144 -0.8559798 -0.08748966 0.13400955 0.5083105
0.39860538 -0.31679434 -0.5076981 -0.059222993 -0.27043486 -0.024653496 0.17281108 1.1560779
-0.55824256 1.3463683 1.1105036 0.71947944 1.1488637 -1.0752417 -0.66124344 -1.1654402
0.96679896 0.88073516 1.4258895 0.74829596 1.0949728 -1.1214147 1.3310193 -1.103859
1.1825864 1.4982291 0.99293005 1.1851355 -1.6508375 -1.4875907 -1.7029338 1.0792074
0.91464907 1.2625282 1.2698755 1.5420647 -1.5633214 0.7917901 -0.28382924 0.8855555
0.71148664 0.5511635 0.7610284 -1.0633526 -0.66439545 -0.9500825 0.6366183 0.32128176
1.1094985 0.57600254 1.0268582 -0.7687371 0.2766237 0.32793513 0.7119382 1.2378699
0.101403356 0.80723 -0.40349576 -0.10387024 -0.7171628 0.2904304 0.031204782 1.0602546
0.36906952 0.80588764 -0.5015664 1.3037663 -0.57849574 1.3678532 2.1415215 0.9336585
1.9345536 -1.4396862 -1.1799207 -1.7755349 1.2418344 0.8914504 1.8043765 1.6749575
2.3358896 -1.066977 -0.056557585 0.40657416 -0.20081876 0.19340234 -0.1965058 -0.019106861
-0.0029111237 -0.020212673 -0.19571254 -0.14661953 -0.5105893 0.12688658 -0.02664281 -0.00020568933
-0.21859701
00000000: 4a83 bb3f 6753 efbe ef68 eb3f 1b6f 2d40
00000010: 83df 963f fd63 e33f 01e9 babf e674 83bf
00000020: aa86 e9bf 92bd b03f 3f23 af3f 8025 0640
00000030: eaff ea3f 4073 2440 e7e1 dbbf 1b93 dd3f
00000040: 720f e0bf b91f c83f d2a4 f73f 918b e63f
00000050: 0d70 0340 3ee7 05c0 5bb0 c8bf 4376 11c0
00000060: 642b f03f 8589 e13f 0a1b e53f cd57 d23f
00000070: acfd dc3f 19f3 f3bf 4ab7 3a3f 69be d63e
00000080: 19d6 533f f5af 9e3f aed6 353e ce8f 333f
00000090: ae0b d6be 1497 66be 4ad2 09bf e1d8 763e
000000a0: 06a9 cd3c 89ec 673f 95d4 1c3f 33e1 663f
000000b0: bd5f f6bd 417d 43bf a174 6b3f 210d 29bf
000000c0: 89f4 3b3d dc82 49bf a730 c2be 84ad de3e
000000d0: 2df7 863f d7dd 1c3f 4819 2bbf 8e33 54bf
000000e0: 224d 6d3d 7930 0dbf cb62 283d 9d82 6b3f
000000f0: d872 bf3e 65ea 97be 007d 473f b926 ac3f
00000100: a7c5 263e 1dc4 5e3f 7337 27bf a45e 51be
00000110: 2f5d 38bf 06d8 fd3e de55 873e 24cf 923f
00000120: b451 453f 0d41 a93f 9dfe 18bf faff de3e
00000130: e385 c53d c32f d13e 25ed c33f 22fb c53e
00000140: cb90 493f 79d3 1cbf 26b9 7abe 4a75 52bf
00000150: fe39 dc3e d833 b43e a40a 553f 9401 ef3e
00000160: 9063 7e3f 63ae b9be 9f09 22bd 8db4 bd3e
00000170: 9f0b 393e e5a5 143f 81b9 98be c508 b23e
00000180: 8a93 d7be 728f f1bd 54ae c0be 0be7 23be
00000190: 3586 d5bd 83c2 b63e f56a b43d 9a4a 0c3f
000001a0: 26a8 b9bd 9787 1c3f 879e 5f3e 29da 793f
000001b0: 3448 e03f 99fb bd3c 8fa2 823f 846f 12bf
000001c0: ca09 09be 7583 82bf a806 1a3f 8442 983e
000001d0: 6e53 a63f 871c 7f3f 8cc3 bc3f c39f c9be
000001e0: 06a0 febd da4b 563f b7e9 f6bd 9382 8b3d
000001f0: 7e21 5bbf c72d b3bd cd39 093e a320 023f
00000200: 0116 cc3e de32 a2be 81f8 01bf cf93 72bd
00000210: 7076 8abe 21f6 c9bc 63f5 303e 5cfa 933f
00000220: fce8 0ebf cc55 ac3f fb24 8e3f ce2f 383f
00000230: f70d 933f 85a1 89bf 4047 29bf 252d 95bf
00000240: 2380 773f dc77 613f 8c83 b63f 5390 3f3f
00000250: 1228 8c3f 848a 8fbf d75e aa3f 404b 8dbf
00000260: fe5e 973f f9c5 bf3f aa30 7e3f 85b2 973f
00000270: a54e d3bf 5f69 bebf bcf9 d9bf 7823 8a3f
00000280: 7126 6a3f 869a a13f 488b a23f 6062 c53f
00000290: ea1a c8bf c2b2 4a3f 1152 91be c4b3 623f
000002a0: fd23 363f 0d19 0d3f c2d2 423f f01b 88bf
000002b0: d215 2abf 9b38 73bf 6bf9 223f 0b7f a43e
000002c0: 0c04 8e3f e774 133f 1770 833f f4cb 44bf
000002d0: 9fa1 8d3e 1de7 a73e 9541 363f 8572 9e3f
000002e0: 90ac cf3d a0a6 4e3f ff96 cebe ecb9 d4bd
000002f0: fb97 37bf 4bb3 943e 2ca1 ff3c 6cb6 873f
00000300: aef6 bc3e a74e 4e3f a866 00bf d0e1 a63f
00000310: 4c18 14bf d015 af3f b00e 0940 3e04 6f3f
00000320: 749f f73f a347 b8bf a407 97bf ba44 e3bf
00000330: 6ef4 9e3f 1836 643f cff5 e63f 0265 d63f
00000340: 377f 1540 b492 88bf eda8 67bd 7d2a d03e
00000350: 6fa3 4dbe 430b 463e d138 49be fe85 9cbc
00000360: 8dc8 3ebb 0c95 a5bc de68 48be 6e23 16be
00000370: fbb5 02bf 8eee 013e 0642 dabc 4fae 57b9
00000380: e5d7 5fbe

onnx::MatMul_42 f4 [15, 1]
-0.83079666 0.24538578 -0.8176873 -1.0542485 -0.96477836 -0.9842055 0.89471376 0.36042395
0.59038883 -0.93508255 -1.0371767 -0.983416 -1.0247768 -0.8908775 0.58152
00000000: 17af 54bf 6946 7b3e f453 51bf 9df1 86bf
00000010: b7fb 76bf e4f4 7bbf f60b 653f 7d89 b83e
00000020: b923 173f 9261 6fbf 35c2 84bf 27c1 7bbf
00000030: e32b 83bf 8c10 64bf 7fde 143f
