onnx/myModel_HL2_HD15_449.onnx (onnx, 3508 bytes, 7 tensors)

net.0.bias f4 [15]
-3.4446337 -3.4549553 -3.874624 -3.4558911 3.9574757 3.982758 1.355975 3.5778756
4.0957947 -3.662134 -0.046674795 3.0698018 1.1507648 3.9327173 -4.000649
00000000: e174 5cc0 fd1d 5dc0 d7f9 77c0 522d 5dc0
00000010: 4847 7d40 82e5 7e40 9790 ad3f eafb 6440
00000020: c010 8340 6760 6ac0 122e 3fbd a277 4440
00000030: 434c 933f a4b1 7b40 5105 80c0

net.2.bias f4 [15]
0.044345945 -0.24869202 0.11551456 0.4181017 0.059329912 0.039291617 0.35013577 0.099207714
-0.17087875 0.7096594 0.47334155 -0.3326701 -0.08608137 0.4915421 0.27612615
00000000: 18a4 353d 1fa9 7ebe e692 ec3d 6d11 d63e
00000010: ec03 733d 3ff0 203d ff44 b33e 6a2d cb3d
00000020: d7fa 2ebe 3dac 353f d359 f23e bc53 aabe
00000030: 6e4b b0bd 68ab fb3e 6860 8d3e

net.4.bias f4 [15]
0.64158976 0.37107384 0.7173811 -2.1403384 0.8683987 0.60228574 0.5143498 -0.45871025
-0.15613705 -0.58436775 -1.1235454 0.59552795 0.8189585 0.53742206 0.72607195
00000000: 3a3f 243f 64fd bd3e 4aa6 373f 4efb 08c0
00000010: 614f 5e3f 662f 1a3f 6eac 033f 12dc eabe
00000020: 64e2 1fbe 2099 15bf 56d0 8fbf 8574 183f
00000030: 44a7 513f 7e94 093f dadf 393f

onnx::MatMul_25 f4 [2, 15]
1.6510291 0.60115373 1.3419389 -0.7969454 2.913279 0.042061545 -0.033296805 0.2674498
2.4660325 -2.2085917 -3.562149 -2.3274415 4.046235 1.231003 -5.0036845 0.6973012
1.7991699 -1.1748273 2.0151656 0.7585262 2.1615233 -0.49344516 2.1034038 1.7192668
0.82661635 4.6790404 0.4379771 -2.297734 1.6943905 1.88829
00000000: ec54 d33f 36e5 193f a7c4 ab3f 9d04 4cbf
00000010: 2a73 3a40 ba48 2c3d 3b62 08bd 2eef 883e
00000020: 7ad3 1d40 9159 0dc0 40fa 63c0 cdf4 14c0
00000030: c27a 8140 8291 9d3f 2f1e a0c0 5582 323f
00000040: 334b e63f be60 96bf 79f8 0040 c62e 423f
00000050: 6656 0a40 d8a4 fcbe 2b9e 0640 ef10 dc3f
00000060: 219d 533f b3ba 9540 893e e03e 130e 13c0
00000070: cae1 d83f 7db3 f13f

onnx::MatMul_26 f4 [15, 15]
3.0975645 2.9258032 3.9102163 2.02821 3.2992055 2.6557326 3.1314895 1.1112276
2.8466396 1.4632536 0.14999467 0.3805041 0.77034026 3.1509898 3.3001995 2.615546
3.5536888 3.2290173 1.9167466 2.7304876 2.001375 2.042317 1.1835942 2.827429
4.0999227 0.10596694 0.54926234 2.3423324 3.2301784 2.8788843 2.7310455 2.0089848
4.532167 1.1249056 3.4175956 3.3595967 2.5328834 -0.23042014 1.7757249 2.7961004
1.2396836 1.8099593 1.3702593 4.73328 2.4876964 1.2514106 0.5530924 2.3631775
1.3041415 2.261462 2.7015643 0.97565955 2.0542185 1.7994518 4.7363563 1.4251138
-0.34229383 3.241644 3.3826466 -0.45043886 -1.1835216 -0.11046294 -1.554439 -0.25929683
-1.2119308 -1.2337693 -1.3437321 -1.3932421 -0.56630987 -1.876794 -0.7369354 0.87177086
-0.8471958 -1.2385358 -0.95817935 -1.4792452 -0.8844375 -1.7656466 -1.1860454 -1.4028878
-1.5989012 -2.6628592 -0.3135822 -0.9803667 -3.1644223 -1.7942737 -0.38183022 -1.0251412
-1.5656941 -1.3673359 -0.6340056 -0.7657957 -0.07055477 0.014784872 -0.09964199 -0.33115295
0.16235489 -0.13713883 -0.7147456 0.09362269 0.2206512 -0.1261969 -0.6633552 0.95073104
0.12152744 -1.2811708 -0.5441689 -1.2942863 -0.97991014 -1.5060915 -1.2093108 -2.279093
0.11770208 -0.62083197 -2.8473709 -1.8342333 -0.24727966 -0.78859854 -1.2549698 -1.061123
-0.9326775 -0.4222737 -1.7878408 -0.6312354 -1.1231239 -0.9910709 -1.7308933 -0.99011403
-0.5978919 -1.5302979 -1.5453141 0.18287215 -0.5239507 -1.6371607 -1.1421989 5.2980585
-0.8409215 5.736967 0.20331636 5.7513885 5.4111657 3.506347 -1.4039435 4.1327577
5.5920224 2.557214 -4.1612554 2.5667217 4.6339483 2.9064896 0.0009719717 1.1193223
-1.3402019 -0.5979527 -0.42355987 -0.01736857 -0.16257654 -0.14621003 0.6917268 0.010715477
0.039170254 -1.9719267 0.26877064 -1.9758178 1.1358389 -2.1046329 -1.3048319 -1.8025949
0.35520047 -1.8729444 -1.0571448 -0.5039782 0.86224693 -1.3886366 0.103578694 0.15056577
0.024679966 -0.080551945 0.5958093 -1.8118031 -0.19860111 0.3836611 0.32391495 0.51157045
-0.31883618 -0.68981117 0.62370366 0.45815134 -0.8486349 -0.09170754 1.1480371 2.3028295
-2.720613 1.7072326 0.28995082 -1.3549577 -0.6022395 -2.2348611 -0.5115163 -2.0739512
-1.8041431 -2.5209787 -0.6670647 -1.02515 -3.6561258 -2.3898735 0.467419 -1.2661327
-1.3976668 -1.5288489 -0.65200055 -3.7568321 0.084712304 -1.5249044 -0.81589234 -0.95256865
-0.05329566 -2.9299943 -2.5753286 0.65078086 -0.34453934 1.6523916 -2.0341573 4.0174603
-1.7399517
00000000: 7f3e 4640 5c40 3b40 fc40 7a40 31ce 0140
00000010: 2f26 5340 86f7 2940 536a 4840 b53c 8e3f
00000020: 582f 3640 e54b bb3f 3498 193e 6fd1 c23e
00000030: 0535 453f d1a9 4940 7836 5340 1b65 2740
00000040: a36f 6340 38a8 4e40 f457 f53f 4fc0 2e40
00000050: 8716 0040 52b5 0240 0480 973f 99f4 3440
00000060: 9132 8340 3205 d93d 759c 0c3f c6e8 1540
00000070: 3ebb 4e40 a43f 3840 73c9 2e40 3593 0040
00000080: 8307 9140 e8fc 8f3f e3b9 5a40 a203 5740
00000090: c31a 2240 42f3 6bbe f44a e33f 4ff3 3240
000000a0: f4ad 9e3f bfac e73f a864 af3f 0877 9740
000000b0: 6b36 1f40 392e a03f 7797 0d3f 4d3e 1740
000000c0: 1cee a63f cbbb 1040 6ee6 2c40 d3c4 793f
000000d0: 5178 0340 7054 e63f 3b90 9740 216a b63f
000000e0: 2341 afbe 1877 4f40 487d 5840 ec9f e6be
000000f0: a37d 97bf 653a e2bd dbf7 c6bf 8ec2 84be
00000100: 8c20 9bbf 27ec 9dbf 6aff abbf c255 b2bf
00000110: aff9 10bf c93a f0bf cca7 3cbf 602c 5f3f
00000120: d3e1 58bf 5788 9ebf 3e4b 75bf e857 bdbf
00000130: 7f6a 62bf b500 e2bf 56d0 97bf d491 b3bf
00000140: cba8 ccbf 496c 2ac0 d98d a0be 50f9 7abf
00000150: e585 4ac0 c3aa e5bf 407f c3be d437 83bf
00000160: aa68 c8bf dd04 afbf 314e 22bf 300b 44bf
00000170: 057f 90bd 3f3c 723c 1a11 ccbd e18c a9be
00000180: 5c40 263e 1f6e 0cbe 91f9 36bf 41bd bf3d
00000190: 63f2 613e c339 01be a5d1 29bf 1c63 733f
000001a0: 61e3 f83d 68fd a3bf a74e 0bbf 2cab a5bf
000001b0: 64db 7abf 9bc7 c0bf b2ca 9abf a9dc 11c0
000001c0: ca0d f13d d8ee 1ebf 533b 36c0 28c8 eabf
000001d0: e136 7dbe 98e1 49bf daa2 a0bf e1d2 87bf
000001e0: f4c3 6ebf 4234 d8be f8d7 e4bf a598 21bf
000001f0: 86c2 8fbf d3b6 7dbf e98d ddbf 1d78 7dbf
00000200: 720f 19bf cde0 c3bf dacc c5bf d642 3b3e
00000210: a221 06bf 7b8e d1bf 9333 92bf b289 a940
00000220: a246 57bf 3c95 b740 2a32 503e 600b b840
00000230: 4528 ad40 fd67 6040 6cb4 b3bf 8d3f 8440
00000240: d9f1 b240 65a9 2340 0129 85c0 2b45 2440
00000250: 4e49 9440 ed03 3a40 ebcb 7e3a f445 8f3f
00000260: bc8b abbf 6e13 19bf d7dc d8be 8848 8ebc
00000270: 777a 26be 15b8 15be 0215 313f f88f 2f3c
00000280: fd70 203d 1868 fcbf 4e9c 893e 99e7 fcbf
00000290: 2b63 913f 4eb2 06c0 bb04 a7bf 6ebb e6bf
000002a0: d6dc b53e a4bc efbf 8550 87bf b704 01bf
000002b0: 37bc 5c3f d8be b1bf 1121 d43d ea2d 1a3e
000002c0: a42d ca3c 6bf8 a4bd f586 183f 2ae9 e7bf
000002d0: 175e 4bbe 3a6f c43e 2ed8 a53e 48f6 023f
000002e0: 7f3e a3be 7797 30bf 0bab 1f3f d092 ea3e
000002f0: 2340 59bf 2ad1 bbbd e1f2 923f 8f61 1340
00000300: 861e 2ec0 9986 da3f 6f74 943e 416f adbf
00000310: 5e2c 1abf f707 0fc0 bbf2 02bf 9ebb 04c0
00000320: 29ee e6bf b757 21c0 c1c4 2abf 1d38 83bf
00000330: f7fd 69c0 b0f3 18c0 8b51 ef3e a310 a2bf
00000340: bfe6 b2bf 52b1 c3bf 82e9 26bf f06f 70c0
00000350: a57d ad3d 1130 c3bf 52de 50bf 8adb 73bf
00000360: 8d4c 5abd 0785 3bc0 2fd2 24c0 9399 263f
00000370: 7667 b0be 9181 d33f a22f 02c0 098f 8040
00000380: bdb6 debf

onnx::MatMul_27 f4 [15, 15]
0.22511274 0.7158147 1.01208 4.393456 -0.08738726 -0.09654605 0.85757184 1.2910867
1.6395597 -0.1707396 0.2807883 0.30888763 0.088869795 0.31816292 -0.1538968 -1.081622
-0.53098214 -0.6837802 0.4642724 -1.0804054 -0.9328701 -0.4537363 -0.00838212 0.026121672
1.5846171 1.8455538 -0.93422973 -1.0351818 -1.0100377 -1.3401191 1.4170841 1.8864223
2.5470505 8.609532 1.6456963 0.67836416 2.7149563 2.6714132 3.462716 -0.32422733
-0.6325396 0.7408833 1.8457854 1.201402 0.7698393 -0.74987286 -0.7666217 -1.1804166
-0.8068985 -1.2394761 -0.9387146 -1.0947875 -0.7130646 -1.1810824 0.9695593 1.3532581
-1.010028 -1.2983196 -0.9829667 -1.1787492 0.5341768 0.8228541 1.2118828 5.8558908
0.29386628 0.18773839 1.1011943 1.7838936 2.392575 0.03964046 0.4677427 -0.066998586
0.52410245 0.32442713 0.16987652 0.62084883 1.0647037 1.2286218 5.251129 0.62501115
0.5489507 0.9424286 1.350654 2.2212152 0.11259821 0.16111578 0.12549767 0.6977994
0.35534883 0.18262202 0.42958635 0.21924219 0.14099565 5.3730307 0.34245124 0.27160177
0.16502264 0.5159051 0.86044997 -0.41034523 -0.03678959 0.2249738 0.04149823 0.35780028
0.22411345 -0.5802524 -0.7144692 -0.63848704 -0.38144904 -1.2974275 -0.5745594 -0.96024317
-0.43594533 -0.2875646 0.86426073 1.2517041 -0.7575632 -1.0032847 -0.7493403 -0.78835285
0.0017035651 0.62323445 0.9428167 3.6241417 -0.38867176 -0.06319129 0.6865517 1.3501691
2.0266697 0.5181131 0.634394 -0.04715008 0.017995907 0.07215588 -0.36658436 -1.0048014
-1.2792274 -1.3886912 3.3512664 -0.618399 -0.7843979 -0.9679559 -0.96232414 -0.8432509
0.27470294 0.20480229 -0.7773519 -0.93506384 -0.8498273 -0.63634294 1.2429614 1.4149252
1.110524 2.5968044 0.67153794 1.379488 0.5543889 0.7379636 0.4949633 -1.150287
-0.8858536 1.7325464 1.3423787 1.4664488 1.4366014 0.4056843 0.06984322 0.26936013
-2.7853143 0.7861886 0.35059226 0.16054279 -0.7762663 -0.974722 -0.71204805 -1.2669307
0.2905704 0.3618453 0.4098787 0.71310014 1.1323438 0.86625797 1.3452001 3.7506785
0.8258749 1.327698 0.91877615 1.8619665 1.9410216 -0.96063507 -1.0735111 0.9447655
0.8229405 0.7046702 1.0398585 -3.055185 -3.162505 -3.753615 -4.309438 -3.6487076
-2.9284234 -3.6238904 -3.2233002 -3.8957088 3.1970952 4.097934 -2.6169736 -3.0383022
-2.8126178 -3.28876 1.2248574 1.5467937 1.5622164 3.7184532 0.9950339 1.1050622
1.8131642 2.12412 2.4378705 -0.410512 0.024760036 1.2696184 0.9051109 1.1165136
0.98883915
00000000: f483 663e a23f 373f d68b 813f 3197 8c40
00000010: 17f8 b2bd efb9 c5bd d489 5b3f 5442 a53f
00000020: 18dd d13f 5dd6 2ebe 7cc3 8f3e 8526 9e3e
00000030: 5e01 b63d 40e6 a23e 1f97 1dbe 9772 8abf
00000040: 72ee 07bf 380c 2fbf 1db5 ed3e b94a 8abf
00000050: 93d0 6ebf 2050 e8be 2955 09bc 1efd d53c
00000060: bcd4 ca3f 1b3b ec3f ae29 6fbf d680 84bf
00000070: ea48 81bf 0689 abbf 0363 b53f 4976 f13f
00000080: e002 2340 a5c0 0941 2da6 d23f 46a9 2d3f
00000090: d8c1 2d40 6ff8 2a40 249d 5d40 2001 a6be
000000a0: 1dee 21bf 87aa 3d3f b242 ec3f 8ac7 993f
000000b0: 3014 453f abf7 3fbf 5241 44bf e417 97bf
000000c0: e690 4ebf 27a7 9ebf 9a4f 70bf ff21 8cbf
000000d0: 678b 36bf b52d 97bf 0a35 783f 9037 ad3f
000000e0: 9948 81bf 562f a6bf b5a3 7bbf 41e1 96bf
000000f0: d0bf 083f 91a6 523f fa1e 9b3f 7563 bb40
00000100: a475 963e 7e3e 403e eff3 8c3f a056 e43f
00000110: f31f 1940 095e 223d f97b ef3e 8e36 89bd
00000120: 942b 063f 501b a63e 1cf4 2d3e f3ef 1e3f
00000130: 3648 883f 7b43 9d3f 4009 a840 bb00 203f
00000140: 0888 0c3f 0043 713f 3be2 ac3f 6428 0e40
00000150: e499 e63d 89fb 243e 7682 003e fba2 323f
00000160: 48f0 b53e 4401 3b3e bef2 db3e 0681 603e
00000170: 2a61 103e deef ab40 c555 af3e 630f 8b3e
00000180: b2fb 283e 5b12 043f 7346 5c3f c518 d2be
00000190: aeb0 16bd 885f 663e 0cfa 293d 9931 b73e
000001a0: ff7d 653e 6c8b 14bf 74e7 36bf e373 23bf
000001b0: 4a4d c3be 1b12 a6bf 5316 13bf 7fd2 75bf
000001c0: 3a34 dfbe ab3b 93be 3140 5d3f d737 a03f
000001d0: a9ef 41bf a26b 80bf c4d4 3fbf 7ed1 49bf
000001e0: 294a df3a 4b8c 1f3f 6f5c 713f f0f1 6740
000001f0: fcff c6be 6f6a 81bd dac1 2f3f 57d2 ac3f
00000200: f5b4 0140 0fa3 043f a567 223f 7120 41bd
00000210: 276c 933c 76c6 933d f2b0 bbbe 559d 80bf
00000220: b9bd a3bf a2c0 b1bf 267b 5640 664f 1ebf
00000230: 4dce 48bf f5cb 77bf e05a 76bf 4adf 57bf
00000240: dda5 8c3e b1b7 513e 8900 47bf 5860 6fbf
00000250: 488e 59bf 5fe7 22bf 5c19 9f3f 451c b53f
00000260: a725 8e3f 0b32 2640 e9e9 2b3f 1093 b03f
00000270: 6eec 0d3f 2feb 3c3f d46b fd3e 9b3c 93bf
00000280: 4dc7 62bf 15c4 dd3f 11d3 ab3f 98b4 bb3f
00000290: 8ee2 b73f dab5 cf3e f609 8f3d 92e9 893e
000002a0: 9742 32c0 a843 493f d480 b33e 5465 243e
000002b0: 63b9 46bf 6287 79bf c848 36bf c92a a2bf
000002c0: a5c5 943e ca43 b93e 9fdb d13e bb8d 363f
000002d0: a4f0 903f 15c3 5d3f 842f ac3f 1e0b 7040
000002e0: 8a6c 533f 02f2 a93f ea34 6b3f eb54 ee3f
000002f0: 6573 f83f 2eec 75bf d068 89bf 27dc 713f
00000300: 3bac 523f 4465 343f 151a 853f 2788 43c0
00000310: 7b66 4ac0 3a3b 70c0 ebe6 89c0 6d84 69c0
00000320: 4a6b 3bc0 d2ed 67c0 8d4a 4ec0 4b53 79c0
00000330: 359d 4c40 4622 8340 7f7c 27c0 8b73 42c0
00000340: ee01 34c0 0b7b 52c0 21c8 9c3f 56fd c53f
00000350: b5f6 c73f 23fb 6d40 8bba 7e3f ae72 8d3f
00000360: c415 e83f 95f1 0740 1206 1c40 a12e d2be
00000370: 8fd5 ca3c db82 a23f 59b5 673f ebe9 8e3f
00000380: 9024 7d3f

onnx::MatMul_28 f4 [15, 1]
-2.5005667 -2.2975194 -2.938195 -6.7457805 -3.0850627 -2.5331457 -2.6331942 -2.290018
-3.1440568 0.86645013 1.3373417 -2.137445 -2.3231056 -2.2373164 -2.9160306
00000000: 4909 20c0 8f0a 13c0 630b 3cc0 6fdd d7c0
00000010: ab71 45c0 0f1f 22c0 4186 28c0 a88f 12c0
00000020: 3a38 49c0 adcf 5d3f 032e ab3f e6cb 08c0
00000030: c3ad 14c0 3130 0fc0 3fa0 3ac0
