onnx/myModel_HL3_HD15_899.onnx (onnx, 4793 bytes, 9 tensors)

net.0.bias f4 [15]
-2.703302 -2.3763423 -2.2742825 -3.234089 3.417383 -3.2829666 2.777206 2.4694047
0.37424648 -2.8880682 2.3173566 -2.4863963 2.6498322 3.1262462 2.8368676
00000000: e602 2dc0 fe15 18c0 d88d 11c0 50fb 4ec0
00000010: 67b6 5a40 201c 52c0 bebd 3140 ba0a 1e40
00000020: 3c9d bf3e 1cd6 38c0 924f 1440 1e21 1fc0
00000030: da96 2940 6b14 4840 3d8f 3540

net.2.bias f4 [15]
-0.20839043 -0.40749565 0.44150043 0.24862452 -0.112447724 0.2637493 -1.4474447 0.29727668
0.5593204 0.6755749 1.0550025 0.5527378 -0.60731196 0.52235544 -0.42560852
00000000: 4d64 55be 45a3 d0be 580c e23e 6d97 7e3e
00000010: fe4a e6bd 260a 873e de45 b9bf a634 983e
00000020: 9f2f 0f3f 7af2 2c3f 520a 873f 3980 0d3f
00000030: cc78 1bbf 16b9 053f 5ce9 d9be

net.4.bias f4 [15]
-0.9953467 -0.18513115 -0.59925795 -0.37084332 -1.3611425 -0.024602233 -1.5043975 -1.6588315
-0.783408 -0.6767911 -0.93091375 -1.1117263 -0.14409544 -0.44511837 0.03868135
00000000: 0bcf 7ebf 0593 3dbe f868 19bf 2ddf bdbe
00000010: eb39 aebf 9f8a c9bc 1990 c0bf 9754 d4bf
00000020: 6d8d 48bf 2e42 2dbf 5d50 6ebf 0c4d 8ebf
00000030: c18d 13be 8ee6 e3be 5670 1e3d

net.6.bias f4 [15]
0.0065953704 0.028769523 -0.30886382 -0.13508347 -1.0609272 0.39120626 -0.110778496 0.025174689
-1.1087263 0.45268574 0.16509457 -0.9223784 -0.047292177 -0.25498182 -1.59324
00000000: fa1d d83b 10ae eb3c 6623 9ebe 5253 0abe
00000010: 76cc 87bf 304c c83e d6df e2bd 263b ce3c
00000020: beea 8dbf 6dc6 e73e 8d0e 293e fe20 6cbf
00000030: 71b5 41bd fa8c 82be 4aef cbbf

onnx::MatMul_31 f4 [2, 15]
-0.7679512 -1.5841055 0.30795202 1.3090569 4.0376067 -2.0988007 -3.5431879 -2.7043478
-4.048805 -2.7217214 1.5435873 0.8163761 -0.8811495 0.44996643 0.08061077 1.6544669
-0.3531964 1.6010983 -0.09950101 -3.2638414 1.0387548 -0.06663025 0.8948334 4.948986
0.902035 1.4006611 0.7168144 1.444387 1.3239964 1.5371372
00000000: 7398 44bf f8c3 cabf e3ab 9d3e 2d8f a73f
00000010: 1334 8140 c052 06c0 97c3 62c0 0914 2dc0
00000020: d08f 81c0 af30 2ec0 4594 c53f 06fe 503f
00000030: 0393 61bf 0062 e63e 4217 a53d 92c5 d33f
00000040: 29d6 b4be caf0 cc3f 2fc7 cbbd c7e2 50c0
00000050: ebf5 843f 7175 88bd cd13 653f 185e 9e40
00000060: c4eb 663f dd48 b33f 2681 373f ace1 b83f
00000070: b778 a93f e9c0 c43f

onnx::MatMul_32 f4 [15, 15]
-0.22880398 -1.2221339 1.3398433 0.53456634 3.1544566 0.25490594 1.4929049 2.9672487
1.1030259 1.3985976 0.26796782 3.0058484 -1.0356371 2.643785 -0.56703407 -1.0762205
-1.5929223 1.748326 0.6608003 1.4045025 1.7209214 -2.109006 1.238806 2.938513
2.1167138 2.215455 2.1199374 -3.0857878 2.3876212 5.3719273 -0.4057035 -2.2354822
3.4671044 2.076385 2.023763 2.1953285 1.3161848 1.7972895 1.5751871 1.2428039
1.5798005 2.0444984 -1.4026508 1.6341277 0.043254565 1.9883169 -2.2768497 3.3515744
3.1994815 2.097992 3.2627475 -2.2322237 1.6899226 3.1118007 3.9310517 2.8945632
2.5890155 -1.6024808 2.0358934 4.2277803 -0.87991345 1.6908604 0.2571283 -2.0521836
1.4467392 0.11023915 -1.1243232 1.1507372 0.25565413 0.18956268 0.035633367 0.38088733
0.36253968 0.73708737 0.57841593 1.163067 -0.8085007 0.49257806 0.8077055 -0.45936444
1.1000814 1.6546599 0.808888 1.6105202 1.7755004 1.4109646 1.182004 -1.4854665
1.6400912 6.20337 -0.13309273 -0.2755253 -0.6839487 -1.1046859 -2.2261164 -1.5351269
-0.859584 -1.5357369 0.42489374 0.29543105 0.04637821 -0.34322694 -0.8256025 -1.0534064
2.6464808 0.31539914 0.28592336 -0.67518103 -1.8827764 0.3668563 -1.1376264 0.7089202
0.38325658 -0.9787823 -1.4221952 -0.9149253 0.66546273 0.13276422 0.3057262 -1.1051435
-1.6425784 -0.170705 1.2651141 1.1134635 -0.6295346 1.0827609 -1.9199221 -0.6888186
-0.8619868 -1.4218328 0.09893611 -1.345506 -0.48269632 -0.2879581 -2.202479 1.8923026
-0.99288136 0.6618734 0.5194252 -0.023146888 1.3063784 1.9793124 1.0539398 1.5225853
1.6524792 0.96555007 1.593998 -1.5468932 1.9074854 8.159227 1.1609284 0.5890151
-1.130787 -0.30824 -1.4203273 -1.1001083 0.32769665 -1.2145942 -1.252883 -0.6419276
-0.63173175 -0.8306585 1.6662904 -1.4237198 -0.65206796 -0.07883924 -1.4842263 2.0190413
1.8182116 0.9454256 1.7362772 0.068052895 0.9785868 0.9559709 1.0132207 1.4304523
1.3773645 -0.6622691 0.96422744 0.365574 0.8451653 1.312792 -0.9381314 -0.811337
-0.78712046 -0.5644138 2.0074184 -1.0025345 -1.6319745 -2.0214822 -1.443759 -1.3876376
1.2416668 -0.91199684 -0.28594336 0.9572749 1.6253475 -0.9304817 -0.96462345 -1.2766186
-0.74225754 1.7449392 -1.2680147 -1.1464716 -1.5877677 -1.5606339 -1.798206 1.870822
-1.4544578 -0.8105015 0.9736289 1.2203455 -0.7481244 -0.70492136 -1.4837499 -0.5798497
1.8104492 -1.2956305 -1.4689456 -1.3320615 -1.4168363 -1.3974959 1.469858 -0.95750964
-0.7362886
00000000: 974b 6abe e26e 9cbf fc7f ab3f 57d9 083f
00000010: 9ee2 4940 0883 823e 8217 bf3f 67e7 3d40
00000020: f42f 8d3f 3f05 b33f 1433 893e d25f 4040
00000030: c28f 84bf c633 2940 2529 11bf 98c1 89bf
00000040: e1e4 cbbf 25c9 df3f 352a 293f bdc6 b33f
00000050: 2747 dc3f f4f9 06c0 3291 9e3f 9910 3c40
00000060: 3d78 0740 04ca 0d40 0ead 0740 8c7d 45c0
00000070: c9ce 1840 d4e6 ab40 5fb8 cfbe 2412 0fc0
00000080: 0ae5 5d40 7ee3 0440 5585 0140 4380 0c40
00000090: be78 a83f 950d e63f bb9f c93f 3314 9f3f
000000a0: e736 ca3f 10d9 0240 108a b3bf 192b d13f
000000b0: b32b 313d 2b81 fe3f e8b7 11c0 3280 5640
000000c0: 4ec4 4c40 8045 0640 dbd0 5040 c1dc 0ec0
000000d0: 624f d83f be27 4740 5a96 7b40 8640 3940
000000e0: 6eb2 2540 171e cdbf 144c 0240 fa49 8740
000000f0: 0242 61bf 1d6e d83f 52a6 833e fa56 03c0
00000100: c02e b93f 10c5 e13d d3e9 8fbf 5b4b 933f
00000110: 19e5 823e b81c 423e 4bf4 113d aa03 c33e
00000120: cd9e b93e c2b1 3c3f 1113 143f 61df 943f
00000130: e7f9 4ebf 3133 fc3e cac5 4e3f d131 ebbe
00000140: 78cf 8c3f e5cb d33f 4913 4f3f 8725 ce3f
00000150: 9943 e33f 7d9a b43f e84b 973f c423 bebf
00000160: 82ee d13f 0282 c640 7649 08be a711 8dbe
00000170: 4317 2fbf 5966 8dbf b178 0ec0 0a7f c4bf
00000180: b20d 5cbf 0793 c4bf ac8b d93e bd42 973e
00000190: 14f7 3d3d 71bb afbe af5a 53bf 05d6 86bf
000001a0: f15f 2940 ff7b a13e 8c64 923e aad8 2cbf
000001b0: d1fe f0bf 97d4 bb3e be9d 91bf cb7b 353f
000001c0: 353a c43e 7a91 7abf 7e0a b6bf 8b38 6abf
000001d0: c45b 2a3f 58f3 073e 2588 9c3e 5875 8dbf
000001e0: 0240 d2bf 4bcd 2ebe 42ef a13f f985 8e3f
000001f0: 2e29 21bf e997 8a3f 02c0 f5bf 6a56 30bf
00000200: 2bab 5cbf 9efe b5bf 049f ca3d 8a39 acbf
00000210: f923 f7be 3e6f 93be 6af5 0cc0 f936 f23f
00000220: 792d 7ebf 8970 293f 0df9 043f 8b9e bdbc
00000230: 6837 a73f 1c5a fd3f 80e7 863f 13e4 c23f
00000240: 7084 d33f 4a2e 773f 2008 cc3f 9900 c6bf
00000250: 7b28 f43f 328c 0241 4d99 943f b2c9 163f
00000260: a1bd 90bf a2d1 9dbe 49cd b5bf 59d0 8cbf
00000270: dbc7 a73e d377 9bbf 785e a0bf 5e55 24bf
00000280: 2cb9 21bf 09a6 54bf 0149 d53f 733c b6bf
00000290: eded 26bf 7876 a1bd 21fb bdbf f937 0140
000002a0: 28bb e83f 6a07 723f 553e de3f 515f 8b3d
000002b0: aa84 7a3f 82ba 743f 37b1 813f 1019 b73f
000002c0: 7b4d b03f 788a 29bf 9cd7 763f 842c bb3e
000002d0: c15c 583f 9109 a83f 6129 70bf c8b3 4fbf
000002e0: ba80 49bf 6c7d 10bf 8b79 0040 0d53 80bf
000002f0: 8ae4 d0bf f75f 01c0 18cd b8bf 1c9e b1bf
00000300: f0ee 9e3f a078 69bf 2b67 92be f80f 753f
00000310: 630b d03f 0c34 6ebf 90f1 76bf 3d68 a3bf
00000320: 9704 3ebf 2b5a df3f 4e4e a2bf 95bf 92bf
00000330: f93b cbbf dac2 c7bf 9d2b e6bf 1877 ef3f
00000340: ac2b babf 077d 4fbf be3f 793f 4834 9c3f
00000350: 1585 3fbf ba75 34bf 84eb bdbf 0871 14bf
00000360: cdbc e73f 38d7 a5bf 6906 bcbf fe80 aabf
00000370: e45a b5bf 25e1 b2bf 4f24 bc3f 5a1f 75bf
00000380: 697d 3cbf

onnx::MatMul_33 f4 [15, 15]
-0.6569674 0.66441864 -0.633548 -0.11251318 -0.80672455 0.37794194 -1.6525977 -1.8497587
-1.2622569 -0.7960361 -0.93302965 -0.87875944 -0.24352854 -0.32061037 -0.26363313 -2.4056194
-0.7006849 -1.5411129 -1.143489 -2.5677645 -1.0323422 -1.6603454 -1.3295907 -2.565454
-2.0515058 -1.7044028 -1.7704281 -1.2854762 -1.3888985 -0.30857757 1.6182519 -0.11545667
1.1307379 0.22363065 1.6789922 1.1926545 2.6860552 1.4807197 1.5828246 1.7715329
1.2843012 1.5231227 0.6807586 1.2559063 -0.57034636 2.0229588 2.6426742 -1.6126037
2.4461694 2.1154397 4.359213 -0.41735312 -1.4247144 3.1690814 3.3104477 2.7008
-1.2446345 3.0448372 3.116874 1.5853816 0.32278025 -0.87676007 2.920726 -0.929225
0.43936253 -2.090887 3.172025 3.0980268 0.44673836 0.02348306 0.029292705 3.061287
-0.9874019 -0.56538546 -0.7387275 0.9417497 -0.57358086 0.39048886 0.70235413 1.1745197
1.4659252 3.140536 1.4862608 1.4645004 1.7546629 1.2544986 0.9485454 1.001183
1.2002833 -0.40805635 -1.9063737 -0.21825291 -0.8108216 -0.70882726 -1.996383 -0.28223372
-1.4621805 -1.2458221 -1.940787 -1.5238839 -1.5507865 -1.052287 -0.5529982 -1.0621032
-0.049985252 0.6047649 0.4979078 2.4740644 -0.4797663 0.6193414 -2.1456525 2.3119571
2.6885424 0.2613419 -0.10206901 0.13074994 2.6034722 -0.84326327 -0.20804982 -0.012056551
2.4133594 1.1337829 1.3163434 0.7668198 2.4984062 -0.049559113 3.0793104 2.4659777
1.4686708 1.6172786 1.7151618 1.871438 0.86490345 1.3775603 0.35541037 2.4980776
1.999475 0.8077442 0.6161661 2.9931676 -1.9944069 2.153898 2.2494237 1.5620501
1.265112 1.3462135 1.9021646 0.69226104 0.6892409 0.9605923 1.9171227 1.5229992
-0.057829306 1.1878523 2.1490474 2.256322 2.5815446 0.9579242 1.9760636 2.0664902
1.8509961 0.53338367 1.6165785 1.7483906 1.4767853 1.7547241 1.9293679 3.36198
-0.013609835 1.9858776 -2.5340333 1.8242456 2.4822774 1.0081191 0.1680601 0.6464069
2.67696 -0.33646658 -0.12649812 1.7050222 -2.2732403 -0.41187808 -1.750214 -0.88188726
-2.1824307 -0.48786518 -1.9343811 -1.5347197 -2.0372126 -1.5784609 -1.7384765 -2.01427
-0.95889515 -1.1724033 -0.4429495 1.0432013 0.89506316 2.4890425 -0.542986 0.92414916
-1.2122003 2.7078943 2.0651002 0.3776062 0.43918797 0.47809982 2.2786732 -0.6066875
-0.29528087 -0.89046854 -1.578521 0.883781 3.0342727 -2.16919 -1.5856932 -12.784077
-0.3214619 1.2289758 -1.7624699 -2.5391116 -1.9722964 1.1012244 -3.0421984 -2.6073024
1.465607
00000000: 042f 28bf 5717 2a3f 3430 22bf 4f6d e6bd
00000010: 8085 4ebf 9b81 c13e 5288 d3bf e5c4 ecbf
00000020: a291 a1bf 06c9 4bbf 08db 6ebf 61f6 60bf
00000030: 8c5f 79be 0b27 a4be ecfa 86be abf5 19c0
00000040: 1660 33bf 3043 c5bf d95d 92bf 4156 24c0
00000050: ca23 84bf 3386 d4bf 0730 aabf 6630 24c0
00000060: df4b 03c0 df29 dabf 639d e2bf 7c8a a4bf
00000070: 6dc7 b1bf e1fd 9dbe e122 cf3f 8c74 ecbd
00000080: 05bc 903f 6fff 643e 37e9 d63f e7a8 983f
00000090: 54e8 2b40 3988 bd3f ff99 ca3f 97c1 e23f
000000a0: fb63 a43f aff5 c23f 3246 2e3f 8ac1 a03f
000000b0: 3802 12bf 2878 0140 9321 2940 cc69 cebf
000000c0: 0a8e 1c40 5d63 0740 ac7e 8b40 4faf d5be
000000d0: 0b5d b6bf 3bd2 4a40 60de 5340 e8d9 2c40
000000e0: 2f50 9fbf 9dde 4240 dd7a 4740 c9ed ca3f
000000f0: 7443 a53e 5973 60bf 2ded 3a40 b1e1 6dbf
00000100: 20f4 e03e 18d1 05c0 7502 4b40 1246 4640
00000110: e4ba e43e 8c5f c03c 41f7 ef3c 20ec 4340
00000120: 5fc6 7cbf 1abd 10bf 3f1d 3dbf 8216 713f
00000130: 32d6 12bf 28ee c73e 7bcd 333f a956 963f
00000140: 70a3 bb3f 8bfe 4840 cb3d be3f c074 bb3f
00000150: cb98 e03f 6993 a03f dfd3 723f c426 803f
00000160: e2a2 993f c3ec d0be 0e04 f4bf b17d 5fbe
00000170: 0192 4fbf b475 35bf 7a89 ffbf f080 90be
00000180: bb28 bbbf 1977 9fbf b56b f8bf a10e c3bf
00000190: 2c80 c6bf 57b1 86bf 4a91 0dbf fff2 87bf
000001a0: 56bd 4cbd dfd1 1a3f c5ed fe3e 1257 1e40
000001b0: eea3 f5be 288d 1e3f 5f52 09c0 1bf7 1340
000001c0: 1411 2c40 9bce 853e 8f09 d1bd 50e3 053e
000001d0: 4a9f 2640 1ae0 57bf 030b 55be d788 45bc
000001e0: 7b74 1a40 cc1f 913f f17d a83f 4d4e 443f
000001f0: e3e5 1f40 7ffe 4abd 6c13 4540 94d2 1d40
00000200: 68fd bb3f fc02 cf3f 6c8a db3f 488b ef3f
00000210: 506a 5d3f e553 b03f 59f8 b53e 81e0 1f40
00000220: ccee ff3f 53c8 4e3f 10bd 1d3f 0f90 3f40
00000230: ba48 ffbf 77d9 0940 8ff6 0f40 42f1 c73f
00000240: 31ef a13f b950 ac3f 217a f33f 0538 313f
00000250: 1772 303f 61e9 753f 4764 f53f a3f1 c23f
00000260: 6cde 6cbd 8b0b 983f fe89 0940 9467 1040
00000270: 0738 2540 853a 753f a7ef fc3f 6041 0440
00000280: 71ed ec3f d58b 083f 0bec ce3f 43cb df3f
00000290: 4d07 bd3f cd9a e03f 87f5 f63f ae2a 5740
000002a0: c9fb 5ebc 3d31 fe3f 9a2d 22c0 e180 e93f
000002b0: a2dd 1e40 0c0a 813f f217 2c3e ec7a 253f
000002c0: 5053 2b40 5945 acbe b988 01be 2b3e da3f
000002d0: c57c 11c0 afe1 d2be 0307 e0bf 5dc3 61bf
000002e0: f2ac 0bc0 77c9 f9be cd99 f7bf b271 c4bf
000002f0: b161 02c0 020b cabf 6686 debf cde9 00c0
00000300: 277a 75bf 5011 96bf 47ca e2be 9f87 853f
00000310: dc22 653f 794c 1f40 2101 0bbf 0a95 6c3f
00000320: 6129 9bbf 244e 2d40 9a2a 0440 9a55 c13e
00000330: 3fdd e03e 80c9 f43e c8d5 1140 df4f 1bbf
00000340: 0e2f 97be bff5 63bf fa0c cabf 793f 623f
00000350: 8631 4240 02d4 0ac0 fff7 cabf 948b 4cc1
00000360: a796 a4be 144f 9d3f 9d98 e1bf ce80 22c0
00000370: 3574 fcbf ecf4 8c3f 61b3 42c0 0bde 26c0
00000380: 0399 bb3f

onnx::MatMul_34 f4 [15, 15]
2.5626369 1.3564376 1.0194649 0.17428537 -0.32004935 1.3630861 2.4459512 1.9593376
-0.60932946 0.7730729 1.0812007 -0.79248154 2.3691938 1.4559615 -0.1222501 0.89418614
0.6492945 0.78431255 -1.4996796 0.4010431 0.76005805 0.7636627 0.26260266 0.46247855
1.0361228 0.5451126 0.9635547 0.4863496 0.4707624 -1.3041167 -1.9804761 -1.4744304
-2.03183 -1.5576609 1.0243082 -1.4092908 -1.8667945 -2.6062691 1.3692889 -0.8089872
-2.2282043 1.9395806 -1.895519 -2.2916164 0.06922135 0.6955705 0.72768754 1.0548644
-0.4478774 -0.15435119 0.48124567 0.42541453 1.109055 -0.33649698 0.120506935 1.2787085
-1.0754398 1.1032426 1.3182852 0.016081108 3.0983148 1.696162 1.5422401 -0.11684752
-0.6024465 1.4475863 2.839866 2.5434384 -0.42652845 1.3760891 1.4400321 -0.616913
3.3414114 1.9353987 -0.40506825 1.066983 1.8209847 2.633377 1.5668766 -2.0822744
1.7595589 1.0455161 3.1738026 -1.8890721 0.9787876 2.8715312 -3.6786995 0.82240933
2.7437196 10.496207 -2.339442 -2.6063664 -2.3999133 0.26849845 0.7032141 -2.7983217
-2.4604259 -2.3044972 0.5141627 -3.1405284 -2.6160722 0.71116006 -2.080152 -2.2396424
3.7512348 -2.4035523 -2.2032325 -2.4798265 -0.28260148 1.0754485 -2.27192 -2.3837872
-2.7169278 1.2831004 -2.1114106 -2.4278975 1.7488526 -2.4384344 -2.616631 2.60811
2.2726898 1.343151 1.3424709 1.0311232 -1.5304874 1.307459 2.2321358 2.0972614
-1.6982303 0.8523713 1.6082382 -2.2573211 2.6036613 2.2905939 0.17147096 2.1199906
1.8223752 1.999148 0.7763511 -0.9154255 1.809533 1.8897107 2.3004775 -1.0638372
1.0095494 1.8363082 -1.8787435 2.4130962 1.9973787 1.4783566 1.6172318 1.1838319
1.3147839 0.29585278 -0.66492486 1.0082654 1.7206855 1.669895 -0.7672494 0.51819485
1.4066336 -1.1260505 1.4942883 1.4867364 1.1089703 -2.036975 -2.169992 -2.0177894
-0.91747296 0.8307768 -1.9799781 -1.6566349 -2.52429 0.93803877 -1.5334616 -2.4127357
1.2402134 -2.0374594 -2.31045 1.3954285 1.0960698 0.9358789 1.3443581 -0.58176845
-0.22786532 0.5602891 0.8342816 1.7906483 -0.29847807 0.122264385 1.7146206 -1.0813904
0.97699386 1.6334487 1.1179388 1.0965732 0.97207046 1.4649985 -0.06900832 -0.16778728
1.0629277 1.0956885 1.5582553 -0.48807636 0.22928168 1.7159957 -1.0938576 1.216801
1.445731 1.5392394 0.536937 0.059540164 -0.11086095 -0.0037906647 -1.5320629 -0.080838464
0.4217964 0.2773983 -1.4136347 0.25180757 0.063922524 -0.9199832 0.5277889 0.17970933
-0.27686343
00000000: 3e02 2440 bf9f ad3f d37d 823f dd77 323e
00000010: 82dd a3be 9b79 ae3f 778a 1c40 93cb fa3f
00000020: 04fd 1bbf 1be8 453f c964 8a3f 12e0 4abf
00000030: dfa0 1740 f25c ba3f 435e fabd 62e9 643f
00000040: 2a38 263f b5c8 483f 80f5 bfbf 8555 cd3e
00000050: 2a93 423f 667f 433f db73 863e fdc9 ec3e
00000060: ac9f 843f 808c 0b3f 85ab 763f d102 f93e
00000070: c507 f13e 4ced a6bf 3e80 fdbf 23ba bcbf
00000080: 8109 02c0 6f61 c7bf 881c 833f a463 b4bf
00000090: 1ff3 eebf 1dcd 26c0 dc44 af3f c919 4fbf
000000a0: e69a 0ec0 2d44 f83f 5ea0 f2bf d8a9 12c0
000000b0: ecc3 8d3d e910 323f bb49 3a3f cc05 873f
000000c0: 3050 e5be 3d0e 1ebe d565 f63e efcf d93e
000000d0: 84f5 8d3f 5549 acbe 57cc f63d b8ac a33f
000000e0: 03a8 89bf 0e37 8d3f 92bd a83f 87bc 833c
000000f0: ca4a 4640 d61b d93f 2068 c53f c14d efbd
00000100: ef39 1abf 824a b93f 5dc0 3540 b2c7 2240
00000110: f061 dabe b023 b03f f952 b83f 03ee 1dbf
00000120: afd9 5540 25bb f73f 1b65 cfbe e692 883f
00000130: 0716 e93f 4089 2840 6a8f c83f fc43 05c0
00000140: 3a39 e13f 79d3 853f 951f 4b40 1dcd f1bf
00000150: d391 7a3f 2bc7 3740 d06f 6bc0 6b89 523f
00000160: 1a99 2f40 77f0 2741 6bb9 15c0 b5ce 26c0
00000170: 2e98 19c0 a178 893e d705 343f b417 33c0
00000180: 9e77 1dc0 e27c 13c0 2ba0 033f 6bfe 48c0
00000190: ba6d 27c0 960e 363f 3621 05c0 4d56 0fc0
000001a0: 3b14 7040 cdd3 19c0 c301 0dc0 7ab5 1ec0
000001b0: 24b1 90be 4ca8 893f 2367 11c0 f88f 18c0
000001c0: 25e2 2dc0 a23c a43f 5a21 07c0 ac62 1bc0
000001d0: 67da df3f 4f0f 1cc0 e276 27c0 46eb 2640
000001e0: c073 1140 5fec ab3f 16d6 ab3f d8fb 833f
000001f0: 03e7 c3bf d15a a73f 50db 0e40 8839 0640
00000200: 9c5f d9bf 0135 5a3f c0da cd3f f377 10c0
00000210: 63a2 2640 1799 1240 1596 2f3e edad 0740
00000220: 9743 e93f 15e4 ff3f f2be 463f 5359 6abf
00000230: c79e e73f 0ae2 f13f 063b 1340 d12b 88bf
00000240: ea38 813f 260c eb3f ab7a f0bf 2b70 1a40
00000250: 1baa ff3f ca3a bd3f 7401 cf3f ce87 973f
00000260: d74a a83f 047a 973e 8438 2abf d70e 813f
00000270: 6c3f dc3f 1fbf d53f 756a 44bf 6ba8 043f
00000280: 920c b43f 6c22 90bf d744 bf3f 614d be3f
00000290: bdf2 8d3f cc5d 02c0 26e1 0ac0 7623 01c0
000002a0: 82df 6abf caad 543f ec6f fdbf 9d0c d4bf
000002b0: f88d 21c0 4f23 703f 7848 c4bf 436a 1ac0
000002c0: 50bf 9e3f bc65 02c0 6ade 13c0 679d b23f
000002d0: 044c 8c3f c295 6f3f ed13 ac3f c7ee 14bf
000002e0: 8755 69be 1b6f 0f3f 7b93 553f f733 e53f
000002f0: 1ed2 98be c065 fa3d b078 db3f 006b 8abf
00000300: 451c 7a3f d914 d13f 9e18 8f3f 835c 8c3f
00000310: 9cd9 783f 1285 bb3f 3c54 8dbd 6ed0 2bbe
00000320: 040e 883f 853f 8c3f e974 c73f 25e5 f9be
00000330: d1c8 6a3e bfa5 db3f 8703 8cbf 23c0 9b3f
00000340: b70d b93f cc05 c53f b474 093f 63e0 733d
00000350: 110b e3bd cd6c 78bb a31a c4bf a38e a5bd
00000360: b3f5 d73e 2607 8e3e fbf1 b4bf ecec 803e
00000370: d0e9 823d 0584 6bbf 2c1d 073f b905 383e
00000380: 0bc1 8dbe

onnx::MatMul_35 f4 [15, 1]
-2.6975284 -1.4197102 -1.7846749 0.8833337 -0.3910388 -1.4308276 -2.2056668 -2.798494
-0.510388 -1.5538381 -2.1633103 -0.903518 -2.5276392 -2.1920304 0.74833924
00000000: 4ea4 2cc0 10b9 b5bf 3a70 e4bf 2822 623f
00000010: 3d36 c8be 5c25 b7bf a529 0dc0 871a 33c0
00000020: caa8 02bf 2be4 c6bf ad73 0ac0 f54c 67bf
00000030: d7c4 21c0 3a4a 0cc0 2993 3f3f
