onnx/myModel_HL4_HD15_199.onnx (onnx, 6087 bytes, 11 tensors)

net.0.bias f4 [15]
000000 29 7a f2 bf c2 90 16 40 e0 04 09 40 e4 46 8c 3e
       -1.894353 2.3525853 2.1409225 0.27397835
000010 64 44 3d c0 ae 17 8c 3f f8 82 2c c0 f0 7c 20 c0
       -2.9572992 1.0944726 -2.6954937 -2.5076256
000020 3e 46 1f c0 2a 4c 11 40 42 d0 df 3f b9 14 24 40
       -2.4886622 2.2702737 1.748543 2.5637648
000030 8d d7 50 c0 64 48 18 40 78 c0 48 c0
       -3.2631562 2.3794184 -3.1367474

net.2.bias f4 [15]
000000 1c 4e 29 3d 64 b7 9e be 2f f5 9d 3d 49 cb ae be
       0.041334257 -0.3099929 0.07712781 -0.3413947
000010 bb 9b 4f be e1 5a e8 bd 7b 67 df 3c e8 b6 8f bd
       -0.2027425 -0.11345459 0.027271023 -0.070173085
000020 63 9f 6e be b1 65 76 be 1a 05 9c be d7 b3 24 3c
       -0.23302989 -0.2406223 -0.30472642 0.010052643
000030 43 01 0d bc e5 87 24 bf b8 ca 5e bd
       -0.008606258 -0.6426986 -0.054392546

net.4.bias f4 [15]
000000 ff eb cc bf b8 75 00 c0 8f a2 a3 bf 4b 04 d4 bf
       -1.600952 -2.007185 -1.2783984 -1.656381
000010 52 e9 dd bf 5b 12 c8 bf e1 c0 e9 bf 90 10 b4 bf
       -1.7336829 -1.5630602 -1.8261987 -1.4067554
000020 ae cf 98 bf 4f fb fe bf 11 e3 f3 3f a5 97 b9 bf
       -1.1938379 -1.9920443 1.905367 -1.4499403
000030 fd f8 be bf a5 0f eb bf 6f a2 e4 bf
       -1.4919735 -1.8364149 -1.7862071

net.6.bias f4 [15]
000000 18 49 bb 3d 79 0c 78 3f dd 44 09 bf 21 17 75 bf
       0.09144801 0.9689403 -0.536207 -0.95738417
000010 f3 fd 73 bf 5a 14 62 bf 93 69 ab 3e af 35 fe be
       -0.9530937 -0.88312304 0.33478984 -0.49650332
000020 c1 30 81 be 2c 8f d4 bf 67 45 05 3f 94 36 1c 3f
       -0.2523251 -1.6606193 0.52059025 0.6102078
000030 8d 7c 25 3d c8 71 11 bf 10 7f 3a 3e
       0.040401984 -0.5681424 0.18212533

net.8.bias f4 [15]
000000 bf 5f 3a bf 3a ed 3b 3e 1d 11 4d bf 85 88 83 bf
       -0.72802347 0.18352214 -0.8010424 -1.0276037
000010 cf 6d 0f bf 6c 39 63 bf 99 59 41 3f 88 e5 06 3f
       -0.5602693 -0.88759494 0.7552734 0.52693987
000020 2d 2f 56 3f bc db 35 bf de a0 17 bf 2b d5 73 bf
       0.83665735 -0.71038413 -0.5922984 -0.95247144
000030 6b 64 4e bf 08 2e 70 bf fb f2 2f 3f
       -0.80621976 -0.9382024 0.68730134

onnx::MatMul_37 f4 [2, 15]
000000 49 3e 63 bc e0 4a 83 3f 8f ef dd 3e a3 c8 0f c0
       -0.01386983 1.0257225 0.4334683 -2.246621
000010 89 7a 8e 3f e1 69 8f 3f 80 5a 8e 3f 70 64 d4 bf
       1.1131145 1.1204187 1.1121368 -1.6593151
000020 59 8e 47 3f ba 22 db be 87 16 40 3e 84 9b d6 bf
       0.7795158 -0.42799932 0.18758593 -1.676621
000030 46 9d 24 c0 3b 8e 09 3f ea aa 84 3f 5d 50 d6 3f
       -2.5720992 0.5373265 1.0364659 1.6743275
000040 8f df 8d bf 9a b8 ae 3f e3 c2 59 40 57 1f 31 bd
       -1.108385 1.3650086 3.40252 -0.04324278
000050 85 5f 7d 3f 4a 94 04 3f 32 74 18 bf 97 30 e6 3f
       0.98973876 0.5178877 -0.595523 1.7983578
000060 be fc ae 3f d4 75 bf bf 22 95 df be 5a 50 7a 3f
       1.3670881 -1.4957833 -0.43668467 0.97778857
000070 5e 24 b5 3f c1 3a 70 bf
       1.4151723 -0.9383965

onnx::MatMul_38 f4 [15, 15]
000000 7d 94 6f 3f fa 16 f4 3f d8 69 9e 3f e0 57 b2 3f
       0.9358595 1.9069512 1.2376051 1.3933067
000010 a5 85 a3 3f 9f da 81 3f 5c 9d a5 3f 05 46 95 3f
       1.277516 1.0144843 1.2938647 1.1661993
000020 5d a7 75 3f 6c 70 a6 3f fe 3b a7 3e 54 b5 72 3f
       0.959585 1.3003058 0.32662958 0.94807935
000030 fe 1b a1 3f 4a 00 a8 3f 2c f9 7c 3f ac b1 a9 be
       1.2586668 1.3125088 0.98817706 -0.33143365
000040 ed 56 8a bf f8 8e ea be 77 38 44 bf ed 5a 8f bf
       -1.0807778 -0.45812201 -0.7664866 -1.1199623
000050 c4 9d 62 bf d3 6f 85 be b1 3a 12 be 74 27 17 bf
       -0.8852198 -0.26061878 -0.14280201 -0.59044576
000060 f9 9d 6d bf 17 4b 21 3e f3 10 f5 be a2 5d 2f bc
       -0.9281917 0.15751301 -0.47864494 -0.010703476
000070 f5 0f e9 bf f5 3b 38 bf 3b ae 68 bf 44 e6 0e bf
       -1.8207995 -0.7196649 -0.90890855 -0.5582011
000080 fb 8d 79 bf ff 36 82 bf 70 43 3f bf 55 3f 47 bf
       -0.9748227 -1.0173033 -0.74712276 -0.7783101
000090 3b 97 6e bf 3b 75 14 40 9e 18 50 bf 7f 57 e7 be
       -0.9319951 2.3196552 -0.8128756 -0.45183942
0000a0 7d 78 de be 48 d1 c7 3f 86 f1 a1 bf 1f bb 77 be
       -0.434513 1.5610743 -1.2651832 -0.24192475
0000b0 61 5f 27 bf 25 60 59 bf 5c 14 a7 3e 7b c5 52 3c
       -0.6537991 -0.8491233 0.3263272 0.012864466
0000c0 39 1a 0f bf 82 a4 17 3f b3 f2 e4 be a3 51 6e bf
       -0.5589939 0.59235394 -0.44716415 -0.9309332
0000d0 a8 f8 3b 40 8d 6d 8e bf da 6e 91 3c 87 24 97 bf
       2.9370518 -1.1127182 0.017753053 -1.1808022
0000e0 08 f5 a7 3f 15 1e 45 bf 52 98 54 3f 51 51 1f bf
       1.3121653 -0.76999027 0.8304492 -0.62233454
0000f0 31 4e cc 3f a7 88 d6 3f fd 86 d3 3f 26 30 de 3f
       1.5961362 1.6760453 1.652557 1.7358444
000100 45 36 b3 3f b1 64 ca 3f f7 b5 ce 3f af ee 82 bf
       1.4000937 1.5811979 1.6149281 -1.022909
000110 8d c4 c1 3f ca da b2 3f 9f 56 b5 3f 5a e4 3b bf
       1.5138108 1.3973019 1.416706 -0.7339531
000120 65 58 b3 3f 55 45 bb 3f 50 7b b6 3f 60 8b e4 be
       1.4011351 1.4630533 1.4256382 -0.44637585
000130 82 9e 95 be e6 1f 09 bf 55 91 e9 be 60 b4 21 be
       -0.29222494 -0.535643 -0.45618692 -0.15791464
000140 81 8d 8b be 3d 86 48 be 5c 04 f9 3f c8 bc 70 bd
       -0.27256396 -0.19582458 1.9454455 -0.058773786
000150 2b c4 32 3b 46 7d da be 12 86 b3 3f 65 4c 0f bf
       0.002727757 -0.426737 1.402529 -0.55975944
000160 57 94 e6 be ac 82 b0 be 2a 56 73 3f a6 e9 d2 3f
       -0.4503505 -0.34474695 0.9505335 1.6477554
000170 6d 26 78 3f 70 cd 5b 3f bc cd b7 3f 9c 42 91 3f
       0.96933633 0.8586035 1.435966 1.1348453
000180 1f d6 3a 3f f3 15 a6 3f 14 90 94 3f e5 38 92 3f
       0.7298297 1.2975448 1.1606469 1.1423613
000190 4b 8a 2c bf 63 e5 cc 3e d7 0c 5d 3f c3 dd e5 3f
       -0.6739852 0.40018758 0.8634772 1.7958301
0001a0 9d 0f 77 3f 86 cd 41 40 2b ea 16 40 64 82 45 40
       0.965082 3.0281692 2.3580425 3.0860834
0001b0 a6 99 35 40 2a dd 40 40 41 77 38 40 90 29 8f 3f
       2.837503 3.0134988 2.8822787 1.1184559
0001c0 b7 f0 b4 bf 89 8c f5 3f e9 61 29 40 47 d3 2c 40
       -1.413596 1.9183513 2.646601 2.7003953
0001d0 b0 1c fa be 23 85 2a 40 16 74 4e 40 d6 c6 1e 40
       -0.48850012 2.664376 3.2258353 2.480886
0001e0 93 e8 b8 3f 72 b3 0f 40 48 d6 83 3f 01 07 d7 3f
       1.4445976 2.2453275 1.0299768 1.6799012
0001f0 c5 2b a2 3f f2 c6 9a 3f 3e fc 05 40 1f b6 ba 3f
       1.2669607 1.2091963 2.0935206 1.4586829
000200 04 c1 a9 3f 1c f8 c5 3f f3 86 84 3f b9 18 d2 3f
       1.3262029 1.5466342 1.0353683 1.6413795
000210 e5 9a c5 3f dd 6f ab 3f 45 cd 9c 3f 19 db 9b bf
       1.5437895 1.3393513 1.2250143 -1.2176238
000220 5f ba 91 bf a4 75 b5 bf 29 37 a1 bf 15 e9 b5 bf
       -1.1385001 -1.4176526 -1.2594959 -1.4211756
000230 97 cb d5 bf 99 6d a7 bf 8b 3e e2 3f 7b 8b 8a bf
       -1.6702756 -1.3080322 1.7675337 -1.0823816
000240 a1 11 a4 bf ea 3b 11 bf f5 93 62 3f dc 60 b0 bf
       -1.281788 -0.56732047 0.88507015 -1.3779559
000250 06 21 6b bf ac b0 aa bf e3 fd ee be a9 0e b3 bf
       -0.91847265 -1.3335166 -0.46678075 -1.3988849
000260 f4 32 0c bf 97 ed d6 be 7d f9 67 bf 4e 99 08 bf
       -0.5476525 -0.41978142 -0.90615064 -0.53358924
000270 08 5c 29 bf dd 8d ab be 3c d4 30 bf 07 b2 7c bf
       -0.66156054 -0.3350667 -0.69073844 -0.9870915
000280 21 d4 10 3f 12 98 51 be 95 1e 84 be be 9d aa bf
       0.56573683 -0.20468166 -0.25804582 -1.3329389
000290 7c a0 4b bf 17 28 17 bf c3 c4 ed bf 79 2b 46 bf
       -0.79541755 -0.5904555 -1.8575672 -0.77410084
0002a0 03 a3 87 bf b6 52 76 bf 59 bd 2c bf c3 f1 98 bf
       -1.0596622 -0.96219957 -0.6747642 -1.194878
0002b0 d5 80 80 be 90 01 bf bf e2 f5 a9 bf ad f4 82 3c
       -0.2509829 -1.4922352 -1.3278162 0.015985811
0002c0 12 d0 22 be 1b c2 26 bf 02 9e ac bf d5 f4 8e bf
       -0.15899685 -0.6513993 -1.348572 -1.1168467
0002d0 a0 1e 3e 40 ec fe 0f 40 1f d4 22 40 14 ee 3b 40
       2.9706192 2.2499342 2.5441968 2.9364061
0002e0 ae cb 0c 40 e8 20 49 40 46 25 2c 40 b0 b8 89 3e
       2.1999316 3.1426334 2.689775 0.26898718
0002f0 96 da 36 40 08 b8 1b 40 f8 a6 17 41 bd 12 c7 3e
       2.8570914 2.4331074 9.478264 0.38881484
000300 fb 89 39 40 7a 02 a9 3f cd 5e 46 40 84 cb c3 bf
       2.8990467 1.3203881 3.0995362 -1.5296483
000310 a6 fe ce be 64 72 78 bf aa af 7f bf 00 dd 11 bf
       -0.40428656 -0.97049546 -0.9987742 -0.56977844
000320 d7 44 8a bf 6f fc 57 bf 1f f4 2c 40 3c c5 3f bf
       -1.0802258 -0.8436956 2.7024 -0.7491033
000330 24 6b 43 bf 65 70 6d bf 72 8e cb 3f 80 7d a6 bf
       -0.7633536 -0.92749625 1.5902846 -1.300705
000340 63 e7 e6 be 04 c6 94 bf e6 b1 30 40 6c df 2d 40
       -0.4509841 -1.162293 2.760858 2.7167616
000350 a5 08 2d 40 8a 77 34 40 76 a3 27 40 2f 4b 36 40
       2.7036526 2.819796 2.6193519 2.8483388
000360 20 b9 00 40 6d 52 e1 bf d6 11 18 40 20 8f 11 40
       2.0112991 -1.7603279 2.3760886 2.2743607
000370 a6 cf a4 3f 50 3c c7 bf 6b 20 2a 40 29 e3 a5 3f
       1.2875869 -1.5565281 2.6582286 1.2959949
000380 10 85 35 40
       2.8362465

onnx::MatMul_39 f4 [15, 15]
000000 87 b4 81 3f 3f b7 a0 3f ba 50 96 3f e5 d4 2d 3f
       1.0133218 1.2555922 1.1743386 0.67902976
000010 f2 2b 34 3f 90 c5 0d 40 9e 84 32 3f f0 a7 03 3f
       0.70379555 2.2151833 0.6973361 0.5142813
000020 50 4d cc 3f 4e 5a ad 3f d6 b2 f2 bf ff df c2 3f
       1.5961094 1.3543184 -1.8960826 1.5224608
000030 d6 09 03 40 3d d2 6f 3f 78 b0 8f 3f 73 e1 a4 3f
       2.0474753 0.93680173 1.1225729 1.2881302
000040 ff 9c df 3f 17 10 df 3f da 98 a6 3f 4c 18 cd 3f
       1.7469786 1.7426785 1.3015397 1.602304
000050 7a dc 3b 40 fc 9f e1 3f 6b ef a8 3f ef 62 e5 3f
       2.9353318 1.7626948 1.3198065 1.7920817
000060 03 2d 88 3f 66 f8 83 bf 73 bc 5b 3f 56 5f 89 3f
       1.0638736 -1.031018 0.85834426 1.0732219
000070 42 f8 e5 3f 41 27 9a 3f 8c 4e 8b 3f 5b 15 91 3f
       1.7966387 1.2043229 1.0883346 1.1334642
000080 16 cd 65 3f fc 06 a0 3f 21 05 a4 3f fe c5 da 3f
       0.8976606 1.2502131 1.2814065 1.7091672
000090 a3 53 8c 3f a6 e0 72 3f cf a6 80 3f 38 ff d0 3f
       1.0963024 0.94874036 1.0050906 1.6327887
0000a0 61 8c c4 bf c4 bc 05 3f 32 a3 23 3f 2f 0f 8d 3f
       -1.535534 0.5224116 0.6392089 1.1020259
0000b0 0f ea 9d 3f a9 58 4d 3f 0e 87 91 3f 92 38 97 3f
       1.2337054 0.8021341 1.136934 1.1814139
0000c0 ee 83 8f 3f c6 4e 55 3f 9b 29 16 40 dd 2e 8c 3f
       1.1212137 0.83323324 2.3462894 1.0951802
0000d0 41 65 35 3f f2 8b ab 3f dc 1f b7 3f c5 12 a8 bf
       0.70857626 1.3402083 1.4306598 -1.3130728
0000e0 77 b4 b8 3f 72 2a b1 3f 7e da 73 3f 27 9c 9d 3f
       1.4430073 1.3841078 0.9525527 1.2313279
0000f0 e3 99 ae 3f 88 d6 cc 3f 2b 3e 1c 3f 95 4d ae 3f
       1.3640712 1.600297 0.6103236 1.3617426
000100 cf 3e 91 3f ae 7a ef 3f ae 77 b4 3f 5e 62 9c 3f
       1.1347293 1.8709314 1.4099023 1.2217519
000110 49 ee 5d 3f b6 55 a5 3f 3d 17 c4 bf 81 ce 23 be
       0.8669172 1.2916782 -1.5319592 -0.15996744
000120 ac 2e f3 3d 6a 0c c2 3f 87 52 9a 3f d6 4d 87 3f
       0.11874136 1.5160038 1.2056435 1.0570629
000130 36 00 df 3f 0a 1a 3e 3f 2d f4 8d 3f 2f 28 89 3f
       1.7421939 0.7425848 1.1090142 1.0715388
000140 3d 33 fc 3f 48 ee 9a 3f 05 c4 40 3f 6b d2 ac 3f
       1.9703137 1.2103968 0.752991 1.3501714
000150 00 da f3 3f a8 26 0b c0 4f f1 b4 3f a5 88 a5 3f
       1.9050903 -2.1742344 1.4136142 1.2932326
000160 eb 1c 9e 3f 50 25 cb 3f c6 7d b3 3e 06 c3 ca 3d
       1.2352575 1.5870762 0.35056895 0.09900479
000170 d8 ab c9 3f a3 a9 af 3e 58 32 83 bd c9 61 2c 40
       1.5755568 0.3430911 -0.06406087 2.6934683
000180 33 f6 68 3e ad 51 87 3d 69 15 fa 3f b6 bc 05 3f
       0.22750168 0.06607375 1.9537784 0.52241075
000190 da 05 3d bf 4d 3c 08 40 14 8e 19 40 1b ea 94 bd
       -0.73837054 2.1286805 2.3992968 -0.072712146
0001a0 30 b1 03 3f 1c f5 e8 bf 88 3e 19 c0 cc a1 02 c0
       0.5144224 -1.8199801 -2.3944416 -2.0411253
0001b0 d6 29 fb bf 4d d3 f4 bf 77 4c 11 c0 2e 7e 15 c0
       -1.9622142 -1.9126984 -2.270292 -2.3358264
0001c0 78 38 ce bf 56 53 f2 bf 60 ad 02 c0 ec 07 22 40
       -1.6110983 -1.8931682 -2.041832 2.5317335
0001d0 d7 8b ea bf 60 92 14 c0 43 29 0f c0 1c 16 0a c0
       -1.8323926 -2.321434 -2.2368934 -2.1575994
0001e0 c5 f2 1b 3f 34 1d a6 3e 0e 5f c9 3f 9a 80 80 3e
       0.6091731 0.32444155 1.5732133 0.25098115
0001f0 e3 86 01 3f 2b 8d ec 3f 04 37 81 3e 6d cc 01 3f
       0.50596446 1.8480581 0.25237286 0.50702554
000200 0e c2 d7 3f 89 91 75 3f a0 95 36 bf 49 bd e3 3f
       1.6856096 0.95925194 -0.7132206 1.779214
000210 76 53 df 3f fe 99 b4 3e 14 3a 56 3f 93 d4 4c 3f
       1.7447345 0.35273737 0.8368237 0.8001186
000220 01 5c b4 3f 5b 93 7d 3f fb 78 91 3f 61 62 93 3f
       1.4090577 0.9905297 1.1365045 1.1514398
000230 fe ff 16 40 f0 fa 9a 3f 0e 5a 3e 3f 83 e4 aa 3f
       2.3593745 1.210783 0.7435616 1.3350986
000240 52 cd 69 3f f5 75 94 bf c1 91 63 3f 52 da 32 3f
       0.9132892 -1.1598498 0.8889428 0.6986438
000250 6f 6a 95 3f 6f b5 87 3f be b2 96 bf 24 ad a5 bf
       1.1673106 1.0602244 -1.1773298 -1.2943463
000260 6a 75 c9 3f 24 52 90 bf 11 30 af bf e2 ff 31 3f
       1.5738957 -1.1275067 -1.3686544 0.6953107
000270 67 45 88 bf 0f e9 94 bf 31 c9 82 3f e3 00 24 bf
       -1.064618 -1.1633624 1.0217649 -0.64063853
000280 a9 0a 05 3f 54 0f 41 40 3b fb 3e 40 90 1c 98 bf
       0.5196939 3.0165606 2.984084 -1.1883717
000290 b4 80 58 bf 4a 9f c7 bf ef f6 d0 bf e3 c4 a7 bf
       -0.84571385 -1.5595486 -1.6325358 -1.310696
0002a0 68 e2 ce bf 46 b2 af bf 61 9c cf bf 3e 61 de bf
       -1.6162844 -1.372628 -1.6219598 -1.7373426
0002b0 60 c1 7e bf 6c 4f 95 bf 98 a4 f3 bf 92 2e fa 3f
       -0.99513817 -1.1664863 -1.9034605 1.9545462
0002c0 fa 31 bf bf 1f b4 c1 bf 3b b1 cd bf 51 99 ce bf
       -1.4937127 -1.5133094 -1.6069711 -1.6140538
0002d0 1f 30 3e 3f 9b 28 33 3f 28 29 ab 3f 21 8a 38 3f
       0.74292177 0.69983834 1.3371935 0.7208577
0002e0 47 23 d2 3e e5 a6 01 40 39 11 67 3f a7 0c 22 3f
       0.4104254 2.0258114 0.90260655 0.63300556
0002f0 06 17 98 3f 68 4e b5 3f cb 66 c0 bf cb 86 c3 3f
       1.1882026 1.4164553 -1.503137 1.527551
000300 ee 38 f3 3f 2c 45 00 3f c8 60 5f 3f 03 df a9 3f
       1.9001749 0.5010555 0.8725705 1.3271183
000310 ea aa cc 3f 19 ee 37 be d2 ea c4 3f 33 f9 aa 3f
       1.5989659 -0.17961921 1.5384161 1.33573
000320 75 66 ad 3f cf 1b b6 3f 52 fc 8b 3f 94 74 86 3e
       1.3546892 1.4227237 1.0936377 0.26260817
000330 73 28 96 3f 03 60 5f bf 95 28 45 bf 27 c7 51 bf
       1.1731094 -0.8725588 -0.7701505 -0.8194451
000340 58 eb d2 3f 0a 67 98 3f d3 d0 6b 3f 9f 6a 85 3f
       1.6478071 1.1906445 0.92115515 1.0423163
000350 c9 35 49 3f 7f ca 32 3f 96 ea 75 3f c8 5f 08 40
       0.78597695 0.69840235 0.96061075 2.130846
000360 2c cf 8f 3f 78 5d 1f 3f 16 2e b4 3f d4 c5 c2 3f
       1.1235099 0.62251997 1.4076564 1.5216622
000370 da fa b5 bf 09 e5 7f 3f 97 53 c8 3f 78 b0 7c 3f
       -1.4217179 0.99958855 1.565051 0.9870677
000380 ad cc 7f 3f
       0.99921685

onnx::MatMul_40 f4 [15, 15]
000000 1e 69 32 3f 65 0e 18 bf 70 79 44 3f 23 92 44 3f
       0.69691646 -0.59396964 0.767478 0.76785487
000010 ea 6b 81 3f 52 9d 34 3f 4f 99 db 3e a2 17 45 3f
       1.0111058 0.7055255 0.42890403 0.76989186
000020 f5 9c a3 3e 8d fd 94 3f b4 5c ad be df 92 7b 3e
       0.31955686 1.1639878 -0.3385979 0.24567746
000030 cd 95 90 3e 6d d9 2f 3f 20 78 8b 3e 0a e0 9a 3f
       0.2823929 0.6869114 0.27240086 1.2099621
000040 29 d4 a5 be 09 38 aa 3f 0f c3 bb 3f 76 28 be 3f
       -0.32388428 1.329835 1.4668902 1.4856098
000050 9f f3 a3 3f 05 38 60 3f a6 3b 8e 3f 8f 55 4e 3f
       1.2808722 0.8758548 1.1111953 0.805993
000060 2c 02 f0 3f 18 59 04 3e 0e 40 ec 3e 3e e9 9e 3f
       1.8750663 0.12924612 0.4614262 1.241493
000070 0a 25 dc 3f 8a a1 41 3f b9 a2 0a bf fb a3 b1 bf
       1.7198803 0.75637114 -0.54154545 -1.3878168
000080 0e 9f fc be e1 b7 e3 be 84 e6 38 bf c5 42 bf be
       -0.493401 -0.44476226 -0.7222674 -0.3735563
000090 4d b1 80 bf a4 9b 81 bf 24 ab 48 bf a4 43 ba be
       -1.0054108 -1.0125623 -0.7838614 -0.3637973
0000a0 6d 88 bf bf bd 15 99 bf 54 91 5c bf d3 c3 12 bf
       -1.4963509 -1.1959759 -0.86159253 -0.57330054
0000b0 99 b8 92 bf e6 35 84 3f b9 ca 1f bf 35 6f 85 3f
       -1.1462585 1.0328948 -0.62418705 1.0424563
0000c0 97 09 23 3f c3 6c 92 3f 3b 55 54 3f df 82 cf 3d
       0.6368651 1.1439441 0.8294255 0.101323836
0000d0 b0 bd 34 3f 6c 90 74 3e 62 da 8a 3f 24 ae a0 bd
       0.7060194 0.23883218 1.0847895 -0.07845715
0000e0 7e 3d 3f 3e c9 b4 06 3f f2 1b 83 3f 2e 53 7a 3e
       0.18675801 0.52619606 1.0242903 0.24445793
0000f0 ed b8 76 3f bd 1b 1e bf be 90 5a 3f 46 26 2b 3f
       0.96375924 -0.61761075 0.8537711 0.66855276
000100 e2 49 99 3f 23 5f 8a 3f b8 25 90 3e 1b ba 56 3f
       1.1975672 1.0810283 0.28153777 0.83877724
000110 b6 b7 0b 3f 69 e1 ab 3f b7 f3 b2 be f4 1f ff 3e
       0.54577196 1.3428165 -0.34951565 0.49829066
000120 70 9a c8 3e ed de 90 3f 4e 17 c9 3e d9 f5 df bf
       0.39180326 1.1318032 0.39275593 -1.7496902
000130 cb ef 32 c0 71 32 dd bf 8b 16 e4 bf 00 b1 c7 bf
       -2.7958858 -1.7281018 -1.781938 -1.5600891
000140 8b 09 b0 bf db a5 07 c0 65 49 f1 bf 09 0e 0f c0
       -1.3752912 -2.119498 -1.8850523 -2.2352316
000150 c6 41 b6 bf 84 de 22 c0 e7 21 20 c0 2d 9e 08 c0
       -1.4238822 -2.5448313 -2.5020692 -2.1346543
000160 86 b7 ce bf 09 a2 fc bf 93 90 82 3f db 0f ef be
       -1.6149757 -1.9736949 1.020037 -0.46691784
000170 8d 0b 9b 3f e4 f6 87 3f f8 55 9e 3f 40 f2 94 3f
       1.21129 1.062222 1.2369986 1.1636429
000180 d4 f8 10 3f 8b 1c 17 3f b0 73 21 3f be 51 cf 3f
       0.5662968 0.5902793 0.6306715 1.6196821
000190 4c 58 89 bd 7a c0 d0 3e f1 91 06 3f 5e 0a a2 3f
       -0.067062944 0.40771848 0.5256644 1.2659414
0001a0 7a 65 3c 3e a4 d5 ea 3e fd 69 41 bf bc 6a 68 3e
       0.18398085 0.4586612 -0.7555235 0.22696966
0001b0 dc b4 a2 3e ec c5 18 3f bc e6 2c 3f b6 f3 34 be
       0.3177861 0.59677005 0.6753957 -0.17671093
0001c0 e3 21 11 3e cb e3 8c bd 8c aa c3 3e 9a f6 51 bf
       0.14173083 -0.068793856 0.38216054 -0.8201691
0001d0 84 df 1e 3e 89 3d f5 bc 3a 16 a0 3e a5 11 b4 3d
       0.15514952 -0.029936569 0.31266958 0.08792428
0001e0 66 08 40 bf 15 11 bf bf d6 ea eb be 9b c5 1b bf
       -0.75012815 -1.4927088 -0.46077603 -0.60848397
0001f0 f1 a3 af be d7 fa 00 bf c5 34 6b bf 81 63 1b bf
       -0.34304765 -0.5038275 -0.91877395 -0.60698706
000200 4f d6 4b bf fa cb a5 be 30 5d b0 bf c4 1c 94 bf
       -0.79623884 -0.32382184 -1.3778439 -1.1571279
000210 8b 2c 6c bf c1 fe f6 be 8b 6b a1 bf 8c 79 a9 3f
       -0.9225547 -0.48241237 -1.2610945 1.3240218
000220 74 1c 68 be ad b3 a9 3f 8e 74 b3 3f 07 9e a1 3f
       -0.22667104 1.3257958 1.4019945 1.2626351
000230 71 b6 86 3f 75 53 27 3f 47 2d 8a 3f cf 6c 12 3f
       1.0524427 0.6536172 1.0795068 0.5719728
000240 b5 5a c9 3f ed fd 36 be 64 c9 b4 3e cc 6c 8d 3f
       1.5730807 -0.17870302 0.353099 1.1048827
000250 ba 7c 97 3f 2e 5b 26 3f 60 8a 35 bf 2f 7b d0 3e
       1.1834939 0.6498288 -0.7091427 0.40718982
000260 bd 9e bf bf 6c 15 d0 bf b8 7a e1 bf 33 de cc bf
       -1.4970318 -1.6256537 -1.7615576 -1.600531
000270 d8 64 53 be f0 b9 1f bf 5d fb 0a bf ff 79 32 c0
       -0.20643938 -0.62393093 -0.542898 -2.788696
000280 bb 05 c8 3e 91 f1 43 be 8f 99 4a bf d4 62 79 bf
       0.39066872 -0.19135119 -0.7914056 -0.97416425
000290 7b 35 d7 be 56 ba d7 bf 60 9e 46 bf 26 a1 9e bf
       -0.4203299 -1.685374 -0.7758541 -1.2392929
0002a0 d4 44 8f bf 69 bc a9 bf ce b0 ac bf 26 50 d4 bf
       -1.119288 -1.3260623 -1.3491457 -1.6586959
0002b0 2a b0 ae bf ce 03 9d bf a1 27 4d bf 30 26 9f bf
       -1.3647511 -1.2266786 -0.80138594 -1.2433529
0002c0 1b c8 b0 bf 92 b8 9a bf c6 6b c9 bf 14 50 bf bf
       -1.3811067 -1.2087576 -1.5736015 -1.4946313
0002d0 51 19 02 c0 e2 99 d9 bf 5f fb f8 bf 86 21 ce bf
       -2.0327952 -1.7000086 -1.9451712 -1.610398
0002e0 a0 e5 cf bf cb ca f4 bf 67 82 e5 bf 88 34 e2 bf
       -1.6241951 -1.9124388 -1.7930421 -1.7672281
0002f0 4b ac fb bf 14 8a a2 bf 7e 61 c6 bf 38 99 d2 bf
       -1.9661955 -1.2698388 -1.5498502 -1.6453009
000300 db 6a ea bf f6 c7 01 c0 dc b6 d0 bf 44 ce 8e 3f
       -1.831386 -2.0278296 -1.6305804 1.1156697
000310 36 c0 e3 be 2f 2c 5c 3f 23 67 4c 3f 69 17 87 3f
       -0.44482583 0.8600492 0.79844874 1.0554019
000320 fd ce 7a 3f 7a 5a 08 3f 76 df 3e 3f f3 3e da 3e
       0.9797209 0.53263056 0.74559724 0.4262615
000330 05 86 93 3f 70 d3 fd bd 77 42 4a 3e 0c da 59 3f
       1.1525275 -0.12393844 0.19751917 0.8509834
000340 cc ce 9c 3f 23 39 9e 3e 9e b2 29 3f 7e a8 06 bf
       1.2250609 0.30902967 0.66288173 -0.5260085
000350 c3 f9 9e 3f 08 2f 82 3f 4d 7f 96 3f c7 c8 92 3f
       1.2419971 1.0170603 1.1757599 1.1467522
000360 ab 19 83 3d 58 50 56 3f 4f 68 8a 3e 01 40 a9 3f
       0.0640138 0.83716345 0.27032706 1.3222657
000370 34 cd c5 be c4 10 ef 3e a4 03 1c 3f 17 83 a0 3f
       -0.3863312 0.4669248 0.60943055 1.2540005
000380 69 ed d8 3d
       0.105921574

onnx::MatMul_41 f4 [15, 15]
000000 63 f0 1e 3f 5b c7 90 be e3 d7 50 3f fd 31 7b 3f
       0.6208555 -0.28277096 0.81579417 0.9812315
000010 bc 77 1f 3f 7b 30 0a 3f 25 4a 10 bf d1 21 0c bf
       0.62292075 0.53980225 -0.56363136 -0.547391
000020 5b e8 39 bf 60 99 12 3f bb d5 43 3f 75 d0 29 3f
       -0.7262017 0.5726528 0.76498 0.66333705
000030 13 07 49 3f 10 43 84 3f f0 91 77 bf e3 97 a3 3f
       0.7852642 1.0332966 -0.9670706 1.2780727
000040 31 7e a1 bf f0 76 90 3f c6 e2 bc 3f cb c0 ab 3f
       -1.2616636 1.1286297 1.4756706 1.3418211
000050 44 23 cb 3f 96 ff c5 bf ef 32 88 bf 12 4a da bf
       1.5870137 -1.5468624 -1.0640544 -1.7053854
000060 a1 2f b5 3f 25 d5 a6 3f 97 62 ab 3f a5 21 99 3f
       1.415516 1.3033797 1.3389462 1.1963392
000070 36 18 a2 3f 26 61 b0 bf ee af 86 3f a1 31 99 be
       1.2663639 -1.3779647 1.052244 -0.29920676
000080 86 fd 81 3f c9 df 5a 3f 9c 7c 39 3f cf 91 33 3f
       1.0155494 0.8549772 0.72455764 0.7014436
000090 38 3d 30 bf 90 ef 43 bf 71 73 1d bf 46 07 17 3f
       -0.6884341 -0.7653742 -0.61504275 0.58995473
0000a0 76 ab 0c 3f 26 8a 40 3f 9c cd 48 3f a3 de 34 3f
       0.5494913 0.752108 0.78438735 0.70652217
0000b0 9c 39 f7 be c9 1a a7 3e 3f 88 d0 be db c8 9a 3e
       -0.4828614 0.32637623 -0.40728948 0.30231366
0000c0 15 04 08 3f dd 93 0b 3f 1a 33 dc 3e 4e 11 1c bf
       0.5313123 0.54522496 0.43007737 -0.60963905
0000d0 c1 26 2a be 70 7a 6a be 06 e2 e8 3e 8f 7f f2 3e
       -0.16616346 -0.22898269 0.45484942 0.47362944
0000e0 4c 0f 3b 3f fa 60 d7 3e 5f a7 2f 3f 91 69 30 be
       0.73070216 0.42066175 0.68614763 -0.1722777
0000f0 4b 67 f9 3e f0 81 27 bf 5f 63 50 3f 38 63 68 3f
       0.4871162 -0.65432644 0.8140163 0.90776396
000100 b0 8f b8 3e aa 52 3f 3f 7a 09 43 bf 7e 5f e1 be
       0.36047125 0.7473551 -0.76186335 -0.44018167
000110 d2 16 30 bf d2 99 1c 3f 71 03 f5 3e 81 8f 69 3f
       -0.6878482 0.6117221 0.47854188 0.91234595
000120 44 55 44 3f 8b 44 89 3f 44 0a 42 bf 82 b2 f9 3e
       0.76692605 1.0724043 -0.75796914 0.48769003
000130 ee 5d ad be ec bc ab 3e 0f 64 58 3f 22 96 19 3f
       -0.33860725 0.33542573 0.8452768 0.5999471
000140 67 37 05 3f a3 df 23 bf fb f8 00 bf 81 42 2b bf
       0.5203766 -0.6401312 -0.50379914 -0.6689835
000150 92 9e ff 3e ba 7d 10 3f 01 a7 ce 3e 5e cb b8 3e
       0.49925667 0.56441844 0.4036179 0.36092657
000160 bd 4f 03 3f dd d5 f5 be 6a ad ff 3e 2b f0 6d be
       0.51293546 -0.48014727 0.49936992 -0.23236148
000170 ee 68 34 3f 75 88 79 3f 5c e9 96 3e e4 0e 4f 3f
       0.7047261 0.9747384 0.29474914 0.80882096
000180 9f e2 5f bf cf 72 2c bf 6f 65 44 bf d5 ba c2 3e
       -0.8745517 -0.67362684 -0.76717275 0.38033167
000190 a9 35 f5 3e bd db 4c 3f f4 42 1a 3f f1 41 7b 3f
       0.47892502 0.80022794 0.6025841 0.98147494
0001a0 cd 54 15 bf a1 d3 ec 3e 95 11 5e be 79 76 27 3f
       -0.5833252 0.4625521 -0.21686395 0.6541515
0001b0 c1 a6 38 3f ed bd 0f 3e 6e b9 f7 3e 27 84 b7 be
       0.72129446 0.14037295 0.4838366 -0.35843012
0001c0 5d 0e 9e be 72 e8 19 bf da 4e fa 3e 31 54 c1 3e
       -0.30870333 -0.6012031 0.48888284 0.37759545
0001d0 b4 29 11 3f 32 48 26 3f 4f 75 22 3f 99 21 a5 be
       0.5670426 0.6495391 0.6346025 -0.32252195
0001e0 46 b2 3d 3f 12 bd 88 bd 66 63 35 3f e6 6f 2f 3f
       0.7410015 -0.06676687 0.70854795 0.6853012
0001f0 80 63 ee 3d 88 a9 28 3f e0 4b 25 bf 76 04 b6 be
       0.11640072 0.65883684 -0.645689 -0.35550278
000200 77 a6 89 be a5 c4 10 3f 61 72 e9 3e ac 1f 25 3f
       -0.26884815 0.56550056 0.45595077 0.6450145
000210 37 86 0f 3f 9d 59 25 3f bc 1a 23 bf 52 c2 8f 3f
       0.5606417 0.64589864 -0.6371267 1.1231177
000220 76 6d 16 bf 34 20 a5 3f 67 0a 74 3f 76 5f 3c 3f
       -0.58760774 1.2900453 0.9532837 0.7358316
000230 eb 89 86 3f 08 5c 82 bf 2b ed 26 bf 2a 35 88 bf
       1.0510839 -1.0184336 -0.6520564 -1.0641224
000240 b1 b4 6e 3f cd 08 63 3f e7 9f a6 3f 1e 84 30 3f
       0.93244463 0.88685304 1.3017548 0.68951595
000250 2e bb 7f 3f a5 d5 88 bf 42 ad 92 3f 79 2d 63 bf
       0.9989499 -1.0690199 1.1459124 -0.8874126
000260 22 2c 81 3f 56 90 a7 3f 9d 61 4c 3f 76 29 7d 3f
       1.0091593 1.3090923 0.79836446 0.9889139
000270 95 82 b1 bf e8 cd a0 bf f6 98 b5 bf d5 71 62 3f
       -1.3867975 -1.2562838 -1.4187305 0.88454944
000280 63 65 37 3f 17 fd 89 3f 5d e3 8a 3f bd c7 ac 3f
       0.7163908 1.0780362 1.0850636 1.3498455
000290 b1 0e a8 bf ca 5a 80 3f 44 ab 02 bf 1f 46 8d 3f
       -1.3129483 1.0027707 -0.5104258 1.1037024
0002a0 5c a9 62 3f 8b 11 44 3f e9 02 71 3f 0b 7d 98 bf
       0.8853967 0.7658927 0.94145066 -1.191316
0002b0 82 1a 5c bf 64 4e 86 bf 48 46 56 3f 02 6c 07 3f
       -0.8597795 -1.0492673 0.8370099 0.5289918
0002c0 81 a8 a5 3f e8 7a 47 3f bf 51 9b 3f df 82 6c bf
       1.2942048 0.77921915 1.2134322 -0.92387193
0002d0 49 6d f9 3e c4 7e 98 be 5a 7c 4f 3f 24 fa 5f 3f
       0.4871619 -0.29784214 0.8104912 0.8749106
0002e0 8d 26 06 3f 3c d2 3f 3f 31 3a 08 bf 10 e5 09 bf
       0.52402574 0.7493017 -0.53213793 -0.53865147
0002f0 bf d5 31 bf 8f 29 07 3f 49 cb d6 3e 4a 6c 63 3f
       -0.69466776 0.5279779 0.4195197 0.8883711
000300 89 45 e8 3e 3d 8d 14 3f c3 05 3d bf fc 31 13 3f
       0.4536555 0.5802801 -0.73836917 0.57498145
000310 35 20 fc be b0 b5 f1 3e f2 49 14 3f b9 eb f5 3e
       -0.49243322 0.4720893 0.5792533 0.48031405
000320 d9 bb 54 3f 4a 0a 2c bf e7 6f 4d bf 96 3c 50 bf
       0.8309913 -0.672032 -0.80248874 -0.81342447
000330 23 eb 0a 3f c0 1b c9 3e a8 0a 04 3f 86 9b 40 3f
       0.5426504 0.39278984 0.5157876 0.7523731
000340 21 03 7a 3f de 36 dc be 34 8f 0b 3f d0 bc 69 be
       0.97661024 -0.4301061 0.54515386 -0.22825933
000350 bd 99 c7 3e db 95 28 3f 3e fd ec 3e 9e 40 02 3f
       0.3898448 0.6585366 0.46286958 0.5087985
000360 29 2f 04 bf c4 f4 1d bf 57 f6 23 bf 51 55 eb 3e
       -0.5163446 -0.6170161 -0.6404776 0.4596353
000370 81 1b 11 3e 11 26 24 3f 87 d3 0e 3f 1e 9e ff 3e
       0.14170648 0.64120585 0.55791515 0.4992532
000380 33 a7 43 bf
       -0.76427

onnx::MatMul_42 f4 [15, 1]
000000 42 ad 37 bf 73 1e 92 3e 36 96 2f bf 3d 2a 55 bf
       -0.71748745 0.28538856 -0.6858858 -0.83267576
000010 89 48 60 bf 36 53 55 bf 40 af 68 3f 23 48 c6 3e
       -0.8761068 -0.83330095 0.9089241 0.3872691
000020 f1 54 16 3f f8 f0 53 bf e9 35 71 bf 52 ae 52 bf
       0.5872336 -0.82789564 -0.94222885 -0.8229724
000030 77 e6 63 bf 42 8f 31 bf 59 59 18 3f
       -0.89023536 -0.6935922 0.59511334
