onnx/myModel_HL4_HD15_349.onnx (onnx, 6087 bytes, 11 tensors)

net.0.bias f4 [15]
000000 98 78 10 c0 0f 35 37 40 9d c7 1d 40 19 99 8c be
       -2.2573605 2.8626134 2.4653084 -0.27460554
000010 aa a2 3c c0 61 7d 9d 3f ca 3b 2b c0 e3 27 1d c0
       -2.9474282 1.2303888 -2.6755242 -2.4555595
000020 06 ef 12 c0 4a 60 0c 40 cd 21 00 40 f6 fd 36 40
       -2.2958388 2.193377 2.002063 2.8592505
000030 4b 8f 59 c0 a8 c6 2c 40 53 d8 3a c0
       -3.399371 2.699625 -2.9194534

net.2.bias f4 [15]
000000 b0 49 ae 3d 44 fc cb be 60 7d 88 3e b6 5b c4 be
       0.085101485 -0.398409 0.26658154 -0.3835122
000010 01 bf 05 be 73 90 54 bd 80 30 27 3d 09 e8 08 be
       -0.13061143 -0.05189557 0.040817738 -0.13369764
000020 21 3b e5 bd 2c 78 ab be d9 de a9 be 94 b1 2b be
       -0.111929186 -0.3349012 -0.33177832 -0.1676696
000030 bb 6f 68 3d 4c a1 37 bf 78 d9 f8 bd
       0.05674718 -0.71730494 -0.12150854

net.4.bias f4 [15]
000000 41 00 bf bf 59 a6 f3 bf 47 4d af bf 28 a6 c4 bf
       -1.4921952 -1.903514 -1.3695458 -1.5363207
000010 d6 50 ce bf c8 01 df bf 71 cb da bf 29 33 a1 bf
       -1.6118419 -1.7422419 -1.7093335 -1.2593738
000020 98 a6 b2 bf 26 a4 f1 bf d3 e5 fc 3f 0a 13 be bf
       -1.395709 -1.8878219 1.9757637 -1.484956
000030 38 a2 c8 bf 8a 9d d9 bf 94 86 db bf
       -1.5674505 -1.7001202 -1.7150445

net.6.bias f4 [15]
000000 98 b9 1f 3e ab 80 97 3f 15 41 16 bf d9 f1 91 bf
       0.15598142 1.1836141 -0.5869306 -1.1401931
000010 f8 37 85 bf 65 1e 65 bf ad d0 3f 3e a1 af c3 be
       -1.0407705 -0.89499503 0.18731947 -0.38219932
000020 80 4e db be a2 68 ed bf 20 7f 21 3f 65 b5 da 3e
       -0.42833328 -1.8547556 0.630846 0.42716518
000030 ce 92 c2 3d 4e 70 03 bf e7 41 e2 3b
       0.09500657 -0.5134324 0.006904829

net.8.bias f4 [15]
000000 ae 55 5a bf 50 f1 31 3e b8 71 73 bf 43 70 9a bf
       -0.85286987 0.1737721 -0.95095396 -1.206551
000010 24 01 26 bf ed 5c 83 bf 73 b9 5b 3f be 48 15 3f
       -0.6484549 -1.0262734 0.8582985 0.5831412
000020 77 51 73 3f 92 82 51 bf 68 ee 2f bf b1 bb 8c bf
       0.9504618 -0.8183986 -0.68723154 -1.0994779
000030 07 22 71 bf b5 7a 90 bf a1 a0 46 3f
       -0.94192547 -1.1287447 0.7758885

onnx::MatMul_37 f4 [2, 15]
000000 ea f5 c7 bd a1 50 13 40 c9 b1 d4 3e 79 6c 4f c0
       -0.09763701 2.3017962 0.4154189 -3.2409956
000010 92 1c a3 3f b8 4b 8a 3f 2c d8 92 3f 51 f0 ca bf
       1.2743094 1.0804358 1.147222 -1.5854589
000020 3c 1d 23 3f 8d 11 b3 be 49 7e 70 3f 63 c7 12 c0
       0.63716483 -0.34974328 0.93942696 -2.2934196
000030 77 e0 40 c0 ee 6d dd 3e 6b 6e 97 3f f6 69 eb 3f
       -3.0137002 0.43247932 1.1830572 1.8391712
000040 bf a1 f0 bf 2b 98 b5 3f 71 65 9a 40 89 3e 8c 3d
       -1.8799361 1.4187063 4.824883 0.06847865
000050 bb 74 7b 3f 1d 86 06 3f 7f aa 05 bf eb be d3 3f
       0.9822499 0.5254839 -0.5221328 1.6542639
000060 7c 1d c0 3f 7f 36 f7 bf bc b9 14 bf e5 b3 87 3f
       1.5008998 -1.9313506 -0.5809591 1.0601774
000070 0a 4e bc 3f b8 7d 5e bf
       1.4711316 -0.8691058

onnx::MatMul_38 f4 [15, 15]
000000 81 2d 9a 3f 5e 3b 06 40 38 3f 91 3f 26 2f d7 3f
       1.2045137 2.0973735 1.1347418 1.6811264
000010 69 8c 8a 3f b3 2c 9a 3f 20 51 ed 3f c1 cb 02 40
       1.08241 1.2044891 1.8540382 2.0436862
000020 a9 85 c5 3f d9 fd b3 3f 26 6c a0 3e e5 de 9c 3f
       1.5431415 1.4061843 0.3133251 1.2255522
000030 f4 fd e6 3f 12 a4 89 3f 90 5c a3 3f b2 15 cd bd
       1.804625 1.0753195 1.2762623 -0.10013904
000040 f4 da 56 bf 40 a9 eb be e9 95 1f bf 49 74 bd bf
       -0.83927846 -0.46027565 -0.6233812 -1.4801112
000050 2c 41 43 bf 7a cb 1c 3f da 83 85 be 11 26 05 3e
       -0.7627132 0.6124798 -0.26077157 0.13002802
000060 18 f1 76 bf 19 70 87 3d a8 ad 2b bf 3a 25 ce 3e
       -0.9646163 0.06613178 -0.67061853 0.40262777
000070 0d 77 22 c0 ad ed 21 bf ee 48 79 bf 67 ed 22 bf
       -2.5385163 -0.6325329 -0.97376907 -0.636435
000080 2d 03 65 bf 26 fd 96 bf d6 fe 41 bf 57 94 5e bf
       -0.8945797 -1.1796005 -0.75779474 -0.869451
000090 4d 48 66 bf 8d 48 21 40 74 4a 27 bf 02 31 09 bf
       -0.8995407 2.5200531 -0.6534798 -0.53590405
0000a0 9c 85 a9 be c8 8e e3 3f 92 07 a3 bf 74 a0 92 be
       -0.33109748 1.7777948 -1.2736685 -0.2863804
0000b0 4d 55 4d bf 14 18 88 bf 32 e4 05 3f 9e 77 80 3e
       -0.80208284 -1.0632348 0.52301323 0.2509126
0000c0 f7 ed 57 bf 7f 9e 43 3f 4d fe 09 bf 69 1f 80 bf
       -0.8434748 0.7641372 -0.5390366 -1.0009586
0000d0 fc e3 66 40 69 8c a8 bf 7c c9 8c 3d 97 5b f0 bf
       3.607665 -1.316785 0.068743676 -1.8777951
0000e0 79 85 b4 3e d4 ae 66 bf ab a3 72 3f d0 d0 5e bf
       0.35258082 -0.90110517 0.9478099 -0.8703737
0000f0 b9 7c af 3f d2 cd c6 3f dc 4c 0f 40 25 f0 c1 3f
       1.3709937 1.5531561 2.2390661 1.5151411
000100 aa 2d f6 3f 3b 83 ca 3f 3d 16 2a 3f b6 08 46 bf
       1.9232686 1.5821298 0.6644018 -0.7735704
000110 ec 8d 6a 3f 23 dc b2 3f cf 0c c3 3f 4b c9 36 bf
       0.91622806 1.397343 1.5238284 -0.714009
000120 b2 b2 77 3f 3c b0 0a 40 08 f3 9e 3f 7c 73 13 bf
       0.9675704 2.1670065 1.2417917 -0.5759809
000130 32 44 a5 be 00 0d e2 be 5d 6b 14 bf 2d e3 e3 bd
       -0.3227859 -0.44150543 -0.57976323 -0.11127315
000140 a0 1c 9a be 8d bb 3f be d4 c4 03 40 71 e9 09 3d
       -0.30099964 -0.18723889 2.0588884 0.033669893
000150 e1 f0 32 bd f6 18 b9 be d2 00 b8 3f 91 ed 1b bf
       -0.04368675 -0.36151856 1.437525 -0.6090937
000160 68 0f cd be 07 73 ea be d1 fb 59 3f b3 01 e1 3f
       -0.40050817 -0.45790884 0.85149866 1.7578644
000170 e5 3d 8f 3f db e8 2b 3f 82 a9 ba 3f 40 c5 84 3f
       1.1190764 0.67152184 1.458298 1.0372696
000180 37 99 57 3f 87 98 b5 3f 48 fc a9 3f 96 ae 98 3f
       0.8421816 1.4187173 1.3280115 1.1928279
000190 3b 8d 32 bf 69 a6 19 3f b0 01 5a 3f 99 b9 e2 3f
       -0.6974675 0.60019547 0.85158825 1.771289
0001a0 bf 3e 4c 3f b2 3d 5b 40 2b 47 06 40 00 c1 5d 40
       0.7978324 3.4256406 2.0980937 3.4649048
0001b0 e4 0b 35 40 55 df 3b 40 c5 b8 3d 40 ec eb 45 3f
       2.8288507 2.935506 2.9644024 0.77313113
0001c0 7a 93 dc bf 2a 13 25 40 94 c3 1a 40 70 70 03 40
       -1.7232506 2.5792947 2.4181871 2.0537376
0001d0 90 0f 7b bf 96 06 3e 40 aa ee 19 40 58 68 19 40
       -0.9807062 2.969152 2.405192 2.3969936
0001e0 dd 8b bd 3f 23 ce 11 40 68 b3 8e 3f 59 32 dd 3f
       1.4808308 2.2782066 1.11485 1.728099
0001f0 a7 03 a5 3f bd ec a7 3f 8c 3d 0f 40 6f e4 d8 3f
       1.289174 1.3119122 2.2381315 1.6944712
000200 7c 08 c5 3f ec 46 cd 3f 45 25 96 3f 0d 52 cc 3f
       1.5393214 1.6037269 1.1730124 1.596254
000210 65 d4 df 3f c2 e6 ae 3f bb 85 a9 3f 38 80 8f bf
       1.7486693 1.3664172 1.3243936 -1.1211004
000220 ed 5d 97 bf 3c 57 a2 bf d7 5f ad bf 94 63 b6 bf
       -1.1825539 -1.2682872 -1.3544873 -1.4249139
000230 80 ee d8 bf cb 1f 9e bf 22 d6 0a 40 24 99 58 bf
       -1.6947784 -1.2353452 2.1693196 -0.84608674
000240 89 22 ab bf 83 62 e5 be b7 11 7d 3f 15 7f 9c bf
       -1.3369914 -0.4480172 0.98855156 -1.2226282
000250 0f fa 7c bf 43 55 b4 bf aa 86 22 bf 58 20 d2 bf
       -0.9881906 -1.408852 -0.6348673 -1.641612
000260 c7 af bf 3e 06 3e 26 bf f4 21 51 3a f8 88 fa be
       0.37438795 -0.6493839 0.00079777767 -0.48932624
000270 1c 1c 35 c0 bb 55 cf be da ed fa bf 8a 13 91 bf
       -2.8298407 -0.40495095 -1.9603837 -1.1334088
000280 f0 b7 98 3e 9c fa c8 be 06 0b 40 bf 23 d4 4f be
       0.29827833 -0.392537 -0.7501682 -0.20295767
000290 0c f2 86 bf a9 ee bc be 7c 55 22 c0 16 ac 07 bf
       -1.0542617 -0.36900833 -2.5364676 -0.5299696
0002a0 c1 48 6d bf 8f 44 28 bf 2d 94 db be ec a2 21 c0
       -0.9268914 -0.6572961 -0.42886487 -2.525569
0002b0 7c 1c cd be 6a 43 08 c0 0e 8f d8 bf 13 53 fa 3e
       -0.40060794 -2.1291146 -1.6918657 0.48891506
0002c0 1e 49 e4 be f6 9e 11 bf 77 97 95 bf 18 64 82 bf
       -0.44587034 -0.5688318 -1.1686848 -1.0186796
0002d0 05 92 49 40 d7 70 f3 3f 8c 14 1e 40 c8 7a 32 40
       3.1495373 1.9018811 2.470004 2.788744
0002e0 47 b5 f8 3f 3f f6 3d 40 88 82 06 3f ea 2f 1a 40
       1.9430321 2.9681547 0.52542925 2.4091744
0002f0 48 e2 13 40 2b be 04 40 e1 59 4b 41 3d e5 0d 3f
       2.310686 2.074107 12.709443 0.55427915
000300 86 65 3a 40 48 be 97 3f 31 5c 40 40 dd c1 cd bf
       2.9124465 1.1854944 3.005627 -1.6074787
000310 f5 0f f8 be b0 83 64 bf 18 a5 95 bf 5e 0b 14 bf
       -0.48449674 -0.8926344 -1.1691008 -0.57829845
000320 d8 9f 96 bf 66 39 52 bf ac e9 38 40 24 19 1b bf
       -1.176753 -0.82118833 2.8892622 -0.60585237
000330 ef 59 5a bf 25 9e 59 bf bd 14 e1 3f 44 ad a9 bf
       -0.8529348 -0.85006934 1.7584454 -1.3256001
000340 be 59 ff be a9 e6 a8 bf a4 6a 26 40 4b 7f 19 40
       -0.49873155 -1.3195392 2.6002588 2.3983943
000350 da 3f 3e 40 a7 c0 25 40 ce 92 34 40 c3 8b 2d 40
       2.9726472 2.5898836 2.8214602 2.7116554
000360 eb d2 25 3f 33 6b e2 bf 38 5d ea 3f c0 49 ff 3f
       0.6477496 -1.7688965 1.8309698 1.9944382
000370 19 ae ce 3f 9c cd da bf 79 91 17 40 62 58 cf 3f
       1.614688 -1.7093997 2.368254 1.6198847
000380 c2 a5 26 40
       2.603867

onnx::MatMul_39 f4 [15, 15]
000000 8b d4 76 3f 23 8d 91 3f 43 5d c6 3f 75 df 14 3f
       0.96418065 1.1371197 1.5497211 0.5815347
000010 4f ce 20 3f 59 25 1d 40 54 67 25 3f d7 1f cd 3e
       0.628148 2.4554045 0.6461079 0.40063354
000020 1e 9a cf 3f 8b 92 9c 3f d9 5f ea bf c5 f7 01 40
       1.6218908 1.2232221 -1.83105 2.0307477
000030 2d cd 22 40 96 59 51 3f 28 ce 86 3f ca 31 a3 3f
       2.543773 0.8177732 1.0531664 1.274957
000040 61 fe e1 3f a1 b4 e9 3f 7f 48 a8 3f 9c ae cd 3f
       1.7655755 1.8258249 1.3147124 1.6068912
000050 7b 7e 28 40 9a 56 e6 3f 9b d0 aa 3f fd 9c e2 3f
       2.6327198 1.7995179 1.3344911 1.7704159
000060 b4 d6 81 3f ba 6d 7f bf a3 d9 88 3f fc f6 a4 3f
       1.0143647 -0.99776804 1.0691417 1.2887874
000070 6a 89 ea 3f 0e 13 98 3f d2 11 a0 3f a4 ca 9f 3f
       1.8323185 1.1880815 1.2505438 1.2483716
000080 72 d4 33 3f 04 e9 b4 3f 11 e4 bb 3f f2 5a d7 3f
       0.7024604 1.4133611 1.4678975 1.6824629
000090 d7 0d 9e 3f 1c 13 94 3f c9 d7 2a 3f 8c 1c ea 3f
       1.2347974 1.1568332 0.6673551 1.8289962
0000a0 e8 aa bc bf 97 e9 99 3e 3b 22 de 3e bd ea a2 3f
       -1.4739656 0.30061027 0.4338549 1.2727886
0000b0 fa 3c aa 3f 57 e0 49 3f 83 35 8b 3f 91 5b 9b 3f
       1.3299859 0.7885794 1.0875705 1.2137319
0000c0 1f 76 8b 3f 8e 8c 53 3f 6b 31 ff 3f df 11 8c 3f
       1.0895423 0.82636344 1.9936956 1.0942954
0000d0 24 6e 20 3f 21 76 86 3f c3 d9 ab 3f 2a 2c a4 bf
       0.6266806 1.05048 1.3425831 -1.2825978
0000e0 d0 07 dd 3f 07 75 d7 3f fa 54 6b 3f b7 54 99 3f
       1.7268009 1.6832589 0.9192654 1.1978978
0000f0 d6 45 ca 3f 27 bc e7 3f b9 1e 90 3e d2 8c ce 3f
       1.5802562 1.8104295 0.2814844 1.6136725
000100 28 f1 b3 3f 16 af ad 3f b2 ce d1 3f fb 41 bd 3f
       1.405797 1.3569057 1.6391203 1.4785761
000110 68 78 d2 3e 82 f8 c0 3f 4d 01 b8 bf d0 e5 fc be
       0.41107488 1.5075839 -1.4375397 -0.49394083
000120 c0 d9 4e be 43 8f e5 3f 30 6b ad 3f 79 29 87 3f
       -0.20200253 1.7934345 1.3548336 1.0559531
000130 41 5f d8 3f 62 12 31 3f a7 85 8b 3f 78 e8 8a 3f
       1.6904069 0.69168675 1.0900162 1.0852194
000140 c5 9b e3 3f e5 76 99 3f 5c d7 37 3f 36 4a 79 3f
       1.7781912 1.1989409 0.7181299 0.9737886
000150 84 ed ef 3f 74 6e 05 c0 94 15 bc 3f 8a 85 b0 3f
       1.8744359 -2.0848665 1.4694085 1.3790753
000160 ca 37 9b 3f 12 08 c6 3f b1 cb 74 be b2 b8 e7 be
       1.21264 1.5471213 -0.23905827 -0.452581
000170 53 42 18 40 d2 24 80 be 02 c4 2d bf 6d f9 3e 40
       2.379048 -0.25028092 -0.6787721 2.9839737
000180 e0 4a 93 be db 0f 0e bf df f6 26 40 bb 7b de bd
       -0.28768063 -0.55492944 2.6088178 -0.108634435
000190 73 5e ea be 9e b0 47 40 17 48 59 40 8e 18 28 bf
       -0.45775184 3.1201549 3.395025 -0.6566247
0001a0 71 a9 64 bc f5 28 e7 bf e2 6f 18 c0 96 95 08 c0
       -0.013956414 -1.8059374 -2.3818288 -2.13413
0001b0 8f 4d f6 bf 18 28 ef bf 74 5f 1f c0 f6 1d 14 c0
       -1.9242419 -1.8684111 -2.490201 -2.3143287
0001c0 46 7e c4 bf 24 b8 05 c0 b4 cc fe bf 84 c0 2a 40
       -1.5351036 -2.089364 -1.990622 2.6680002
0001d0 85 5b ee bf 7f d3 18 c0 36 66 0b c0 bd a6 0b c0
       -1.862168 -2.3879087 -2.1781135 -2.182052
0001e0 ab 3b 8b 3e 2b 46 0c 3a 86 fc f6 3f 13 41 d0 bd
       0.2719396 0.0005351032 1.9295814 -0.10168662
0001f0 bc 22 19 3e e9 74 d1 3f 8c 25 6e bd ab 07 df 3d
       0.14954656 1.6363803 -0.058141276 0.108901344
000200 44 6d e1 3f 50 75 14 3f d1 fb 1a bf 8a 85 26 40
       1.761147 0.57991505 -0.6054049 2.6019006
000210 1a be 24 40 b1 18 9e 3b 3e 1e 07 3f 07 49 4e 3f
       2.5741029 0.004824721 0.5278052 0.8058018
000220 8c a1 b7 3f 33 fe 7a 3f db 54 95 3f 6f c7 97 3f
       1.4346175 0.9804413 1.1666521 1.1857737
000230 49 17 f1 3f 27 63 a2 3f c6 b6 3d 3f 1c 96 97 3f
       1.8835231 1.2686509 0.74107015 1.1842685
000240 b0 10 5d 3f e6 95 8b bf f4 1d 83 3f 86 43 56 3f
       0.8635359 -1.090512 1.0243516 0.8369678
000250 41 09 9c 3f 0b 6c 86 3f a3 38 d1 bf d7 e3 ea bf
       1.2190324 1.0501722 -1.6345409 -1.8350781
000260 32 9d d2 3f 65 14 d5 bf b1 2e ef bf 11 42 bc 3c
       1.6454222 -1.6646849 -1.8686124 0.022980722
000270 c8 c2 c1 bf 8c 53 f4 bf f7 35 02 3f 97 06 c1 bf
       -1.5137568 -1.9087996 0.50863594 -1.5080136
000280 a5 46 8a 3f be a0 6e 40 de 08 5a 40 29 64 e2 bf
       1.0802809 3.728561 3.4067912 -1.7686816
000290 4b 42 ad bf 90 50 c5 bf 6d 07 ce bf 41 e7 b1 bf
       -1.3535856 -1.5415211 -1.6096016 -1.3898698
0002a0 d6 45 c8 bf ac e5 a7 bf 5b 9d ee bf bb 5a d9 bf
       -1.5646312 -1.3116965 -1.8641771 -1.6980814
0002b0 8d c2 66 bf af fc ac bf 39 44 f1 bf 16 c3 09 40
       -0.9014061 -1.3514613 -1.8848945 2.152532
0002c0 95 96 be bf 84 c3 c4 bf ce bf c3 bf 07 11 d3 bf
       -1.4889704 -1.5372167 -1.5292909 -1.6489571
0002d0 1a c9 30 3f 90 ca 17 3f 5b a7 d8 3f 05 b5 1e 3f
       0.69056857 0.5929346 1.6926073 0.61994964
0002e0 65 ad a5 3e 96 43 06 40 6d f6 5c 3f 42 40 f8 3e
       0.32358852 2.097875 0.86313516 0.48486525
0002f0 b2 b0 9b 3f c3 a8 a0 3f 12 c5 bf bf 42 e9 06 40
       1.2163298 1.2551502 -1.4982016 2.107987
000300 85 7c 1d 40 06 59 c3 3e ad cf 4f 3f 81 b5 dc 3f
       2.460725 0.38153857 0.81176263 1.7242891
000310 81 14 01 40 f8 51 30 bf 47 ec ff 3f ad 1e e8 3f
       2.0168765 -0.68875074 1.9993981 1.8134362
000320 a7 3b d4 3e 09 f9 f0 3f 7c b7 c3 3f 85 49 ba be
       0.4145176 1.8826 1.529037 -0.36384216
000330 23 eb be 3f b2 c6 53 bf 93 1e a2 bf ee 68 a6 bf
       1.4915508 -0.8272506 -1.266558 -1.3000772
000340 6c 7d 09 40 eb 0a c1 3f e8 57 53 3f d8 22 68 3f
       2.1482801 1.5081457 0.8255601 0.9067817
000350 3c a0 70 3f 6d 4d 12 3f d2 68 5b 3f 18 24 f1 3f
       0.939945 0.5714939 0.8570682 1.883914
000360 3d 79 84 3f af 54 e5 3e 2e 15 a0 3f 59 f2 ac 3f
       1.0349499 0.4479117 1.2506464 1.3511459
000370 31 61 b0 bf ae 89 b1 3f eb b0 f9 3f e5 60 59 3f
       -1.377966 1.3870142 1.9507116 0.84913474
000380 94 31 67 3f
       0.90310025

onnx::MatMul_40 f4 [15, 15]
000000 58 6e 97 3f 5e 70 98 bf 2b 50 8a 3f f3 20 63 3f
       1.1830549 -1.1909292 1.0805715 0.8872215
000010 7f c1 a3 3f c5 55 8b 3f 66 d4 15 3f 3f f8 a9 3f
       1.2793425 1.088555 0.5852722 1.3278884
000020 c6 4d de 3e a7 f1 9f 3f 18 31 54 bf e8 94 f0 3d
       0.4341871 1.2495621 -0.8288741 0.117471516
000030 9d 1c 38 3f dd 9c 90 3f 28 ca a4 3e 49 6f ec 3f
       0.7191866 1.1297871 0.32185483 1.8471462
000040 73 99 4a bf e4 a9 e0 3f 29 95 d5 3f c6 ec ed 3f
       -0.79140395 1.7551847 1.6686145 1.8587883
000050 1a 63 e5 3f a8 1f 97 3f f8 55 ea 3f c4 b8 87 3f
       1.7920868 1.1806536 1.8307486 1.0603261
000060 a6 60 fe 3f e8 3f 55 be b8 1c f4 3e d2 7d e8 3f
       1.9873245 -0.2082516 0.4767816 1.8163397
000070 52 8d 13 40 79 64 71 3f 15 0d a0 bf e1 4f b6 bf
       2.3055005 0.94293934 -1.2503992 -1.4243127
000080 aa 6c 90 bf 0c e1 8d bf e1 13 a7 bf 16 dd 80 bf
       -1.1283162 -1.1084304 -1.3052942 -1.006747
000090 94 2e d2 bf 5f 34 d0 bf 7d 9c bb bf ca 4e ff be
       -1.6420465 -1.6265982 -1.4657131 -0.498648
0000a0 9e d8 cb bf 6a ff e7 bf d8 40 c0 bf 0f 1a a1 bf
       -1.5925481 -1.8124821 -1.5019789 -1.2586077
0000b0 81 52 e2 bf c0 57 ce 3f 28 06 94 bf 0a 88 b9 3f
       -1.7681428 1.6120529 -1.1564379 1.4494641
0000c0 03 a4 55 3f 7a 95 c0 3f 94 0f a8 3f a1 3e ab 3e
       0.8345339 1.5045617 1.3129754 0.3344622
0000d0 8d 86 ae 3f d4 b4 db 3e 68 2a 94 3f 70 55 ff be
       1.3634812 0.42911398 1.1575441 -0.4986987
0000e0 b4 b0 08 3e 39 c1 86 3f ec 89 c8 3f 4d 3f bc 3e
       0.13348657 1.0527717 1.566709 0.36767045
0000f0 7f ba c8 3f 27 a2 9c bf 30 9b a6 3f e7 b7 67 3f
       1.5681914 -1.2236985 1.301611 0.9051499
000100 95 ca cc 3f 34 01 cd 3f fc 72 00 3f ba 38 c2 3f
       1.5999323 1.6015992 0.5017545 1.5173562
000110 12 61 3a 3f a2 04 b3 3f 8f 9a 5d bf e8 6d d4 3e
       0.7280437 1.3985789 -0.8656396 0.41490102
000120 68 c5 70 3f d0 55 da 3f 61 b4 ff 3e 1b 64 dd bf
       0.9405122 1.7057438 0.49942306 -1.7296175
000130 53 02 4d c0 80 85 ea bf 7c bc 00 c0 c8 32 d9 bf
       -3.2032669 -1.8321991 -2.0115042 -1.6968622
000140 d5 e3 b8 bf 9a fd 12 c0 e4 f6 e8 bf 8e 24 1c c0
       -1.4444529 -2.2967286 -1.8200345 -2.4397311
000150 4f 02 cf bf 09 ae 3d c0 97 d3 35 c0 78 a5 07 c0
       -1.617258 -2.9637473 -2.8410394 -2.1194744
000160 72 94 cf bf e9 b8 0c c0 59 29 cb 3f 79 0f 73 bf
       -1.6217177 -2.198786 1.5871993 -0.94945484
000170 45 cd d0 3f 1e 51 a3 3f d2 50 cf 3f c5 a2 d4 3f
       1.6312643 1.275913 1.6196539 1.6612173
000180 e2 a0 44 3f a2 2f 9f 3f 8d 26 4a 3f a3 a4 e3 3f
       0.7680799 1.2436411 0.78965074 1.7784618
000190 00 a3 e6 be 46 28 a7 3e 31 b5 83 3f 03 8a e7 3f
       -0.45046234 0.32647914 1.028967 1.8088993
0001a0 31 df 8b 3e a7 ad 67 3f 06 41 b2 bf 4e 1f 0a 3f
       0.2731872 0.9049935 -1.3926094 0.5395402
0001b0 24 b7 de 3e b3 d2 5f 3f 27 53 86 3f 85 8e e5 bd
       0.434991 0.87430876 1.0494126 -0.11208824
0001c0 59 cb 26 3f 34 5c 1b bd a6 73 aa 3e 53 65 b6 bf
       0.65154034 -0.03792973 0.33291358 -1.4249672
0001d0 68 07 8e bd 3b 3f b9 3e 6f 01 3d 3f 98 bd 4b 3d
       -0.069350064 0.36181054 0.7383031 0.049741358
0001e0 82 03 90 bf f7 92 db bf 8b 8d 55 bf f1 12 89 bf
       -1.125107 -1.7154225 -0.834191 -1.0708905
0001f0 43 1d 30 bf d2 db 5a bf 40 ad b5 bf f3 80 6d bf
       -0.6879465 -0.8549167 -1.4193497 -0.92774886
000200 83 e2 a9 bf 8e 09 db be 6b 25 db bf 86 b5 e0 bf
       -1.3272251 -0.42780727 -1.7120794 -1.7555397
000210 67 c7 a6 bf 0d 47 57 bf c1 c7 e4 bf 5c 56 d4 3f
       -1.3029603 -0.8409279 -1.787346 1.6588855
000220 83 49 50 bf 5c 2c b4 3f 8e 37 ab 3f 6c 06 a6 3f
       -0.8136217 1.4076037 1.3376329 1.297071
000230 8b 71 98 3f 29 b3 6b 3f 8f f1 c0 3f c4 c4 45 3f
       1.190965 0.9207025 1.5073718 0.77253366
000240 29 1b d7 3f 0d 20 07 bf 86 7c bb 3e ea 0f bb 3f
       1.6805164 -0.5278328 0.3661844 1.4614232
000250 20 7b b3 3f d7 fb 52 3f a1 4b 2b bf 30 2e 27 3f
       1.402195 0.8241553 -0.66912276 0.6530485
000260 e7 31 cb bf ba 50 ec bf e0 05 f4 bf b6 f9 d3 bf
       -1.5874604 -1.8462136 -1.9064293 -1.6560581
000270 fa bd c2 be 19 2c 0a bf 43 79 3e bf 87 f7 6f c0
       -0.38035566 -0.5397354 -0.7440378 -3.7494829
000280 d6 fe 03 3f 97 fe c5 be 4c c9 41 bf 39 bb 71 bf
       0.51560724 -0.386708 -0.7569778 -0.94426304
000290 b1 17 1e bf 1c 5b 55 c0 58 14 e6 be a5 3b 1c c0
       -0.617549 -3.3336859 -0.44937396 -2.4411404
0002a0 46 af 0d c0 f4 8c 19 c0 1f 19 27 c0 01 ae 20 c0
       -2.2138228 -2.399228 -2.6109083 -2.5106204
0002b0 86 d7 36 c0 a5 8a 0a c0 c5 ae 8d bf d4 6a 5f bf
       -2.8569045 -2.1647122 -1.106896 -0.8727238
0002c0 b6 b5 e1 bf 64 14 23 c0 27 70 43 c0 00 d5 0a c0
       -1.7633579 -2.5481195 -3.0537202 -2.1692505
0002d0 e5 7e 71 c0 f6 d4 c4 bf a3 f3 4b c0 0c 2a 2f c0
       -3.77337 -1.537749 -3.1867454 -2.7369413
0002e0 3e a4 2e c0 9a d8 4d c0 91 76 33 c0 e1 04 57 c0
       -2.7287745 -3.2163453 -2.8041117 -3.3596728
0002f0 60 de 43 c0 d0 03 cb bf c2 98 aa bf 9e 77 0c c0
       -3.0604477 -1.5860538 -1.3327868 -2.1948009
000300 a6 53 53 c0 8e 7c 64 c0 61 c6 1d c0 0d cd e5 3f
       -3.3019805 -3.5701022 -2.465233 1.7953202
000310 01 86 63 bf c9 ea ad 3f 4c 20 89 3f c9 51 c0 3f
       -0.8887635 1.3587276 1.0712981 1.5024959
000320 ff d0 c7 3f 5a 49 5a 3f ef 43 c1 3f f7 a3 33 3f
       1.5610656 0.85268176 1.5098857 0.70172065
000330 bd 75 9d 3f 7c 0a ed be 4a 39 67 3e 09 e6 bc 3f
       1.2301556 -0.4629706 0.22580448 1.4757701
000340 33 37 ef 3f 30 a0 03 3f 73 a9 82 3f 1c 6b 89 bf
       1.868872 0.514163 1.0207962 -1.0735812
000350 12 02 b5 3f 00 ce 82 3f be ee a7 3f 35 f2 b0 3f
       1.4141257 1.0219116 1.3119733 1.3823916
000360 46 72 38 3e ab 32 a3 3f b2 62 ab 3e cc c5 bb 3f
       0.18012342 1.2749838 0.33473736 1.4669738
000370 d3 24 4c bf b4 14 a5 3e 67 fd 6d 3f 48 66 c6 3f
       -0.7974369 0.32242358 0.92964786 1.5499964
000380 e0 eb f7 3d
       0.121055365

onnx::MatMul_41 f4 [15, 15]
000000 7c 83 9c 3f c0 a8 15 bf 26 db bb 3f b1 4f eb 3f
       1.2227626 -0.5846062 1.4676254 1.8383695
000010 9f 32 8f 3f 9b 48 a3 3f 29 a5 95 bf 9f 6f 7c bf
       1.1187323 1.2756532 -1.1691028 -0.9860782
000020 8d bf b1 bf a0 d9 95 3f 77 71 a3 3f 26 7a ba 3f
       -1.3886582 1.1707039 1.2769002 1.4568527
000030 41 91 b9 3f 6a 96 e5 3f 81 55 c2 bf 8c e3 d1 3f
       1.4497453 1.7936528 -1.5182344 1.6397567
000040 64 0f cc bf 6f 9a be 3f 00 39 ed 3f 81 cf d8 3f
       -1.5942197 1.4890879 1.853302 1.6938325
000050 27 e9 fa 3f 5c cb f7 bf e1 4b b7 bf c8 ad 06 c0
       1.9602402 -1.9358935 -1.4320031 -2.1043568
000060 1f 5f e3 3f 1e 5f d4 3f 42 99 da 3f c5 a4 c7 3f
       1.7763404 1.6591527 1.707802 1.5597159
000070 b1 13 d2 3f f8 39 e1 bf 1c 57 a0 3f 45 f9 62 be
       1.6412259 -1.7595816 1.2526584 -0.22165401
000080 d5 40 a1 3f ea 3a a7 3f 44 e2 53 3f dc 28 85 3f
       1.259791 1.3064854 0.8276713 1.0403094
000090 4a 54 65 bf 05 7c 50 bf fd c1 61 bf 32 bc 4b 3f
       -0.8958174 -0.8143924 -0.8818663 0.7958404
0000a0 cd c2 2a 3f 5b f6 92 3f 5a 8a 86 3f 82 ec 85 3f
       0.6670349 1.1481432 1.0510972 1.0462801
0000b0 f2 3f 24 bf 36 e3 49 3e e9 59 8c bd 21 a9 55 3e
       -0.6416007 0.1971558 -0.068530865 0.20865299
0000c0 2d 4e 1e 3f ac 36 ac 3e 6a 14 d8 3e f6 cd fa be
       0.61838037 0.3363546 0.42203075 -0.4898526
0000d0 32 2f 9f 3d 7c d5 28 be 70 17 ab 3e 19 5b 8d 3e
       0.07772674 -0.16487688 0.3341632 0.27608564
0000e0 24 46 45 3f 10 7c b3 3e 04 28 2c 3f 88 66 84 bc
       0.7706015 0.3505559 0.6724856 -0.016162172
0000f0 80 bd 33 3f e6 97 19 bf 6c c6 88 3f 5b e2 ae 3f
       0.7021103 -0.59997404 1.0685554 1.3662828
000100 8d f3 f7 3e 1e e0 8c 3f 4a 80 7b bf ca f6 01 bf
       0.48428002 1.1005895 -0.9824263 -0.50767195
000110 54 92 77 bf f1 48 56 3f 8a 96 1d 3f e2 24 a9 3f
       -0.96707654 0.8370505 0.6155783 1.3214381
000120 2d 43 86 3f f0 d8 b4 3f c2 d0 6e bf d0 c9 4c 3f
       1.048925 1.4128704 -0.9328729 0.7999544
000130 db 24 b5 be 78 71 31 3f 8e d4 b5 3f 39 7c 4f 3f
       -0.3537968 0.69313765 1.4205492 0.81048924
000140 45 75 7a 3f 62 14 75 bf ec 46 27 bf f4 18 86 bf
       0.9783519 -0.95734227 -0.65342593 -1.0476365
000150 93 62 51 3f bb 32 4a 3f 6c f4 6b 3f 8b 35 3e 3f
       0.8179104 0.7898366 0.92169833 0.7430045
000160 e8 4c 78 3f 10 e3 3e bf a7 30 a9 3e 28 cd 7e 3d
       0.9699235 -0.7456522 0.3304493 0.06220737
000170 6e 66 0f 3f fd 70 6d 3f 32 5e 93 3d 41 4c 33 3f
       0.5601567 0.9275053 0.07195701 0.7003823
000180 64 41 39 bf f9 d4 e2 be 41 53 25 bf c1 99 51 3e
       -0.72365403 -0.4430311 -0.6458016 0.20468809
000190 e2 83 87 3e 73 51 37 3f 30 c2 eb 3e 71 a0 65 3f
       0.26467806 0.71608657 0.4604659 0.8969794
0001a0 1e 5f cf be e0 60 4c 3f 36 01 83 be c8 4c 85 3f
       -0.40502256 0.7983532 -0.2558686 1.0414057
0001b0 17 63 a8 3f e5 b5 bc 3e f6 24 74 3f 95 b0 33 bf
       1.315524 0.36857525 0.953689 -0.7019132
0001c0 f0 1b f8 be 05 51 80 bf d7 c0 51 3f a3 5c 1f 3f
       -0.48458815 -1.0024725 0.81934875 0.6225073
0001d0 5d 26 8c 3f 3e 2b 86 3f 3c 25 91 3f e9 78 1c bf
       1.0949208 1.0481946 1.1339488 -0.61121994
0001e0 33 3d 0a 3f 14 2b 83 3e 18 7a 08 3f 76 7b 1c 3f
       0.5399963 0.25618804 0.533113 0.61125886
0001f0 7e 14 10 be c8 83 05 3f fa 25 ec be 30 8d bf bd
       -0.14070317 0.5215421 -0.46122724 -0.09353101
000200 8c d9 ef bd 5c 75 b7 3e a1 eb 54 3e d3 a1 08 3f
       -0.11711416 0.35831726 0.2079301 0.53371924
000210 f6 9f c6 3e 79 f6 07 3f 22 3b da be 18 13 85 3f
       0.38793916 0.5311046 -0.4262324 1.0396452
000220 60 fa e2 be 97 0a 9c 3f 89 6e 6f 3f 6a be 1f 3f
       -0.44331646 1.2190732 0.9352804 0.62399924
000230 bd 5f 81 3f ed 83 71 bf bf 03 09 bf e0 6c 81 bf
       1.0107342 -0.9434193 -0.5352134 -1.0111351
000240 c0 de 5a 3f aa d7 47 3f 1d 6f a4 3f 96 ce 1e 3f
       0.8549614 0.7806345 1.2846409 0.62033975
000250 cd 9b 6f 3f 4f b8 7c bf 69 80 a6 3f ed 03 83 bf
       0.9359711 -0.9871873 1.3007938 -1.0235573
000260 95 b7 94 3f b0 94 bc 3f d0 99 72 3f 86 73 93 3f
       1.1618525 1.4732876 0.9476595 1.151963
000270 32 8c c8 bf 95 c5 b5 bf 72 9f cd bf 50 13 85 3f
       -1.5667784 -1.4200922 -1.6064284 1.0396519
000280 3a 8f 5e 3f 32 30 9e 3f 6e db 9e 3f 8e a2 c1 3f
       0.86937296 1.2358458 1.2410715 1.5127733
000290 c4 57 be bf 90 95 49 3f 26 1e 66 be a3 65 66 3f
       -1.4870534 0.7874384 -0.22472438 0.89998835
0002a0 7a b0 3d 3f 22 a7 04 3f 0f 56 43 3f f2 9e 7f bf
       0.74097407 0.51817524 0.7630319 -0.99851906
0002b0 b9 ef 1d bf d8 6f 60 bf 97 31 1e 3f c0 d4 92 3e
       -0.6169391 -0.8767066 0.6179442 0.2867794
0002c0 6d 45 90 3f 6e 08 14 3f d3 01 86 3f 05 a8 36 bf
       1.1271187 0.5782536 1.0469307 -0.7135013
0002d0 cf 06 1b 3f 5b 77 30 be f9 4e 79 3f 6a 3c 9b 3f
       0.60557264 -0.1723303 0.9738613 1.2127812
0002e0 7b b3 0c 3f 8a aa 7a 3f e3 bf 29 bf 11 26 07 bf
       0.54961365 0.9791647 -0.6630842 -0.5279246
0002f0 d0 1a 60 bf fc 9a 23 3f 39 ac eb 3e bc 3e 95 3f
       -0.8754091 0.6390836 0.46029833 1.165977
000300 fd d7 1f 3f 43 d8 57 3f 0a 77 52 bf 63 8b 9a 3f
       0.62438947 0.84314364 -0.8221289 1.2073787
000310 ef 25 4e bf 77 b6 93 3f 9e e2 bd 3f 59 76 80 3f
       -0.8052663 1.1540059 1.4834783 1.0036117
000320 50 33 ce 3f 7b 47 a7 bf bf 45 a1 bf 2c 3e c1 bf
       1.6109409 -1.3068689 -1.259941 -1.5097098
000330 85 a8 96 3f c9 a4 6e 3f 00 d1 ad 3f ce 2a ba 3f
       1.1770178 0.9322019 1.3579407 1.4544313
000340 4f 14 e2 3f f9 15 81 bf 80 bd af 3e 9f e4 95 3d
       1.7662448 -1.008483 0.34324265 0.07318997
000350 1a e1 54 3e e3 2f 0f 3f 3d 65 5c 3e 93 57 b7 3e
       0.20788994 0.55932444 0.21522994 0.35809
000360 9b e9 aa be 0b be bc be b0 23 f8 be 08 fd 80 3e
       -0.33381352 -0.3686374 -0.48464727 0.25193048
000370 7a ac c9 bd 5e 8f 02 3f b6 a4 c1 3e 75 ea bc 3e
       -0.098473504 0.5100001 0.37820977 0.36897627
000380 b4 17 0f bf
       -0.55895543

onnx::MatMul_42 f4 [15, 1]
000000 5e 55 4f bf 50 03 8e 3e ad c8 4a bf b1 b5 80 bf
       -0.80989635 0.27736902 -0.79212457 -1.0055448
000010 03 cf 72 bf 69 68 75 bf e5 54 6d 3f 17 b2 c9 3e
       -0.94847125 -0.9586244 0.92707664 0.39393684
000020 76 07 1e 3f 5f f2 6a bf 2c 75 82 bf 54 27 74 bf
       0.61730134 -0.9177608 -1.0192008 -0.9537251
000030 ab bf 80 bf df 8b 59 bf 3a 72 1c 3f
       -1.0058492 -0.8497905 0.61111796
