onnx/myModel_HL2_HD15_849.onnx (onnx, 3508 bytes, 7 tensors)

net.0.bias f4 [15]
0	0xc04ce48c	-3.2014494
1	0xc056f78a	-3.3588586
2	0xc0767206	-3.8507094
3	0xc062a17c	-3.5411062
4	0x409239e3	4.5695662
5	0x40896b2c	4.2943325
6	0x3f952763	1.1652645
7	0x4081a488	4.0513344
8	0x409b51e3	4.853746
9	0xc06e7bd6	-3.7263083
10	0xbe46bf4b	-0.1940891
11	0x406ae506	3.6702285
12	0x3fb20ae7	1.3909577
13	0x407b55b8	3.9271069
14	0xc08962a4	-4.293291

net.2.bias f4 [15]
0	0xbb9dd462	-0.004816578
1	0xbe9962ae	-0.299581
2	0x3d8bd977	0.068285875
3	0x3ec73929	0.38910797
4	0x3ccfa83c	0.025348775
5	0x3e7b86b1	0.245631
6	0x3f471712	0.7776958
7	0x3ddf4004	0.10900882
8	0xbe89ee58	-0.26939654
9	0x3f6ef095	0.9333585
10	0x3f35650a	0.708573
11	0xbe8c88db	-0.27448162
12	0xbdb6d44b	-0.089272104
13	0x3f1ef7a3	0.62096614
14	0x3e67c2d0	0.22632909

net.4.bias f4 [15]
0	0x3f0f5f60	0.56004906
1	0x3edb44ac	0.4282583
2	0x3f6de82e	0.92932403
3	0xc03fc2f3	-2.9962738
4	0x3f91d38d	1.1392685
5	0x3eff95d7	0.49919006
6	0x3f3bc9a7	0.7335457
7	0xbe91f048	-0.28503633
8	0x3d521cfd	0.051297177
9	0xbf3c7a9a	-0.73624575
10	0xbffa5706	-1.9557807
11	0x3ee1ec0b	0.441254
12	0x3f4109d8	0.75405645
13	0x3ed467be	0.414854
14	0x3f515a74	0.81778646

onnx::MatMul_25 f4 [2, 15]
0	0x3fca51e9	1.5806247
1	0x3f1d13a9	0.61358124
2	0x3fa7829a	1.3086731
3	0xbf533643	-0.8250467
4	0x4059d9ef	3.4039266
5	0xbde6b4de	-0.112649664
6	0x3e717383	0.2357922
7	0x3e604102	0.21899799
8	0x40362bae	2.846416
9	0xc0146abc	-2.3190145
10	0xc0856d44	-4.169588
11	0xc0301488	-2.7512531
12	0x4085e0be	4.1836843
13	0x3fa58c52	1.2933447
14	0xc0a55ad0	-5.1673355
15	0x3f47d572	0.78060067
16	0x3fd57a9e	1.6678045
17	0xbf9244b4	-1.1427217
18	0x4006d6a3	2.1068504
19	0x3f48cf8d	0.784417
20	0x40115260	2.2706528
21	0xbf194a07	-0.5987858
22	0x4011c6b4	2.2777529
23	0x40024e8a	2.0360436
24	0x3f5c0078	0.85938215
25	0x40aedc32	5.4643793
26	0x3ee0d592	0.4391294
27	0xc023d8f5	-2.560117
28	0x3fe19b79	1.7625571
29	0x3ffb061f	1.9611243

onnx::MatMul_26 f4 [15, 15]
0	0x4052e1dc	3.2950354
1	0x404068de	3.0064006
2	0x4085e1e9	4.183827
3	0x4004d3a8	2.0754185
4	0x406a4f4b	3.6610897
5	0x402ce531	2.7014887
6	0x406ce4ab	3.7014568
7	0x3f91ffba	1.1406167
8	0x4033c8e3	2.8091362
9	0x401608b7	2.344282
10	0x3e0475bd	0.12935539
11	0x3f7f968d	0.998391
12	0x3f190649	0.59775215
13	0x4081c680	4.055481
14	0x40609a8f	3.5094335
15	0x404ef398	3.2336178
16	0x40902631	4.504662
17	0x4059d472	3.4035916
18	0x3ffbb16e	1.9663522
19	0x40544242	3.316544
20	0x4002f347	2.0460985
21	0x40361641	2.8451083
22	0x3f92f62d	1.1481377
23	0x40459cdc	3.087699
24	0x40842b18	4.1302605
25	0xbe40b4c2	-0.18818954
26	0x3f13f107	0.57789654
27	0x401537c5	2.331529
28	0x407803d4	3.8752337
29	0x4033138a	2.7980676
30	0x40288da8	2.633646
31	0x3ffa9086	1.9575355
32	0x40919316	4.549205
33	0x3f8e812a	1.1133168
34	0x4062b8d4	3.542531
35	0x4061fab9	3.530928
36	0x404aa7ea	3.1664987
37	0xbf3847b8	-0.71984434
38	0x3f55d2de	0.8352488
39	0x409cf968	4.905445
40	0x3fe0cf9c	1.7563357
41	0x400a1b82	2.157929
42	0x3fb5a54a	1.4191067
43	0x40c32e4a	6.0994005
44	0x402ace84	2.6688547
45	0x3f889a59	1.0672103
46	0x3f53e548	0.8277173
47	0x4016b6f6	2.354917
48	0x3f9b8835	1.2150942
49	0x400e7fe8	2.2265568
50	0x4031a94a	2.7759576
51	0x3f02ddc8	0.5111966
52	0x40115fd0	2.271473
53	0x3fe1a575	1.7628618
54	0x40b180ad	5.5469575
55	0x3ffa826c	1.9571052
56	0xbe96b4d7	-0.29434845
57	0x4048edf7	3.1395242
58	0x40847fb8	4.1405907
59	0xbf723a64	-0.9462035
60	0xbf94ab62	-1.1614802
61	0xbe2ba048	-0.16760361
62	0xbfcda97e	-1.606735
63	0xbdeeb342	-0.116552845
64	0xbf95ed28	-1.1712999
65	0xbf60d443	-0.87823886
66	0xbf7b15f3	-0.98080367
67	0xbfacf6cc	-1.3512816
68	0xbf1d0441	-0.61334616
69	0xc007bfea	-2.1210885
70	0xbfa4ffdf	-1.2890586
71	0x3f5e6daa	0.86886084
72	0xbf25c58c	-0.6475456
73	0xbfca50a0	-1.5805855
74	0xbf7dd237	-0.9914889
75	0xbfb48188	-1.410203
76	0xbf7f5213	-0.9973461
77	0xbfc46bf2	-1.5345442
78	0xbfb31b8e	-1.3992784
79	0xbf9bb71a	-1.2165253
80	0xbfb39f18	-1.4032927
81	0xc02ae206	-2.6700454
82	0xbf0697c0	-0.525753
83	0xbf8349d7	-1.0256909
84	0xc06888a3	-3.6333396
85	0xbff02f2b	-1.8764395
86	0xbe868075	-0.2626988
87	0xbf88141e	-1.0631139
88	0xbff8a993	-1.942675
89	0xbfab049a	-1.3360779
90	0xbf5290e2	-0.82252324
91	0xbf63dcb1	-0.89008623
92	0xbe2b9aa1	-0.16758205
93	0x3af98841	0.0019037799
94	0xbe81fb01	-0.25386813
95	0xbe1f2447	-0.15541182
96	0x3f1b83c1	0.60747916
97	0xbe199ed7	-0.15001999
98	0xbf63b726	-0.8895134
99	0x3e24b8a9	0.16086067
100	0x3ee3e7bf	0.44512746
101	0xbc5f51ec	-0.013630372
102	0xbf1cd996	-0.6126951
103	0x3f8be358	1.0928755
104	0x3de3fed8	0.11132592
105	0xbfa3e7b6	-1.2805088
106	0xbf0cf16f	-0.550559
107	0xbf947de3	-1.1600918
108	0xbf8c6f88	-1.0971537
109	0xbfb728bb	-1.4309305
110	0xbf83e0d0	-1.0302982
111	0xc022e93e	-2.545486
112	0xbd6233cc	-0.05522518
113	0xbf2e2fac	-0.6804149
114	0xc048b1ea	-3.135859
115	0xc00a6424	-2.162362
116	0xbe101790	-0.14071488
117	0xbf53dcbb	-0.8275868
118	0xbfc4141d	-1.5318638
119	0xbf88eeee	-1.0697916
120	0xbf83df08	-1.0302439
121	0xbef347a5	-0.47515598
122	0xbff5d951	-1.9206945
123	0xbf207be2	-0.6268903
124	0xbf9a8b6f	-1.2073802
125	0xbf9546f4	-1.1662278
126	0xbfdfeaa9	-1.7493488
127	0xbf9434fe	-1.1578672
128	0xbf3824d2	-0.71931183
129	0xbfee7a3a	-1.863105
130	0xbfda6df9	-1.7064811
131	0x3e77d63e	0.2420282
132	0xbf2db4d1	-0.6785403
133	0xbff9dda3	-1.9520763
134	0xbf95db9a	-1.1707642
135	0x40a98f4c	5.2987423
136	0xbfc36b7f	-1.526718
137	0x40b717cb	5.7216544
138	0xbefcfc1a	-0.49411088
139	0x40b35bc9	5.6049542
140	0x40b2f3db	5.5922675
141	0x403fc25a	2.9962373
142	0xbfea5336	-1.8306644
143	0x407c4ed6	3.9423118
144	0x40eceb31	7.40371
145	0x4020cb51	2.5124094
146	0xc0ae740f	-5.4516673
147	0x4022b324	2.5421839
148	0x40b0fa4f	5.5305552
149	0x3fd43c25	1.6580855
150	0xbe0bd067	-0.13653718
151	0x3fd1fcc7	1.6405267
152	0xc0153123	-2.331124
153	0xbf802175	-1.001021
154	0xbf667f68	-0.90038157
155	0xbda5b373	-0.08090868
156	0xbe67f853	-0.22653322
157	0xbbda3e06	-0.006660226
158	0x3f81db42	1.0145037
159	0xbe99ee9c	-0.30064857
160	0x3e8f85d0	0.28031778
161	0xc0175afe	-2.3649287
162	0x3e3b56e2	0.18294862
163	0xc006242a	-2.0959573
164	0x3fbdc437	1.4825505
165	0xc02fb8f6	-2.7456641
166	0xc01b5343	-2.426957
167	0xbffbfec3	-1.9687122
168	0x3ef20bb3	0.4727455
169	0xc01d7ef5	-2.4608738
170	0xbf3e495c	-0.7433069
171	0xbe1eb4d6	-0.15498671
172	0x3fc8d323	1.5689434
173	0xbfd4335b	-1.6578172
174	0x3d73b9d5	0.059503395
175	0x3ebaa068	0.36450505
176	0x3ca695e2	0.020335142
177	0xbd4e8c6e	-0.050426893
178	0x3f3b368a	0.73130095
179	0xc01ebde1	-2.4803393
180	0xbe73e173	-0.23816471
181	0x3ec17d2f	0.3779082
182	0x3ea9f93b	0.3319796
183	0x3f29a36b	0.6626498
184	0xbec76f75	-0.38952222
185	0xbf5aa445	-0.85406905
186	0x3f6973b9	0.91192204
187	0x3f1e12b1	0.6174727
188	0xbf8cadd9	-1.0990554
189	0x3f022fcd	0.5085419
190	0x3f9b4fd5	1.2133738
191	0x401797a8	2.3686314
192	0xc01832a3	-2.3780906
193	0x3ffe2f27	1.985814
194	0x3e50b894	0.20382911
195	0xbf9898ac	-1.1921592
196	0xbf0f78de	-0.56043804
197	0xc0074f97	-2.1142328
198	0xbf0bec00	-0.5465698
199	0xbff0ab8a	-1.880235
200	0xbfa9eef7	-1.3276051
201	0xc006f0d7	-2.1084497
202	0xbf483877	-0.7821116
203	0xbf8920f1	-1.0713178
204	0xc07acc01	-3.9187014
205	0xc012f144	-2.2959757
206	0x3f0b270f	0.54356474
207	0xbf9fd203	-1.2485965
208	0xbfdfe5de	-1.7492025
209	0xbfc3a728	-1.5285387
210	0xbf95876a	-1.168195
211	0xc0749f17	-3.82221
212	0xbefd8d4d	-0.49521866
213	0xbfb997a3	-1.4499401
214	0xbfb401c0	-1.4063034
215	0xbf73e9b6	-0.9527849
216	0x3ea91207	0.33021566
217	0xc02e7027	-2.7255952
218	0xc05bbd56	-3.4334311
219	0x3f790858	0.97278357
220	0x3e00663d	0.12539001
221	0x3ff98b7f	1.9495696
222	0xc0139f99	-2.306616
223	0x408a611a	4.324353
224	0xc00b78ab	-2.17924

onnx::MatMul_27 f4 [15, 15]
0	0x3a3a3bf8	0.0007104273
1	0x3e1395f3	0.1441267
2	0x3ea4f8a6	0.32220954
3	0x40acc3c7	5.3988986
4	0xbe60a196	-0.2193664
5	0xbdb03b0c	-0.08605012
6	0x3e39e911	0.18155314
7	0x3e15a85f	0.1461501
8	0x3ec14942	0.37751204
9	0xbeb09f3c	-0.34496486
10	0x3f280776	0.65636384
11	0x3ea147b6	0.31500024
12	0xbd2aa962	-0.041665442
13	0x3e46d968	0.19418871
14	0xbd9cedb5	-0.076625265
15	0xbf9ecb38	-1.2405767
16	0xbf16c3bc	-0.58892417
17	0xbf6d6230	-0.9272795
18	0xbd3a7a45	-0.04552676
19	0xbfb99f3b	-1.4501718
20	0xbf895bfc	-1.0731196
21	0xbf1b1e61	-0.6059323
22	0x3e0b1726	0.13583049
23	0x3e1d97c9	0.15389933
24	0x3ffa1565	1.9537779
25	0x4016edde	2.3582683
26	0xbf6e1a39	-0.9300876
27	0xbfa00444	-1.2501302
28	0xbf8f6b21	-1.1204568
29	0xbfd4d47b	-1.6627344
30	0x3f906628	1.1281176
31	0x3f9a7669	1.2067386
32	0x3fcdea58	1.6087141
33	0x411fa67e	9.9781475
34	0x3fc08712	1.504122
35	0x3f2e20e6	0.6801895
36	0x3fe63016	1.7983425
37	0x3f7f927d	0.998329
38	0x3f8f598e	1.1199205
39	0xbf1544b4	-0.5830796
40	0xbeca1ad0	-0.3947358
41	0x3f42199b	0.7582032
42	0x3fcc3b4a	1.5955594
43	0x3f82e1dd	1.0225178
44	0x3f51c2f1	0.8193808
45	0xbf3ef493	-0.7459194
46	0xbf2dfc49	-0.6796308
47	0xbfa115bf	-1.2584761
48	0xbfa88cc4	-1.3167958
49	0xbfaad8b5	-1.3347384
50	0xbf5fd2b9	-0.8743091
51	0xbf8f26ad	-1.1183678
52	0xbf1b215b	-0.6059777
53	0xbf9d75c2	-1.2301562
54	0x3f83c96d	1.0295845
55	0x3fe34dc9	1.7758113
56	0xbf53e89b	-0.827768
57	0xbfa621ad	-1.2979027
58	0xbf6bfec0	-0.9218559
59	0xbf9fe4b2	-1.2491667
60	0x3d82a8f9	0.06379885
61	0xbcf5a734	-0.029986955
62	0x3e253cd7	0.1613649
63	0x40df6a7a	6.9817476
64	0xbcc98a77	-0.024602158
65	0xbd19814f	-0.037476834
66	0x3db3c709	0.08778197
67	0x3e2369af	0.15958284
68	0x3ec7864e	0.38969654
69	0xbc68fc9c	-0.014220383
70	0x3f54675e	0.82970226
71	0xbe8a7695	-0.27043596
72	0x3e053e09	0.13011946
73	0xbd19a3ca	-0.037509717
74	0x3d247ee0	0.04016006
75	0x3f85317a	1.0405724
76	0x3fa4109a	1.2817566
77	0x3f9e1c41	1.2352372
78	0x40a520fb	5.160276
79	0x3f7eee41	0.99582297
80	0x3f821feb	1.016599
81	0x3f7d1c11	0.9887095
82	0x3f87e268	1.0615969
83	0x3fc184d9	1.5118667
84	0xbf05db28	-0.5228753
85	0xbea519f3	-0.3224636
86	0x3f43de12	0.7651073
87	0x3f905734	1.1276612
88	0x3f61d441	0.882145
89	0x3f3ba3e9	0.7329698
90	0x3f18b91e	0.59657466
91	0x3dafbe89	0.085812636
92	0xbe8dc8f3	-0.27692375
93	0x40c0e154	6.027506
94	0x3efd86f5	0.49517027
95	0x3f2097f6	0.62731874
96	0xbee0566c	-0.43815935
97	0xbf0b2f1f	-0.54368776
98	0xbf5cd4a2	-0.8626195
99	0xbf7beb22	-0.9840566
100	0xbf061e25	-0.52389747
101	0x3f2007aa	0.62511694
102	0x3eadac37	0.33920452
103	0x3f1e4481	0.6182328
104	0x3f1f2153	0.62160224
105	0xbf48572b	-0.7825801
106	0xbf439bf9	-0.7640987
107	0xbf35f6bf	-0.7107963
108	0xbe6865a5	-0.22695024
109	0xbfbdeab3	-1.483725
110	0xbf3be581	-0.7339707
111	0xbf8b4c0a	-1.088258
112	0xbdfee212	-0.12445463
113	0xbcd2a5b3	-0.025713777
114	0x3f82b66b	1.021192
115	0x3f91e598	1.1398191
116	0xbf62734d	-0.88457185
117	0xbf9088aa	-1.1291707
118	0xbf6cc471	-0.92487246
119	0xbf75dd5b	-0.96040887
120	0x3ee1d86f	0.44110438
121	0x3f8815ca	1.063165
122	0x3fabc9a3	1.342091
123	0x4081172b	4.034078
124	0xbdc0c3b3	-0.09412327
125	0x3ef23292	0.47304207
126	0x3f8fd72f	1.1237544
127	0x3feea019	1.8642608
128	0x4021af79	2.526335
129	0x3e0c7b4d	0.1371891
130	0x3f19ff0b	0.6015479
131	0x3f036c9f	0.5133762
132	0x3eda5488	0.42642617
133	0x3f15c929	0.5851007
134	0x3e0139bf	0.12619685
135	0xbfc06e51	-1.5033666
136	0xc00247fa	-2.035643
137	0xc00ec600	-2.230835
138	0x4069d478	3.653593
139	0xbf9277a6	-1.1442764
140	0xbfa42180	-1.2822723
141	0xbfe936a2	-1.8219798
142	0xc00505fc	-2.0784903
143	0xc00f9b78	-2.243864
144	0x3eb9b5ba	0.3627146
145	0x3d8ace6c	0.06777653
146	0xbf901a28	-1.1257982
147	0xbfb8494b	-1.4397367
148	0xbfa050e9	-1.2524692
149	0xbf6405db	-0.89071435
150	0x3fd2d0fe	1.6470029
151	0x3fea6e77	1.8314961
152	0x3f8faf6e	1.1225412
153	0x403976c5	2.897874
154	0x3f05f297	0.5232329
155	0x3ff5f32b	1.9214834
156	0x3eba2a70	0.36360502
157	0x3f81f4db	1.0152849
158	0x3e1e4a30	0.15457988
159	0xbfbe13bf	-1.4849776
160	0xbec8721e	-0.39149565
161	0x401c8229	2.4454443
162	0x3fe4042f	1.7813777
163	0x3ffe4fe3	1.986813
164	0x3fdf0389	1.7422954
165	0x3e9f2a53	0.31086978
166	0x3d6e0213	0.058107447
167	0x3ed10ff1	0.40832475
168	0xc07ed7f0	-3.9819298
169	0x3f8fd067	1.1235474
170	0x3e6c01e5	0.23047598
171	0x3eb83861	0.35980514
172	0xbf378b61	-0.7169705
173	0xbf6ea6a0	-0.93223
174	0xbf6fe882	-0.93714154
175	0xc008f961	-2.1402209
176	0x3e006e84	0.12542158
177	0x3ebe1aeb	0.37129912
178	0x3e93c5a8	0.28861737
179	0x3f57e476	0.8433298
180	0x3fc3be3b	1.5292429
181	0x3f9af0dd	1.2104756
182	0x3fca1f7c	1.5790858
183	0x408303aa	4.0941973
184	0x3fad78c6	1.3552482
185	0x3fd5271e	1.6652563
186	0x3fa072c9	1.253503
187	0x3fea7a14	1.8318505
188	0x3fd1ca80	1.6389923
189	0xbfc22c1b	-1.516971
190	0xbff6c066	-1.9277465
191	0x3fae0633	1.3595642
192	0x3f978ddf	1.1840171
193	0x3f923e93	1.1425346
194	0x3fc83308	1.5640574
195	0xc06a8c22	-3.664803
196	0xc05f79fd	-3.4918206
197	0xc08c16f1	-4.3778005
198	0xc0a83807	-5.2568393
199	0xc097aa9f	-4.739578
200	0xc05fde57	-3.4979455
201	0xc08694dc	-4.2056713
202	0xc059e6fc	-3.4047232
203	0xc08b6672	-4.3562555
204	0x4086f53c	4.217436
205	0x40ba8bc0	5.8295593
206	0xc0413433	-3.018811
207	0xc076141e	-3.8449779
208	0xc059af7a	-3.4013352
209	0xc088847e	-4.2661734
210	0x3fd90559	1.6954757
211	0x3ff2cc1f	1.8968543
212	0x3fef099b	1.8674806
213	0x4073c227	3.808725
214	0x3fab9ec7	1.340783
215	0x3fe8facf	1.8201541
216	0x400a399e	2.1597667
217	0x4010a504	2.2600718
218	0x402e8915	2.7271168
219	0xbf3bf98c	-0.73427653
220	0x3f2254de	0.6341075
221	0x3ffd951d	1.9811131
222	0x3fa8d37c	1.318954
223	0x3fd50d40	1.6644669
224	0x3fc0a04e	1.5048921

onnx::MatMul_28 f4 [15, 1]
0	0xc03778df	-2.8667524
1	0xc02ce642	-2.7015538
2	0xc0700517	-3.7503107
3	0xc0eb0e89	-7.3455243
4	0xc08a205c	-4.31645
5	0xc036a3b8	-2.8537426
6	0xc055a901	-3.3384402
7	0xc03142a5	-2.7696927
8	0xc07ada5c	-3.9195776
9	0x3f1fac8d	0.62372667
10	0x3f9c7329	1.2222644
11	0xc0140894	-2.3130236
12	0xc03052dc	-2.7550573
13	0xc01fbefc	-2.4960318
14	0xc06dcda5	-3.7156765
