onnx/myModel_HL3_HD15_949.onnx (onnx, 4793 bytes, 9 tensors)

net.0.bias f4 [15]
0	0xc02de3ca	-2.7170281
1	0xc018f63c	-2.390029
2	0xc012074d	-2.2816956
3	0xc04ee9de	-3.2330241
4	0x405b8838	3.4301891
5	0xc054dd3e	-3.3260036
6	0x40330b5c	2.7975683
7	0x402292b2	2.5402036
8	0x3ec30b46	0.38094538
9	0xc03a25e7	-2.9085634
10	0x401275e3	2.2884452
11	0xc021d132	-2.5283933
12	0x4029ca4f	2.652973
13	0x4047beca	3.1210198
14	0x40353ce1	2.8318408

net.2.bias f4 [15]
0	0xbe5e6c26	-0.21720943
1	0xbed5dbc3	-0.41769227
2	0x3ee16a65	0.44026485
3	0x3e86d1c8	0.26331925
4	0xbe037a9a	-0.12839738
5	0x3e81a3e2	0.25320345
6	0xbfbb41f4	-1.4629502
7	0x3e917e48	0.28416657
8	0x3f11199a	0.5667969
9	0x3f2e16e4	0.6800368
10	0x3f87afcc	1.0600524
11	0x3f0c5ba4	0.5482733
12	0xbf1b903a	-0.6076695
13	0x3f0359e4	0.5130904
14	0xbee1b52a	-0.4408353

net.4.bias f4 [15]
0	0xbf7f8f1b	-0.99827737
1	0xbe368a15	-0.17826112
2	0xbf182edb	-0.59446496
3	0xbec8839d	-0.39162913
4	0xbfae5468	-1.3619509
5	0xbc7843da	-0.015152896
6	0xbfc0a0b2	-1.504904
7	0xbfd52377	-1.6651448
8	0xbf484e53	-0.78244513
9	0xbf2a0a4b	-0.66421956
10	0xbf6f62cb	-0.9351012
11	0xbf8f15ad	-1.117849
12	0xbe260000	-0.16210938
13	0xbee44854	-0.44586432
14	0x3c84247f	0.016130684

net.6.bias f4 [15]
0	0xbb268371	-0.0025407935
1	0x3c745e4d	0.014915061
2	0xbeacb0fa	-0.33728772
3	0xbde624c1	-0.11237479
4	0xbf87f6ca	-1.0622189
5	0x3ec68348	0.38772035
6	0xbdfd7d44	-0.12377408
7	0xbc5e7ea0	-0.013579994
8	0xbf8db46d	-1.1070687
9	0x3ef1e8d1	0.47247937
10	0x3e06f244	0.13178355
11	0xbf685289	-0.9075094
12	0xbd59fe59	-0.05322108
13	0xbe948466	-0.29007262
14	0xbfd37213	-1.6519188

onnx::MatMul_31 f4 [2, 15]
0	0xbf427b12	-0.7596904
1	0xbfcb1292	-1.5865042
2	0x3e9d74e5	0.30753246
3	0x3fa8e459	1.3194686
4	0x40811ec7	4.035007
5	0xc0065353	-2.0988357
6	0xc061ea09	-3.5299094
7	0xc0319434	-2.7746706
8	0xc081d992	-4.057809
9	0xc02eabb9	-2.729231
10	0x3fc4b0ee	1.5366495
11	0x3f4eb5b7	0.80746025
12	0xbf620052	-0.8828174
13	0x3ef2b3e4	0.4740287
14	0x3da8afdb	0.08236667
15	0x3fd3b2a6	1.6538894
16	0xbeba1562	-0.3634444
17	0x3fcd19b2	1.6023467
18	0xbdc86ec3	-0.09786751
19	0xc051ab59	-3.2760832
20	0x3f86822e	1.0508478
21	0xbd7f54ea	-0.06233684
22	0x3f6a9675	0.9163583
23	0x409e7eaa	4.952962
24	0x3f69f371	0.9138709
25	0x3fb47a92	1.4099905
26	0x3f37f7e5	0.7186263
27	0x3fb84ca8	1.4398394
28	0x3fa9c5c0	1.3263474
29	0x3fc70815	1.5549341

onnx::MatMul_32 f4 [15, 15]
0	0xbe65c74c	-0.22439307
1	0xbfa2119f	-1.2661628
2	0x3fa9a2fe	1.3252866
3	0x3f0bcab7	0.54606193
4	0x40498349	3.148638
5	0x3e7f313e	0.24921128
6	0x3fcfc4a2	1.6231883
7	0x403f00a5	2.9844143
8	0x3f8e53bd	1.1119305
9	0x3fb37df7	1.4022816
10	0x3e9003c2	0.28127867
11	0x40439e53	3.0565383
12	0xbf85a0f7	-1.0439748
13	0x402b0361	2.6720812
14	0xbf1fd905	-0.6244052
15	0xbf8c1839	-1.0944892
16	0xbfccfb2a	-1.6014149
17	0x3fdec422	1.7403605
18	0x3f27bead	0.65525323
19	0x3fb0e599	1.3820068
20	0x3fd9aa7f	1.7005156
21	0xc007fb2f	-2.124706
22	0x3f9c5480	1.2213287
23	0x403d6a71	2.9596217
24	0x4007b94c	2.1206846
25	0x400e2ff3	2.2216766
26	0x40093249	2.1436942
27	0xc0494e56	-3.1454062
28	0x4019daab	2.4039714
29	0x40ab9941	5.3624578
30	0xbebfb2c8	-0.37441087
31	0xc0103e9a	-2.253821
32	0x4060bd83	3.5115669
33	0x40052558	2.0804043
34	0x400233ed	2.0344193
35	0x400cf642	2.2025304
36	0x3fb8645a	1.4405625
37	0x3fe79d40	1.8094864
38	0x3fc8e2ce	1.5694215
39	0x3f9f7b9c	1.2459598
40	0x3fc90d83	1.5707248
41	0x4003c721	2.0590289
42	0xbfb3b07c	-1.4038234
43	0x3fd1d846	1.6394126
44	0x3d0a3ba0	0.03374827
45	0x400173a9	2.0226843
46	0xc00fe5d5	-2.2484028
47	0x40569f9d	3.353492
48	0x404cbceb	3.1990306
49	0x40075ad8	2.1149197
50	0x40511b7b	3.2673023
51	0xc010d0e5	-2.26275
52	0x3fd88b1e	1.6917455
53	0x4046f582	3.1087346
54	0x407c0428	3.9377537
55	0x4037eeef	2.8739583
56	0x40252b86	2.5807815
57	0xbfcb0aad	-1.5862633
58	0x4001d43a	2.0285783
59	0x4088cd65	4.2750726
60	0xbf694d43	-0.9113352
61	0x3fddb61a	1.7321198
62	0x3e884f0f	0.26622817
63	0xc00360ab	-2.0527751
64	0x3fbbffae	1.4687402
65	0x3de2ecec	0.110803455
66	0xbf917848	-1.1364832
67	0x3f93a387	1.153428
68	0x3e83bb91	0.2572904
69	0x3e4128d2	0.18863228
70	0x3cdec9bb	0.027195802
71	0x3eb39ab8	0.3507898
72	0x3ec0adbe	0.37632555
73	0x3f3e4c81	0.74335486
74	0x3f15afd5	0.58471423
75	0x3f9a4f95	1.2055537
76	0xbf53f44a	-0.8279463
77	0x3f003705	0.50083953
78	0x3f507497	0.814279
79	0xbf250c56	-0.6447195
80	0x3f901d24	1.1258893
81	0x3fd40531	1.6564084
82	0x3f533ed7	0.8251776
83	0x3fd14d38	1.635169
84	0x3fe4e134	1.7881227
85	0x3fb65755	1.4245402
86	0x3f9ac1bd	1.2090374
87	0xbfbf7f15	-1.4960657
88	0x3fd521fb	1.6650995
89	0x40c8c3cc	6.273901
90	0xbe0c4723	-0.13699012
91	0xbe8ef62a	-0.27922183
92	0xbf2bbef9	-0.67088276
93	0xbf8fa9ac	-1.1223655
94	0xc0145564	-2.3177118
95	0xbfc5fa6d	-1.5467049
96	0xbf5b7a97	-0.8573393
97	0xbfc5cec6	-1.5453727
98	0x3ee02628	0.4377911
99	0x3e979b2b	0.2961057
100	0x3d404ada	0.046946384
101	0xbeb3a8d5	-0.35089746
102	0xbf527656	-0.82211816
103	0xbf87a4b1	-1.0597135
104	0x402d6469	2.7092535
105	0x3eb43e59	0.35203817
106	0x3e85f3fe	0.26162714
107	0xbf330692	-0.699319
108	0xbff3c4d0	-1.9044437
109	0x3ec85fae	0.39135498
110	0xbf961c64	-1.1727414
111	0x3f359c71	0.70941836
112	0x3ed0beb8	0.40770507
113	0xbf7962f9	-0.97416645
114	0xbfb76800	-1.4328613
115	0xbf69d2af	-0.913371
116	0x3f32ae33	0.69797057
117	0x3e07de69	0.13268436
118	0x3ea46db7	0.32114956
119	0xbf94377e	-1.1579435
120	0xbfd83a3a	-1.6892769
121	0xbe328dbd	-0.17436881
122	0x3fa56f00	1.29245
123	0x3f8d2ae7	1.1028718
124	0xbf20bc85	-0.6278766
125	0x3f8c1220	1.0943031
126	0xbff9682f	-1.9484919
127	0xbf2e8bbc	-0.6818197
128	0xbf63092c	-0.8868587
129	0xbfbe633d	-1.4874035
130	0x3da85e10	0.08221066
131	0xbfacea0f	-1.3508929
132	0xbef8d9c4	-0.48603642
133	0xbe8f3772	-0.2797199
134	0xc00ada83	-2.169587
135	0x3ff7dccb	1.9364256
136	0xbf804c6f	-1.0023326
137	0x3f268b1f	0.6505603
138	0x3f00f977	0.50380653
139	0xbe328505	-0.17433555
140	0x3fa87e21	1.3163491
141	0x3ffede6e	1.991163
142	0x3f8cf0f0	1.1011028
143	0x3fc4f81c	1.5388217
144	0x3fd2ae68	1.6459475
145	0x3f769d68	0.9633393
146	0x3fcfeb49	1.6243678
147	0xbfc865d7	-1.5656079
148	0x3ff85307	1.9400338
149	0x4103978f	8.224502
150	0x3f95e5ea	1.1710789
151	0x3f16c4da	0.5889412
152	0xbf92967e	-1.1452177
153	0xbe9839d8	-0.2973163
154	0xbfb72088	-1.4306803
155	0xbf8dd517	-1.1080655
156	0x3ea1432a	0.31496555
157	0xbf9c44f6	-1.2208545
158	0xbf9fb93e	-1.2478406
159	0xbf234f2f	-0.637927
160	0xbf21c0e7	-0.6318497
161	0xbf5686e5	-0.8379958
162	0x3fd62582	1.6730196
163	0xbfb7651e	-1.4327734
164	0xbf2a07f1	-0.6641837
165	0xbd973015	-0.07382218
166	0xbfc0f054	-1.5073342
167	0x40012772	2.0180326
168	0x3fec0e32	1.8441832
169	0x3f7618f7	0.96131843
170	0x3fe0c13e	1.7558973
171	0x3d601f29	0.054717217
172	0x3f7988fa	0.97474635
173	0x3f7303ee	0.9492787
174	0x3f82b613	1.0211815
175	0x3fb6fc4e	1.4295747
176	0x3fb0dae0	1.3816795
177	0xbf27d8c9	-0.6556516
178	0x3f75cbf6	0.96014345
179	0x3ec576e9	0.38567284
180	0x3f5b70e4	0.8571913
181	0x3fa7d72c	1.311254
182	0xbf714a96	-0.94254434
183	0xbf515dcf	-0.81783766
184	0xbf4488cf	-0.76771253
185	0xbf116f78	-0.5681071
186	0x4002369e	2.0345836
187	0xbf7c9ae7	-0.9867386
188	0xbfd0dc95	-1.6317316
189	0xc001c6dd	-2.0277627
190	0xbfb9fcfc	-1.453033
191	0xbfb0b01e	-1.3803747
192	0x3f9d9fb3	1.2314361
193	0xbf671e08	-0.902802
194	0xbe8c9da8	-0.27464032
195	0x3f776ab3	0.96647185
196	0x3fcff4c0	1.6246567
197	0xbf717193	-0.94313926
198	0xbf740deb	-0.9533374
199	0xbfa466be	-1.2843854
200	0xbf4132e4	-0.7546828
201	0x3fdce596	1.7257564
202	0xbfa31c23	-1.2742962
203	0xbf92e014	-1.1474633
204	0xbfcb5ae6	-1.5887115
205	0xbfc848ff	-1.5647277
206	0xbfe6c78c	-1.8029647
207	0x3fef983e	1.8718336
208	0xbfbb0286	-1.4610145
209	0xbf513c4b	-0.81732625
210	0x3f7d1437	0.9885897
211	0x3f9beed6	1.2182262
212	0xbf449ea8	-0.7680459
213	0xbf30e76a	-0.6910311
214	0xbfbea321	-1.4893533
215	0xbf18a783	-0.596306
216	0x3fe4c121	1.7871438
217	0xbfa6b188	-1.3022928
218	0xbfbc8d2f	-1.4730586
219	0xbfab1125	-1.3364607
220	0xbfb6028f	-1.4219531
221	0xbfb39732	-1.4030516
222	0x3fbbe56b	1.4679388
223	0xbf772107	-0.9653477
224	0xbf3e3dc3	-0.7431299

onnx::MatMul_33 f4 [15, 15]
0	0xbf27b338	-0.6550784
1	0x3f2c9258	0.674108
2	0xbf2105b7	-0.62899345
3	0xbe13eb5e	-0.14445254
4	0xbf4d3713	-0.8016216
5	0x3ec6e7b8	0.38848662
6	0xbfd409ce	-1.6565492
7	0xbfeddb7d	-1.8582608
8	0xbfa43e4f	-1.2831515
9	0xbf4b693b	-0.79457444
10	0xbf744451	-0.9541674
11	0xbf642f12	-0.89134324
12	0xbe88da30	-0.26728964
13	0xbea8112a	-0.32825595
14	0xbe8b8304	-0.27248394
15	0xc01aa4c6	-2.416307
16	0xbf398cab	-0.7248027
17	0xbfc78769	-1.5588199
18	0xbf985a46	-1.1902549
19	0xc024fb67	-2.5778444
20	0xbf8a8c00	-1.0823975
21	0xbfd3d8e6	-1.6550567
22	0xbfa93696	-1.3219783
23	0xc0263cc9	-2.59746
24	0xc00150fd	-2.0205681
25	0xbfdd2499	-1.7276794
26	0xbfe4d7c6	-1.7878349
27	0xbfa88ac3	-1.3167347
28	0xbfb0e711	-1.3820516
29	0xbe97a0e2	-0.2961493
30	0x3fcd3434	1.6031556
31	0xbe09a820	-0.13443041
32	0x3f923d63	1.1424984
33	0x3e4c76ad	0.19967146
34	0x3fd54fa4	1.6664929
35	0x3f9a31a2	1.2046397
36	0x402d3e0d	2.7069123
37	0x3fbf9093	1.4965996
38	0x3fca2c9b	1.5794863
39	0x3fe3a105	1.7783514
40	0x3fa32842	1.2746661
41	0x3fc58ee9	1.5434238
42	0x3f2a03f1	0.66412264
43	0x3fa063b1	1.2530423
44	0xbf1ae870	-0.6051092
45	0x3ffe1b7f	1.9852141
46	0x402ca8c1	2.6978
47	0xbfd20ba7	-1.6409806
48	0x401ba8c0	2.4321747
49	0x4004d5d2	2.0755506
50	0x408f9362	4.486741
51	0xbecb9af5	-0.3976666
52	0xbfb9d7bf	-1.4518965
53	0x404aea4c	3.1705503
54	0x4054ee40	3.3270416
55	0x402c01da	2.687613
56	0xbf9facf2	-1.2474654
57	0x40431102	3.047913
58	0x4048b7c5	3.1362164
59	0x3fc7518f	1.5571765
60	0x3eab08f1	0.3340526
61	0xbf624fa2	-0.8840276
62	0x403aa8e1	2.9165576
63	0xbf731752	-0.9495746
64	0x3ee4f4ab	0.44717917
65	0xc00a269d	-2.1586068
66	0x404bccdc	3.1843786
67	0x404940d2	3.1445813
68	0x3eeef8ae	0.46674103
69	0x3d86e6cf	0.06586992
70	0x3d167eb5	0.03674193
71	0x40458534	3.086255
72	0xbf7e283d	-0.9928015
73	0xbf08aedc	-0.53391814
74	0xbf29e3ed	-0.6636341
75	0x3f6db2cc	0.9285095
76	0xbf1d7228	-0.61502314
77	0x3ec6d5e4	0.3883506
78	0x3f2e6c2f	0.68133825
79	0x3f94913d	1.1606823
80	0x3fbb199f	1.4617194
81	0x404bab24	3.1823206
82	0x3fbf0ce1	1.4925805
83	0x3fb96150	1.4482822
84	0x3fe4761e	1.7848547
85	0x3f9ef2b9	1.2417823
86	0x3f73ea0a	0.9527899
87	0x3f800e04	1.0004277
88	0x3f9c5ac5	1.2215201
89	0xbedbe983	-0.42951593
90	0xbff652be	-1.9244001
91	0xbe723717	-0.23653828
92	0xbf4bb1be	-0.7956809
93	0xbf3e31c7	-0.74294704
94	0xc000df6d	-2.0136368
95	0xbe8d6fbb	-0.27624306
96	0xbfba4c7f	-1.4554595
97	0xbf9d4123	-1.2285503
98	0xbffac4a5	-1.9591261
99	0xbfc5b919	-1.5447112
100	0xbfc9e310	-1.5772419
101	0xbf8580ea	-1.0429966
102	0xbf14d416	-0.5813612
103	0xbf8aec52	-1.0853369
104	0x3c45f70e	0.012082828
105	0x3f1edbe8	0.620543
106	0x3f072fd7	0.5280737
107	0x401f2432	2.4865842
108	0xbef34b30	-0.475183
109	0x3f229f90	0.63524723
110	0xc00ae50b	-2.1702297
111	0x401399a3	2.3062522
112	0x402bca8f	2.6842382
113	0x3e90e634	0.2830063
114	0xbda4e9c8	-0.08052403
115	0x3e0def2b	0.13860767
116	0x4027f89e	2.6245494
117	0xbf54b58e	-0.8308953
118	0xbe3d98a3	-0.18515258
119	0xbc90d96e	-0.017681804
120	0x401b3ca6	2.4255767
121	0x3f931263	1.1489986
122	0x3fa8f15d	1.3198658
123	0x3f3ca9e2	0.7369672
124	0x4020aca4	2.5105371
125	0xbde8eb5d	-0.11373017
126	0x40472b00	3.1119995
127	0x401f09ff	2.484985
128	0x3fba04d1	1.453272
129	0x3fd22c35	1.6419741
130	0x3fd99b96	1.7000606
131	0x3ff28859	1.894786
132	0x3f59977c	0.8499677
133	0x3fb321e2	1.3994715
134	0x3eb842e2	0.35988528
135	0x4020aeae	2.5106616
136	0x40001795	2.0014393
137	0x3f561046	0.8361858
138	0x3f15c68c	0.58506083
139	0x4040890f	3.0083654
140	0xc00e5e5b	-2.224509
141	0x400a321b	2.1593082
142	0x40120769	2.2817023
143	0x3fc8da21	1.5691568
144	0x3fa7489b	1.3069032
145	0x3fac82a8	1.3477373
146	0x3ff60c21	1.9222451
147	0x3f2b5e3f	0.66940683
148	0x3f366125	0.7124198
149	0x3f71584a	0.94275343
150	0x3ff3643a	1.9014962
151	0x3fc37de5	1.5272795
152	0xbd93b637	-0.07212489
153	0x3f92559d	1.1432377
154	0x400865af	2.1312063
155	0x4012cb4b	2.293658
156	0x4027b039	2.6201308
157	0x3f752889	0.95764977
158	0x3ffa4ad7	1.9554089
159	0x4006a590	2.1038551
160	0x3fea688f	1.8313159
161	0x3f087612	0.5330516
162	0x3fcbf2d8	1.5933485
163	0x3fe30c83	1.7738193
164	0x3fb8e2e2	1.4444239
165	0x3fe38978	1.7776327
166	0x4001870a	2.0238671
167	0x405a4eb8	3.4110546
168	0x3a8e775c	0.0010869312
169	0x4000b7f6	2.011228
170	0xc01fe830	-2.4985466
171	0x3fe88810	1.8166523
172	0x401d961c	2.462287
173	0x3f84ab16	1.0364711
174	0x3e297e7a	0.16552153
175	0x3f282eaa	0.65696204
176	0x402d677b	2.709441
177	0xbea533f0	-0.32266188
178	0xbdf83cdd	-0.12120984
179	0x3fe2c0f6	1.7715137
180	0xc012898e	-2.2896457
181	0xbed332a4	-0.41249573
182	0xbfe0d466	-1.7564819
183	0xbf699b35	-0.9125245
184	0xc00c8ba7	-2.1960237
185	0xbefae2ff	-0.4900131
186	0xbff8968e	-1.9420946
187	0xbfc4b144	-1.5366597
188	0xc0023886	-2.0347
189	0xbfc74053	-1.5566505
190	0xbfdf0f06	-1.742646
191	0xc00175f0	-2.0228233
192	0xbf7b9842	-0.982792
193	0xbf960e97	-1.1723202
194	0xbee445ad	-0.44584408
195	0x3f8816a8	1.0631914
196	0x3f7321dd	0.94973546
197	0x40214c74	2.5202913
198	0xbf091a43	-0.535557
199	0x3f722309	0.9458471
200	0xbf998b06	-1.1995552
201	0x402e4b40	2.723343
202	0x4003ba25	2.0582364
203	0x3ec47054	0.3836695
204	0x3edf5031	0.4361587
205	0x3ef3f15f	0.4764509
206	0x40129e95	2.290929
207	0xbf192e88	-0.59836626
208	0xbe946e41	-0.28990367
209	0xbf75fd86	-0.9608997
210	0xbfce8b12	-1.6136191
211	0x3f63c5e4	0.8897383
212	0x404033e8	3.003168
213	0xc00da571	-2.2132227
214	0xbfcf8558	-1.6212568
215	0xc152f318	-13.184349
216	0xbea7af33	-0.32750854
217	0x3f9e71c7	1.2378472
218	0xbfe557ba	-1.7917397
219	0xc023eb63	-2.5612419
220	0xc0000d14	-2.0007982
221	0x3f8ac363	1.0840877
222	0xc045d712	-3.0912519
223	0xc028e42c	-2.6389265
224	0x3fc38445	1.527474

onnx::MatMul_34 f4 [15, 15]
0	0x4024938a	2.571505
1	0x3faec657	1.3654279
2	0x3f7f12fb	0.99638337
3	0x3e04f96b	0.1298577
4	0xbea486bd	-0.32134047
5	0x3faeb779	1.3649741
6	0x401d0efb	2.4540393
7	0x40007bcd	2.0075562
8	0xbf1c9d37	-0.6117739
9	0x3f45770f	0.77134794
10	0x3f86a76e	1.0519845
11	0xbf4af9e8	-0.79287577
12	0x4018aa95	2.3854115
13	0x3fbd7323	1.4800762
14	0xbe67dfec	-0.22644013
15	0x3f6404ed	0.89070016
16	0x3f27992c	0.65468097
17	0x3f47f006	0.7810062
18	0xbfc24012	-1.5175803
19	0x3ecccb12	0.3999868
20	0x3f4661cd	0.7749298
21	0x3f41a16e	0.7563695
22	0x3e81280c	0.25225866
23	0x3eee3a89	0.46529034
24	0x3f87d87b	1.061294
25	0x3f0b003f	0.5429725
26	0x3f7bc6da	0.983503
27	0x3ef919af	0.48652408
28	0x3eec46e1	0.46147826
29	0xbfaca2a2	-1.3487132
30	0xbffd6e3e	-1.9799268
31	0xbfbad638	-1.4596624
32	0xc002c012	-2.042973
33	0xbfcc5b63	-1.5965389
34	0x3f842804	1.0324712
35	0xbfb1616e	-1.3857858
36	0xbfef05b0	-1.8673611
37	0xc0284275	-2.6290562
38	0x3fb0ec7a	1.3822167
39	0xbf46ffda	-0.7773415
40	0xc00f428b	-2.2384365
41	0x3ffbee04	1.9682012
42	0xbff2307f	-1.892105
43	0xc013d673	-2.309964
44	0x3d251961	0.040307406
45	0x3f2deaeb	0.6793658
46	0x3f2d3fc2	0.6767541
47	0x3f84801f	1.03516
48	0xbf05cc58	-0.5226493
49	0xbdd5ac7b	-0.10433289
50	0x3edbc76b	0.4292558
51	0x3ecc53a2	0.39907557
52	0x3f8c4db8	1.0961218
53	0xbe978a06	-0.2959749
54	0x3dc4e0c3	0.096131824
55	0x3fa27979	1.269332
56	0xbf8d2949	-1.1028224
57	0x3f8d1ea4	1.1024976
58	0x3fa6ab8c	1.3021102
59	0xbdc9e158	-0.09857434
60	0x4046dc0f	3.1071813
61	0x3fda0e69	1.7035648
62	0x3fc21ffa	1.5166008
63	0xbe17090e	-0.14749548
64	0xbf1eb390	-0.6199274
65	0x3fb96962	1.4485285
66	0x4036324d	2.84682
67	0x4025869b	2.5863407
68	0xbee309b3	-0.44343337
69	0x3faf4d88	1.3695536
70	0x3fb4125f	1.4068106
71	0xbf1f1677	-0.62143654
72	0x4056ed1e	3.3582225
73	0x3ffa3ae5	1.9549223
74	0xbef98b25	-0.4873897
75	0x3f87758c	1.0582747
76	0x3ff44349	1.9083034
77	0x4030f22d	2.7647812
78	0x3fc1c73d	1.5138928
79	0xbffde9c2	-1.9836962
80	0x3fe99ab3	1.8250335
81	0x3f87cfd8	1.0610304
82	0x40552174	3.3301668
83	0xbfe8cb79	-1.8187095
84	0x3f847911	1.0349447
85	0x40411820	3.0170975
86	0xc072e2ca	-3.795092
87	0x3f49df72	0.78856575
88	0x40398f40	2.8993683
89	0x413c17d7	11.75582
90	0xc016723c	-2.3507223
91	0xc0291230	-2.641735
92	0xc01b368c	-2.4252043
93	0x3e8e1e5b	0.27757534
94	0x3f366de5	0.71261436
95	0xc0356ad3	-2.834645
96	0xc01e8884	-2.4770823
97	0xc014a27d	-2.3224175
98	0x3f05a957	0.5221152
99	0xc04b538f	-3.176975
100	0xc029026b	-2.6407726
101	0x3f3bf01b	0.73413247
102	0xc0055c70	-2.083767
103	0xc010a36f	-2.2599752
104	0x40712bbd	3.7682946
105	0xc01a03f7	-2.406492
106	0xc00d714e	-2.2100406
107	0xc01ff745	-2.4994671
108	0xbeb030db	-0.34412274
109	0x3f89a8a6	1.0754592
110	0xc011c664	-2.2777338
111	0xc01903e7	-2.3908632
112	0xc02ef693	-2.7337997
113	0x3fa5339d	1.2906376
114	0xc0081e69	-2.126856
115	0xc01cb411	-2.4484904
116	0x3fe4c4af	1.7872523
117	0xc01bda8c	-2.435214
118	0xc0287eba	-2.6327348
119	0x402b6b42	2.6784215
120	0x4012190b	2.2827785
121	0x3fab67ab	1.3391012
122	0x3fa8cae9	1.3186923
123	0x3f81022e	1.007879
124	0xbfcb4b9f	-1.5882453
125	0x3fa56af9	1.292327
126	0x400fbf92	2.2460675
127	0x400960f6	2.146543
128	0xbfe062e4	-1.7530179
129	0x3f53c910	0.8272867
130	0x3fcb79f6	1.5896595
131	0xc01407b8	-2.312971
132	0x4027d5bd	2.6224205
133	0x4013f2b9	2.3116896
134	0x3de1c43b	0.11023756
135	0x40081c66	2.1267333
136	0x3fe82d16	1.8138759
137	0x4000bbb0	2.0114555
138	0x3f290380	0.66020966
139	0xbf67ce5d	-0.9054926
140	0x3fe5cee0	1.7953758
141	0x3ff1c1bc	1.8887248
142	0x40145e77	2.3182657
143	0xbf872693	-1.0558647
144	0x3f7ce261	0.98782927
145	0x3fee68e9	1.8625766
146	0xbff29549	-1.8951808
147	0x401b9e79	2.4315474
148	0x4000eb08	2.0143452
149	0x3fc8931f	1.5669898
150	0x3fcf5c88	1.6200113
151	0x3f9671e7	1.175351
152	0x3fa6389b	1.2986025
153	0x3e605b42	0.21909812
154	0xbf2c5406	-0.6731571
155	0x3f7e65e7	0.9937424
156	0x3fdca8ad	1.7238976
157	0x3fd8bfeb	1.6933569
158	0xbf4663c0	-0.77495956
159	0x3f0289f2	0.5099174
160	0x3fb300ea	1.3984654
161	0xbf93ba71	-1.1541272
162	0x3fc0c01b	1.5058626
163	0x3fbf3c67	1.4940308
164	0x3f8a59b0	1.080862
165	0xc0028d9a	-2.0398927
166	0xc00b308b	-2.1748378
167	0xc002ac14	-2.0417528
168	0xbf7bbef5	-0.9833825
169	0x3f56939c	0.83818984
170	0xbffd8df7	-1.9808949
171	0xbfd4bd3a	-1.6620247
172	0xc022ea5b	-2.545554
173	0x3f73cc91	0.9523402
174	0xbfc427b9	-1.5324622
175	0xc01be910	-2.4361
176	0x3fa31f3c	1.2743907
177	0xc0023473	-2.0344512
178	0xc0153d88	-2.3318806
179	0x3fb68314	1.4258752
180	0x3f88cdd0	1.0687809
181	0x3f621070	0.8830633
182	0x3fabbf3f	1.3417739
183	0xbf2b77be	-0.6697959
184	0xbe29f050	-0.16595578
185	0x3f007e18	0.50192404
186	0x3f4b2c4e	0.7936448
187	0x3fe47f6f	1.785139
188	0xbe7f0af4	-0.24906522
189	0x3d710b22	0.058848508
190	0x3fdcf462	1.726208
191	0xbf8f1b27	-1.1180161
192	0x3f773394	0.96563077
193	0x3fd088b3	1.6291717
194	0x3f8e67e4	1.1125455
195	0x3f8bf32d	1.0933586
196	0x3f717ffd	0.9433592
197	0x3fbc5350	1.4712925
198	0xbe2d95be	-0.16951653
199	0xbe04c8e1	-0.12967254
200	0x3f83d39a	1.0298951
201	0x3f8a4e65	1.0805174
202	0x3fc7c703	1.5607609
203	0xbee9cd48	-0.4566443
204	0x3e44238a	0.19154182
205	0x3fde0bf6	1.73474
206	0xbf8d4f2b	-1.1039785
207	0x3f9d249d	1.2276798
208	0x3fb9aa77	1.4505147
209	0x3fc7e28a	1.5616009
210	0x3f0732e1	0.5281201
211	0x3d8cba6c	0.06871495
212	0xbdf31983	-0.118701
213	0xbba42f72	-0.0050105387
214	0xbfc74736	-1.5568607
215	0xbd80d6b4	-0.06290951
216	0x3ed1b58e	0.40958828
217	0x3e88e8d8	0.26740146
218	0xbfb7559c	-1.4323001
219	0x3e8a1f7c	0.26977146
220	0x3d649cfe	0.055813782
221	0xbf6a638b	-0.9155814
222	0x3f05b40e	0.52227867
223	0x3e2a0ae2	0.16605714
224	0xbe9c4547	-0.30521604

onnx::MatMul_35 f4 [15, 1]
0	0xc02cac8e	-2.698032
1	0xbfb44149	-1.4082423
2	0xbfe4a47d	-1.7862698
3	0x3f6d747f	0.92755884
4	0xbec8360c	-0.39103734
5	0xbfb6a610	-1.4269428
6	0xc00d6249	-2.2091238
7	0xc0355cc1	-2.8337862
8	0xbf02e947	-0.511372
9	0xbfca212e	-1.5791376
10	0xc00accb1	-2.1687434
11	0xbf69688e	-0.9117516
12	0xc021f06f	-2.5303
13	0xc00cd97e	-2.2007747
14	0x3f436b3a	0.7633549
