onnx/myModel_HL2_HD15_349.onnx (onnx, 3508 bytes, 7 tensors)

net.0.bias f4 [15]
0	0xc06bdd22	-3.6853719
1	0xc05b687c	-3.4282522
2	0xc07d59d2	-3.9586072
3	0xc0526932	-3.2876706
4	0x406b6781	3.6781924
5	0x406f4878	3.7387981
6	0x3faaf769	1.3356754
7	0x405808ba	3.3755326
8	0x406b9209	3.6807883
9	0xc06ae9c0	-3.670517
10	0xbbf88cb2	-0.0075851316
11	0x4042068f	3.0316503
12	0x3f899814	1.0749536
13	0x407d5df7	3.9588602
14	0xc0799dde	-3.9002604

net.2.bias f4 [15]
0	0x3d76016b	0.060059946
1	0xbe47c758	-0.19509637
2	0x3dd68fc5	0.104766406
3	0x3ebd7897	0.37006065
4	0x3d4700de	0.04858481
5	0xba9bc6f5	-0.0011884855
6	0x3e8ff359	0.28115347
7	0x3d835125	0.064119615
8	0xbe43f9b2	-0.1913822
9	0x3f391022	0.7229024
10	0x3ead14b6	0.33804864
11	0xbea9c1d4	-0.33155692
12	0xbddde535	-0.108347334
13	0x3ed6cd5a	0.41953546
14	0x3e98aa93	0.29817638

net.4.bias f4 [15]
0	0x3f240250	0.6406603
1	0x3e97f537	0.29679272
2	0x3f1d8231	0.6152678
3	0xbfeb5d73	-1.8387893
4	0x3f55299a	0.83266604
5	0x3f1b9332	0.6077148
6	0x3edef775	0.4354817
7	0xbf048be4	-0.51775956
8	0xbe3d14f1	-0.1846502
9	0xbf1ca1dd	-0.61184484
10	0xbf82091f	-1.0159034
11	0x3f220660	0.6329098
12	0x3f587160	0.84547997
13	0x3f107f93	0.5644466
14	0x3f3f12fd	0.7463835

onnx::MatMul_25 f4 [2, 15]
0	0x3fdd1b41	1.7273942
1	0x3f1cfbc4	0.61321664
2	0x3fad38c4	1.3532948
3	0xbf537422	-0.8259908
4	0x402da1ef	2.7130086
5	0x3d9075f8	0.07053751
6	0xbe60c53b	-0.21950237
7	0x3ebee601	0.37284854
8	0x400ff841	2.2495272
9	0xc007e20d	-2.123172
10	0xc05005fe	-3.2503657
11	0xc00a314f	-2.1592596
12	0x4079c890	3.9028664
13	0x3f96d707	1.1784371
14	0xc0a1b6c2	-5.0535593
15	0x3f2ce7dc	0.6754129
16	0x3feaaa70	1.8333263
17	0xbf99d7a0	-1.2018929
18	0x3fefe9aa	1.8743184
19	0x3f325f34	0.6967652
20	0x400a5b31	2.161816
21	0xbef9b000	-0.4876709
22	0x40018f95	2.0243886
23	0x3fc7d54c	1.5611968
24	0x3f4f7b45	0.8104747
25	0x408a52ab	4.3225913
26	0x3ed801af	0.42188784
27	0xc0094468	-2.1448002
28	0x3fd7beea	1.6855137
29	0x3ff3622b	1.9014333

onnx::MatMul_26 f4 [15, 15]
0	0x40473cd2	3.1130872
1	0x403b2add	2.9244912
2	0x40746694	3.8187609
3	0x4000b9c4	2.0113382
4	0x40516b40	3.272171
5	0x402cff03	2.7030647
6	0x4033ee0c	2.8114042
7	0x3f8b4993	1.0881828
8	0x4030795b	2.757407
9	0x3fe59cf2	1.7938521
10	0x3eb0704b	0.34460673
11	0x3e37d3fc	0.1795196
12	0x3f3bd3cf	0.7337007
13	0x403dc5d7	2.9652002
14	0x405215b7	3.2825754
15	0x402181d0	2.5235481
16	0x403f5983	2.9898384
17	0x404de56e	3.2171283
18	0x3ff57ab6	1.9178073
19	0x402e69cf	2.725208
20	0x400ae656	2.1703086
21	0x3ffb205c	1.961925
22	0x3fa75104	1.3071599
23	0x4028a7e2	2.6352468
24	0x40646827	3.568857
25	0x3f1c7cdb	0.61128014
26	0x3ec63faf	0.38720462
27	0x401959ff	2.396118
28	0x40430aa9	3.0475256
29	0x4032d5f1	2.794308
30	0x402ae566	2.6702514
31	0x4009c460	2.1526108
32	0x408d1b89	4.409611
33	0x3f93d1fe	1.154846
34	0x404faa10	3.2447548
35	0x40481a71	3.1266139
36	0x40135569	2.302088
37	0xbebeee7a	-0.37291318
38	0x40029e9c	2.0409307
39	0x4001bb9b	2.0270755
40	0x3f87c51a	1.0607026
41	0x3fce9080	1.6137848
42	0x3fb56daf	1.4174098
43	0x408a34ba	4.3189363
44	0x401f2ac7	2.486986
45	0x3fbe8f8b	1.4887556
46	0x3ee6ee41	0.45103648
47	0x402441f8	2.5665264
48	0x3faf7671	1.370802
49	0x401a1180	2.407318
50	0x4029ff13	2.6561935
51	0x3f9fc4be	1.2481916
52	0x4001a04c	2.0254087
53	0x3ff5dd97	1.9208249
54	0x40807ecb	4.0154777
55	0x3f80c759	1.0060836
56	0xbf17ef97	-0.5934996
57	0x404fc327	3.2462862
58	0x40479e0e	3.119022
59	0xbe52bfb0	-0.20580935
60	0xbf918b7a	-1.137069
61	0xbddd4b6c	-0.10805401
62	0xbfc3ac4d	-1.5286957
63	0xbeb9624f	-0.36207816
64	0xbf94ec3a	-1.1634591
65	0xbf933d30	-1.1503048
66	0xbfaf0930	-1.3674679
67	0xbfbb585d	-1.4636341
68	0xbf0e74c5	-0.55646926
69	0xbffdeb09	-1.9837352
70	0xbf0ea042	-0.55713284
71	0x3f5974a4	0.84943604
72	0xbf33f920	-0.7030201
73	0xbf98e928	-1.1946154
74	0xbf71f467	-0.94513553
75	0xbfbb158e	-1.4615953
76	0xbf32b632	-0.6980926
77	0xbfed1e5c	-1.852489
78	0xbf899ea3	-1.0751537
79	0xbfb53a0c	-1.415834
80	0xbfd0351e	-1.626621
81	0xc01c0219	-2.437628
82	0xbe803186	-0.25037783
83	0xbf816e38	-1.0111761
84	0xc02f5722	-2.7396932
85	0xbff72961	-1.9309503
86	0xbeae0678	-0.3398931
87	0xbf862ccd	-1.0482422
88	0xbfbae8da	-1.4602311
89	0xbfb005d7	-1.3751782
90	0xbf1aaf7a	-0.60424006
91	0xbf254b14	-0.64567685
92	0xbda7bd72	-0.08190431
93	0xbd117da7	-0.035520222
94	0xbde5bd1b	-0.1121771
95	0xbec7fc01	-0.3905945
96	0x3daea705	0.0852795
97	0xbe44918e	-0.1919615
98	0xbf2c6a9a	-0.6735016
99	0x3e9362d7	0.28786346
100	0x3da6c197	0.08142393
101	0x3c0fa033	0.008766222
102	0xbf305f01	-0.68894964
103	0x3f63f9d7	0.890531
104	0x3e0acd3c	0.13554853
105	0xbfa2419d	-1.2676274
106	0xbedc78c7	-0.43060896
107	0xbfaecb8a	-1.3655865
108	0xbf666e6a	-0.9001223
109	0xbfc2b2aa	-1.5210774
110	0xbfa02ca5	-1.2513624
111	0xc002db56	-2.0446372
112	0x3e2c2e66	0.16814575
113	0xbf26f03c	-0.6521032
114	0xc029eaee	-2.654964
115	0xbfe30aa0	-1.7737617
116	0xbe484652	-0.19558075
117	0xbf50a515	-0.81501895
118	0xbf939427	-1.1529588
119	0xbf881662	-1.0631831
120	0xbf73f82a	-0.95300543
121	0xbed15a8e	-0.408894
122	0xbfe58d91	-1.7933828
123	0xbf261d7c	-0.6488874
124	0xbf947750	-1.1598911
125	0xbf8ad8e8	-1.0847445
126	0xbfcf010b	-1.6172193
127	0xbf7ae5ec	-0.9800708
128	0xbf224c12	-0.63397324
129	0xbfbebfbc	-1.4902263
130	0xbfbff240	-1.4995804
131	0x3dfada41	0.1224866
132	0xbf0bc37b	-0.54595155
133	0xbfbb686c	-1.4641242
134	0xbf9162b7	-1.135825
135	0x40a1a21d	5.051039
136	0xbed4e0b7	-0.41577694
137	0x40b243b1	5.570763
138	0x3e4b5db4	0.19859964
139	0x40afe8b7	5.4971576
140	0x40a431f7	5.131099
141	0x4067ca4e	3.6217227
142	0xbfac85c4	-1.3478322
143	0x408770aa	4.232503
144	0x40850f8f	4.1581492
145	0x401a313b	2.4092548
146	0xc06df96d	-3.7183487
147	0x4027c095	2.6211293
148	0x408eecfd	4.466429
149	0x405833d3	3.378163
150	0x3e7341ed	0.23755617
151	0x3f3c89ca	0.7364775
152	0xbf57bcb8	-0.84272337
153	0xbed1de00	-0.40989685
154	0xbdd3125a	-0.10306235
155	0x3dc537b9	0.09629769
156	0xbe578da0	-0.2105012
157	0xbe12e44e	-0.14344904
158	0x3f161a3e	0.5863379
159	0xbca0b7b3	-0.019618845
160	0xbe4aa20c	-0.19788378
161	0xbfe3505d	-1.77589
162	0x3e87ceb0	0.26524878
163	0xbfef083f	-1.8674392
164	0x3f6925df	0.9107341
165	0xbff853d1	-1.9400579
166	0xbf8273ac	-1.019155
167	0xbfe043ca	-1.7520688
168	0x3e8e6cf2	0.27817494
169	0xbfe2ca46	-1.7717979
170	0xbf8f0f6d	-1.1176583
171	0xbf0eb7f3	-0.55749434
172	0x3f2133b5	0.62969524
173	0xbfa8666c	-1.3156257
174	0x3d5a7b29	0.05334011
175	0x3d9296de	0.07157682
176	0x3d8ef5fc	0.069805115
177	0xbe0a37fd	-0.1349792
178	0x3f0aac7c	0.5416944
179	0xbfe1e643	-1.7648395
180	0xbe00ac19	-0.1256565
181	0x3ec53217	0.38514778
182	0x3ea4eeb0	0.32213354
183	0x3ed2bcca	0.4115966
184	0xbe76fc68	-0.24119723
185	0xbefd3dfa	-0.49461347
186	0x3ef33f2c	0.47509134
187	0x3ed8cc5a	0.42343408
188	0xbf6071de	-0.8767375
189	0xbeb7aea3	-0.35875425
190	0x3f81636c	1.0108466
191	0x401029a4	2.2525415
192	0xc01d91df	-2.4620283
193	0x3fd53e56	1.6659648
194	0x3e991150	0.2989602
195	0xbfb1b051	-1.3881932
196	0xbf28e481	-0.6597367
197	0xc011bab1	-2.2770197
198	0xbf0cb7ca	-0.5496794
199	0xc008c9c2	-2.1373143
200	0xbff593f6	-1.9185779
201	0xc022d729	-2.5443823
202	0xbf2917d6	-0.66051996
203	0xbf88c773	-1.0685867
204	0xc05b5a9a	-3.4274049
205	0xc01a3b50	-2.4098701
206	0x3efe1ec7	0.49632856
207	0xbfa6e3ed	-1.3038307
208	0xbfa7c1ae	-1.3105981
209	0xbfc0a8b5	-1.5051485
210	0xbf245b28	-0.64201593
211	0xc04d16da	-3.2045197
212	0x3d25d181	0.040483
213	0xbfbb028e	-1.4610155
214	0xbf55dd99	-0.83541256
215	0xbf7a5564	-0.97786546
216	0xbd8c020a	-0.068363264
217	0xc03f8198	-2.9922848
218	0xc00ade2b	-2.16981
219	0x3f2f2e06	0.684296
220	0xbf0795cb	-0.5296294
221	0x3fb535d7	1.4157056
222	0xbff0bfbd	-1.8808514
223	0x4074a87e	3.822784
224	0xbfa0c92f	-1.2561396

onnx::MatMul_27 f4 [15, 15]
0	0x3e869046	0.26281947
1	0x3f68c8dc	0.9093149
2	0x3fa1b7ae	1.263418
3	0x4080cd6c	4.025076
4	0xbd91890a	-0.07106216
5	0xbe355b2b	-0.17710559
6	0x3f8f183e	1.1179273
7	0x3fcb70c0	1.5893784
8	0x3ff71acd	1.9305054
9	0x3c0f0605	0.0087294625
10	0x3ec763dd	0.38943377
11	0x3e59359e	0.2121186
12	0x3db37214	0.08761993
13	0x3e98c240	0.298357
14	0xbe83e774	-0.25762522
15	0xbf7ed9d3	-0.99551123
16	0xbef1279f	-0.4710054
17	0xbf193fd0	-0.59862995
18	0x3ebfb3cf	0.3744187
19	0xbf71819a	-0.9433838
20	0xbf58b901	-0.84657294
21	0xbebdbcee	-0.37058204
22	0xbd368f23	-0.0445701
23	0xbca9cdaa	-0.020727951
24	0x3fb6a057	1.4267682
25	0x3fd3554b	1.6510404
26	0xbf62688d	-0.8844078
27	0xbf7156cc	-0.94273067
28	0xbf6f7a7f	-0.9354629
29	0xbf9a47bc	-1.2053142
30	0x3fc415a9	1.531911
31	0x400ecbf0	2.2311974
32	0x403d96ea	2.962336
33	0x40f56971	7.6691213
34	0x3fd6f494	1.6793389
35	0x3f253707	0.6453709
36	0x40484d0c	3.1297026
37	0x404d66c0	3.2093964
38	0x407f72e7	3.991388
39	0xbdfb1bc7	-0.122611575
40	0xbedb6bc2	-0.4285565
41	0x3f331dd3	0.69967383
42	0x3ff4237b	1.9073328
43	0x3f9f6e3f	1.245552
44	0x3f2fd8d0	0.68690205
45	0xbf3b20c5	-0.7309688
46	0xbf3fc697	-0.749124
47	0xbf90377b	-1.1266931
48	0xbf385060	-0.7199764
49	0xbf90c81e	-1.1311071
50	0xbf6ff800	-0.9373779
51	0xbf81f4fb	-1.0152887
52	0xbf33fdb9	-0.70309025
53	0xbf9324c4	-1.1495595
54	0x3f5f0932	0.87123406
55	0x3f95a98a	1.1692364
56	0xbf83dabc	-1.0301127
57	0xbf9ffe77	-1.2499532
58	0xbf774d7f	-0.96602625
59	0xbf8e1292	-1.1099417
60	0x3f21f429	0.63263184
61	0x3f902678	1.126174
62	0x3fcb459c	1.5880618
63	0x40ab1303	5.346071
64	0x3eb08101	0.34473422
65	0x3e1d05a7	0.15334187
66	0x3fbdacef	1.48184
67	0x400eefc2	2.2333837
68	0x40353d5e	2.8318706
69	0x3e5d42d4	0.21607524
70	0x3f1ed4aa	0.6204325
71	0xbdfa1d76	-0.122126505
72	0x3f141c07	0.57855266
73	0x3eb5334b	0.35390696
74	0x3dbe0293	0.09277835
75	0x3efdd95d	0.49579898
76	0x3f95287a	1.1652977
77	0x3fb97417	1.4488553
78	0x409e0236	4.93777
79	0x3ee975c9	0.45597675
80	0x3e985073	0.29748878
81	0x3f9635f9	1.1735221
82	0x3fd45354	1.658793
83	0x40235554	2.552083
84	0x3efdaeb4	0.4954735
85	0x3f0bbff1	0.54589754
86	0xbe407ce1	-0.18797638
87	0x3f0235d3	0.5086338
88	0x3e0b3e2a	0.13597932
89	0xbdf949af	-0.12172257
90	0x3f064197	0.5244383
91	0x3eff097a	0.49811918
92	0x3efee2bc	0.4978236
93	0x409a4307	4.820682
94	0x3ec7d1ae	0.3902716
95	0x3e8be181	0.27320483
96	0x3f1035eb	0.5633227
97	0x3f903085	1.1264807
98	0x3fca315f	1.5796317
99	0xbec556fe	-0.38542932
100	0x3d62e01a	0.0553895
101	0x3e780d2a	0.24223772
102	0x3dbe49f9	0.09291453
103	0x3edcbf60	0.43114758
104	0x3e725430	0.23664927
105	0xbf22caab	-0.63590497
106	0xbf442c3a	-0.76629984
107	0xbf2fda6d	-0.68692666
108	0xbec2dc7b	-0.38058838
109	0xbf9bdb28	-1.2176256
110	0xbf2244bf	-0.6338615
111	0xbf751b9f	-0.9574527
112	0xbf1d4c55	-0.614446
113	0xbeed3cea	-0.46335536
114	0x3f65db9e	0.89788234
115	0x3fa35460	1.2760124
116	0xbf548ada	-0.8302437
117	0xbf8105da	-1.0079911
118	0xbf4a1197	-0.7893309
119	0xbf52e306	-0.8237766
120	0xbdfe667b	-0.1242189
121	0x3f041b23	0.5160391
122	0x3f5ca780	0.86193085
123	0x406384f6	3.5549903
124	0xbee834b8	-0.4535272
125	0xbe781ddf	-0.24230145
126	0x3f1ed813	0.62048453
127	0x3f95120c	1.1646132
128	0x3fea8026	1.8320358
129	0x3f215157	0.6301474
130	0x3f251d98	0.6449828
131	0xbe755600	-0.23958588
132	0xbdbb238f	-0.09137642
133	0xbd8f7f03	-0.070066474
134	0xbefd9f64	-0.49535668
135	0xbf33838e	-0.7012261
136	0xbf5ab45f	-0.85431474
137	0xbf68bab6	-0.909099
138	0x4036f00e	2.8584018
139	0xbeea1894	-0.45721877
140	0xbf0c5aa8	-0.5482583
141	0xbf0919f9	-0.53555256
142	0xbecf40de	-0.40479177
143	0xbe9e2eef	-0.30895182
144	0x3e06b016	0.13153109
145	0x3e49a167	0.19690476
146	0xbf12f8e2	-0.57411015
147	0xbf3be39a	-0.7339417
148	0xbf1af743	-0.6053354
149	0xbee57202	-0.44813544
150	0x3f83e4f8	1.0304251
151	0x3fa7d8e9	1.3113071
152	0x3f8cf5de	1.1012533
153	0x4026e4d7	2.6077173
154	0x3f168b67	0.5880646
155	0x3f8dc75b	1.1076463
156	0x3f1d9a04	0.61563134
157	0x3f804c9b	1.0023378
158	0x3f7bb070	0.983161
159	0xbf7a5ccc	-0.97797847
160	0xbf5f5f5e	-0.87254894
161	0x3fb90abd	1.4456402
162	0x3f92e1ea	1.1475194
163	0x3f9edd6d	1.2411324
164	0x3f9e561c	1.2370028
165	0x3ecec51d	0.4038476
166	0x3cd9622d	0.026536072
167	0x3e4ec6da	0.20193043
168	0xc01e4365	-2.4728634
169	0x3f390d60	0.72286034
170	0x3eb37f0a	0.3505786
171	0x3de99440	0.114052296
172	0xbf3eeff2	-0.7458488
173	0xbf6823e9	-0.90679795
174	0xbf350aac	-0.7071941
175	0xbf8d05ea	-1.101743
176	0x3ea292b0	0.3175254
177	0x3ebafafd	0.36519614
178	0x3eda0a52	0.42586
179	0x3f33a9fa	0.7018124
180	0x3f4805c5	0.78133804
181	0x3f0f30d4	0.5593388
182	0x3f904609	1.1271373
183	0x406d456b	3.707362
184	0x3efffc0a	0.49996978
185	0x3f75f9a5	0.9608405
186	0x3f34a55e	0.7056483
187	0x3fd1921d	1.6372715
188	0x3fe084cf	1.754053
189	0xbf0e9efd	-0.55711347
190	0xbf24f4eb	-0.64436215
191	0x3f0902b3	0.53519744
192	0x3f0222d0	0.5083437
193	0x3ea40994	0.32038558
194	0x3f264660	0.64951134
195	0xc039ae06	-2.9012465
196	0xc0445e2b	-3.0682476
197	0xc06769d3	-3.615834
198	0xc0760621	-3.844124
199	0xc056cf5f	-3.356407
200	0xc0313f39	-2.7694838
201	0xc05dd2c7	-3.4659898
202	0xc0458836	-3.0864387
203	0xc06a878d	-3.6645234
204	0x4037bc9f	2.8708875
205	0x40689dd0	3.634632
206	0xc01e379c	-2.4721441
207	0xc034dc4b	-2.8259456
208	0xc0290cd7	-2.6414087
209	0xc0405024	-3.0048914
210	0x3f87fb8f	1.0623645
211	0x3fbda87c	1.4817042
212	0x3fc4a664	1.5363278
213	0x406658dc	3.5991735
214	0x3f58e1eb	0.84719723
215	0x3f5922d1	0.8481875
216	0x3fe66412	1.7999289
217	0x400920e3	2.1426322
218	0x401cee55	2.4520466
219	0xbe51125a	-0.20417157
220	0x3db654cc	0.089028925
221	0x3f829f4d	1.0204865
222	0x3f428678	0.75986433
223	0x3f6d87e8	0.927855
224	0x3f437645	0.7635234

onnx::MatMul_28 f4 [15, 1]
0	0xc015003d	-2.3281395
1	0xc0077b2e	-2.1168933
2	0xc02b2f95	-2.6747792
3	0xc0bb936e	-5.861747
4	0xc030953d	-2.7591088
5	0xc0176a8b	-2.3658779
6	0xc01af9b8	-2.4214916
7	0xc00895ba	-2.1341386
8	0xc03b04f8	-2.9221783
9	0x3f752a76	0.95767915
10	0x3fb36575	1.4015337
11	0xc001e7ce	-2.0297732
12	0xc00a4c9f	-2.1609266
13	0xc006f3a0	-2.1086197
14	0xc02b57ff	-2.6772459
