onnx/myModel_HL3_HD15_199.onnx (onnx, 4793 bytes, 9 tensors)

net.0.bias f4 [15]
0	0xc00d863c	-2.211318
1	0xbff01630	-1.8756771
2	0xc01b7451	-2.4289744
3	0xc04c7318	-3.1945248
4	0x40540b12	3.3131757
5	0xc0435798	-3.0522213
6	0x400a5b72	2.1618314
7	0x400da35b	2.2130954
8	0xbeed57cc	-0.46356046
9	0xc0299c93	-2.6501815
10	0x40121448	2.2824879
11	0xc00d136e	-2.204311
12	0x4029fb8d	2.6559784
13	0x402e5fd7	2.7245996
14	0x4024dfc6	2.576158

net.2.bias f4 [15]
0	0xbc852951	-0.016255053
1	0xbe3be94a	-0.18350711
2	0x3e6010cf	0.21881412
3	0x3dcbbda5	0.09948281
4	0x3ea1e698	0.31621242
5	0x3e37350b	0.17891328
6	0xbf3e1372	-0.7424842
7	0x3f27f7ef	0.6561269
8	0x3eb814c0	0.3595333
9	0x3f0ad9bb	0.5423848
10	0x3f442bbc	0.76629233
11	0x3f2ac6fb	0.6670987
12	0xbed85949	-0.4225562
13	0x3f34ac5b	0.70575494
14	0xbe108321	-0.14112522

net.4.bias f4 [15]
0	0xbf890892	-1.070574
1	0xbea173d6	-0.31533688
2	0xbf34fb18	-0.7069564
3	0xbf042bff	-0.5162963
4	0xbfb813f0	-1.4381084
5	0xbeec58e6	-0.46161574
6	0xbf96fffb	-1.1796869
7	0xbfa4f72b	-1.288793
8	0xbf6e4203	-0.93069476
9	0xbf5b6e28	-0.8571496
10	0xbf84eaae	-1.0384119
11	0xbf5d3bf7	-0.86419624
12	0xbe6e5c28	-0.23277342
13	0xbf1f21a3	-0.621607
14	0xbce23dc4	-0.027617343

net.6.bias f4 [15]
0	0x3ed3c74c	0.4136299
1	0x3e8a5904	0.2702104
2	0x3dd339f2	0.103137866
3	0xbecfe2cd	-0.40602723
4	0xbf485ff0	-0.7827139
5	0x3f033c72	0.5126411
6	0x3e761584	0.24031645
7	0x3f2392a1	0.6389561
8	0xbf64b322	-0.89335835
9	0x3e795f5c	0.24352783
10	0x3f1b26c0	0.60606
11	0xbf491f1a	-0.7856308
12	0x3ea8eb9c	0.32992256
13	0x3e958473	0.29202613
14	0xbeb0966b	-0.3448976

onnx::MatMul_31 f4 [2, 15]
0	0xbee74f04	-0.45177472
1	0xbfd04efe	-1.6274107
2	0x3f464f45	0.77464706
3	0x3f952f4d	1.165506
4	0x3ff3080f	1.8986834
5	0xc00148ec	-2.0200758
6	0xc03d3a54	-2.956685
7	0xbf3bb685	-0.7332538
8	0xc02055d8	-2.5052395
9	0xc023a9c7	-2.5572374
10	0x3fafe95c	1.3743091
11	0x3f89b17c	1.0757289
12	0xbf03463a	-0.5127903
13	0x3e9dd985	0.30830017
14	0xbd3781ec	-0.044801638
15	0x3fdbaee0	1.7162743
16	0xbd6c9dba	-0.057767607
17	0x3fb4dce5	1.4129912
18	0xbcb8c062	-0.022552673
19	0xbfe20706	-1.7658393
20	0x3f6cb3ac	0.9246166
21	0xbe4159de	-0.18881938
22	0x3f79c204	0.9756167
23	0x4082c188	4.0861244
24	0x3f652e10	0.8952341
25	0x3fb3adbf	1.4037398
26	0x3f0a4e69	0.54025894
27	0x3fbfccec	1.4984412
28	0x3fbd5fe1	1.4794885
29	0x3fbaf750	1.4606724

onnx::MatMul_32 f4 [15, 15]
0	0xbf07b159	-0.53004986
1	0xbf9e4fbb	-1.2368082
2	0x3ff763ce	1.9327333
3	0x3fb2910c	1.3950515
4	0x3ffefa17	1.9920071
5	0x3fa4b40c	1.2867446
6	0x3f55689b	0.8336274
7	0x3fbf68c5	1.4953848
8	0x3fa0fcca	1.2577145
9	0x3fad04c3	1.3517078
10	0x3f5f508c	0.8723228
11	0x3f942982	1.1575167
12	0xbf736461	-0.9507504
13	0x3fc65dfc	1.5497432
14	0xbc758a86	-0.01498664
15	0xbe302acb	-0.17203824
16	0xbfddb71a	-1.7321503
17	0x3fd4128d	1.6568161
18	0x40008f0c	2.008731
19	0x3fbb4d65	1.4632994
20	0x3fc1e2ba	1.5147316
21	0xbfbd06d3	-1.4767708
22	0x3f96a720	1.1769753
23	0x402203e4	2.5314875
24	0x3ff837be	1.9392011
25	0x40119d00	2.2752075
26	0x3fcd7505	1.6051337
27	0xc020e955	-2.5142415
28	0x3fb8f769	1.4450504
29	0x40a507ca	5.157201
30	0xbf332959	-0.69984967
31	0xbffe7342	-1.9878924
32	0x401ade92	2.4198346
33	0x3fdc3bc5	1.720574
34	0x40028905	2.039613
35	0x40028e5b	2.0399387
36	0x3f2375cd	0.63851625
37	0x3fca8aef	1.5823649
38	0x3fd15b88	1.6356058
39	0x3fa1f0e4	1.2651639
40	0x3fba2afc	1.4544368
41	0x3fd2b571	1.6461622
42	0xbf8b36fe	-1.0876157
43	0x3fbed941	1.4910051
44	0x3e2101bb	0.15723316
45	0x3eff4b3f	0.49862096
46	0xc01abad0	-2.4176521
47	0x403e0f73	2.969693
48	0x40262f21	2.5966265
49	0x405bf692	3.4369245
50	0x403bb4e1	2.932915
51	0xbf8e7f71	-1.1132642
52	0x403aad67	2.9168336
53	0x403d262c	2.9554548
54	0x40657fef	3.5859334
55	0x40276e60	2.6161118
56	0x404bdccf	3.185352
57	0xbff66758	-1.9250288
58	0x40493ff0	3.1445274
59	0x4035863e	2.8363185
60	0x3df6b7b2	0.12046756
61	0x3f2d3480	0.67658234
62	0xbf2715e3	-0.6526777
63	0xbfb1559f	-1.3854254
64	0x3f014fe1	0.5051251
65	0xbf04d0dd	-0.518812
66	0xbf040a04	-0.5157778
67	0x3ef3796c	0.47553575
68	0x3e6c08b2	0.23050192
69	0x3e3d6e0e	0.18499014
70	0x3d9de611	0.07709897
71	0x3ef4cec9	0.47814015
72	0xbe05945d	-0.13044877
73	0x3e065ffa	0.1312255
74	0x3f12086e	0.5704411
75	0x3f7d5586	0.98958623
76	0xbedcc3ae	-0.43118042
77	0x3f24ddb8	0.64400816
78	0x3f48e4c3	0.7847406
79	0x3f8423e9	1.0323459
80	0x3f6069c0	0.8766136
81	0x3fa49a1c	1.285953
82	0x3f94954e	1.1608064
83	0x3fa83aa3	1.3142895
84	0x3fc012b9	1.5005714
85	0x3f99a405	1.200318
86	0x3f214263	0.62991923
87	0xbf95938d	-1.1685654
88	0x3fad1f17	1.3525113
89	0x40b44aad	5.6341157
90	0x3ec468e3	0.38361272
91	0x3de075bd	0.10959957
92	0xbf5f980d	-0.87341386
93	0xbf182009	-0.5942388
94	0xbf2ed582	-0.6829454
95	0xbf9658ef	-1.174589
96	0xbf125a68	-0.571692
97	0xbf00c80f	-0.50305265
98	0xbce01bcb	-0.027357003
99	0x3da40273	0.0800828
100	0xbe248626	-0.16066799
101	0xbdfdc64c	-0.12391338
102	0xbef63821	-0.48089698
103	0xbf319c9b	-0.69379586
104	0x3eef912b	0.46790442
105	0x3f02ee84	0.51145196
106	0x3eec09a2	0.461011
107	0xbf1753f0	-0.59112453
108	0xbf9ba9ad	-1.2161156
109	0xbefebca6	-0.49753302
110	0xbf54b7ee	-0.83093154
111	0x3f75ce7c	0.96018195
112	0xbf0cc757	-0.5499167
113	0xbf8374d6	-1.027003
114	0xbfa20b32	-1.2659667
115	0xbf31e58e	-0.694909
116	0xbe92b1ab	-0.28651175
117	0x3e536576	0.20644173
118	0xbf1d0ac1	-0.61344534
119	0xbefe0543	-0.4961339
120	0xbf2d17c6	-0.676144
121	0xbefaf5cb	-0.4901565
122	0x3f288d26	0.65840375
123	0x3f61c05e	0.88184154
124	0xbef6ea7f	-0.4822578
125	0x3f2548f9	0.6456447
126	0x3f1b204f	0.60596174
127	0xbf2a1989	-0.66445214
128	0xbe398f60	-0.181211
129	0xbe8a38a0	-0.26996326
130	0x3e45e4d5	0.19325574
131	0xbf611cb0	-0.879344
132	0xbe924071	-0.2856479
133	0xbf065cd8	-0.5248542
134	0xbfc1b78a	-1.5134137
135	0x3fa86504	1.3155828
136	0xbf510812	-0.8165294
137	0x3f66b29d	0.9011629
138	0x3f6d0907	0.925919
139	0x3f916d52	1.1361487
140	0x3f9749fb	1.1819452
141	0x3f65bc7c	0.8974073
142	0x3f92d995	1.1472651
143	0x3fa23a29	1.2673999
144	0x3fbfb310	1.497652
145	0x3f6c1314	0.9221661
146	0x3f88afba	1.0678627
147	0xbf98dbef	-1.1942118
148	0x3fbebb0d	1.4900833
149	0x40e9eb01	7.309937
150	0x3f1f21e3	0.6216108
151	0x3f29c4f1	0.66316134
152	0xbf555cae	-0.8334454
153	0xbf388268	-0.72073984
154	0xbf733766	-0.95006406
155	0xbf4fd4b0	-0.8118391
156	0x3f8d9194	1.1060052
157	0xbf5a9d77	-0.8539652
158	0xbf9d1e01	-1.2274781
159	0xbf455811	-0.77087504
160	0xbf65d95e	-0.897848
161	0xbf345304	-0.7043917
162	0x3fc094ec	1.5045447
163	0xbf698d8b	-0.912316
164	0xbf084ee1	-0.5324536
165	0xbe77ba4a	-0.24192157
166	0xbfa5dcf4	-1.2958055
167	0x3fd6a137	1.6767949
168	0x3faeabe5	1.3646208
169	0x3f842248	1.0322962
170	0x3fa09acd	1.2547241
171	0x3f542ce7	0.82881016
172	0x3f80853e	1.0040662
173	0x3f8732c6	1.056237
174	0x3f88a588	1.0675516
175	0x3f9f40a3	1.24416
176	0x3fa9aa48	1.3255091
177	0xbf220b5c	-0.63298583
178	0x3f7ca151	0.9868365
179	0xbd509921	-0.050927285
180	0x3f64bc36	0.8934969
181	0x3fa099d0	1.254694
182	0xbf84c359	-1.0372115
183	0xbf49c5ee	-0.7881764
184	0xbf5b795d	-0.8573206
185	0xbf444bac	-0.76677966
186	0x4010fd2c	2.2654524
187	0xbf989855	-1.1921488
188	0xbfbcc697	-1.4748105
189	0xbfce4435	-1.6114565
190	0xbfae563e	-1.3620069
191	0xbfc0aaa7	-1.5052079
192	0x3facfbb6	1.3514316
193	0xbf93d33c	-1.1548839
194	0xbf368a2d	-0.7130459
195	0x3f1ed25f	0.6203975
196	0x3fca143b	1.5787424
197	0xbf4bb891	-0.795785
198	0xbf8f1868	-1.1179323
199	0xbf837af1	-1.0271894
200	0xbf3481f2	-0.7051078
201	0x402edead	2.732341
202	0xbf8ec582	-1.1154025
203	0xbf833ffe	-1.0253904
204	0xbfb8ee53	-1.4447731
205	0xbfc87952	-1.5662024
206	0xbfdb605c	-1.7138782
207	0x3fe36386	1.7764747
208	0xbfafdc19	-1.3739043
209	0xbf61cd98	-0.88204336
210	0x3f2c2741	0.67247397
211	0x3f99288c	1.1965499
212	0xbf1743de	-0.5908793
213	0xbf5c6e72	-0.86106026
214	0xbfa30038	-1.2734442
215	0xbf0cfb0a	-0.55070555
216	0x402e73ad	2.7258103
217	0xbf956c0f	-1.1673602
218	0xbfac9084	-1.3481603
219	0xbf94ca4e	-1.1624238
220	0xbfb5e561	-1.4210626
221	0xbfaa5011	-1.3305684
222	0x3fb47b1e	1.4100072
223	0xbf6649b1	-0.89956194
224	0xbf5161ec	-0.8179004

onnx::MatMul_33 f4 [15, 15]
0	0xbf517d8a	-0.8183218
1	0x3e5b4b43	0.21415429
2	0xbf07398c	-0.52822185
3	0xbdfa0e6f	-0.12209784
4	0xbf81c4c1	-1.013817
5	0xbe0411a3	-0.12897353
6	0xbfa079da	-1.2537186
7	0xbfb3a7c9	-1.4035579
8	0xbf93ed0f	-1.155672
9	0xbf5f2c30	-0.871768
10	0xbf5f1a9f	-0.87149996
11	0xbf00a692	-0.50254166
12	0xbeafd985	-0.34345642
13	0xbedea9e1	-0.43488982
14	0xbdb5ebe9	-0.08882887
15	0xc0130c8d	-2.297641
16	0xbe852571	-0.26005128
17	0xbfc27c37	-1.5194157
18	0xbf7de494	-0.9917691
19	0xc01fc806	-2.4965835
20	0xbf8eda0e	-1.1160295
21	0xbfc47fa9	-1.5351459
22	0xbf9eeb30	-1.2415524
23	0xc012ede0	-2.2957687
24	0xc0018de4	-2.0242853
25	0xbfc45232	-1.5337584
26	0xbfd09869	-1.6296512
27	0xbf8a9fdd	-1.0830036
28	0xbfa94989	-1.3225566
29	0xbf190fd2	-0.59789765
30	0x3fed12ad	1.8521324
31	0xbe5eb546	-0.21748838
32	0x3f58947a	0.8460156
33	0x3e883b43	0.26607713
34	0x3ff4fa1c	1.9138827
35	0x3f458751	0.771596
36	0x40078249	2.117327
37	0x3fb65585	1.4244848
38	0x3fd3af2b	1.6537832
39	0x3fd9078e	1.695543
40	0x3fae75f8	1.3629751
41	0x3fa7bb22	1.3103983
42	0x3f25738a	0.64629424
43	0x3f94eb47	1.1634301
44	0xbe2e68f4	-0.17032224
45	0x3ffb0928	1.9612169
46	0x3ede7196	0.43446034
47	0xbcb645c7	-0.02225007
48	0x3f48d72b	0.7845332
49	0x40101c91	2.2517436
50	0x3fa44f07	1.2836617
51	0x3f95f45d	1.1715199
52	0x3f0e9df2	0.55709755
53	0x400e8bc9	2.2272818
54	0x3ffb8df2	1.9652693
55	0x3fe858ba	1.8152077
56	0x3ebe3f2a	0.37157565
57	0x3f98b54a	1.1930325
58	0x3fab2ae2	1.3372462
59	0x3e2b9cbb	0.16759007
60	0x3f268812	0.65051377
61	0xbf0127f3	-0.5045158
62	0x3fdcd2f7	1.7251881
63	0xbe44dff6	-0.1922606
64	0x3f5315c9	0.82455117
65	0x3d9d64ef	0.07685267
66	0x40173e62	2.3631825
67	0x400c7c6b	2.1950939
68	0x3f76eae1	0.96452147
69	0x3f25bf83	0.6474535
70	0x3f127cb4	0.5722153
71	0x4002975e	2.0404887
72	0xbe5ed400	-0.21760559
73	0x3d12b1ba	0.035814025
74	0xbedd938b	-0.4327663
75	0x3f9a812a	1.2070668
76	0xbed70406	-0.41995257
77	0x3f1dba42	0.6161233
78	0x3edabf29	0.4272397
79	0x3fbe6420	1.4874306
80	0x3f47a77d	0.7798994
81	0x400676eb	2.1010082
82	0x3fca90e9	1.5825473
83	0x3fc8314f	1.5640048
84	0x3fb4a1d9	1.4111892
85	0x3fa21b66	1.2664611
86	0x3f75e981	0.96059424
87	0x3f0a0325	0.5391105
88	0x3f32e711	0.6988383
89	0xbe7cdc5f	-0.2469344
90	0xbfd011ef	-1.6255473
91	0xbea10a9a	-0.314534
92	0xbf833bf5	-1.0252672
93	0xbf121557	-0.5706381
94	0xbfde0265	-1.7344481
95	0xbf1b8b4b	-0.6075942
96	0xbfa42f92	-1.2827017
97	0xbf92b4c0	-1.146141
98	0xbfd4e857	-1.6633404
99	0xbfb504ee	-1.414213
100	0xbf9d9f2a	-1.2314198
101	0xbf836df7	-1.0267934
102	0xbef7a3ac	-0.4836706
103	0xbf7f5053	-0.9973194
104	0xbe227452	-0.15864685
105	0x3f1b091c	0.60560775
106	0x3e92efec	0.2869867
107	0x3fb3adf8	1.4037466
108	0x3da0a2ba	0.07843538
109	0x3f2128ab	0.6295268
110	0xbdd656ad	-0.10465751
111	0x40034ad7	2.0514429
112	0x400e8103	2.2266243
113	0x3f1f35df	0.62191576
114	0x3ee5ad81	0.44858935
115	0x3f00ff2e	0.50389373
116	0x3ff11e11	1.88373
117	0xbe50941f	-0.20369004
118	0x3eaf1c38	0.34201217
119	0x3dca2db2	0.09871997
120	0x3fec395a	1.8455002
121	0x3f4db21d	0.80349904
122	0x3f9a8cd8	1.2074232
123	0x3f39c679	0.7256847
124	0x3ff432db	1.907802
125	0x3f6d0adf	0.9259471
126	0x400d5131	2.2080805
127	0x3ffaf9d3	1.960749
128	0x3fc3a1cc	1.5283751
129	0x3fd29e32	1.6454527
130	0x3fe05261	1.752514
131	0x3fc813f0	1.5631084
132	0x3f4c369c	0.7977083
133	0x3fa047a1	1.252186
134	0x3ea206fd	0.31645957
135	0x3fc7d6fd	1.5612484
136	0x3f2bc3db	0.67095727
137	0x3fb9780b	1.4489759
138	0x3f331c46	0.69965017
139	0x3ff1f39f	1.8902472
140	0x3f4a0de1	0.7892743
141	0x4010c8b0	2.262249
142	0x3fe6944c	1.8014007
143	0x3fb734c5	1.4312979
144	0x3fa06013	1.252932
145	0x3f8a6d0f	1.0814532
146	0x3ff048a4	1.8772168
147	0x3f526c91	0.8219691
148	0x3f48f60e	0.7850045
149	0x3f00b3f9	0.50274616
150	0x3fd5900c	1.6684585
151	0x3f6dfbae	0.9296216
152	0x3f7a2edd	0.9772776
153	0x3f1a5a6a	0.6029421
154	0x3ff62a7e	1.9231718
155	0x3f6990d0	0.9123659
156	0x4000cd7c	2.0125418
157	0x3fcbd1a3	1.5923351
158	0x3fea5232	1.8306334
159	0x3fc3e5f5	1.5304552
160	0x3fc954b2	1.5728972
161	0x3f95f997	1.1716794
162	0x3f63f813	0.89050406
163	0x3f7ca3fa	0.9868771
164	0x3f5b9e2d	0.8578823
165	0x3f8df298	1.1089659
166	0x3edb3c31	0.4281936
167	0x40036ebb	2.0536335
168	0x3e9031f0	0.281631
169	0x3fa5dd2f	1.2958125
170	0x3da338c4	0.079698116
171	0x401b00c8	2.4219227
172	0x40218b0d	2.524112
173	0x3f7fd432	0.9993316
174	0x3f165b40	0.58732986
175	0x3f297248	0.66190004
176	0x40113697	2.268957
177	0x3e24fad7	0.16111313
178	0x3eb1e770	0.34746885
179	0x3e469958	0.19394433
180	0xc00a0b19	-2.1569273
181	0xbf65d66c	-0.89780307
182	0xbfc5503f	-1.5415114
183	0xbf81adad	-1.0131127
184	0xc0061d57	-2.0955408
185	0xbf6bc8a4	-0.9210303
186	0xbf9c66d4	-1.2218881
187	0xbf86a27d	-1.0518337
188	0xc00cc23b	-2.199355
189	0xbfef87a3	-1.8713268
190	0xbff82ddd	-1.9388996
191	0xbfd1fefd	-1.6405941
192	0xbf8968ea	-1.0735142
193	0xbfb1469c	-1.3849673
194	0xbf4c3fea	-0.79785025
195	0x3f6d074d	0.92589265
196	0x3e6cd7ab	0.23129146
197	0x3faff8a6	1.3747756
198	0xbd8b9bff	-0.06816863
199	0x3f4b5795	0.79430515
200	0x3e0e9392	0.13923481
201	0x4018d8b9	2.3882277
202	0x3fef2174	1.8682084
203	0x3f2ef03b	0.6833531
204	0x3f731cf4	0.94966054
205	0x3f59cbb1	0.85076433
206	0x3ff311c6	1.8989799
207	0xbdbae7b7	-0.09126227
208	0x3e4aef5c	0.19817871
209	0x3d924c8e	0.07143508
210	0xbfaab5ca	-1.3336728
211	0xbee84a04	-0.4536897
212	0x401bbc72	2.4333768
213	0xbf9f6a39	-1.2454292
214	0xbfa66d5c	-1.3002124
215	0xc00f2204	-2.2364511
216	0x3f8f242a	1.1182911
217	0x3fc98cb5	1.5746065
218	0xbfb1ca0f	-1.3889788
219	0xbfe39d68	-1.7782412
220	0xbfbe1cda	-1.4852555
221	0x3fceef13	1.616671
222	0xbfc5f588	-1.5465555
223	0xbfb64016	-1.4238307
224	0xbf1e465f	-0.6182613

onnx::MatMul_34 f4 [15, 15]
0	0x4008f77b	2.140105
1	0x3f535b10	0.82560825
2	0x3f26c53e	0.6514472
3	0x3ec1cf4e	0.37853473
4	0xbf12e0b0	-0.57374096
5	0x3f4a62de	0.7905711
6	0x400317fa	2.0483384
7	0x3fd1e4a0	1.6397896
8	0xbf577878	-0.84168196
9	0x3ed3a00e	0.4133305
10	0x3f1d0d1f	0.61348146
11	0xbf8ce6bd	-1.1007916
12	0x3ff3aa1c	1.9036288
13	0x3f8aa159	1.0830489
14	0xbe314e49	-0.1731502
15	0x3f4998d2	0.7874881
16	0x3ef3b68e	0.47600216
17	0x3f338fdd	0.7014139
18	0xbf80ca6c	-1.0061774
19	0x3f037c6e	0.5136174
20	0x3ed420ee	0.41431373
21	0x3f2b4b3f	0.6691169
22	0x3e8645e5	0.262252
23	0x3efec25c	0.4975766
24	0x3f118c1a	0.56854403
25	0x3ec2020f	0.37892196
26	0x3f1fa354	0.62358594
27	0x3ec35d35	0.3815705
28	0x3f005616	0.50131357
29	0xbecbc20c	-0.39796484
30	0xbfa5b0e9	-1.2944614
31	0xbf8b705a	-1.0893662
32	0xbf9ccbde	-1.2249715
33	0xbedb637f	-0.42849347
34	0x3e30ad5e	0.17253634
35	0xbf9fb7be	-1.2477949
36	0xbfa00143	-1.2500385
37	0xbfb31ff4	-1.3994126
38	0x3ed21606	0.41032428
39	0xbf8d0d06	-1.10196
40	0xbfb15030	-1.3852596
41	0x3f113f29	0.56737
42	0xbf9c0999	-1.2190429
43	0xbf9fe98b	-1.2493147
44	0x3f7fcce6	0.99922025
45	0x3f04a2b5	0.5181077
46	0x3ec4bcbd	0.38425246
47	0x3ececc95	0.4039046
48	0xbe9cbcfc	-0.30612934
49	0xbd88f9fa	-0.06688304
50	0x3e2cc088	0.1687032
51	0x3e942b27	0.28939173
52	0x3ecf5b71	0.40499452
53	0xbe1aa0f3	-0.1510046
54	0x3e5d077e	0.2158489
55	0x3ef5800e	0.4794926
56	0xbed83444	-0.42227376
57	0x3f434a21	0.76284987
58	0x3f2d3ec0	0.67673874
59	0xbe45ab88	-0.19303715
60	0x402758fc	2.6148062
61	0x3f8b0e47	1.0863732
62	0x3f91d2dc	1.1392474
63	0x3e404ecf	0.18780063
64	0xbf7b4ac9	-0.9816099
65	0x3f45a223	0.77200526
66	0x4018dd37	2.388502
67	0x400edc4e	2.2321963
68	0xbf4bc944	-0.7960398
69	0x3f64e250	0.89407825
70	0x3f6d6989	0.9273916
71	0xbf90537a	-1.1275475
72	0x4034bab6	2.823896
73	0x3fc74284	1.5567174
74	0xbea8a197	-0.32935783
75	0x3f572f37	0.8405642
76	0x3e09f4fa	0.13472357
77	0x3f0c1f7a	0.5473553
78	0x3db55f24	0.08856037
79	0xbf3bda11	-0.7337962
80	0x3eae2bba	0.34017736
81	0x3f4110fb	0.75416535
82	0x3f69cc58	0.9132743
83	0xbea9b2be	-0.33144182
84	0x3e9afbfb	0.3027037
85	0x3f0ffbd5	0.5624364
86	0xbf31e1bd	-0.69485074
87	0x3f0e2c01	0.55535895
88	0x3efe997a	0.49726468
89	0x3df29d9f	0.1184647
90	0xbfdac22f	-1.709051
91	0xbfd3e103	-1.6553043
92	0xbfcbbcd4	-1.5917001
93	0x3f1045ca	0.5635649
94	0x3f04ddd8	0.51901007
95	0xbfdd008b	-1.7265791
96	0xbfec2a84	-1.8450475
97	0xbfcc8ea8	-1.5981035
98	0x3ea4c3d7	0.32180664
99	0xbfe3a9b4	-1.7786164
100	0xbfe1f237	-1.7652043
101	0x3ef47c07	0.47750875
102	0xbfc4cebc	-1.537559
103	0xbfbfe52a	-1.499181
104	0x3ffb3cad	1.9627892
105	0xbfdbb5b3	-1.7164825
106	0xbfbe0533	-1.4845337
107	0xbfc6dbc0	-1.5535812
108	0x3f01025e	0.5039424
109	0x3f1ef4f4	0.6209252
110	0xbfccb38c	-1.5992293
111	0xbfdb3210	-1.7124653
112	0xbfd124bf	-1.6339339
113	0x3f3a0118	0.7265792
114	0xbfc4b21f	-1.5366858
115	0xbfb9c5e2	-1.4513514
116	0x3f390c08	0.72283983
117	0xbfe71e9c	-1.8056216
118	0xbfd0cfc3	-1.6313404
119	0x3fc4ce1d	1.5375401
120	0x4002c5d4	2.0433245
121	0x3f384be9	0.7199083
122	0x3f4a45c6	0.79012716
123	0x3e93c0d8	0.28858066
124	0xbf2ad888	-0.6673665
125	0x3f1eaade	0.6197947
126	0x400187bd	2.0239098
127	0x3fc3184b	1.5241789
128	0xbf53f4e4	-0.8279555
129	0x3f17e55c	0.5933435
130	0x3f554b65	0.8331817
131	0xbfcd2824	-1.6027875
132	0x400f9201	2.2432864
133	0x3fd9b906	1.700959
134	0xbd4ac741	-0.04950643
135	0x3fefdbe0	1.8738976
136	0x3f6208fb	0.88294953
137	0x3f7be1ad	0.9839123
138	0x3f1f5659	0.6224113
139	0xbf182a6b	-0.59439725
140	0x3f4f876d	0.8106602
141	0x3fd7d5ce	1.6862123
142	0x3fb96359	1.4483443
143	0xbf3102d3	-0.69144934
144	0x3ef186b3	0.4717308
145	0x3f0efd2c	0.5585506
146	0xbfb61f3d	-1.4228283
147	0x3ffdca8c	1.9827437
148	0x3f88aabb	1.0677103
149	0x3e1c3130	0.15253139
150	0x3fbd4ce8	1.4789095
151	0x3f2c431c	0.672899
152	0x3f487440	0.78302383
153	0x3e7cf19e	0.24701545
154	0xbef2670a	-0.47344238
155	0x3ee10db6	0.43955773
156	0x3fcd97fc	1.6062007
157	0x3f9cad40	1.2240372
158	0xbf0a850a	-0.5410925
159	0x3e9b4541	0.30326274
160	0x3f2947c2	0.6612512
161	0xbf60e1d3	-0.8784458
162	0x3f9f85b8	1.2462683
163	0x3f80b2b0	1.0054531
164	0x3e2462ce	0.16053316
165	0xbfaf2e60	-1.3686028
166	0xbfc9bb03	-1.5760196
167	0xbf90bb58	-1.1307173
168	0xbd068829	-0.032844696
169	0x3e83f285	0.25770965
170	0xbfc03cda	-1.501857
171	0xbf836357	-1.0264691
172	0xbfb62669	-1.4230472
173	0x3e82a869	0.25519112
174	0xbfaaa747	-1.3332299
175	0xbfbd6841	-1.4797441
176	0x3e0076dc	0.12545341
177	0xbfb51664	-1.4147458
178	0xbfa8b64c	-1.3180633
179	0x3f901b37	1.1258305
180	0x3f3477d7	0.7049536
181	0x3e38febe	0.18065926
182	0x3e4a5968	0.19760668
183	0xbeb778df	-0.35834405
184	0xbebed1d5	-0.37269464
185	0xbdcd8bfb	-0.10036465
186	0x3ef5837d	0.4795188
187	0x3f1be3b0	0.608943
188	0xbea0d899	-0.3141525
189	0x3e15d750	0.14632916
190	0x3ecdb538	0.4017732
191	0xbeb8ffbb	-0.36132607
192	0x3ec855a2	0.39127833
193	0x3efc3408	0.49258447
194	0xbd35c6f7	-0.0443792
195	0x3f4c1d5d	0.79732305
196	0x3e388f06	0.18023309
197	0x3ed4c183	0.41553888
198	0x3e08338a	0.1330091
199	0xbe7a14ee	-0.24422047
200	0x3e9fc61b	0.3120583
201	0x3f575e33	0.8412811
202	0x3f13b2c9	0.5769468
203	0xbef43825	-0.47699085
204	0x3d81b286	0.06332879
205	0x3ef52130	0.47876883
206	0xbf2f72ce	-0.68534553
207	0x3f39b1cd	0.7253693
208	0x3ee40294	0.44533217
209	0x3ebae253	0.36500797
210	0x3f041ec8	0.5160947
211	0x3e8769ba	0.2644785
212	0x3e427ff0	0.18994117
213	0xbf83e56c	-1.0304389
214	0x3dc62a68	0.09676057
215	0xbdacb6fe	-0.084333405
216	0x3eda6c87	0.42660925
217	0x3f0f8f9b	0.560785
218	0x3dd4e27a	0.103947595
219	0x3e1cc905	0.15311058
220	0x3e774ab3	0.24149589
221	0x3dfa5a73	0.12224283
222	0x3f05ce54	0.52267957
223	0x3f0ff7dd	0.56237584
224	0x3c01e423	0.007927927

onnx::MatMul_35 f4 [15, 1]
0	0xc0070b3a	-2.1100602
1	0xbfa1ee5d	-1.2650868
2	0xbfa6df59	-1.303691
3	0x3dab54e8	0.08365804
4	0xbe1a8502	-0.15089801
5	0xbfa109eb	-1.2581152
6	0xbfe1fd40	-1.7655411
7	0xbfcd8c01	-1.6058351
8	0xbe4af609	-0.19820417
9	0xbfa9c5d1	-1.3263494
10	0xbfbd2eed	-1.4779946
11	0xbeb4542f	-0.35220477
12	0xbff95e07	-1.948182
13	0xbfba773e	-1.456764
14	0x3e35a422	0.17738393
