onnx/myModel_HL3_HD15_449.onnx (onnx, 4793 bytes, 9 tensors)

net.0.bias f4 [15]
000000 e7 fa 1e c0 5e 1a 0b c0 db 68 16 c0 59 0b 4e c0
       -2.4840639 -2.1734843 -2.3501499 -3.2194426
000010 24 ef 65 40 2f 62 3c c0 60 1d 2a 40 0b 72 df 3f
       3.592721 -2.9434927 2.658043 1.7456678
000020 37 78 91 be 42 3b 31 c0 17 e8 1b 40 06 c0 05 c0
       -0.2841203 -2.7692418 2.4360406 -2.0898452
000030 49 06 29 40 21 8e 43 40 c0 cc 39 40
       2.6410086 3.0555499 2.903122

net.2.bias f4 [15]
000000 89 d1 f5 bd 08 8d 8b be 11 cf b9 3e 98 b7 f4 3d
       -0.12002856 -0.27256036 0.36290792 0.1194908
000010 1c 2b 67 3d e9 29 83 3e 4b 90 a0 bf a6 42 e9 3e
       0.056437597 0.25617912 -1.2544035 0.4555866
000020 e6 f9 f1 3e 8e d1 22 3f af e0 7e 3f c8 40 14 3f
       0.4726097 0.63601005 0.9956159 0.5791135
000030 db f0 0f bf 1b 4f 21 3f 21 a3 86 be
       -0.5622689 0.6301133 -0.26296332

net.4.bias f4 [15]
000000 f5 3f 78 bf 50 db 69 be d3 63 2e bf 79 ff a2 be
       -0.9697259 -0.22837567 -0.6812107 -0.31835535
000010 02 92 ac bf 47 02 67 be ed c4 b8 bf c2 61 c5 bf
       -1.3482058 -0.22559462 -1.4435097 -1.5420458
000020 d6 d1 54 bf be c3 41 bf ed be 71 bf 90 f6 80 bf
       -0.83132684 -0.75689304 -0.94431955 -1.0075245
000030 27 3a bf bd e9 25 ee be 2a 3d 19 3e
       -0.093372636 -0.46513298 0.14964738

net.6.bias f4 [15]
000000 37 bf a5 3d 47 8f 2e 3e 46 56 b4 bd f3 1c 12 be
       0.08093112 0.17046843 -0.08805518 -0.14268856
000010 0e 18 82 bf e3 75 eb 3e 0c 91 bd bc c7 f6 9c 3e
       -1.0163591 0.45988378 -0.023140453 0.30657026
000020 ff cd 8c bf 66 5d 5b 3e f4 d8 dc 3e d1 d4 71 bf
       -1.1000365 0.21422347 0.43134272 -0.9446536
000030 ed 4a 1f 3d 9f d6 39 3c a7 2c 79 bf
       0.038889814 0.011342674 -0.9733376

onnx::MatMul_31 f4 [2, 15]
000000 a2 45 3e bf c2 ab c8 bf eb 28 c4 3e 99 d9 96 3f
       -0.74325 -1.5677416 0.38312468 1.1785156
000010 bd 9d 70 40 da 78 0a c0 49 05 79 c0 09 97 ef bf
       3.7596276 -2.1636262 -3.8909476 -1.8717967
000020 97 60 6d c0 19 40 2a c0 01 2b d1 3f 43 76 8d 3f
       -3.7090204 -2.6601622 1.6341249 1.1051716
000030 25 b6 49 bf ba fc 83 3e 29 0b 2b 3e 4d ca d7 3f
       -0.78793555 0.25778753 0.16703476 1.6858612
000040 a7 b4 73 be 0e b7 d1 3f 1f 2f 01 be 16 a7 44 c0
       -0.23799382 1.6383989 -0.12615632 -3.072698
000050 da 96 6d 3f 5c 68 68 be 26 ae 22 3f d9 a7 a1 40
       0.92808306 -0.2269606 0.6354698 5.051739
000060 0a 09 5e 3f ca 0f ad 3f 4e d0 41 3f 44 b4 c2 3f
       0.8673254 1.3520443 0.7570847 1.5211263
000070 58 f5 bc 3f f3 4d b4 3f
       1.4762373 1.4086288

onnx::MatMul_32 f4 [15, 15]
000000 34 1a 99 be ce 7f 4b bf 90 fa c6 3f f7 ab 0b 3f
       -0.29902804 -0.7949189 1.5545216 0.5455927
000010 3c fb 41 40 21 66 f3 3e 66 23 07 3f c8 1a 2a 40
       3.0309591 0.47538856 0.5278839 2.6578846
000020 9d a2 88 3f ce cc a9 3f 11 e8 89 3e c1 3f 15 40
       1.0674626 1.3265626 0.26934865 2.3320162
000030 26 16 5e bf 59 19 16 40 a8 89 ac 3b 43 db 53 bf
       -0.86752546 2.345297 0.0052654333 -0.8275644
000040 14 a4 ca bf 94 39 da 3f d8 ae 7a 3f 83 9e d9 3f
       -1.5831323 1.7048821 0.9792304 1.7001499
000050 41 18 e5 3f 80 9e ef bf 15 90 aa 3f 58 7c 2c 40
       1.7898027 -1.8720245 1.332522 2.6950893
000060 88 8f ff 3f d8 4c 0e 40 34 ba e8 3f 37 9e 2b c0
       1.9965677 2.2234402 1.8181825 -2.6815317
000070 e5 27 01 40 28 18 a2 40 d7 a3 14 bf 4b 06 03 c0
       2.01806 5.0654488 -0.580625 -2.047259
000080 e5 36 36 40 3d b8 fe 3f b8 15 fa 3f 85 ec 00 40
       2.8471005 1.9899975 1.9537878 2.014436
000090 20 eb e4 3e 0e 84 d2 3f 9f 11 d0 3f f1 fe a2 3f
       0.44710636 1.644655 1.6255378 1.2734052
0000a0 5b c9 ce 3f cf d4 e5 3f ac 0c a5 bf c9 7d c4 3f
       1.6155199 1.7955569 -1.2894492 1.5350887
0000b0 77 e1 77 3e 22 98 ac 3f 61 76 22 c0 b2 c1 4a 40
       0.24207102 1.3483927 -2.5384753 3.1680722
0000c0 e0 5e 56 40 d5 2d fe 3f 51 1d 46 40 b1 54 e5 bf
       3.3495407 1.9857737 3.0955393 -1.7916471
0000d0 d5 53 d7 3f e7 3f 3f 40 1c 95 6c 40 9a 17 40 40
       1.6822459 2.9882753 3.696601 3.0014405
0000e0 c2 b7 21 40 11 9c eb bf 34 6b 08 40 b8 dd 6a 40
       2.5268407 -1.8407003 2.1315432 3.6697826
0000f0 4a 08 98 be ea c4 93 3f 42 6e 41 3d b0 4c fd bf
       -0.29693824 1.1544468 0.04722429 -1.9789028
000100 71 5b 87 3f dd 9d a2 bd be 23 7e bf e9 3b 77 3f
       1.0574781 -0.07940266 -0.9927329 0.9657579
000110 a1 d9 66 3e 04 ef 7b 3e 5b 1e b6 3d 0c 66 21 3f
       0.22543956 0.24602896 0.088925086 0.63046336
000120 d5 b7 19 3d 5e ce 22 3f 01 95 0f 3f 68 83 50 3f
       0.03752883 0.6359614 0.56086737 0.8145051
000130 2b c5 1a bf e9 30 d5 3e 69 be 26 3f 17 d2 42 3f
       -0.60457104 0.41638878 0.6513429 0.7610182
000140 b5 d0 62 3f 27 06 b8 3f 8f 62 84 3f 41 28 be 3f
       0.8859971 1.4376878 1.0342578 1.4856035
000150 dc e2 d3 3f e3 0c ad 3f 8c 0c 7e 3f 2d 49 ae bf
       1.6553607 1.3519558 0.99237895 -1.3616081
000160 0a ef bb 3f cc f7 b1 40 93 15 29 be 4d 27 be bd
       1.4682324 5.5614986 -0.16512136 -0.0928484
000170 81 96 5e bf e0 00 84 bf d3 57 bb bf cb 04 b8 bf
       -0.869484 -1.0312767 -1.4636177 -1.4376463
000180 5a 83 5f bf 44 07 9d bf ef 51 80 3e 25 fc 79 3e
       -0.873098 -1.2267842 0.2506251 0.24412592
000190 d2 28 69 3c 9f 25 ae be 4e a9 41 bf 64 58 77 bf
       0.014230924 -0.34013078 -0.75648963 -0.9661925
0001a0 c5 38 aa 3f 60 a9 23 3e 52 0a 03 3f a0 6a fa be
       1.3298575 0.1598258 0.5118762 -0.48909473
0001b0 90 b9 d1 bf 2f fd 5e bc 21 40 51 bf 0f 57 41 3f
       -1.6384754 -0.013610168 -0.8173848 0.75523466
0001c0 e8 1e 51 bd c6 d8 81 bf bc c5 ab bf 68 ad 4e bf
       -0.051054865 -1.0144279 -1.3419719 -0.80733347
0001d0 42 d4 27 3e ca 92 13 3e 70 f8 8d bd 1f 4b 30 bf
       0.16389564 0.14411464 -0.06932151 -0.68864626
0001e0 4d c4 81 bf e5 45 82 be a5 55 54 3f 68 22 8e 3f
       -1.0138031 -0.2544395 0.82943183 1.110425
0001f0 e4 d0 1b bf 47 71 59 3f 6e 43 6f bf 99 e4 38 bf
       -0.60865617 0.8493847 -0.93462265 -0.7222381
000200 c6 ac d1 be 57 f7 50 bf d6 c4 89 3e f0 a9 9e bf
       -0.40952128 -0.8162741 0.26907986 -1.2395611
000210 db e5 d1 be 70 c2 cb be 03 60 0f c0 33 43 af 3f
       -0.40995678 -0.39796782 -2.240235 1.3692383
000220 65 f0 68 bf d5 57 3b 3f ea d7 1b 3f 0e 60 55 3f
       -0.9099181 0.73180896 0.60876334 0.8334969
000230 29 c7 9c 3f 4c aa b0 3f 54 6d 7e 3f d2 a7 b8 3f
       1.2248279 1.380197 0.9938557 1.4426215
000240 34 53 d3 3f 4e fe 85 3f aa 8e ab 3f 3f f5 b1 bf
       1.6509767 1.0468233 1.3402913 -1.3902968
000250 ca 72 d2 3f e7 77 ed 40 16 68 7d 3f 73 45 22 3f
       1.6441281 7.4208865 0.9898695 0.6338722
000260 c6 3e 80 bf 64 8a e0 be 73 cf a6 bf 89 d1 81 bf
       -1.0019157 -0.43855584 -1.3032058 -1.014207
000270 22 3a 06 3f 51 ba 8e bf fd d1 a3 bf 12 87 33 bf
       0.52432454 -1.1150609 -1.2798458 -0.70127976
000280 31 55 2c bf 9b 11 4e bf 41 1b c8 3f f1 dc a0 bf
       -0.6731749 -0.80495614 1.5633317 -1.2567426
000290 8a 8e f8 be e2 07 89 bd f5 f8 a9 bf e0 1b f3 3f
       -0.4854625 -0.06690957 -1.3279101 1.8992882
0002a0 29 70 d2 3f bc 40 57 3f ac 4a b7 3f ee 5f 7e 3e
       1.6440479 0.8408315 1.4319663 0.24841282
0002b0 6b d7 6f 3f 4a 69 7d 3f 61 5c 7f 3f 12 d4 b5 3f
       0.93688077 0.98988783 0.99750334 1.4205344
0002c0 f6 a2 a5 3f 8c 62 36 bf 0e df 72 3f 39 75 8f 3e
       1.2940357 -0.7124412 0.94871604 0.2801912
0002d0 28 04 4f 3f 36 5b a8 3f d5 2b 82 bf 49 49 41 bf
       0.80865717 1.3152835 -1.0169626 -0.7550245
0002e0 1a f0 75 bf 17 49 2b bf 2d 2c f3 3f 6e 63 99 bf
       -0.9606949 -0.669084 1.8997856 -1.1983469
0002f0 cb 22 cb bf 2e 1b ed bf 36 ce aa bf eb ba c2 bf
       -1.5869993 -1.852392 -1.334418 -1.5213293
000300 10 5c a7 3f 70 1a 8a bf 43 42 e0 be 5e c4 4f 3f
       1.307497 -1.0789318 -0.43800554 0.8115901
000310 5f 05 d4 3f b1 91 64 bf e6 b1 89 bf 3e 9b 99 bf
       1.6564139 -0.8928481 -1.0757415 -1.2000501
000320 9a 40 38 bf 3c 85 05 40 7a 90 99 bf a1 17 91 bf
       -0.71973574 2.086257 -1.1997216 -1.1335336
000330 27 71 cb bf 77 ac c4 bf 99 02 e5 bf 25 25 ea 3f
       -1.5893906 -1.5365132 -1.7891418 1.8292586
000340 02 dc b2 bf f6 8e 2f bf 9c 20 53 3f a3 0b a1 3f
       -1.3973391 -0.68577516 0.8247163 1.2581676
000350 52 a6 2c bf 1d 8e 51 bf 63 e8 b6 bf f4 db 0a bf
       -0.67441285 -0.8185747 -1.4289669 -0.5424187
000360 51 a2 08 40 94 92 9e bf e2 8c b8 bf 18 c2 a7 bf
       2.134907 -1.2388482 -1.4417994 -1.3106108
000370 8f 23 b1 bf d8 1b b2 bf b6 e8 b9 3f fa 11 68 bf
       -1.3838977 -1.3914747 1.4524143 -0.9065243
000380 b7 63 1d bf
       -0.6148028

onnx::MatMul_33 f4 [15, 15]
000000 29 55 2e bf 6f a9 03 3f 5e 61 19 bf f2 94 27 3d
       -0.68098694 0.5143041 -0.59914196 0.04091353
000010 60 30 5d bf 05 3c 90 3d da c9 c7 bf 03 d4 da bf
       -0.8640194 0.07042698 -1.5608475 -1.7095951
000020 59 a7 88 bf 45 32 41 bf 24 ee 46 bf d7 f9 37 bf
       -1.067607 -0.7546733 -0.77707124 -0.718656
000030 c6 e0 42 be 91 77 93 be cd b8 9b bd 42 4e 14 c0
       -0.19031057 -0.2880216 -0.07603607 -2.3172765
000040 2c e0 ed be ef 5e b5 bf 1e 91 78 bf ba 15 1f c0
       -0.46460092 -1.4169596 -0.9709643 -2.485701
000050 00 4b 7f bf 68 44 d6 bf a2 cf a8 bf ac d0 18 c0
       -0.99723816 -1.6739626 -1.3188365 -2.3877363
000060 08 c6 07 c0 05 8e ce bf 14 06 ce bf a2 72 91 bf
       -2.1214619 -1.6137091 -1.6095605 -1.1363108
000070 d0 df b0 bf 2d 15 c2 be e7 18 de 3f fc 03 2e 3b
       -1.3818302 -0.3790678 1.735135 0.0026552668
000080 f9 09 80 3f 45 ed 9e 3e 59 59 e4 3f c6 61 81 3f
       1.0003043 0.31040397 1.7839767 1.0107963
000090 79 12 1d 40 b4 4a ac 3f 87 d1 cf 3f 33 4a e2 3f
       2.4542525 1.3460298 1.6235818 1.7678894
0000a0 8c 01 ab 3f 04 ac a9 3f b4 80 3b 3f 0d a2 a2 3f
       1.3359847 1.325562 0.7324326 1.2705704
0000b0 ed fe 00 bf bf 53 18 40 6a 04 e0 3f 85 fc 8b bf
       -0.50388986 2.3801115 1.7501347 -1.0936438
0000c0 75 ab 07 40 c0 27 22 40 d6 fd 34 40 dd 70 17 bd
       2.11984 2.5336761 2.827993 -0.03697287
0000d0 07 50 70 bf 76 4b 43 40 4c da 46 40 c1 16 2a 40
       -0.9387211 3.0514808 3.1070738 2.6576388
0000e0 73 2d 7d bf 07 ca 26 40 50 22 2f 40 02 6c 4a 3f
       -0.98897475 2.6060808 2.7364693 0.79071057
0000f0 64 df b1 3e 62 99 4d bf 7d 70 28 40 02 dd 46 bf
       0.34740746 -0.8031217 2.6318657 -0.7768098
000100 46 48 f4 3e 73 93 55 bf cf ff 3a 40 e2 6d 2b 40
       0.4771139 -0.83428115 2.9218633 2.6785817
000110 f0 f2 f6 3e 31 95 8b 3d 00 ff da 3d f9 3b 29 40
       0.48232222 0.068155654 0.10693169 2.6442854
000120 8d cb 5b bf f9 ef 0a bf 78 e4 89 bf 58 19 8e 3f
       -0.8585747 -0.5427242 -1.0772848 1.1101484
000130 75 97 91 be 8c 0a 01 3f b1 1c 37 3f 32 5a ad 3f
       -0.28435865 0.5040672 0.71528155 1.354315
000140 bf ec a4 3f 6e ac 24 40 5b 8b ad 3f 02 6c ce 3f
       1.2884749 2.5730243 1.3558153 1.6126711
000150 07 9d d3 3f 73 d5 aa 3f e6 b2 51 3f 0d 3d 67 3f
       1.6532296 1.334639 0.819136 0.9032753
000160 b9 b1 87 3f f3 50 d3 be ce 98 dc bf eb 8c fe bd
       1.0601112 -0.41272697 -1.7234132 -0.12429222
000170 2c 31 78 bf 41 e9 02 bf bf 08 eb bf 72 d7 cc be
       -0.9695003 -0.5113717 -1.8362044 -0.40008122
000180 2a 6e bb bf 0f f1 a9 bf 5d 32 da bf 6f e7 af bf
       -1.4642994 -1.327669 -1.704662 -1.3742503
000190 04 26 a4 bf b0 7f 8e bf fd 77 d5 be 00 de 6d bf
       -1.2824101 -1.1132717 -0.41693106 -0.9291687
0001a0 ee 3a 93 be b1 a8 00 3f ed 35 ad 3e 88 12 0c 40
       -0.28755897 0.502574 0.33830205 2.188631
0001b0 86 e2 de be d7 b9 03 3f 4a eb 90 bf 3a 2b 13 40
       -0.435322 0.51455444 -1.1321805 2.2995133
0001c0 83 df 25 40 31 3f 81 3e e2 e5 a8 bd 7c c3 2c 3e
       2.591767 0.25243524 -0.08246972 0.16871446
0001d0 00 12 17 40 a4 af 52 bf 38 2b 66 be 88 cb 47 be
       2.3604736 -0.82299256 -0.22477424 -0.19511235
0001e0 8d 10 0d 40 7e 3b 57 3f 2c 09 b2 3f 2b 90 5b 3f
       2.2041352 0.8407515 1.3909049 0.8576686
0001f0 f2 43 12 40 fa 69 0d 3e 49 44 28 40 eb b8 0c 40
       2.285397 0.13809958 2.6291678 2.1987865
000200 0b 48 c6 3f 8e ab be 3f db 5c e9 3f 9e fd e1 3f
       1.5490736 1.4896104 1.8231462 1.7655523
000210 16 14 4e 3f d3 30 9b 3f e5 ae 26 3f 95 ff 08 40
       0.804994 1.2124275 0.6511062 2.1405995
000220 19 8e e4 3f 65 93 75 3f e1 31 3d 3f 86 46 27 40
       1.7855865 0.9592803 0.73904234 2.6136794
000230 4e a4 3b bf 69 50 09 40 79 64 ec 3f fd 4e bb 3f
       -0.73297584 2.1455328 1.8468162 1.463348
000240 7c ee 87 3f b3 ed a0 3f 30 cc e2 3f ff 7a 3b 3f
       1.0619655 1.257254 1.7718563 0.7323455
000250 f4 84 0c 3f d9 2e 9e 3f ad f6 01 40 b9 1b b0 3f
       0.5489037 1.2358047 2.030681 1.375846
000260 bd 29 e0 3e da 8b 96 3f 57 72 13 40 24 c8 ab 3f
       0.43781844 1.1761429 2.3038538 1.3420453
000270 5a 20 09 40 ae 3c 87 3f b5 bd 02 40 41 5e e9 3f
       2.1425996 1.0565393 2.0428288 1.8231889
000280 92 db f1 3f 9a d8 31 3f fb bf ba 3f 4b 13 bc 3f
       1.8895133 0.6947113 1.4589838 1.4693388
000290 f9 ba b7 3f 1a 83 b7 3f 60 a7 98 3f ed d9 2f 40
       1.4353935 1.4336884 1.1926079 2.7476761
0002a0 b2 24 81 bd 51 b4 d2 3f 12 ac cb bf 36 fa 02 40
       -0.06305827 1.6461278 -1.5911887 2.0465217
0002b0 80 34 28 40 85 63 5f 3f 30 18 2b 3e 2d 25 21 3f
       2.6282043 0.8726123 0.16708446 0.6294735
0002c0 5a 36 20 40 a0 19 d2 be 48 08 2f be 2c 72 2a 3f
       2.5033174 -0.41035175 -0.17093003 0.6658046
0002d0 83 a7 07 c0 02 10 b9 be 37 08 d8 bf 2b 62 53 bf
       -2.119599 -0.36145025 -1.6877507 -0.8257167
0002e0 2f c3 01 c0 cc f4 26 bf 85 7a da bf d7 3a b9 bf
       -2.027538 -0.6521728 -1.706864 -1.4471081
0002f0 58 e6 07 c0 53 e4 db bf 7c b6 ea bf 49 98 f6 bf
       -2.123434 -1.7179054 -1.833694 -1.9265224
000300 97 fb 66 bf a2 55 9c bf e6 2f 27 bf 43 f3 5f 3f
       -0.90227646 -1.2213633 -0.6530746 0.8748056
000310 03 89 df 3e 66 c9 04 40 ad 83 f2 be ab 16 38 3f
       0.4365922 2.0747924 -0.47366086 0.7190959
000320 af db 29 bf 9e b7 22 40 d2 1d 06 40 e1 a8 de 3e
       -0.66350836 2.542457 2.09557 0.4348822
000330 62 79 0d 3f 6f eb 19 3f 30 82 0d 40 d7 70 14 bf
       0.5526334 0.6012487 2.211071 -0.5798468
000340 7f 26 6d be 42 9b 99 be 29 c0 a1 bf 0c 32 36 3f
       -0.23159216 -0.30001265 -1.2636768 0.71170115
000350 3e cd 3a 40 25 df e1 bf fc 3b a0 bf 3e 94 06 c1
       2.918777 -1.7646223 -1.2518306 -8.411192
000360 75 50 ae 3d c6 b7 b8 3f 0e d6 c1 bf 28 50 0f c0
       0.0851144 1.4431083 -1.5143449 -2.2392673
000370 29 4d d1 bf c6 67 bc 3f 07 43 23 c0 85 8f 0d c0
       -1.6351672 1.4719169 -2.550966 -2.2118847
000380 9b eb 1f 3e
       0.1561722

onnx::MatMul_34 f4 [15, 15]
000000 81 a7 17 40 95 c2 b3 3f c5 aa 95 3f 80 76 ec 3d
       2.3695986 1.4043757 1.169274 0.115460396
000010 1d c6 e9 bd 79 f0 b5 3f 5a 27 13 40 b8 21 f1 3f
       -0.1141474 1.4214011 2.2992768 1.8838415
000020 e2 8b cd be 8e 71 68 3f 84 4e a0 3f cf 8f 34 bf
       -0.40145785 0.9079827 1.2523961 -0.70531934
000030 98 6f 09 40 0d 9b ba 3f 9e 89 51 3e ea 8a 5f 3f
       2.1474361 1.4578568 0.20462653 0.8732134
000040 e8 05 18 3f d2 c5 44 3f e3 0c a8 bf 6c 7d ea 3e
       0.5938401 0.7686435 -1.3128933 0.45798814
000050 d0 c5 1b 3f 80 a3 46 3f 24 74 94 3e 7d 83 f5 3e
       0.6084871 0.7759323 0.28994858 0.4795188
000060 fa b0 31 3f 43 f8 03 3f a9 77 65 3f 05 0f f1 3e
       0.6941067 0.5155069 0.8963571 0.47081771
000070 95 ba 02 3f 0c ef 58 bf fa 93 fa bf af cf bb bf
       0.5106595 -0.84739757 -1.9576409 -1.4672755
000080 0a 65 e6 bf d4 59 9b bf 76 4f 63 3f ff b6 c2 bf
       -1.7999585 -1.2136788 0.8879312 -1.5212096
000090 78 e6 ea bf 31 94 0e c0 cd 35 96 3f b2 a0 9d bf
       -1.8351583 -2.227795 1.1735169 -1.2314665
0000a0 c6 05 fc bf 4d c1 cb 3f e3 ee ee bf e4 c1 fb bf
       -1.9689262 1.5918366 -1.8666652 -1.9668546
0000b0 f9 20 e2 3e f5 f2 1b 3f 41 af 3a 3f 92 cc 5a 3f
       0.4416578 0.609176 0.72923666 0.854684
0000c0 53 d5 64 3e 75 47 2e bf e5 55 f7 3e f2 ca c9 3e
       0.22347002 -0.68077785 0.4830772 0.39412647
0000d0 2a 21 50 3f 00 62 4b bf e9 85 3e 3e a4 53 82 3f
       0.81300604 -0.7944641 0.1860577 1.0181775
0000e0 bc 7f 9b bf d3 d3 72 3f 24 b4 8c 3f 82 6f 1f 3f
       -1.2148356 0.9485447 1.0992475 0.6227952
0000f0 93 49 38 40 7e 4e e3 3f 92 f7 de 3f a8 52 b0 be
       2.8794906 1.7758329 1.7419302 -0.34438062
000100 3a 3a 6e be 6b eb c4 3f 1e 1e 2b 40 36 c1 20 40
       -0.23264399 1.5384344 2.6737132 2.5117927
000110 00 e7 89 bd d1 2f c7 3f 81 8c d5 3f c3 a9 e5 be
       -0.06733513 1.5561467 1.6683503 -0.4485608
000120 62 25 46 40 f7 f8 fd 3f 5c 04 52 be f2 0c 5a 3f
       3.0960317 1.9841603 -0.20509475 0.85176
000130 14 92 28 3f 97 5b 98 3f 65 7e ee 3f 29 df 24 c0
       0.658479 1.1902951 1.8632323 -2.5761206
000140 b4 fc 47 3f 55 a7 42 3f c9 4e b9 3f bc 65 0e c0
       0.7811997 0.7603658 1.4477168 -2.2249594
000150 01 1b ad 3e ef a8 a6 3f 34 6b 3d c0 4c 40 2a 3f
       0.33809665 1.3020304 -2.9596682 0.6650436
000160 c6 25 8c 3f 1f 98 39 40 cb c7 0c c0 41 cd 0c c0
       1.0949028 2.8999097 -2.1996944 -2.2000277
000170 a0 39 06 c0 9b 16 fb 3e 06 47 13 3f 84 d7 15 c0
       -2.0972672 0.49040684 0.5753025 -2.341279
000180 77 37 12 c0 4c 9d 06 c0 f3 d4 cd 3e a1 89 24 c0
       -2.2846353 -2.1033506 0.4020153 -2.5709002
000190 5d 2b 13 c0 c6 98 17 3f 0a f5 fc bf 3f 47 ff bf
       -2.2995217 0.5921749 -1.976228 -1.9943618
0001a0 e5 aa 42 40 ce fb 14 c0 ac a3 ff bf 46 76 0a c0
       3.0416806 -2.327869 -1.9971824 -2.1634688
0001b0 42 5f d9 3d 71 12 86 3f c5 7a 06 c0 c7 03 11 c0
       0.10613872 1.0474378 -2.1012433 -2.2658556
0001c0 68 b8 17 c0 1a 6a 98 3f 28 e7 fe bf 2a c3 05 c0
       -2.3706303 1.190738 -1.9914293 -2.0900369
0001d0 a5 55 b2 3f 47 e6 18 c0 ab b9 12 c0 65 53 e7 3f
       1.3932387 -2.389055 -2.2925823 1.8072325
0001e0 92 1a 0a 40 11 f5 af 3f 5c 8b b3 3f 31 f1 29 3f
       2.1578717 1.3746663 1.4026904 0.66383654
0001f0 48 b3 55 bf 31 f8 ac 3f 01 01 0a 40 9d 90 ef 3f
       -0.83476686 1.3513242 2.1563113 1.8716007
000200 a9 fd 83 bf 1e 5e 8e 3f 88 e5 ce 3f a7 6a ed bf
       -1.0311786 1.1122472 1.6163797 -1.8548173
000210 6c 08 1b 40 d0 9c 0b 40 52 49 c7 3e 30 e3 f9 3f
       2.422389 2.181446 0.38923126 1.9522457
000220 72 a3 d2 3f 26 4f dd 3f 18 ba 9c 3f 15 49 7d bf
       1.645613 1.7289779 1.2244291 -0.9893964
000230 28 b8 d0 3f ff 90 e3 3f fc 5f f7 3f 2f 42 91 bf
       1.63062 1.7778624 1.9326167 -1.1348323
000240 31 6a 83 3f 9a 44 bc 3f 07 66 fe bf a9 87 0a 40
       1.0266782 1.4708436 -1.9874886 2.16453
000250 c8 22 d7 3f bf 16 88 3f 82 a4 c3 3f 66 00 96 3f
       1.6807489 1.0631942 1.5284579 1.1718872
000260 e1 bd a3 3f 43 b4 01 3f fc ba 0f bf 5a 43 7c 3f
       1.2792321 0.5066568 -0.5614469 0.9854027
000270 44 00 d6 3f 3a 20 be 3f a6 fc 28 bf 97 c3 1c 3f
       1.6718831 1.4853585 -0.6601051 0.61235946
000280 ad c3 a6 3f 49 90 89 bf 43 28 ad 3f 4b 1e b0 3f
       1.3028466 -1.0747157 1.3527912 1.3759245
000290 01 d5 8e 3f 7f 6b ff bf 94 da 02 c0 88 4c dd bf
       1.1158754 -1.995468 -2.044591 -1.728898
0002a0 36 be f2 be c6 1d 36 3f 53 ff f5 bf 61 41 cb bf
       -0.47410744 0.7113918 -1.9218544 -1.5879327
0002b0 64 c3 0b c0 89 44 40 3f 03 3a d3 bf 3b 72 06 c0
       -2.1838007 0.75104576 -1.6502079 -2.100722
0002c0 7a 60 57 3f 67 0f 01 c0 39 50 ff bf 04 41 83 3f
       0.84131587 -2.016565 -1.9946357 1.0254216
0002d0 97 eb 73 3f 39 ad 50 3f 6f 8c 73 3f 4d 96 7a 3e
       0.95281357 0.81514317 0.9513616 0.24471398
0002e0 a4 af 80 bf e0 b1 f5 3e 57 64 3d 3f 26 e9 a4 3f
       -1.0053601 0.4798727 0.7398123 1.2883651
0002f0 0e 97 7d bf 97 6a a3 3e 8d 29 9f 3f 9b 84 a9 bf
       -0.99058616 0.3191726 1.2434555 -1.3243593
000300 d3 00 42 3f cc d0 9a 3f 41 65 93 3f e0 9c 6d 3f
       0.7578251 1.209497 1.1515275 0.928175
000310 42 e1 4e 3f ea e6 8d 3f 3e 8c 27 3f cf d5 2a bf
       0.80812466 1.1086094 0.6544837 -0.66732496
000320 8c cc 6a 3f 80 29 7c 3f b8 1a 8f 3f 75 4a 71 bf
       0.91718364 0.98500824 1.1180029 -0.9425424
000330 9b dc a0 3e df b6 a3 3f e6 d2 ae bf 23 a7 77 3f
       0.3141831 1.2790183 -1.3658111 0.96739405
000340 81 2e 88 3f 55 0f c4 3f 26 3e 0c 3f 2b 33 73 3d
       1.0639192 1.5317179 0.5478233 0.05937497
000350 32 0a 17 bd d0 4b 93 bd e5 db 99 bf 97 ba 59 be
       -0.036874957 -0.071921945 -1.2020231 -0.21262585
000360 69 e0 f5 3e 75 0f d5 3e 88 f4 91 bf eb d3 47 bd
       0.48022774 0.41613355 -1.140275 -0.048786085
000370 a7 a3 df 3d 79 08 34 bf e0 b9 0d 3f f4 b9 af 3e
       0.10919886 -0.7032543 0.5536175 0.34321558
000380 b5 b6 09 bd
       -0.03362151

onnx::MatMul_35 f4 [15, 1]
000000 67 8d 28 c0 44 3b b6 bf c4 0a c5 bf 00 3e 45 3f
       -2.6336305 -1.4236836 -1.539391 0.7704773
000010 df ca b9 be f3 75 b3 bf 02 73 0b c0 dd 46 0e c0
       -0.3628759 -1.402037 -2.1788945 -2.2230752
000020 5b 3c f0 be 9a c9 ad bf 97 66 e9 bf df a5 50 bf
       -0.46921048 -1.3577149 -1.8234433 -0.815031
000030 4f b3 1d c0 3e 5e ee bf 9f 3e 16 3f
       -2.4640691 -1.862251 0.586893
