onnx/myModel_HL4_HD15_899.onnx (onnx, 6087 bytes, 11 tensors)

net.0.bias f4 [15]
00000000: 3ed3 1fc0 79da 3740 9330 2740 9b36 ad3e
00000010: 8fb1 4cc0 18b5 b93f e9bd 27c0 eef8 18c0
00000020: 3528 14c0 719f 1240 1fdb 1f40 b8c5 8340
00000030: 0cd7 37c0 4f81 3940 0658 42c0
-2.4972682 2.8727095 2.6123397 0.33830723 -3.1983373 1.450839 -2.6209662 -2.3901935
-2.314954 2.2909815 2.497749 4.1178856 -2.8725004 2.8985174 -3.0366225

net.2.bias f4 [15]
00000000: 2c40 ffbc c51d cabe f470 3a3e 5f6a cbbe
00000010: b997 d2bd 52af babd afaa 333c e98d 39bd
00000020: 9706 7cbe 2b60 cbbe 52cd 9cbe 709b 3abe
00000030: 7ef6 c7bd d71a 4dbf 0ad3 cfbd
-0.03115853 -0.39475837 0.1820715 -0.39729592 -0.10282845 -0.09115471 0.010965987 -0.04530135
-0.24611889 -0.39721808 -0.30625397 -0.18223357 -0.097638115 -0.8011908 -0.101476744

net.4.bias f4 [15]
00000000: 2a9d cebf 5e78 f5bf 1fe2 aebf a798 cabf
00000010: 580c d1bf 5f17 03c0 5ff3 d7bf 5fea a9bf
00000020: 90a9 c1bf b56a ebbf f94e 0540 22a3 c6bf
00000030: d83d efbf 4403 d0bf 5b23 eabf
-1.6141713 -1.9177358 -1.3662757 -1.5827836 -1.6331892 -2.0483015 -1.6871146 -1.3274649
-1.5129871 -1.8391939 2.082945 -1.5518534 -1.8690748 -1.6250997 -1.829204

net.6.bias f4 [15]
00000000: 0a21 953d 70de b83f 850a 9fbf 2575 13bf
00000010: 087c adbf 0dc3 a4bf 3195 00be 7c5e 4dbf
00000020: 27d6 78be b97a fcbf 459d 1b3f 0ec6 1f3f
00000030: fc51 70be 4069 2cbf a759 b5be
0.07281692 1.4442883 -1.2425085 -0.57600623 -1.3553476 -1.2872025 -0.12556912 -0.80222297
-0.24300443 -1.9724952 0.6078685 0.6241158 -0.23468775 -0.673481 -0.35419962

net.8.bias f4 [15]
00000000: b8d0 71bf 0f75 b2bc 9470 88bf 677b aabf
00000010: eb81 33bf 852f 91bf 5af9 593f e4a9 f23e
00000020: e5e1 6d3f 4301 66bf b406 3fbf baa0 9cbf
00000030: d58c 85bf feb2 a1bf 649f 3b3f
-0.94459105 -0.021784334 -1.0659356 -1.331891 -0.70120114 -1.1342627 0.85146105 0.4739524
0.9292281 -0.89845675 -0.74619603 -1.223655 -1.0433604 -1.2632749 0.73290086

onnx::MatMul_37 f4 [2, 15]
00000000: a52c 04bd bf7d 3140 771f 4e3e 824b 74c0
00000010: 19f9 be3f f440 9a3f 53e0 983f 3911 cebf
00000020: 1d43 4a3f ea49 f3be fa58 b23f 092f 2cc0
00000030: 4327 33c0 32cb 7f3e f649 a23f 69b6 f93f
00000040: 9f26 0dc0 3f6b b53f cdba 8e40 a9e9 013e
00000050: 492a 673f da3b 453f a409 01bf 7dbe e33f
00000060: b1b9 dc3f ca6e 28c0 e4d8 e5be 0ff2 713f
00000070: e048 b53f 3484 5fbf
-0.03226914 2.7733 0.2012919 -3.8171086 1.4919769 1.2051072 1.1943458 -1.6099006
0.79008657 -0.4751733 1.3933403 -2.6903708 -2.7992713 0.24979857 1.2678821 1.9508792
-2.2054822 1.4173354 4.460303 0.1268679 0.902989 0.7704445 -0.50405335 1.7792507
1.7244169 -2.631762 -0.44892037 0.9450998 1.4162865 -0.873111

onnx::MatMul_38 f4 [15, 15]
00000000: 5519 a23f 6d96 1940 bdc5 4f3f 51e9 0540
00000010: b30f 7d3f 6827 d33f 78e3 e33f 78c5 b73f
00000020: c31c b43f 733c c63f 92c9 a53d bf3f 683f
00000030: 6f7c fe3f e838 9c3f 6b47 cf3f 9f9a 44bd
00000040: e527 04bf 5bd4 40bf cc7e 34bf 49d0 babf
00000050: 21e2 60bf 9c32 cc3f b3c5 43be 2a67 133f
00000060: 2145 a6bf 989f e1bd 633d 25bf 6164 133f
00000070: 615b 28c0 52f8 19bf a521 8ebf 0871 1fbf
00000080: 3ec0 73bf a9f7 9ebf 733d 4ebf 9d1f 77bf
00000090: ba91 6dbf d5d0 2440 e309 3fbf e8a0 16bf
000000a0: 820e 62be 6d42 e63f 13e8 b5bf 8228 bdbe
000000b0: 0d93 4dbf ec6e 56bf 8800 793f 1d18 1a3e
000000c0: a3b0 8abf d023 343f 625e 23bf b28c 65bf
000000d0: db5b bc40 e3ff babf 270f 8c3d 223d f8bf
000000e0: 5d53 81bf e7be 3bbf e818 723f 142b 90bf
000000f0: 2030 ca3f 9b24 b83f f2eb 4a40 f469 d63f
00000100: d55b 1d40 902b cb3f d777 b03e d4aa 94be
00000110: 2d06 373f aee6 b03f eaa7 e53f 93f9 88bf
00000120: 6efd 5b3f 6b31 0f40 2256 c63f e894 61bf
00000130: 1e22 eabe 1c8d 25bf ad95 2dbf ebe5 7ebe
00000140: 44f2 bfbe 1095 5ebe 990a f23f 1b3e cfbd
00000150: 7b8a 37be 4b7e 88be 6d0d c33f 3742 49bf
00000160: e1f8 debe 69e6 0bbf ed47 7a3f f3f1 cd3f
00000170: 34ba ae3f e21a 553f 0285 d33f 0142 8a3f
00000180: 3f69 493f bdab 0e40 1076 9b3f 3cc4 963f
00000190: 5673 37bf 375f b53e f68b 3c3f 312e f13f
000001a0: f677 883f 3e02 7640 5779 2640 6162 8b40
000001b0: 2b8d 3140 1fad 3d40 714d 3240 4681 953e
000001c0: 96b6 bcbf 3c87 5840 9eec 2b40 1a40 6340
000001d0: 9006 b2bf bf57 4040 1a81 0940 ddc9 1f40
000001e0: 77f9 c33f b7bc 0e40 2397 843f 31f4 ea3f
000001f0: 4dfb 963f 84c2 a33f 91e9 0b40 1fa5 0440
00000200: 61d2 c83f 84ad bf3f adc5 b03f 2797 a53f
00000210: 1fe1 f23f 3e6b 9f3f 80d8 b13f c4d4 96bf
00000220: a3fa 9cbf acd7 a1bf c572 bbbf f43b b8bf
00000230: 840b f5bf 385e 9fbf 59ce ac3f ca06 5abf
00000240: f36a b7bf 99f0 54be 676d 513f 20de abbf
00000250: 9381 90bf 7c5b bfbf ce72 6cbf 367b edbf
00000260: b93c 3640 92e3 69bf 283a 963f 5dd7 64bf
00000270: 4723 79c0 a1d7 a1be 1e19 3cc0 2f63 a4bf
00000280: 887a 33bd 2ef1 03bf 4fe4 b4bf e779 4c3c
00000290: 00ac a8bf 2869 51be 226c 2bc0 454a 6abf
000002a0: 050f 3fbf 34b7 34bf 10ac 72be 7812 55c0
000002b0: 080e fdbe 0d7f 1ac0 f547 e0bf 041c 5a3f
000002c0: 960a 26bf a8fe 02bf 592e c5bf fe52 5dbf
000002d0: 2349 4940 836e 1040 3f51 3740 783c 3140
000002e0: 40c6 1340 ac94 3740 8e77 ae3d 8fae 1f40
000002f0: e53e 0440 0829 1a40 779e 3c41 2f61 183e
00000300: eba4 3940 1178 8f3f 8d83 3f40 bce1 dfbf
00000310: 398e ebbe 936e 74bf 4f44 9ebf 51e4 21bf
00000320: 3fd9 a3bf e8ee 59bf 5d8b 3c40 8681 34bf
00000330: 4e85 67bf 7f33 3fbf 80d6 e03f 7deb bdbf
00000340: 62b0 15bf b4f4 a9bf 7b57 3340 370d fc3f
00000350: fc66 6240 2823 2e40 9e9c 3b40 b5cc 3440
00000360: 4d74 493f 3659 08c0 d5b1 0e40 9595 d93f
00000370: fbf2 0c40 17c0 e8bf 9189 2340 be1a 863f
00000380: 0a8c 3340
1.2663981 2.3998063 0.811611 2.0923655 0.9885208 1.6496401 1.7803793 1.4357138
1.4071277 1.5487198 0.08095087 0.9072227 1.9881724 1.2204866 1.619367 -0.04799902
-0.51623374 -0.7532403 -0.70505977 -1.4594814 -0.87845045 1.5952945 -0.19118385 0.5757929
-1.2989846 -0.11016768 -0.64546794 0.5757504 -2.6305773 -0.6014453 -1.1104017 -0.62281847
-0.95215213 -1.241933 -0.80562514 -0.96532613 -0.92800486 2.575246 -0.7462446 -0.58839273
-0.22075847 1.7989022 -1.4211448 -0.36944968 -0.80302507 -0.83763003 0.97266436 0.15048261
-1.0835155 0.70367146 -0.6381589 -0.8966781 5.886213 -1.460934 0.068388276 -1.9393656
-1.0103565 -0.7333817 0.94569254 -1.1263146 1.5795937 1.4386171 3.170651 1.6751084
2.45873 1.5872669 0.3446643 -0.29036582 0.714938 1.3820398 1.7941868 -1.0701164
0.8593358 2.2373912 1.5495036 -0.8811784 -0.45729154 -0.6466844 -0.6780651 -0.24892394
-0.37489522 -0.2173655 1.8909484 -0.101192676 -0.1792392 -0.26658854 1.5238472 -0.7861666
-0.43549255 -0.54648453 0.97766 1.6089462 1.3650575 0.83244145 1.6524966 1.0801393
0.7867622 2.229232 1.2145405 1.1778636 -0.71660364 0.35424206 0.73651063 1.8842221
1.0661609 3.8438869 2.601156 4.355759 2.7742412 2.9636915 2.7859766 0.2920019
-1.4743221 3.383254 2.686317 3.5507874 -1.3908253 3.0053556 2.1485047 2.4966958
1.5310506 2.2302682 1.0358623 1.8355771 1.1795441 1.2793736 2.1861308 2.0725782
1.5689203 1.4974828 1.3810326 1.2936753 1.8974952 1.2454603 1.3894196 -1.1783681
-1.2263988 -1.2643943 -1.46444 -1.4393296 -1.9144139 -1.2450628 1.3500472 -0.8516661
-1.4329513 -0.20794906 0.8180756 -1.3427162 -1.1289543 -1.4949794 -0.9236268 -1.8553226
2.8474562 -0.9136287 1.1736498 -0.8939112 -3.8927782 -0.31609824 -2.939033 -1.2842768
-0.043818027 -0.51539886 -1.4132174 0.012480236 -1.317749 -0.2045027 -2.678475 -0.91519576
-0.74632293 -0.70592046 -0.23698449 -3.3292522 -0.49424767 -2.4140046 -1.752196 0.85199
-0.648599 -0.51169825 -1.5404769 -0.8645476 3.145089 2.256745 2.8643339 2.7693157
2.3089752 2.8684492 0.08518897 2.4950292 2.0663388 2.4087543 11.788688 0.14880823
2.9006908 1.1208516 2.9924042 -1.7490764 -0.46006945 -0.9548122 -1.2364596 -0.6323901
-1.2800673 -0.85130167 2.946006 -0.7051014 -0.9043778 -0.7468795 1.756546 -1.483749
-0.58472264 -1.3277802 2.8022144 1.9691533 3.5375357 2.7208958 2.9314342 2.8249943
0.78693086 -2.130445 2.229604 1.6998774 2.2023304 -1.8183621 2.5552714 1.0476911
2.8054223

onnx::MatMul_39 f4 [15, 15]
00000000: f9ca 583f 5d84 863f 1c18 d53f 4d75 fb3e
00000010: a945 1d3f 77f7 0a40 6dd7 243f 9159 b23e
00000020: 9bec dd3f 1de0 893f 4093 02c0 6864 0840
00000030: 528a 5640 0fbb 4d3f 9dad 763f 3848 9c3f
00000040: 4216 ed3f 7e5f f53f f31b a73f 203b d03f
00000050: ccaf 2d40 f6a4 f63f d28d a03f 5c43 e83f
00000060: b9e6 a03f e124 80bf 68c3 9f3f 08d3 933f
00000070: f2be fc3f cd45 943f 38c9 af3f ef7d b23f
00000080: 6aec 7e3f 3cfc cd3f 5aaf d93f 2c67 e43f
00000090: f05f b73f 704b e93f b017 823f 0db8 0940
000000a0: 435e a9bf 3311 10bf d9cd 26be 731a c83f
000000b0: 7ee6 ab3f 2c0a 493f 9fae 923f 3bb4 943f
000000c0: 9351 8e3f c01a 683f 331e e93f ad8c 9d3f
000000d0: 900e eb3e 320f 8d3f 5d65 b33f 4429 dbbf
000000e0: 027b 0740 c8a6 0c40 bb2d 833f 099a 9f3f
000000f0: 1940 cc3f 5823 f23f 8897 c13e 4c5b db3f
00000100: 66c8 c43f 2b0d ad3f a20e e33f 95d7 d53f
00000110: b416 e73e 20c3 d93f d903 a4bf e087 52bf
00000120: 0dd2 28bf eb46 ff3f 09b8 aa3f fa3d 683f
00000130: af90 d93f de1d 003f f3ad 843f e4cf 8c3f
00000140: aba5 e43f ab2b a93f 399c d23b 9fb6 653f
00000150: b541 fc3f f26c 1ec0 6fbe e73f b9f9 b73f
00000160: 7e57 a53f a9d3 bf3f 203c 7ebe c5cc 22bf
00000170: bd22 7940 9e9d f9be 2a6c 71bf 44e0 6540
00000180: d763 0fbf 548e a7be 18a5 8840 fb03 f3be
00000190: 990b b1be 334b 8240 90e2 7a40 12a3 76bf
000001a0: de5c 943d fc2f fbbf 7327 1bc0 0b62 07c0
000001b0: bca6 01c0 b001 f9bf 568e 34c0 2ce9 13c0
000001c0: ba19 e3bf 4776 0cc0 3dd0 fabf 44fc 2f40
000001d0: 7caf f4bf cd0c 2bc0 025f 0ac0 5889 13c0
000001e0: 5272 b13e c384 9abc 133c 2140 936c 3abe
000001f0: 226f d93d dc07 9c3f 0e6a ddbd 527a bc3e
00000200: 3761 2640 f07c d13e 09b9 70bf 5e4e 3440
00000210: dec8 4140 3beb 95bd 9dd4 193f ca75 3e3f
00000220: 6684 ca3f b4dc 313f 2c6e 983f 1913 9e3f
00000230: 8d67 ed3f 39bd bf3f 709f 903e 6bdf 603f
00000240: 8ab7 953f 3204 b4bf 0945 d33f fdb0 d13e
00000250: fc29 b13f 42ee 8f3f 7baf ebbf 8213 eebf
00000260: c1e0 f43f 070b ddbf 62e8 f4bf 9226 d83e
00000270: d688 b2bf c424 1ac0 26ba 153f 8d24 a5bf
00000280: 205c 7b3f 18bc 8940 9cc5 5a40 b979 dcbf
00000290: 77ef bcbf b479 e3bf cb79 d3bf da27 b2bf
000002a0: 8646 dbbf 804e b6bf 5a8e 0cc0 fa9a d9bf
000002b0: 8e15 9ebf d1cf b7bf 341a f4bf 183b 1240
000002c0: ad18 c4bf 0b80 ebbf 72b8 c2bf cff1 edbf
000002d0: 1442 203f 35d0 173f 9430 ea3f 600e 1a3f
000002e0: ab69 b73e f2b1 0840 de4a 753f 3a32 d33e
000002f0: ad61 ae3f 3045 b03f df65 e5bf d49c 1140
00000300: 93f0 2e40 8c6d f03e 791b 4a3f 3eb9 e73f
00000310: 5f38 1040 a6e6 bfbf b985 0d40 67ed 0140
00000320: 15ce 5ebd 3262 0b40 278b b53f c957 a1bf
00000330: 69c0 ec3f d2e3 2fbf 2512 4dbf 92c9 0cc0
00000340: 484a 1e40 864d d43f 80f4 433f c27e 7a3f
00000350: 2803 363f a87c 083f df1d 643f c887 b93f
00000360: d4e7 973f 38f8 bcbd bc33 993f edcd b63f
00000370: dd56 01c0 185b da3f 3a8b 1740 b3f8 6a3f
00000380: 1a95 743f
0.8468471 1.0509144 1.6647983 0.4911293 0.6143442 2.171354 0.64391214 0.3483396
1.7337831 1.0771519 -2.0402374 2.1311283 3.3521924 0.80363554 0.9635866 1.220954
1.8522418 1.9169767 1.3055404 1.6268044 2.7138548 1.9269092 1.254328 1.8145556
1.2570411 -1.0011255 1.2481508 1.1548777 1.9745772 1.1583802 1.3733282 1.3944682
0.9957949 1.6092601 1.7006638 1.7843986 1.4326153 1.8226147 1.0163479 2.1518586
-1.3231891 -0.56276244 -0.16289462 1.5633072 1.3429716 0.78531146 1.145954 1.1617502
1.1118644 0.9066582 1.8212341 1.2308556 0.45909548 1.1020262 1.4015309 -1.7121968
2.1168828 2.1976795 1.0248331 1.2468883 1.5957061 1.8917036 0.37810922 1.7137237
1.5373657 1.3519644 1.773884 1.6706415 0.4513451 1.7012672 -1.2813674 -0.8223858
-0.6594551 1.9943517 1.3337413 0.9071957 1.6997279 0.50045574 1.0365585 1.1000943
1.7863058 1.3216451 0.0064273146 0.8973178 1.9707552 -2.4753995 1.8104991 1.4373084
1.2917325 1.4986469 -0.24827623 -0.63593704 3.8927453 -0.48753065 -0.9430567 3.591813
-0.5601172 -0.32725775 4.270153 -0.47463974 -0.3457916 4.0716796 3.9200783 -0.96342576
0.072442755 -1.9624019 -2.4242828 -2.115359 -2.0258017 -1.945364 -2.8211875 -2.3111067
-1.7742226 -2.194719 -1.9594799 2.749772 -1.9116054 -2.6726563 -2.1620488 -2.3052578
0.34657532 -0.018862134 2.5192916 -0.1820548 0.106169 1.2189898 -0.10811244 0.36812073
2.5996835 0.40915632 -0.9403234 2.8172832 3.027885 -0.07320257 0.6009005 0.7439848
1.5821655 0.6947739 1.1908622 1.2349578 1.8547226 1.4979621 0.2824664 0.8784091
1.1696637 -1.406378 1.6505443 0.40955344 1.3840938 1.1244586 -1.8412927 -1.8599703
1.913109 -1.726899 -1.9133418 0.42216927 -1.3948009 -2.408494 0.58487165 -1.290178
0.98187447 4.3042107 3.418311 -1.7224647 -1.4760579 -1.7771516 -1.6521543 -1.3918412
-1.7130897 -1.4242706 -2.1961884 -1.700042 -1.2350328 -1.4360296 -1.9070497 2.2848568
-1.532003 -1.8398451 -1.5212538 -1.8589419 0.6260083 0.59302074 1.8296075 0.60178185
0.35822806 2.135861 0.95817363 0.41249257 1.3623558 1.3771114 -1.7921714 2.275197
2.7334335 0.46958578 0.7894817 1.8103406 2.2534406 -1.4992263 2.2112868 2.030115
-0.054395754 2.1778684 1.4183091 -1.2604915 1.8496219 -0.68707 -0.8010581 -2.1998029
2.4732838 1.6586158 0.7654495 0.9784967 0.71098566 0.5331521 0.8910808 1.4494562
1.1867623 -0.092270315 1.1968913 1.4281594 -2.0209267 1.705905 2.3678727 0.91785735
0.9554001

onnx::MatMul_40 f4 [15, 15]
00000000: f402 da3f 6ab5 90bf 2e10 6d3f dcea b33f
00000010: 313c d13f 5a3d ba3f 2082 c23e 923f ce3f
00000020: 376c 0f3f 0a8a 9b3f d341 69bf 30b3 8cbc
00000030: ab87 263f f8a8 bf3f 3324 8e3e 7c92 1f40
00000040: 16d5 58bf cabc e23f 62a5 e93f e9c5 0c40
00000050: 7634 0840 4349 af3f 9a54 0940 c1d4 4c3f
00000060: e617 0940 cf7a 933d 772b 3e3f adff fc3f
00000070: 5055 2e40 d8a0 323f e234 dabf 05fb f6bf
00000080: 6583 0ec0 65f7 27bf 67c4 ccbf f83f bdbf
00000090: 1af4 27c0 0bc4 21c0 b1c1 4abf 13e1 e9be
000000a0: 7c2a 1cc0 f007 2bc0 28c7 2ec0 5065 d5bf
000000b0: 290b b1bf 9dd6 1040 681d 93bf c646 9d3f
000000c0: 3891 9a3f c98a e73f 81f6 d03f 44b9 da3d
000000d0: 8519 c83f a1fc 013f 2d2b 8e3f 166d 07bf
000000e0: e45f b03c 2e3c 543f 8760 fe3f 9203 ca3e
000000f0: 2907 0c40 ae23 93bf 42d9 893f e10a af3f
00000100: 1683 e23f e858 e93f 9215 893e d91f e03f
00000110: dfdb 543f 8e7e b43f 54d5 60bf d339 793e
00000120: 351a 5a3f d8fd 0340 774b f73e 077f e6bf
00000130: ad79 84c0 548b 29c0 0d4c c6bf a00f fbbf
00000140: a142 e1bf 77eb 43c0 0fe4 10c0 09c3 f7bf
00000150: 8a7d dabf b107 7ac0 91b7 6ec0 a2b4 34c0
00000160: 047f e4bf 5f4d f1bf 39af 0f40 9042 9cbf
00000170: feab c43f 361f b33f 7f87 f53f d51a fa3f
00000180: 7223 4c3f 9c4a ba3f 7c71 223f cd19 f43f
00000190: 65d8 c7be 2ac3 d83e 2e31 7a3f 885d 0e40
000001a0: 1ddd 3f3e 334b ac3f 2321 98bf 6015 253e
000001b0: ea1f da3f 17cf 813f 5c75 a43f 89ba 35bf
000001c0: c0aa 673f c6d5 273f b74b 18bc c834 dbbf
000001d0: 01e7 1dbf dcad 0b3e aeef 893f dd93 883e
000001e0: cd48 dcbf 43f9 0bc0 ea6f dabf 8307 90be
000001f0: 95b9 72bf b29f a4bf 2877 14c0 f873 ccbf
00000200: a034 45bf a47f a6be 9903 1fc0 de38 2dc0
00000210: ab1e 0ac0 bed8 a7bf f452 d2bf 851b 0b40
00000220: 8487 9ebf d957 663f 6a42 a73f 613c bc3f
00000230: fc4c ad3f f434 373e bc55 af3f 28f6 373f
00000240: 7e58 eb3f 6aeb 90bf 9c22 a2be f636 1f3f
00000250: 6376 d43f 4c5c 653f c2f5 5abf 980b 773f
00000260: 2e12 1bc0 55a0 21bf 4da1 44c0 a306 24c0
00000270: 5e02 2dbf e3d3 85bf a553 d3be 5e04 9ec0
00000280: 2fa7 063f 1119 16be f831 89bf f346 aabf
00000290: c432 75bf e313 7bc0 c73b 38bf 7c45 61c0
000002a0: 7467 0cc0 42a7 35c0 f8de 54c0 c29c 19c0
000002b0: b9a2 82c0 b74b d1bf 752e 8cbf ef2c 99bf
000002c0: 984a c4bf f699 5dc0 41ac 69c0 6e37 e6bf
000002d0: 2614 92c0 ddee 03c0 fe27 82c0 7d8b 25c0
000002e0: dcd7 44c0 e044 71c0 63c2 62c0 b1d4 87c0
000002f0: a2a3 3dc0 1648 c0bf cf36 0fc0 0b6c 40c0
00000300: 75da 92c0 350d 88c0 1ada 0dc0 5557 2140
00000310: 68e8 51bf 8e11 9c3f 7b5d a83f 8219 df3f
00000320: 0df6 e93f 8a69 653f 8d9e e03f afb1 333f
00000330: 05ed a43f 2116 4bbe 4747 d43e 3f47 bc3f
00000340: b408 1440 1611 003f 62d5 bb3f 57af a5bf
00000350: 01c6 a83f 23e3 a23f f940 e03f 0365 e53f
00000360: 80f4 c8bc 2f67 bd3f b3ca 3b3e 6b3c cf3f
00000370: a682 80bf 42d0 ff3d f6c7 3c3f a1bd f13f
00000380: e911 0cbd
1.7032151 -1.1305363 0.92602813 1.4056048 1.6346494 1.4549973 0.37989902 1.611315
0.560245 1.2151501 -0.91116065 -0.017175287 0.6505076 1.497344 0.27761993 2.4933157
-0.84700143 1.7713864 1.8253596 2.1995795 2.128202 1.3694233 2.1457887 0.80012137
2.1420836 0.07201158 0.7428507 1.9765526 2.723957 0.6977668 -1.7047389 -1.9295355
-2.2267697 -0.6561187 -1.5997437 -1.4785147 -2.6242738 -2.5275905 -0.792018 -0.4567953
-2.440093 -2.6723595 -2.7309055 -1.6671543 -1.3831531 2.263099 -1.1493349 1.2287223
1.2075567 1.8089229 1.6325227 0.10679868 1.5632788 0.50776106 1.1106926 -0.52900827
0.0215301 0.82904327 1.9873208 0.3945585 2.187937 -1.1495264 1.0769427 1.3675195
1.7696254 1.8230257 0.2677427 1.7509719 0.83147997 1.4101121 -0.8782551 0.24338464
0.8519624 2.0623684 0.48299763 -1.8007516 -4.139853 -2.649129 -1.5491959 -1.9614143
-1.7598459 -3.0612466 -2.2639196 -1.9356395 -1.7069561 -3.9067194 -3.729954 -2.823525
-1.7851262 -1.8851737 2.2450697 -1.2207813 1.5364988 1.39939 1.9181975 1.9539438
0.79741585 1.4554019 0.63454413 1.9070374 -0.39032283 0.42336398 0.9773129 2.2244587
0.18736692 1.3460449 -1.1885113 0.16121435 1.7040989 1.0141324 1.2848315 -0.70987755
0.9049492 0.6556057 -0.009295396 -1.7125483 -0.6168061 0.13640541 1.077627 0.2667531
-1.7209717 -2.1870887 -1.7065403 -0.2813073 -0.94814426 -1.2861235 -2.3197727 -1.5972891
-0.77033424 -0.32519257 -2.4845946 -2.706596 -2.1581218 -1.311302 -1.6431565 2.1735547
-1.2385106 0.89977795 1.3067143 1.4705926 1.3539119 0.17891294 1.3698039 0.7185998
1.8386381 -1.1321843 -0.3166703 0.6219324 1.6598629 0.8959396 -0.85531247 0.96502066
-2.4229846 -0.6313527 -3.072345 -2.562905 -0.6758174 -1.0455288 -0.41274753 -4.938033
0.5259885 -0.14658 -1.0718374 -1.3302902 -0.9578059 -3.9230888 -0.71966213 -3.519866
-2.1938143 -2.8383336 -3.326109 -2.4001927 -4.0823636 -1.6351231 -1.0951678 -1.1966838
-1.5335264 -3.462522 -3.6511385 -1.7985666 -4.5649595 -2.061454 -4.067382 -2.5866387
-3.075675 -3.7698288 -3.5431144 -4.2447133 -2.9631124 -1.5021999 -2.2377203 -3.0065944
-4.589167 -4.251612 -2.2164369 2.5209553 -0.8199525 1.2192857 1.3153528 1.7429659
1.8278214 0.89614165 1.7548386 0.70193 1.2884833 -0.1983266 0.4146063 1.4709243
2.3130312 0.5002607 1.4674494 -1.2944134 1.3185426 1.2725567 1.7519828 1.7921451
-0.02453065 1.4797114 0.18339042 1.6190313 -1.0039871 0.12490894 0.73742616 1.8885995
-0.034196768

onnx::MatMul_41 f4 [15, 15]
00000000: 7c0c b83f 2d1b 09bf 7ece e43f 598c 2d40
00000010: 6cc9 973f 697c de3f 81c4 babf eda1 88bf
00000020: 45d3 e9bf a296 ae3f 17da ae3f 4fb7 0240
00000030: 5bcf e83f 8c09 2440 48f4 dcbf 9e45 d23f
00000040: 542d e1bf e357 be3f 2fe9 f13f 4ed5 dd3f
00000050: 80cc fb3f 68e1 01c0 0c99 c2bf 2a1a 0dc0
00000060: dd14 e63f e4e4 d93f bc6b dd3f 9955 c93f
00000070: 6e6d d73f ab46 ecbf 8094 1a3f af64 e73e
00000080: a722 313f 1107 933f e4d6 803d be21 133f
00000090: d151 abbe 3d7d 28be fd49 f0be 668b f13d
000000a0: c81c bdbd d9fd 483f b114 f63e 24f8 4e3f
000000b0: 1d44 2abd 40c2 43bf f1ca 5d3f 3d40 2cbf
000000c0: c026 ef3c e0e7 47bf 899a c8be a85d d73e
000000d0: aee9 803f 8c91 163f bce9 2abf 22d4 52bf
000000e0: 873b a23c d7c9 0cbf 379b 823c 7e72 633f
000000f0: 459f 1e3f 0bc1 3abf 40d1 6d3f 12d3 ac3f
00000100: 7c11 0c3f 8424 7a3f fb47 51bf 3fdc 15bf
00000110: 3e46 59bf 1e40 423f 01a6 1a3f cf29 913f
00000120: 9f4e 7a3f fe7f a83f 5b19 54bf 972d 0a3f
00000130: 5852 68be b013 d93e 3d59 bd3f cc36 243f
00000140: cf93 463f 5031 2abf c553 fdbe 66a6 58bf
00000150: 6e36 0d3f 3ca2 0e3f 7309 3f3f e3d3 063f
00000160: 76d1 6e3f d871 efbe beb4 573d 1dcb 6f3e
00000170: 3b02 8f3e 28dd 323f 41c9 37be 49f7 df3e
00000180: d3e4 0abf 1de6 6bbe b87b f9be f0cb 5abd
00000190: 2cc1 023d 9f8e ec3e e497 493e 1854 293f
000001a0: f734 51be a190 d23e 29b5 943e 7939 413f
000001b0: c124 ce3f e994 11be ef00 523f b51c d9be
000001c0: 4eff 25bc 5ea3 60bf e738 d23e 400b fc3d
000001d0: acd1 8d3f b334 4b3f e8a9 a93f bf1a 79be
000001e0: 8291 02bf 5621 9a3f 8c8b febe 8060 24be
000001f0: 7601 a2bf 06a4 d4be 973f e53e 2d4a 603f
00000200: 2a19 2e3f ba83 33bf 1bc0 69bf 3db1 b6be
00000210: b9ca 21bf 47a5 8dbe 86db 023f d515 a33f
00000220: 78f0 41bf 198b b73f b009 8f3f 8c75 5e3f
00000230: c51b 9c3f d268 97bf 67fa 56bf f789 a1bf
00000240: 1cbd 8b3f acde 823f a03f b83f 05ad 5c3f
00000250: edd2 8c3f f0cc a0bf e829 aa3f c9ab 93bf
00000260: 83ea 9b3f 5df7 c33f dc05 823f c82d 963f
00000270: 6a3e cebf b191 bfbf 7757 d3bf 7239 8b3f
00000280: 5560 753f 411a a53f 9d25 a73f a84f ca3f
00000290: 0c76 c5bf 6840 783f 7a22 febe 0577 8b3f
000002a0: 6537 6e3f 7a97 403f f1b9 6f3f 5d13 9ebf
000002b0: 077c 59bf 110d 8ebf 02d0 533f 5489 0b3f
000002c0: f08e a83f 372f 493f b744 9f3f ae84 71bf
000002d0: a240 5e3e bbd1 983e 0f0a 253f 37e6 983f
000002e0: d5db 7d3d 04be 3e3f 3790 cdbe e0b7 c2bd
000002f0: 357e 36bf d7c9 773e 33e6 b83a 6955 803f
00000300: 760d 9f3e 9d7e 423f 618c fbbe cada a43f
00000310: e621 2abf 1426 a83f cc0a 0540 ae09 773f
00000320: 1cee ef3f 799d b5bf 28a0 9ebf 67e4 dfbf
00000330: 6226 9e3f 5ccd 683f 4eba d93f 84cc d33f
00000340: 3b04 1140 a637 89bf 1397 9dbe c177 1d3f
00000350: f7aa e3be cff8 963d eb6a efbe 105d 66be
00000360: 10e6 353e 7d3f 4f3e 807c 2bbd d19e cabe
00000370: a516 46bf 068d 4dbd 55c3 85be 7a95 0fbe
00000380: 5f7a 91bc
1.437881 -0.5355709 1.7875516 2.7116911 1.1858344 1.7381717 -1.4591218 -1.0674416
-1.8267599 1.363972 1.3660306 2.0424383 1.818828 2.5630827 -1.7262049 1.6427495
-1.7591958 1.4870571 1.8899287 1.733072 1.9671783 -2.0293827 -1.5202956 -2.204722
1.7975117 1.7022977 1.7298503 1.5729247 1.683027 -1.8459066 0.60382843 0.45194003
0.691935 1.1486531 0.06290987 0.5747336 -0.33460858 -0.16454025 -0.4693145 0.11794166
-0.09234005 0.7851234 0.4806266 0.8084738 -0.041568864 -0.76468277 0.8663779 -0.6728552
0.029193282 -0.7808819 -0.391804 0.42063642 1.0071313 0.58815837 -0.667629 -0.8235494
0.019803775 -0.54995483 0.015943153 0.88846576 0.61961776 -0.7295081 0.92897415 1.3501914
0.5471418 0.9771197 -0.8175046 -0.58539194 -0.84872806 0.75879085 0.6040955 1.1340884
0.97776216 1.316406 -0.8285119 0.53975815 -0.22687662 0.42397833 1.4792858 0.64146113
0.7756929 -0.66481495 -0.49477974 -0.84628904 0.5516118 0.557163 0.74623793 0.52667063
0.9328836 -0.46766543 0.052662604 0.23417325 0.2793139 0.6986871 -0.17947866 0.4374335
-0.5425541 -0.23037 -0.48727202 -0.053417146 0.031922504 0.4620256 0.19686848 0.6614394
-0.2043036 0.41125968 0.29044464 0.7547832 1.6104966 -0.14216961 0.82032675 -0.42404714
-0.01013167 -0.8774928 0.41059038 0.12306833 1.1079612 0.7937729 1.3254976 -0.24326609
-0.5100328 1.2041423 -0.4971584 -0.16052437 -1.2656696 -0.4153139 0.44775078 0.87613183
0.6800715 -0.70122874 -0.91308755 -0.35682097 -0.63199955 -0.2766516 0.51116216 1.2741038
-0.7575755 1.4339324 1.1174831 0.8689811 1.2195975 -1.1828864 -0.83975834 -1.2620229
1.0917087 1.0224204 1.4394417 0.86201507 1.100187 -1.2562542 1.3294039 -1.15368
1.2180942 1.5309864 1.0158038 1.1732721 -1.6112797 -1.4966336 -1.6511067 1.0876906
0.95850116 1.2898637 1.3058354 1.5805559 -1.542665 0.96973276 -0.4963568 1.0895697
0.93053275 0.75231135 0.936431 -1.2349659 -0.84954876 -1.1097738 0.8273927 0.5450642
1.3168621 0.7858767 1.2442845 -0.9434308 0.21704343 0.29847512 0.64468473 1.1945256
0.061977226 0.7450869 -0.4014909 -0.095077276 -0.71286327 0.2419809 0.0014106691 1.0026065
0.31064957 0.75974447 -0.49130538 1.2879269 -0.66457975 1.313662 2.078784 0.96499145
1.874454 -1.4188682 -1.2392626 -1.7491578 1.2355464 0.90938354 1.7009981 1.6546788
2.2658832 -1.0720108 -0.30779323 0.61510855 -0.44466373 0.07371675 -0.4676126 -0.22496438
0.17763543 0.20239063 -0.04186678 -0.39574292 -0.773783 -0.05018332 -0.2612559 -0.14021865
-0.017758546

onnx::MatMul_42 f4 [15, 1]
00000000: 33d7 58bf 8c2f 7a3e 275b 56bf 97bf 88bf
00000010: d475 7abf f5ea 7fbf c1d6 643f 777f b73e
00000020: 2af9 163f e520 73bf 6987 86bf 01f3 7fbf
00000030: 80df 84bf 11b0 67bf 8fbe 143f
-0.8470337 0.244322 -0.8373284 -1.0683469 -0.9783604 -0.9996789 0.8939019 0.35839435
0.58973944 -0.9497207 -1.0510074 -0.9998017 -1.0380707 -0.9050303 0.5810327
