onnx/myModel_HL2_HD15_399.onnx (onnx, 3508 bytes, 7 tensors)

net.0.bias f4 [15]
000000 ad b8 63 c0 82 2b 5c c0 4a 56 7a c0 4c d4 58 c0
       -3.5581467 -3.4401555 -3.9115167 -3.3879576
000010 69 25 75 40 24 a2 77 40 62 39 ad 3f 4a 4d 5d 40
       3.8304083 3.8692713 1.3533137 3.4578424
000020 81 40 79 40 1d 9a 6a c0 d2 2c 0b bd fa a0 42 40
       3.894562 -3.6656563 -0.03397829 3.0410752
000030 97 71 8f 3f ca 55 7c 40 58 a0 7c c0
       1.120654 3.9427361 -3.9472866

net.2.bias f4 [15]
000000 f4 f7 3c 3d 92 08 67 be 75 fd e5 3d 3e 19 cc 3e
       0.046134904 -0.22561863 0.11229984 0.39863008
000010 24 c6 4e 3d c5 bb 81 3c e9 aa 9c 3e d4 d3 a2 3d
       0.05048193 0.015836606 0.30599144 0.07950559
000020 bb 27 33 be 12 47 34 3f c9 4a cf 3e e7 f2 ac be
       -0.17495625 0.70420945 0.40486744 -0.3377907
000030 71 40 c4 bd 17 ad ea 3e bc 94 91 3e
       -0.09582604 0.45835182 0.28433788

net.4.bias f4 [15]
000000 7c a6 25 3f 84 27 ac 3e 66 e8 2a 3f 96 7b ff bf
       0.6470716 0.33623898 0.6676086 -1.995959
000010 dd 4c 59 3f 9f 8b 1c 3f 93 eb f2 3e 66 2c fc be
       0.8488291 0.61150545 0.47445354 -0.49252623
000020 cb ba 33 be e5 49 19 bf c2 84 87 bf d8 e8 1e 3f
       -0.17551725 -0.5987838 -1.058739 0.6207404
000030 20 4d 56 3f b1 6b 0e 3f 17 df 3c 3f
       0.83711433 0.55633074 0.7377791

onnx::MatMul_25 f4 [2, 15]
000000 5d 14 d7 3f 05 f9 1a 3f eb 42 ac 3f 92 2c 50 bf
       1.6803089 0.60536224 1.3457922 -0.8131801
000010 e3 93 34 40 2e 16 68 3d 27 04 f8 bd 99 eb 9e 3e
       2.8215263 0.056661777 -0.12110167 0.31039122
000020 db a3 16 40 27 d5 0a c0 6d f9 5a c0 8c 45 10 c0
       2.353751 -2.1692598 -3.4214737 -2.2542448
000030 90 40 80 40 bb a1 9a 3f 77 53 a0 c0 7f 32 2f 3f
       4.007881 1.2080606 -5.0101886 0.68436426
000040 6e 47 e8 3f a3 00 98 bf 66 2e fa 3f b7 1e 3f 3f
       1.8146799 -1.1875194 1.954541 0.7465624
000050 27 f5 08 40 40 54 fa be d3 a8 04 40 24 50 d3 3f
       2.139963 -0.48892403 2.0728042 1.6508832
000060 80 a9 4f 3f d3 3f 90 40 24 77 df 3e 94 ef 0f c0
       0.8111801 4.507791 0.43645585 -2.2489977
000070 35 aa d8 3f 4d be f2 3f
       1.6926943 1.8964325

onnx::MatMul_26 f4 [15, 15]
000000 ef 2b 46 40 f8 c0 3a 40 2d 9e 77 40 a1 58 01 40
       3.0964315 2.9180279 3.8690293 2.0210345
000010 4f cb 51 40 c4 09 2b 40 2c d6 3c 40 10 df 8d 3f
       3.278034 2.672471 2.950572 1.1083698
000020 39 01 34 40 80 97 c9 3f 54 64 72 3e 03 ca 94 3e
       2.8125746 1.5749359 0.23671085 0.29060373
000030 af d4 45 3f 6d 4d 43 40 0d 75 52 40 0f 41 24 40
       0.77277654 3.0516007 3.2883942 2.5664709
000040 81 c0 52 40 e6 ad 4d 40 b4 ac f4 3f 61 02 2e 40
       3.2929995 3.213739 1.9115205 2.7188952
000050 23 d3 04 40 29 a9 fe 3f 85 45 9e 3f 9e a1 2f 40
       2.0753868 1.9895374 1.2364966 2.7442393
000060 6e 04 7a 40 7b d6 a2 3e 0f 61 fb 3e 81 d9 17 40
       3.9065204 0.3180426 0.49097487 2.3726504
000070 b2 3d 48 40 9b 1e 36 40 f0 7b 2c 40 03 ee 04 40
       3.1287656 2.845618 2.6950645 2.077027
000080 74 a2 8f 40 28 23 91 3f 8c 83 55 40 37 f9 4f 40
       4.4885807 1.1338854 3.336154 3.2495859
000090 5d 43 19 40 8a a4 8a be 1c 1c f4 3f ba f2 1f 40
       2.3947365 -0.27078658 1.9071078 2.4991899
0000a0 7b 17 91 3f 38 d1 db 3f fc 5a b0 3f 83 f4 90 40
       1.1335291 1.7173223 1.3777766 4.5298476
0000b0 50 3a 1f 40 22 e4 ac 3f b2 ab fc 3e 3f c7 1c 40
       2.487934 1.3507121 0.49349743 2.449661
0000c0 49 4e aa 3f 2e b2 14 40 e4 ab 2b 40 64 f6 8c 3f
       1.3305141 2.3233752 2.6823664 1.1012692
0000d0 20 82 03 40 66 48 eb 3f 90 1e 8f 40 99 15 98 3f
       2.0548172 1.8381469 4.472481 1.1881591
0000e0 9f 75 df be d9 bb 4f 40 35 19 50 40 c6 3c bb be
       -0.43644425 3.2458403 3.2515385 -0.36569804
0000f0 73 ee 95 bf 58 55 d5 bd 95 bb c5 bf 43 99 9c be
       -1.1713394 -0.10416669 -1.544787 -0.3058568
000100 f9 ab 99 bf ed 9a 9b bf 76 8a b0 bf 39 ef b6 bf
       -1.2005607 -1.2156655 -1.3792255 -1.4291755
000110 2c 1c 0f bf 1a c0 eb bf df cd 23 bf c4 c8 5d 3f
       -0.5590236 -1.8418 -0.6398601 0.8663447
000120 58 71 4b bf 70 4b 9b bf dc e9 73 bf b1 97 bc bf
       -0.79469824 -1.2132397 -0.95278716 -1.4733793
000130 ac 88 52 bf 1a a8 e6 bf 57 56 91 bf 3b 8c b4 bf
       -0.82239795 -1.802005 -1.1354474 -1.4105295
000140 df 83 ce bf d2 79 24 c0 6e 79 8c be 07 84 7d bf
       -1.6133994 -2.5699353 -0.27436393 -0.9902958
000150 47 32 3f c0 3a 87 ec bf 21 89 bd be 52 4a 84 bf
       -2.9874437 -1.8478768 -0.37018684 -1.0335181
000160 c0 ce c1 bf d9 76 af bf dc 0e 20 bf ff e7 36 bf
       -1.514122 -1.3708144 -0.62522674 -0.7144775
000170 eb 89 92 bd e9 37 d7 bb 00 f6 db bd 8a 39 b9 be
       -0.07155212 -0.0065679443 -0.1074028 -0.3617671
000180 e8 bc ea 3d 88 5d 2d be ed 6c 31 bf 71 b0 24 3e
       0.11461812 -0.1693021 -0.6930683 0.16082932
000190 29 f5 1a 3e 15 07 af bd 2d d0 2e bf 5e 0d 6c 3f
       0.15132584 -0.08546273 -0.682864 0.92207897
0001a0 d2 2e 03 3e bd 4d a3 bf 41 ea 01 bf d8 46 a9 bf
       0.1281083 -1.2758099 -0.5074807 -1.3224745
0001b0 60 cc 71 bf c2 aa c1 bf 32 51 9d bf ef ab 0b c0
       -0.94452477 -1.5130236 -1.2290404 -2.182369
0001c0 83 92 18 3e 54 54 21 bf 72 74 30 c0 fd 9e e6 bf
       0.1489964 -0.630193 -2.7571073 -1.8017269
0001d0 87 1f 6a be 56 47 4c bf c6 b3 9a bf 4c 9f 87 bf
       -0.22863589 -0.7979635 -1.2086112 -1.0595489
0001e0 2b 71 71 bf d0 a3 d2 be 1a 78 e4 bf 37 1b 23 bf
       -0.94313306 -0.41140604 -1.7849152 -0.637134
0001f0 f0 d8 91 bf 64 24 84 bf 75 82 d9 bf 1f 11 7b bf
       -1.1394329 -1.0323606 -1.6992937 -0.98073
000200 c2 5c 1b bf 6a f2 b9 bf a3 9f c3 bf 19 33 27 3e
       -0.6068841 -1.4527104 -1.5283092 0.16328086
000210 f5 8f 08 bf 23 56 c7 bf 80 b4 91 bf 3f 5b a6 40
       -0.5334466 -1.5573162 -1.1383209 5.1986384
000220 7f 95 2c bf 1e 86 b5 40 77 e3 6a 3e 41 eb b4 40
       -0.6741561 5.6726217 0.22938333 5.6537175
000230 79 c8 a9 40 8b d3 63 40 5f 01 b0 bf 12 ab 85 40
       5.3057218 3.5597866 -1.3750418 4.1771326
000240 a5 63 9f 40 50 36 1f 40 77 a7 7d c0 19 b6 23 40
       4.9809136 2.48769 -3.9633462 2.5579894
000250 5f 5b 91 40 ff be 47 40 01 61 e0 3d 5c 3a 72 3f
       4.5424037 3.1210325 0.10956002 0.946203
000260 6c 73 8e bf 1e a5 06 bf ec b9 8f be 21 58 ce 3c
       -1.1128974 -0.525957 -0.28071535 0.025188508
000270 75 5b 51 be ca 47 1e be 68 64 22 3f f8 83 1e 3c
       -0.20445044 -0.15457073 0.6343446 0.0096750185
000280 df 02 6d bd 3e 62 f1 bf 3f 5f 89 3e ce 24 f8 bf
       -0.057864066 -1.8858106 0.2683048 -1.9386232
000290 6e b7 85 3f d5 0c 02 c0 de 75 94 bf e5 8e e4 bf
       1.0446603 -2.0320332 -1.159847 -1.7856108
0002a0 41 2f a2 3e 75 08 ea bf c8 5b 8b bf 02 3b 08 bf
       0.31676677 -1.8283831 -1.0887384 -0.5321504
0002b0 27 cc 3d 3f b2 eb ad bf 1d 2d 94 3d 32 77 f4 3d
       0.74139637 -1.3587554 0.07235167 0.11936797
0002c0 ab f8 09 3d 00 9e d2 bd ef d3 12 3f 4b 05 e6 bf
       0.033684414 -0.10284042 0.57354635 -1.7970365
0002d0 5f 92 35 be e8 11 c7 3e 28 da a4 3e 89 0f f0 3e
       -0.17731617 0.3888085 0.3219769 0.46886852
0002e0 0f bf 97 be 8d c7 1e bf b1 2a 0f 3f a0 5d dc 3e
       -0.29637954 -0.6202324 0.55924517 0.4304018
0002f0 41 48 5c bf e4 8c 4c be b7 c7 8c 3f a8 14 13 40
       -0.8604775 -0.1997562 1.0998448 2.2981358
000300 da db 29 c0 98 f6 d7 3f 43 19 98 3e 75 64 b0 bf
       -2.6540437 1.687213 0.29706773 -1.3780657
000310 38 db 20 bf a3 54 10 c0 f8 d8 06 bf 96 15 07 c0
       -0.628345 -2.2551658 -0.5267482 -2.1106925
000320 27 d2 ee bf a0 02 25 c0 e7 30 29 bf 8b 0a 85 bf
       -1.8657883 -2.5782852 -0.66090244 -1.0393842
000330 c3 28 63 c0 d6 ad 19 c0 d8 ca f4 3e ca 0d a4 bf
       -3.549363 -2.401235 0.47811007 -1.2816708
000340 6c 62 ad bf db 63 c2 bf 97 39 24 bf 58 9e 64 c0
       -1.3545661 -1.5186723 -0.64150375 -3.5721645
000350 09 17 ab 3d 80 e4 c1 bf bc 70 50 bf f9 ff 74 bf
       0.08354003 -1.5147858 -0.8142202 -0.95703083
000360 4c 9e 92 bd 28 05 3e c0 9c 9a 19 c0 7c 5e 22 3f
       -0.07159099 -2.9690647 -2.4000616 0.6342542
000370 40 9f f0 be 4f 5c c7 3f d0 5f fd bf 06 fc 7b 40
       -0.46996498 1.5575045 -1.9794865 3.9372573
000380 99 89 c4 bf
       -1.5354491

onnx::MatMul_27 f4 [15, 15]
000000 a1 86 7c 3e 32 1a 51 3f 06 a0 92 3f 1d 64 86 40
       0.24660732 0.81680596 1.1455085 4.199721
000010 ce 69 92 bd 1a 36 07 be 6d c4 7e 3f 6d 90 ba 3f
       -0.07149087 -0.13204232 0.9951847 1.4575325
000020 25 3c e7 3f 66 08 b5 bd fa db a4 3e 32 d7 87 3e
       1.806523 -0.088394925 0.3219908 0.26531368
000030 e3 84 c3 3d 02 be 9f 3e ad e4 4b be 4b e8 85 bf
       0.095468305 0.31199652 -0.19911452 -1.0461515
000040 6a cf 01 bf d8 89 24 bf 10 57 dc 3e a7 ea 81 bf
       -0.50707114 -0.6427283 0.43035173 -1.0149735
000050 c3 4d 66 bf 9a 1d d4 be 5c cd f6 bc b7 06 1e 3a
       -0.89962405 -0.41428834 -0.03012722 0.0006028222
000060 1e e7 c1 3f d1 ba e0 3f 96 29 6b bf f7 41 7e bf
       1.5148656 1.7557012 -0.9186033 -0.99319404
000070 74 02 7b bf 4f b4 a3 bf 3b 6d bc 3f 30 9b 03 40
       -0.9805062 -1.2789401 1.4720834 2.056347
000080 ea 56 30 40 92 c3 02 41 96 34 d5 3f a5 b8 29 3f
       2.7553048 8.172747 1.6656673 0.6629737
000090 54 26 3b 40 1f 61 3d 40 84 4d 70 40 3f f8 68 be
       2.9242144 2.9590528 3.7547312 -0.22750948
0000a0 6f 77 0a bf b0 07 39 3f 34 ce f0 3f b5 b0 9c 3f
       -0.5408849 0.72277355 1.8812928 1.2241427
0000b0 c6 20 3b 3f 19 94 3e bf 18 85 44 bf 09 8e 94 bf
       0.73096883 -0.7444473 -0.76765585 -1.1605846
0000c0 62 76 42 bf cd be 98 bf 86 36 71 bf e1 34 88 bf
       -0.7596189 -1.1933228 -0.9422382 -1.0641137
0000d0 a4 2d 37 bf 11 de 95 bf e5 35 6c 3f d0 62 a2 3f
       -0.7155402 -1.1708394 0.92269737 1.2686405
0000e0 1f 1f 83 bf e5 a5 a3 bf 40 ba 7a bf be c6 92 bf
       -1.0243872 -1.2785002 -0.97940445 -1.1466901
0000f0 e6 f9 14 3f 26 1a 79 3f 8e 7c b3 3f 88 46 b3 40
       0.58193815 0.97305524 1.4022386 5.60236
000100 e0 eb a5 3e b9 1c 30 3e 3b ab a5 3f 37 89 01 40
       0.3240652 0.17198457 1.294288 2.024
000110 58 98 28 40 8f 93 fc 3d c7 f3 08 3f 94 27 bd bd
       2.6342983 0.12332832 0.53496975 -0.092360646
000120 67 6f 0e 3f bb 19 ae 3e 39 16 0a 3e 26 97 0c 3f
       0.55638736 0.34004006 0.1348504 0.54918134
000130 6c 87 8c 3f 3b b6 a9 3f bc c4 a3 40 65 66 0a 3f
       1.0978827 1.3258737 5.1177654 0.5406249
000140 e5 4c d8 3e a4 d1 85 3f 6b 19 c0 3f b0 3c 19 40
       0.42246166 1.0454602 1.5007757 2.394329
000150 ea 6c 98 3e 46 32 b1 3e 71 f6 06 bd de 78 1a 3f
       0.29770595 0.34608668 -0.03294987 0.6034068
000160 b4 28 76 3e 42 34 00 3d aa d5 f0 3e b7 7a af 3e
       0.24038965 0.031299837 0.47038013 0.34273311
000170 da 08 9b 3e 10 5b a4 40 7f aa b7 3e fc fa 8a 3e
       0.3028019 5.136116 0.35872266 0.2714461
000180 99 18 b3 3e 72 58 50 3f c4 43 9d 3f f2 96 c9 be
       0.34979704 0.81384957 1.2286305 -0.39372975
000190 78 5b 6e 3c dd fa 6c 3e c9 f9 7a 3d 0f 2b c7 3e
       0.014548175 0.23142572 0.06127337 0.3890004
0001a0 6c 23 68 3e f2 e6 1b bf 3a 87 40 bf da 0a 2c bf
       0.22669762 -0.6089927 -0.7520634 -0.6720406
0001b0 23 de be be 27 e4 a1 bf d2 3d 1b bf 45 70 78 bf
       -0.37278852 -1.2647752 -0.60641205 -0.9704631
0001c0 13 74 08 bf a3 3b c3 be 08 fa 5f 3f d8 5d a2 3f
       -0.53302115 -0.38131437 0.8749089 1.2684889
0001d0 ed f4 4a bf 3d 04 81 bf a2 24 45 bf a5 33 4d bf
       -0.7927998 -1.0079418 -0.7700902 -0.8015693
0001e0 0c 46 8f bd 09 c8 0e 3f aa 29 65 3f a0 32 66 40
       -0.06995782 0.5577398 0.895167 3.59684
0001f0 ef e5 d6 be bd 9d 23 be 71 63 25 3f 25 1b a0 3f
       -0.419723 -0.15978141 0.6460486 1.2508284
000200 eb 96 f6 3f 06 b4 12 3f 3c 13 22 3f 22 bd 1a be
       1.9264807 0.57305944 0.633106 -0.15111211
000210 2e 55 27 bd 1e 43 f9 bb 4c 35 dd be d0 04 58 bf
       -0.040852718 -0.007606878 -0.43204725 -0.84382343
000220 82 f3 88 bf 40 6b 93 bf 4d 22 4a 40 50 4d 03 bf
       -1.0699313 -1.1517105 3.1583436 -0.51289845
000230 fb 0c 25 bf c2 5c 3f bf 68 64 2e bf 48 8e 0f bf
       -0.6447293 -0.7475091 -0.6812196 -0.5607648
000240 86 8e 37 3e c3 22 2b 3e 8a be 27 bf b3 c8 4f bf
       0.17925462 0.1671248 -0.65525115 -0.8116562
000250 55 94 36 bf 7e e7 05 bf e0 7f 92 3f 4e 6e ad 3f
       -0.71320087 -0.52306354 1.1445274 1.3549287
000260 9f 80 8c 3f 34 f7 26 40 50 b9 23 3f 33 9c a0 3f
       1.0976752 2.608838 0.6395464 1.2547668
000270 ac 86 13 3f f5 ed 58 3f 2b 44 3a 3f 80 0d 8a bf
       0.5762737 0.84738094 0.72760266 -1.078537
000280 1b 84 66 bf 32 57 cc 3f 39 05 a0 3f 23 29 ae 3f
       -0.90045327 1.596411 1.2501594 1.3606304
000290 46 c0 ac 3f 14 1d d1 3e 07 52 4a 3d a6 cd 72 3e
       1.3496177 0.40842497 0.049394634 0.23711261
0002a0 f6 9a 28 c0 b6 e7 3f 3f f9 7e b5 3e 8c c8 0a 3e
       -2.634458 0.7496294 0.35448435 0.13553065
0002b0 25 db 43 bf 87 0a 72 bf e9 83 34 bf c5 e5 95 bf
       -0.76506263 -0.94547313 -0.7051378 -1.1710745
0002c0 94 03 9d 3e 6b 5c ba 3e b2 fc d6 3e 93 d4 34 3f
       0.30666792 0.36398634 0.41989666 0.7063686
0002d0 a2 30 78 3f 2c 00 37 3f 4e c0 9e 3f 29 b6 6f 40
       0.9694921 0.7148464 1.2402437 3.7454932
0002e0 0e 9d 2e 3f dd a3 94 3f f1 dc 50 3f 78 dd e0 3f
       0.68208396 1.1612507 0.8158713 1.7567587
0002f0 3f ab ee 3f 9d c6 49 bf 8f 32 64 bf 55 91 41 3f
       1.864601 -0.78818685 -0.89139646 0.75612384
000300 10 cd 2d 3f c3 f0 06 3f 17 0c 5e 3f b2 2c 3e c0
       0.67891026 0.52711123 0.867372 -2.971478
000310 49 79 47 c0 9b e5 6b c0 f7 4b 83 c0 4c a4 5f c0
       -3.1167777 -3.685889 -4.103023 -3.494403
000320 84 df 35 c0 eb ea 62 c0 a9 b9 4a c0 00 df 72 c0
       -2.8417673 -3.5455883 -3.1675818 -3.7948608
000330 b4 6f 41 40 48 e7 76 40 e5 69 22 c0 95 07 3b c0
       3.0224428 3.8578663 -2.5377133 -2.9223378
000340 50 11 2e c0 bc cc 48 c0 d9 f2 92 3f 3e 61 c2 3f
       -2.7198067 -3.137496 1.1480361 1.5185926
000350 23 23 c7 3f b6 85 6a 40 b1 0f 6e 3f 67 56 7b 3f
       1.5557598 3.664411 0.92992693 0.98178715
000360 b8 da e7 3f 9a e7 08 40 29 de 1c 40 1c a8 a0 be
       1.8113623 2.1391358 2.4510596 -0.31378257
000370 ee ec 34 3d 13 04 93 3f 76 8c 56 3f ac 52 83 3f
       0.044171266 1.1485618 0.83808076 1.0259604
000380 b1 24 62 3f
       0.88337237

onnx::MatMul_28 f4 [15, 1]
000000 01 fb 1a c0 be 7f 0d c0 ca d3 33 c0 59 9a cb c0
       -2.42157 -2.2109218 -2.8098016 -6.3625913
000010 ef f5 3a c0 ac 4c 1d c0 51 e8 21 c0 2b a7 0d c0
       -2.9212606 -2.4578047 -2.5298045 -2.2133281
000020 5b 87 42 c0 d9 3a 69 3f b0 14 af 3f 1a e4 05 c0
       -3.0395114 0.9110542 1.3678188 -2.0920472
000030 54 e8 0f c0 0a 86 0b c0 35 35 33 c0
       -2.2485552 -2.180056 -2.8001225
