onnx/myModel_HL2_HD15_599.onnx (onnx, 3508 bytes, 7 tensors)

net.0.bias f4 [15]
00000000: 9b1f 51c0 0424 5ec0 f4ee 74c0 25a1 63c0
00000010: 35df 8740 c831 8540 a528 a73f 0c77 7740
00000020: 4865 9040 bbe7 6bc0 b2bf f1bd 8276 5040
00000030: d893 a03f c16a 7b40 4f02 84c0
-3.267554 -3.4709482 -3.8270845 -3.5567105 4.245997 4.162327 1.3059279 3.866641
4.5123634 -3.6860187 -0.11804141 3.2572331 1.2545118 3.9283907 -4.125282

net.2.bias f4 [15]
00000000: c93e 383d e2c6 91be 5139 c93d 93d7 d63e
00000010: 7c5d 443d fd2c c03d 41cd 0b3f a9f8 023e
00000020: 9bce 56be 2233 463f ed98 1f3f 7ba9 9bbe
00000030: ced8 90bd 16a0 103f ee80 793e
0.04498175 -0.28472048 0.09825385 0.41961345 0.047940716 0.09383581 0.5461007 0.12790169
-0.20977251 0.7742177 0.6234272 -0.3040274 -0.07072602 0.5649427 0.24365589

net.4.bias f4 [15]
00000000: 26b5 1c3f eee5 e03e e104 573f f9d0 21c0
00000010: a9fa 783f dd65 103f 873c 243f f00f a8be
00000020: e019 2abd 31ed 1dbf 836d b4bf 340e 073f
00000030: 7b5c 493f ed08 f93e e764 3d3f
0.6121391 0.43925422 0.8399182 -2.5283797 0.9725748 0.5640543 0.6415486 -0.3282466
-0.041528583 -0.6169005 -1.409592 0.5275605 0.7865674 0.48639622 0.7398209

onnx::MatMul_25 f4 [2, 15]
00000000: 3f81 cd3f 17c4 1b3f 557a aa3f 8cc5 48bf
00000010: 30f0 4640 737f 18bc 3760 fe3d 6948 5a3e
00000020: 3390 2c40 3d89 13c0 dd05 78c0 6a09 21c0
00000030: 3027 8340 0c08 a23f 8b85 a1c0 f566 3e3f
00000040: 43c2 df3f 9f52 94bf 8c65 0540 7d9e 443f
00000050: 6f91 1040 008e 05bf f6f1 0a40 5596 f13f
00000060: 8481 5a3f d0ef a240 2eb6 e13e 9487 1ac0
00000070: 2f97 d83f 27d2 f43f
1.6055068 0.60846084 1.3318583 -0.7842643 3.10841 -0.00930773 0.12420695 0.21316685
2.6963012 -2.3052514 -3.8753579 -2.5161996 4.0985336 1.2658706 -5.0475516 0.7437585
1.7481159 -1.1587714 2.084323 0.76804334 2.2588766 -0.521698 2.1710181 1.8874003
0.85353875 5.091774 0.44084305 -2.414525 1.6921138 1.9126633

onnx::MatMul_26 f4 [15, 15]
00000000: 27cd 4b40 9071 3d40 5125 8140 18e8 0240
00000010: 5cac 5b40 f78b 2840 d97a 6340 8b0a 8d3f
00000020: ed69 3540 6e76 cf3f 717a f5bc fadf 283f
00000030: 2cc9 2e3f 89f1 5e40 f712 5740 c016 3640
00000040: 76ed 8140 e398 5340 a985 f83f b0dc 3840
00000050: 5ea4 f73f db0e 1a40 e48f 903f 3417 3e40
00000060: 3a1c 8740 43ee 04be 77ac 1c3f 0fc0 1340
00000070: a409 6140 c07b 3840 bf69 2f40 d0e6 f13f
00000080: 8325 9240 fc25 8d3f 1c27 6140 84d7 5e40
00000090: b469 3840 f465 9dbe e380 b13f 69f7 7440
000000a0: d3fb bf3f 1c29 0440 6094 ae3f b35f a940
000000b0: 69f8 2040 d520 8a3f 740e 2e3f 7587 0d40
000000c0: 691c a23f 9d80 0740 995c 2c40 ac82 323f
000000d0: 6ff8 0740 f6fe e13f a1f1 a540 7833 ef3f
000000e0: 5e9a 61be c946 4d40 1df0 6e40 8e1e 23bf
000000f0: 37e8 95bf bd96 11be 26d1 c9bf d710 3dbe
00000100: 051c 9abf e2b0 91bf 128c 8fbf 9c08 aabf
00000110: bc8e 19bf b7e6 06c0 2d19 7bbf e125 5d3f
00000120: 95ea 54bf e8ce adbf 4ca3 7cbf 1e7f b8bf
00000130: 817d 73bf d6b3 d4bf b3a1 a5bf be07 adbf
00000140: 9573 c4bf 48f4 2cc0 d023 d1be 87b2 7dbf
00000150: c2a9 5cc0 fe0e e9bf b51f c1be 5bd1 82bf
00000160: 57e8 dbbf 8878 aebf 7ef4 2bbf 6b76 59bf
00000170: ea48 d2bd b91b 993c 8bb8 0abe 09ca 8dbe
00000180: 2923 ba3e e754 d2bd ee23 4cbf 5fb1 5d3d
00000190: 3994 ba3e c4b3 15be 209a 1dbf 9148 833f
000001a0: e935 c53d fcc7 a0bf 6ebd 10bf cada 9bbf
000001b0: cb49 86bf 11df bcbf e42d 92bf a9bd 18c0
000001c0: 3b0a 343d 7913 23bf 3cc0 41c0 b664 febf
000001d0: 8b08 83be 88bf 48bf e8b5 b0bf 9172 89bf
000001e0: 6361 72bf f354 eabe 7fae ebbf 6aa8 21bf
000001f0: 19dc 93bf 2d47 84bf 918d ddbf 9efe 83bf
00000200: ffbf 24bf d428 d2bf 8794 ccbf 59cf 513e
00000210: 2043 0dbf 7f64 e7bf 16c1 95bf 2a79 ac40
00000220: a441 89bf b7b9 b840 1613 17bd d687 b840
00000230: faf0 b040 53ec 5240 ebb6 c3bf 646c 8240
00000240: 6631 d340 6cde 2940 9948 96c0 5729 2940
00000250: 63c4 9e40 366c 1f40 a47c cbbd e901 b43f
00000260: c550 eabf b6d5 41bf fa72 34bf 48e7 90bd
00000270: 433d d6bd e8d6 8bbd c652 573f a590 fcbc
00000280: c23e 223e 670b 0cc0 8a25 823e 1525 04c0
00000290: 2104 a73f d5ee 15c0 35a3 debf d37f f0bf
000002a0: 1e6e d63e 39e5 05c0 9b2b 79bf 98ec b7be
000002b0: 4c0b 983f e050 bebf 1cf0 f53d 910f 6e3e
000002c0: 8a4b 733d 1bf6 40bd 45f2 2a3f fdc9 ffbf
000002d0: 0e97 3cbe 8be4 be3e 4447 ab3e 60f5 173f
000002e0: 7345 a6be 9f83 4bbf 839f 483f eeda 0c3f
000002f0: 0612 71bf 8fea 593e fa12 9a3f 73f0 1040
00000300: e0fd 29c0 2f4f e73f 5d7f 773e 0d20 a2bf
00000310: 1feb 11bf b6b7 0bc0 ac98 02bf d491 febf
00000320: f942 d0bf da5a 0fc0 c684 31bf dc3b 85bf
00000330: 6652 75c0 0d43 15c0 bbba ec3e bebd 9ebf
00000340: b76b c4bf 479d c6bf f8aa 50bf 2f63 76c0
00000350: 3803 09be a951 bfbf c92c 82bf 854c 7ebf
00000360: 343a 633d b3a3 32c0 e558 3cc0 cc09 443f
00000370: 52f9 a2bd 7f7e e93f 44c4 09c0 51af 8440
00000380: b63d 02c0
3.1843965 2.9600563 4.035805 2.0454159 3.432395 2.6335428 3.554373 1.1018842
2.8345902 1.6208017 -0.029965611 0.6596676 0.68275714 3.4834921 3.3605325 2.8451385
4.060237 3.3062065 1.941579 2.8884697 1.9347036 2.4071567 1.1293912 2.9701662
4.2221956 -0.12981515 0.6120066 2.3085973 3.5162134 2.882553 2.7408292 1.8898563
4.567079 1.1027217 3.518012 3.481904 2.8814516 -0.30741847 1.3867458 3.8276007
1.4998726 2.065009 1.363903 5.292932 2.5151618 1.079127 0.67990804 2.2113926
1.266492 2.117225 2.6931517 0.6973064 2.1245382 1.7655933 5.1857457 1.8687582
-0.22031543 3.2074454 3.7334054 -0.637185 -1.1711491 -0.14217658 -1.5766952 -0.18463455
-1.2039801 -1.1382105 -1.1214621 -1.3283877 -0.5998342 -2.1078317 -0.9808529 0.86385924
-0.83170444 -1.3578768 -0.9868667 -1.4413793 -0.9511338 -1.6617382 -1.2939972 -1.3517988
-1.5347773 -2.7024097 -0.40847635 -0.99100536 -3.4478612 -1.82077 -0.37719503 -1.022014
-1.718028 -1.3630533 -0.6716994 -0.84946316 -0.102678135 0.018689977 -0.1354696 -0.27693203
0.3635495 -0.102701 -0.79742324 0.054124232 0.3644121 -0.14619356 -0.615633 1.025652
0.09629423 -1.256103 -0.56539047 -1.2176144 -1.049127 -1.4755574 -1.1420255 -2.386576
0.04395507 -0.6370159 -3.027358 -1.9874485 -0.25592455 -0.78417253 -1.3805513 -1.0738088
-0.9467985 -0.45767936 -1.8412627 -0.63147604 -1.1551543 -1.0334221 -1.7308828 -1.0312078
-0.6435546 -1.641871 -1.5982827 0.20489253 -0.5518055 -1.8077544 -1.169955 5.3897905
-1.0723157 5.7726703 -0.036883436 5.7665815 5.529416 3.295674 -1.5290197 4.0757313
6.59978 2.6542006 -4.696362 2.6431482 4.961473 2.4909797 -0.09935883 1.4063083
-1.8305899 -0.7571672 -0.7048794 -0.070753634 -0.104609035 -0.068280995 0.8411068 -0.03083069
0.15844253 -2.188196 0.25419265 -2.0647633 1.3048135 -2.3427022 -1.7393557 -1.8789009
0.41880888 -2.0921156 -0.9733216 -0.35922694 1.1878448 -1.4868431 0.12008688 0.23248126
0.05939821 -0.047109704 0.66775924 -1.9983517 -0.18416998 0.3728374 0.3345281 0.5935879
-0.3247486 -0.7949771 0.78368396 0.5502156 -0.94168127 0.21280883 1.2037041 2.2646759
-2.6561203 1.807104 0.24169679 -1.2666031 -0.5699939 -2.1830878 -0.5101421 -1.9888253
-1.6270438 -2.2399201 -0.6934322 -1.0408893 -3.8331542 -2.3322175 0.46236214 -1.2401655
-1.5345372 -1.5516747 -0.8151088 -3.8498037 -0.13380134 -1.4946796 -1.0169917 -0.9933551
0.05547543 -2.7912414 -2.9429257 0.7657745 -0.0795771 1.8241729 -2.152604 4.146401
-2.0350165

onnx::MatMul_27 f4 [15, 15]
00000000: 9a72 403e a9d7 f63e 323e 313f 1e86 9c40
00000010: ee0b d3bd cdbf 11bb 629c 093f c875 493f
00000020: 610c 8a3f eddc babe 47fb 893e 0aaf d53e
00000030: 8ffa bf3d a81e b03e cdc0 15bd b17e 92bf
00000040: 10f1 0ebf 4742 46bf 6f2a d13e d561 9dbf
00000050: 9d3a 7bbf ca66 05bf f676 ae3d bc72 ed3d
00000060: 4108 de3f c0f4 0440 16ef 6ebf 3270 8fbf
00000070: 4f37 87bf 3ebd bcbf cd7f a83f 4d17 c33f
00000080: 06b2 0440 b1dc 1641 4170 d03f e6a4 3c3f
00000090: bb52 0f40 c000 eb3f d7ae 1d40 25d3 0cbf
000000a0: a5cd 43bf a38f 4c3f 8aa9 e33f b750 953f
000000b0: 64d1 5f3f 12a2 41bf 6957 3cbf bd6c 9bbf
000000c0: fdb7 7fbf 8d82 a6bf 266e 6abf bcc5 8fbf
000000d0: f920 2abf 76c4 97bf 099c 843f 6446 c43f
000000e0: 8aea 71bf 6459 a8bf 094f 78bf 23bd 9dbf
000000f0: c67b ca3e 21de e83e ab96 3d3f f81c cd40
00000100: a91a 533e 8277 413e bc00 223f af76 893f
00000110: 6178 ca3f f554 e6bd 8aa6 d43e 0b15 4ebd
00000120: 9405 d53e 60e7 803e 4f38 5b3e b632 533f
00000130: 5d49 8c3f 1fcd 8e3f 429c a940 e2cf 523f
00000140: a0fc 523f ad1e 563f c7b2 8c3f f471 e73f
00000150: 09b9 8ebe f947 50be 947e fb3e 50dd 6c3f
00000160: a960 243f f420 043f 8f6e da3e aaef c63c
00000170: 7c1e 2cbe c206 b840 53e6 ca3e ade8 be3e
00000180: 5b32 75be ce60 50be 6370 1fbe 4504 1fbf
00000190: 6630 b2be f477 a63e e78c e23d 512d ca3e
000001a0: e373 b63e 6ca8 20bf 0415 2dbf 23ab 1abf
000001b0: 8460 c1be 2106 b1bf c9e9 19bf d3d6 74bf
000001c0: 3539 4abe 3824 61bd 3359 6e3f 25f4 9c3f
000001d0: 749a 46bf 5802 87bf 890f 4dbf 3b45 5bbf
000001e0: 4d26 573e c890 553f c6ee 8d3f 51e3 6d40
000001f0: 2252 91be a9f8 513e 0fdb 593f 30ce d23f
00000200: 275f 1440 eea4 b83e 3a46 243f 6165 743e
00000210: 917b 473e c74b 9b3e bc47 33be f18c a2bf
00000220: 86c3 d3bf 036e eabf d489 6540 00ee 57bf
00000230: 177e 85bf f6b6 b3bf 62ad c8bf 1b5e c8bf
00000240: 0db9 c93e db9a 623e 9a07 7bbf 7aa9 96bf
00000250: 9e29 89bf e391 4cbf e990 bb3f 1b75 cd3f
00000260: cbd1 933f 6df8 2a40 1561 363f e2b2 d53f
00000270: dc87 013f 7906 263f 6ce5 363d 6eee aabf
00000280: 90b1 4abf d750 0540 21a2 ca3f 92b8 dd3f
00000290: 584c d13f 4899 bc3e c0c8 b33d b26d aa3e
000002a0: d9ce 50c0 8365 6d3f 57b5 9c3e 995c 7c3e
000002b0: 0a61 49bf d819 83bf 0457 4bbf 75a0 cdbf
000002c0: 7720 683e 15a4 ba3e 736e bb3e 4526 423f
000002d0: 96e9 b73f 9416 993f 15eb c93f 701a 7140
000002e0: f8d0 883f a249 d03f 2f20 953f 8eb9 0740
000002f0: 9040 0540 dae0 9ebf 71ee afbf d5fe a43f
00000300: 08a1 883f 1c7f 833f 8b4c aa3f e9e0 53c0
00000310: 7182 52c0 0ef3 7dc0 c234 99c0 4028 83c0
00000320: 3e7b 4bc0 f5e0 75c0 415c 52c0 9581 82c0
00000330: f8f4 6a40 bd8e 9940 7e84 34c0 994c 58c0
00000340: ddc9 44c0 b4f0 6dc0 e22a b73f 05cb d33f
00000350: 95b8 cf3f 1053 7840 c61f 953f ca96 b63f
00000360: cc92 f13f 7242 0740 e453 1c40 a41f 1fbf
00000370: 3722 d63d e1b9 cb3f 04be 8b3f c32b ae3f
00000380: 8d4c 9f3f
0.18793717 0.4821141 0.6923553 4.8913717 -0.1030501 -0.0022239566 0.53754246 0.78695345
1.0785028 -0.36496678 0.26949522 0.41735107 0.09373962 0.3439839 -0.036560822 -1.1444913
-0.5583658 -0.7744488 0.40852687 -1.2295481 -0.9813631 -0.5210997 0.08518784 0.115941495
1.7346269 2.0774384 -0.93333566 -1.1206114 -1.0563754 -1.4745252 1.3164002 1.5241486
2.0733657 9.42888 1.6284257 0.73689115 2.2394245 1.8359604 2.4637964 -0.5500968
-0.76485664 0.7990667 1.7786114 1.1665257 0.8742888 -0.75637925 -0.7357088 -1.2142559
-0.9989012 -1.3008591 -0.91574323 -1.1232219 -0.6645656 -1.185683 1.0360118 1.5333982
-0.94498503 -1.315228 -0.969956 -1.2323345 0.39547557 0.4548197 0.74058026 6.409786
0.20615639 0.18893245 0.6328237 1.0739344 1.5817987 -0.11246673 0.4153331 -0.050313037
0.41605818 0.25176525 0.21408199 0.82499254 1.0959889 1.1156348 5.3003244 0.82348454
0.82416725 0.8364056 1.0992059 1.8081651 -0.27875546 -0.20339955 0.4912001 0.92525196
0.6420999 0.5161278 0.42662475 0.024284203 -0.16808504 5.750825 0.39628848 0.37286893
-0.2394499 -0.20349428 -0.15570216 -0.6211589 -0.3480255 0.32513392 0.11062031 0.394877
0.3563529 -0.6275699 -0.6761019 -0.60417384 -0.37768948 -1.3829995 -0.6012235 -0.95640296
-0.19748385 -0.05496618 0.9310486 1.2262007 -0.77579427 -1.054759 -0.8010183 -0.8565251
0.21010704 0.83424044 1.1088493 3.7169993 -0.28382975 0.20505013 0.8509988 1.6469173
2.3183076 0.3606333 0.6416966 0.23866798 0.1948073 0.3033125 -0.17507833 -1.2699262
-1.6544044 -1.8314823 3.5865374 -0.84347534 -1.0429105 -1.404021 -1.5677912 -1.5653719
0.39398995 0.22129385 -0.98058474 -1.177047 -1.0715826 -0.79910105 1.4653598 1.6051363
1.1548399 2.6714127 0.71241885 1.6695216 0.5059793 0.64853626 0.044652387 -1.3354013
-0.7917719 2.083059 1.5830728 1.7321951 1.6351423 0.36835694 0.087785244 0.33286816
-3.262625 0.9273302 0.306071 0.24644698 -0.78663695 -1.0242262 -0.7942965 -1.6064593
0.22668634 0.3645331 0.36607704 0.75839645 1.436816 1.1960015 1.5774866 3.7672386
1.0688772 1.6272471 1.1650447 2.1207004 2.0820656 -1.2412369 -1.3744642 1.2890269
1.0674143 1.0273166 1.3304609 -3.3106024 -3.2892115 -3.96796 -4.78769 -4.0986633
-3.179397 -3.8418553 -3.2868807 -4.078318 3.6712017 4.798674 -2.8205867 -3.3796751
-3.0748208 -3.7178164 1.4309962 1.6546332 1.6228205 3.8800697 1.1650321 1.4264767
1.8872924 2.1134305 2.4426203 -0.62157655 0.10455745 1.5916101 1.0917363 1.3607105
1.2445236

onnx::MatMul_28 f4 [15, 1]
00000000: b1f1 2bc0 a0eb 20c0 331a 53c0 1c27 eac0
00000010: c9dc 65c0 9b19 2dc0 4fc6 3cc0 d8fc 22c0
00000020: bc4d 5fc0 c31c 443f 2900 a43f 2562 0fc0
00000030: d3c6 21c0 630e 18c0 129a 50c0
-2.6866267 -2.5143814 -3.298474 -7.317274 -3.5916007 -2.7046878 -2.9496038 -2.5466824
-3.4891195 0.76606387 1.2812549 -2.2403653 -2.5277603 -2.375878 -3.2594037
