onnx/myModel_HL2_HD15_149.onnx (onnx, 3508 bytes, 7 tensors)

net.0.bias f4 [15]
-4.191598 -3.412652 -4.191821 -2.9236307 3.0632355 3.4220243 1.3631392 3.1850173
3.3947861 -3.7807398 0.22555068 2.8107588 0.26005262 3.874768 -3.6574547
00000000: 9221 86c0 e468 5ac0 6623 86c0 c41c 3bc0
00000010: 0d0c 4440 7202 5b40 587b ae3f 53d7 4b40
00000020: 2d44 5940 a4f7 71c0 c2f6 663e 79e3 3340
00000030: 9e25 853e 33fc 7740 bd13 6ac0

net.2.bias f4 [15]
0.041353732 -0.057279117 0.089327164 0.39473477 0.031582527 -0.04701574 0.16565773 0.12700613
-0.39112583 -0.3032221 -0.22580618 0.1825463 -0.35336873 0.38030759 0.15572028
00000000: 8862 293d 829d 6abd 29f1 b63d ad1a ca3e
00000010: ae5c 013d 9493 40bd 2ea2 293e e50d 023e
00000020: a541 c8be ed3f 9bbe bc39 67be 6bed 3a3e
00000030: bfec b4be adb7 c23e 2375 1f3e

net.4.bias f4 [15]
0.49959522 0.23287097 0.460599 -1.3863298 0.5875942 0.43027222 0.31407562 -0.49279782
-0.17684704 -0.3342732 -0.57897836 0.42817935 0.6670064 0.39772213 0.47811568
00000000: f2ca ff3e ba75 6e3e a2d3 eb3e 4173 b1bf
00000010: 936c 163f a44c dc3e 85ce a03e ff4f fcbe
00000020: 6417 35be db25 abbe ed37 14bf 533a db3e
00000030: eec0 2a3f 3ca2 cb3e 94cb f43e

onnx::MatMul_25 f4 [2, 15]
1.7957954 0.61302257 1.3534912 -0.6961661 2.2042654 0.22816177 -0.16954777 0.4280103
1.9892586 -1.9976956 -1.688994 -1.2560723 1.0069549 0.9280189 -3.5699465 0.5825887
1.978079 -1.1262076 1.4831367 0.7776466 2.2475502 -0.48794964 1.8566685 1.3864555
0.7756778 2.6097536 0.07042374 -0.651571 1.7734923 1.3249321
00000000: a0dc e53f 0cef 1c3f 333f ad3f f137 32bf
00000010: af12 0d40 3da3 693e ee9d 2dbe 2b24 db3e
00000020: 07a0 fe3f 7db4 ffbf f530 d8bf fac6 a0bf
00000030: e6e3 803f a692 6d3f 017a 64c0 8824 153f
00000040: b131 fd3f 9227 90bf 6cd7 bd3f d913 473f
00000050: ddd7 0f40 89d4 f9be 50a7 ed3f 6077 b13f
00000060: d292 463f 3406 2740 523a 903d 5bcd 26bf
00000070: cc01 e33f 6097 a93f

onnx::MatMul_26 f4 [15, 15]
2.9798782 2.1943252 3.6971707 1.8659527 3.2742188 2.8714838 2.5424027 0.67668533
2.5909276 0.878329 0.97471523 0.20791505 1.3859402 2.8747115 2.8017309 2.2791533
2.096348 3.2604396 1.8409926 2.6686242 2.249432 1.9626303 0.5983613 2.1556811
0.92230767 1.4007009 -0.16332702 2.0324004 3.012309 2.4871297 2.8900898 2.0635793
4.34927 1.2392241 3.2875307 3.114864 2.5446815 0.040111817 2.4685574 0.59940475
1.5395179 0.7236268 1.7771405 3.575827 2.6340911 2.3211462 0.45907354 3.194227
0.9459677 2.8415225 2.6239433 1.7876574 0.4128578 1.9810593 1.1794705 1.3851299
-0.69717354 2.2159758 2.4933689 1.6513165 -1.018512 -0.08970833 -1.3775806 -0.35437542
-0.9986588 -0.95735586 -1.4002966 -1.1506828 -0.65816873 -0.8195258 -1.0183535 0.63072807
-0.7207445 -1.0088953 -1.0677521 -1.4362326 -0.43301952 -1.7621619 -1.0286837 -1.3378626
-1.5569482 -1.7514611 -1.0006686 -1.226804 -1.1812599 -1.4644151 0.18946226 -1.2628912
-1.2212757 -1.4466199 -0.5993124 -0.1582318 -0.15467735 0.17142975 -0.15997669 -0.47956404
-0.06441645 0.26541358 -0.6952611 -0.70486486 -0.54549927 0.8111115 -0.71861696 0.8640736
-0.06979563 -1.2813618 -0.2772871 -1.3442401 -0.8151471 -1.4899782 -1.2328098 -1.4025359
-0.4740851 -0.87838835 -1.1556991 -1.2432821 0.24880171 -1.0400813 -0.86996 -1.1986759
-0.93039286 -0.59587115 -1.6469399 -0.75089294 -1.0792534 -1.025348 -1.134353 -1.2651252
-0.8292172 -0.7665724 -0.882259 0.14297338 -0.72674644 -1.1741941 -1.2006055 4.3313932
0.5792358 5.1921587 0.25563735 4.889687 4.506637 3.654333 -0.8238832 3.768869
2.5679297 2.5138657 -2.8066707 3.0304193 4.0201807 3.632175 0.18351366 0.27227467
-0.14893816 -0.014479697 0.15155107 0.31468156 0.30901784 -0.73367584 0.23325957 -0.0038208915
0.24399062 -0.9195177 0.07557254 -1.1948454 0.27089533 -1.2574219 -0.5710532 -1.3106701
0.032135483 -1.3040978 -0.9303536 -0.64643013 0.2070561 -1.0155406 -1.0101203 -0.7093297
0.6736426 -0.6039705 0.14743243 -1.01379 0.31793755 0.15984136 0.48528522 0.13380805
0.33607715 0.3551585 0.06664717 0.46791914 -0.044200994 -0.7988874 0.015641596 0.83574945
-0.03530096 1.2099597 0.16769324 -1.3837116 -0.7972444 -2.1714778 -0.6041293 -2.0843093
-1.8813535 -1.9655353 -1.1339961 -1.2866495 -1.4401128 -1.9729824 0.83178127 -1.5202546
-1.0866048 -1.5784928 -0.456048 -1.6705719 -0.102301195 -0.9638511 -0.6503589 -0.73287153
-0.21079041 -3.141905 -0.9087853 -0.46396852 -0.5083609 0.867657 -0.94446146 3.121084
-0.56015086
00000000: 53b6 3e40 d36f 0c40 729e 6c40 8ad7 ee3f
00000010: cd8c 5140 64c6 3740 bab6 2240 403b 2d3f
00000020: c2d1 2540 2bda 603f f086 793f afe7 543e
00000030: 7d66 b13f 46fb 3740 8f4f 3340 a6dd 1140
00000040: 912a 0640 0bab 5040 a5a5 eb3f bdca 2a40
00000050: b2f6 0f40 7837 fb3f 352e 193f aef6 0940
00000060: 5b1c 6c3f 2b4a b33f 333f 27be d912 0240
00000070: acc9 4040 222d 1f40 3bf7 3840 af11 0440
00000080: 382d 8b40 e59e 9e3f e766 5240 ef59 4740
00000090: 10dc 2240 4a4c 243d d8fc 1d40 9772 193f
000000a0: ec0e c53f 9b3f 393f 5779 e33f 59da 6440
000000b0: f394 2840 a98d 1440 b00b eb3e 376e 4c40
000000c0: f02a 723f 81db 3540 b0ee 2740 f5d1 e43f
000000d0: 1962 d33e 5a93 fd3f e4f8 963f f04b b13f
000000e0: f779 32bf 8cd2 0d40 5b93 1f40 575e d33f
000000f0: 9a5e 82bf 00b9 b7bd 9054 b0bf b270 b5be
00000100: 1aa8 7fbf 4615 75bf eb3c b3bf 9349 93bf
00000110: bf7d 28bf 71cc 51bf 6859 82bf 6577 213f
00000120: b682 38bf 7b23 81bf 1aac 88bf 78d6 b7bf
00000130: bcb4 ddbe 858e e1bf e8ab 83bf 153f abbf
00000140: 144a c7bf e12f e0bf e915 80bf ea07 9dbf
00000150: 8633 97bf f471 bbbf 6502 423e 6ba6 a1bf
00000160: c352 9cbf d72a b9bf 8a6c 19bf 8407 22be
00000170: bd63 1ebe 488b 2f3e eed0 23be 6b89 f5be
00000180: c6ec 83bd 4ae4 873e a2fc 31bf 0672 34bf
00000190: d7a5 0bbf 01a5 4f3f 48f7 37bf ed33 5d3f
000001a0: 03f1 8ebd aa03 a4bf 93f8 8dbe 0f10 acbf
000001b0: 7bad 50bf 9bb7 bebf b6cc 9dbf 4c86 b3bf
000001c0: 48bb f2be 0fde 60bf f3ed 93bf de23 9fbf
000001d0: e0c5 7e3e 6221 85bf b3b5 5ebf 366e 99bf
000001e0: 3a2e 6ebf 038b 18bf edce d2bf 853a 40bf
000001f0: fa24 8abf 9a3e 83bf 7b32 91bf 9fef a1bf
00000200: 9447 54bf 173e 44bf badb 61bf 9d67 123e
00000210: 0e0c 3abf fe4b 96bf 71ad 99bf c69a 8a40
00000220: cc48 143f 2a26 a640 e6e2 823e 5178 9c40
00000230: 5f36 9040 98e0 6940 02ea 52bf 2635 7140
00000240: f658 2440 2de3 2040 7ea0 33c0 64f2 4140
00000250: 52a5 8040 8e75 6840 01eb 3b3e 9667 8b3e
00000260: 3f83 18be 403c 6dbc 3430 1b3e f11d a13e
00000270: 9637 9e3e 2ed2 3bbf 99db 6e3e ec67 7abb
00000280: add8 793e 8365 6bbf c7c5 9a3d b2f0 98bf
00000290: cbb2 8a3e 33f3 a0bf 8b30 12bf 0ac4 a7bf
000002a0: 7fa0 033d adec a6bf a72b 6ebf 727c 25bf
000002b0: 8406 543e 3cfd 81bf 9f4b 81bf a296 35bf
000002c0: d773 2c3f d09d 1abf 87f8 163e dfc3 81bf
000002d0: b6c8 a23e 74ad 233e 4e77 f83e fa04 093e
000002e0: 4e12 ac3e 56d7 b53e 507e 883d 1993 ef3e
000002f0: 1a0c 35bd e283 4cbf ce22 803c adf3 553f
00000300: bd97 10bd f6df 9a3f c7b7 2b3e 761d b1bf
00000310: 3618 4cbf 7ef9 0ac0 38a8 1abf 5365 05c0
00000320: 31d0 f0bf a996 fbbf c926 91bf eeb0 a4bf
00000330: 9e55 b8bf b08a fcbf 9eef 543f b497 c2bf
00000340: de15 8bbf 0d0c cabf 207f e9be 4dd5 d5bf
00000350: 4a83 d1bd f2be 76bf ec7d 26bf 789d 3bbf
00000360: 71d9 57be f914 49c0 27a6 68bf 488d edbe
00000370: f123 02bf c51e 5e3f 3ac8 71bf d7bf 4740
00000380: 0c66 0fbf

onnx::MatMul_27 f4 [15, 15]
0.22785889 1.1534747 1.4491912 3.092922 -0.3314544 -0.36553642 1.2991426 1.7197345
1.8978854 0.37506714 0.73621327 -0.012011955 -0.034793418 0.16611534 -0.57149535 -0.67002034
-0.16545297 -0.41291296 0.2226805 -0.65661067 -0.4822957 -0.17622839 -0.012775323 -0.103232965
0.98060626 1.2191515 -0.57822293 -0.66990197 -0.6221675 -0.85564905 1.7406806 2.8186033
3.505995 5.4304905 1.6519198 0.6669739 3.675165 3.612014 4.143299 0.17321491
-0.019698432 0.70217586 2.0207815 1.3445318 0.5487859 -0.61639893 -0.49044982 -0.944651
-0.67343223 -0.9770899 -0.8262178 -0.7856871 -0.55858046 -1.0740991 0.7320312 0.8969951
-0.99119973 -1.1676561 -0.87843233 -1.0304638 0.8494329 1.6714073 2.0574129 4.0558796
0.32372856 0.2004997 1.9612579 2.5893438 2.9773223 0.41351354 0.8659025 -0.09193437
0.7102759 0.47742173 -0.008718373 0.7303556 1.7862785 2.010105 3.6622899 0.4839097
0.3387559 1.7664803 2.1060815 2.7887478 0.71246135 0.78710216 -0.16984773 0.65037006
0.2681764 -0.22275248 0.43705148 0.8304764 0.91614455 2.7446318 0.22904341 -0.0063819867
1.0016682 1.598321 1.9099332 0.014129427 0.52468187 -0.005425554 -0.022269076 0.27842027
-0.0521919 -0.55806524 -0.45171306 -0.46769825 -0.14128925 -1.0602063 -0.5264761 -0.64700925
-0.43604723 -0.2898734 0.82080674 1.0305362 -0.8064922 -0.9697269 -0.7191996 -0.8065169
-0.013630826 0.77312845 0.9233799 2.550974 -0.565414 -0.24991459 0.71948457 0.983382
1.4206476 0.6722145 0.73246074 -0.23049773 -0.05878364 0.01926417 -0.57995087 -0.018076336
0.10427116 0.0503797 0.6431326 -0.0469361 -0.0871923 0.32350358 0.35345364 0.20395306
-0.16497084 0.18253362 -0.14182612 -0.30992848 -0.042074732 -0.022700455 -0.024536382 0.7492723
0.70930743 1.3167701 -0.35188523 -0.1294622 0.29473868 0.96475255 1.0078633 0.2544515
0.12664387 0.23173238 0.14166975 0.13072136 0.06654998 0.2529508 -0.049701907 0.028901823
-1.5876694 0.4663664 0.20430656 -0.010347738 -0.6287545 -0.768897 -0.44685552 -0.60957444
0.14741254 0.19000825 0.26004243 0.42184058 0.31474864 0.31948122 0.73576355 1.8429952
-0.07808567 0.32408628 0.40062952 0.99129945 0.81325823 0.28208262 0.35919094 -0.02138503
0.061408516 -0.14234106 -0.07670512 -2.5877323 -2.5887837 -3.0360901 -2.4552612 -2.8868723
-2.4561405 -2.8993938 -2.3172317 -2.7490726 2.4798486 2.9474707 -2.248748 -2.4998631
-2.3734877 -2.6063213 0.37292835 1.0965335 1.1382271 2.8199039 -0.005753164 0.001145307
1.3860494 1.8178391 2.0302095 0.68705523 0.81512266 0.14454292 0.035173643 0.14931062
-0.1405334
00000000: d753 693e 0fa5 933f 197f b93f 6ff2 4540
00000010: 64b4 a9be 9727 bbbe 4e4a a63f 4320 dc3f
00000020: e9ed f23f cd08 c03e 7978 3c3f cacd 44bc
00000030: 8b83 0ebd 241a 2a3e 854d 12bf 7486 2bbf
00000040: 816c 29be 5469 d3be 5b06 643e a317 28bf
00000050: 76ef f6be 3775 34be 974f 51bc ce6b d3bd
00000060: 0309 7b3f 280d 9c3f 6b06 14bf b27e 2bbf
00000070: 5f46 1fbf d10b 5bbf 9fce de3f ff63 3440
00000080: 3962 6040 94c6 ad40 1c72 d33f cdbe 2a3f
00000090: e735 6b40 3d2b 6740 e895 8440 405f 313e
000000a0: 9b5e a1bc ccc1 333f 7c54 0140 9e19 ac3f
000000b0: 3c7d 0c3f 52cc 1dbf 3d1c fbbe a6d4 71bf
000000c0: 0e66 2cbf 9022 7abf 0283 53bf ca22 49bf
000000d0: 21ff 0ebf 147c 89bf 6666 3b3f 79a1 653f
000000e0: 44bf 7dbf c175 95bf f1e0 60bf 3de6 83bf
000000f0: 6f74 593f adf0 d53f a7ac 0340 c4c9 8140
00000100: c0bf a53e cb4f 4d3e 800a fb3f cfb7 2540
00000110: 738c 3e40 0cb8 d33e c9ab 5d3f 1648 bcbd
00000120: a4d4 353f 9f70 f43e 82d7 0ebc 96f8 3a3f
00000130: c6a4 e43f 8fa5 0040 f562 6a40 03c3 f73e
00000140: 6a71 ad3e 071c e23f 0aca 0640 d87a 3240
00000150: de63 363f 877f 493f 90ec 2dbe a77e 263f
00000160: 6b4e 893e 3a19 64be 36c5 df3e 1a9a 543f
00000170: 7388 6a3f 0ca8 2f40 5b8a 6a3e fc1f d1bb
00000180: aa36 803f c895 cc3f b178 f43f 1d7f 673c
00000190: 8d51 063f d8c8 b1bb a36d b6bc 1a8d 8e3e
000001a0: 2cc7 55bd 5ddd 0ebf ef46 e7be 2576 efbe
000001b0: 21ae 10be d7b4 87bf 23c7 06bf 66a2 25bf
000001c0: 9541 dfbe 496a 94be 6420 523f 9ce8 833f
000001d0: 4676 4ebf 0640 78bf 771d 38bf e477 4ebf
000001e0: d453 5fbc bfeb 453f a062 6c3f 2843 2340
000001f0: f9be 10bf 9ce9 7fbe 2430 383f ecbe 7b3f
00000200: c8d7 b53f 4016 2c3f 8c82 3b3f 9907 6cbe
00000210: 1dc7 70bd e5cf 9d3c a977 14bf d314 94bc
00000220: 1e8c d53d f25a 4e3d 57a4 243f 1140 40bd
00000230: e091 b2bd 43a2 a53e e0f7 b43e 12d9 503e
00000240: 1eee 28be 18ea 3a3e de3a 11be f2ae 9ebe
00000250: 8e56 2cbd 4ef6 b9bc 8600 c9bc 4fd0 3f3f
00000260: 2c95 353f ec8b a83f 4d2a b4be bd91 04be
00000270: fde7 963e 06fa 763f aa01 813f 7847 823e
00000280: eeae 013e 414b 6d3e e011 113e d2db 053e
00000290: 5b4b 883d c482 813e 3a94 4bbd 84c3 ec3c
000002a0: c038 cbbf 94c7 ee3e bd35 513e 8f89 29bc
000002b0: 0ef6 20bf 6fd6 44bf 3fca e4be 120d 1cbf
000002c0: 50f3 163e 8691 423e 4824 853e 7dfb d73e
000002d0: bc26 a13e 0b93 a33e 005b 3c3f 44e7 eb3f
000002e0: 61eb 9fbd a3ee a53e 501f cd3e cdc5 7d3f
000002f0: b131 503f 226d 903e e0e7 b73e a92f afbc
00000300: 7f87 7b3d dbc1 11be 9317 9dbd 689d 25c0
00000310: a2ae 25c0 4d4f 42c0 0023 1dc0 84c2 38c0
00000320: 6831 1dc0 ab8f 39c0 864d 14c0 cef0 2fc0
00000330: d7b5 1e40 5ca3 3c40 7deb 0fc0 c2fd 1fc0
00000340: 39e7 17c0 f8cd 26c0 77f0 be3e 365b 8c3f
00000350: 6db1 913f 4e79 3440 0a85 bcbb 201e 963a
00000360: 116a b13f f4ae e83f f4ee 0140 dae2 2f3f
00000370: e1ab 503f 0f03 143e 3d12 103d e2e4 183e
00000380: fde7 0fbe

onnx::MatMul_28 f4 [15, 1]
-1.738968 -1.6632477 -1.9535682 -2.8452938 -1.8246417 -1.7372421 -1.8027041 -1.6010343
-2.048284 0.9532662 1.358421 -1.4180002 -1.4970704 -1.5269152 -1.7605865
00000000: 8196 debf 4de5 d4bf 860e fabf 4b19 36c0
00000010: dc8d e9bf f35d debf 02bf e6bf b1ee ccbf
00000020: 1617 03c0 4109 743f bde0 ad3f 0881 b5bf
00000030: 01a0 bfbf f571 c3bf e65a e1bf
