onnx/myModel_HL4_HD15_449.onnx (onnx, 6087 bytes, 11 tensors)

net.0.bias f4 [15]
00000000: 8ddb 19c0 bab4 3340 e211 2340 da33 8abe
00000010: 8aa0 3ec0 df26 a93f d20f 2cc0 c5b0 21c0
00000020: d309 0cc0 bb19 1040 70d4 0240 d239 4b40
00000030: e711 4bc0 2c51 3340 9883 3ac0
-2.4040253 2.8079057 2.5479665 -0.26992685 -2.9785485 1.3214988 -2.6884656 -2.5264142
-2.1880996 2.2515705 2.0442162 3.175404 -3.1729677 2.8018293 -2.9142818

net.2.bias f4 [15]
00000000: a767 873d 5e18 d0be 6720 803e 6a14 c1be
00000010: 97f1 d6bd d368 77bd 245b 15ba fd16 d1bd
00000020: aa66 24be 0fa5 c1be f249 9fbe 45ee 46be
00000030: 5d79 1b3d 8e26 49bf a00f e9bd
0.06611567 -0.4064359 0.2502472 -0.37710887 -0.10495298 -0.060402703 -0.000569748 -0.10209463
-0.16054788 -0.37821242 -0.31111103 -0.1942683 0.037957538 -0.78574455 -0.11379933

net.4.bias f4 [15]
00000000: f0fb bebf 134b f3bf f9f4 b1bf e54b c4bf
00000010: 55e4 cebf f81c e4bf 48fb dabf 82f8 a4bf
00000020: a895 b2bf ef4f eebf b3ec fc3f 9868 c1bf
00000030: cb9f cfbf 5c51 d9bf 0833 dabf
-1.4920635 -1.9007286 -1.3902885 -1.5335661 -1.6163431 -1.782134 -1.7107935 -1.2888339
-1.3951921 -1.8618144 1.9759735 -1.5110044 -1.622064 -1.6977954 -1.7046824

net.6.bias f4 [15]
00000000: 21a4 eb3d 8343 a13f 6c00 47bf 6f1b afbf
00000010: a162 9bbf c017 83bf 376a 20be 3179 dabe
00000020: ce65 3fbf 236f f4bf 6d88 303f ddb1 983e
00000030: 4538 3ebd 5074 0ebf fba2 90be
0.115059145 1.2598728 -0.7773502 -1.3680247 -1.2139474 -1.0241623 -0.15665518 -0.42670587
-0.74764717 -1.9096416 0.6895817 0.298232 -0.04644038 -0.5564623 -0.28249344

net.8.bias f4 [15]
00000000: 2b07 67bf dcc6 0d3e 71ec 81bf 53c1 a5bf
00000010: 3c0c 2dbf 9ca8 8bbf eeda 633f 7030 153f
00000020: 2b53 7e3f bab5 5cbf 4264 38bf b4c7 95bf
00000030: 3a52 80bf c6a8 9bbf 03d8 4c3f
-0.9024531 0.1384539 -1.0150281 -1.2949623 -0.67596793 -1.091083 0.89005935 0.58277035
0.99345654 -0.8621479 -0.7202798 -1.170157 -1.0025094 -1.216088 0.8001711

onnx::MatMul_37 f4 [2, 15]
00000000: 8409 f4bd 9cb0 3440 14ff a93e 47b3 5dc0
00000010: 02c1 aa3f 522f 993f 61dd 963f 4ff0 cebf
00000020: 51e3 2f3f 9304 d1be 92a2 a73f 1399 16c0
00000030: cc89 3dc0 3524 ab3e 23c9 993f 4753 fc3f
00000040: 3946 09c0 0f62 b43f 3068 9840 60fb e03d
00000050: fbcb 843f ea69 143f c6c4 0abf 07dc d33f
00000060: 1fd2 c83f 500a 12c0 6f06 f5be 2f60 813f
00000070: 8e36 ba3f 94b4 58bf
-0.119158775 2.8232794 0.33202422 -3.4640672 1.3340151 1.1967566 1.178631 -1.6167086
0.6870623 -0.40823802 1.3096488 -2.353093 -2.9615355 0.3342606 1.2014507 1.9712914
-2.144911 1.4092425 4.762718 0.10985446 1.037475 0.5797411 -0.542065 1.6551522
1.5689124 -2.2818794 -0.4785647 1.0107478 1.4547899 -0.8465054

onnx::MatMul_38 f4 [15, 15]
00000000: 2ecb 973f d363 0d40 42f0 883f 7f85 f63f
00000010: 0ca3 853f 290a b63f b3a5 eb3f 6038 f83f
00000020: 13c6 c03f 4815 c33f b767 8d3e 0a23 923f
00000030: 17df f43f ef3a 933f c3a1 bc3f f267 0dbc
00000040: a600 37bf 172d 22bf 75f9 1fbf f873 c7bf
00000050: 8490 4cbf 5072 843f 63f5 7bbe df9b d73e
00000060: cd52 90bf 4c5b e53c 625d 35bf aaf7 133f
00000070: 3c5a 2ec0 9f4f 17bf 4914 84bf bc68 1bbf
00000080: 2e36 69bf 754d 96bf 2100 46bf 0aae 67bf
00000090: e1c5 70bf 78a0 2240 98df 31bf cb9b 0cbf
000000a0: 6829 85be f371 e83f af97 a6bf 251c a3be
000000b0: 1c91 4bbf 126d 85bf 0bb6 2a3f 70f1 8f3e
000000c0: 4494 67bf 6b3d 453f 60e5 0dbf 2361 80bf
000000d0: fc10 a240 a9c9 aebf 3673 a43d 08d7 eebf
000000e0: d04d 84bc d020 4bbf 1c05 6d3f 6b6d 70bf
000000f0: 7f09 b13f cf74 c23f 1e42 2140 4689 c03f
00000100: a3ee 0440 ec2d c23f 7edc e23e a50d 0dbf
00000110: 8fbd 4a3f 47a1 ae3f 1a60 cc3f ec4b 4dbf
00000120: e466 553f 05ad 0d40 9604 a33f 338c 39bf
00000130: 1fda b4be 381a f5be 07fd 18bf e56f 1dbe
00000140: d5cb b2be c06f 69be 84bb 0a40 b79c f1bb
00000150: c0b3 c5bd c9ce 9bbe bfa5 b43f afff 2bbf
00000160: d13c d5be 74f0 fabe a6e9 5b3f 8b9f e13f
00000170: 4786 a13f 8066 333f 036c c23f 85dd 833f
00000180: 62e5 3e3f 590e d43f 030a a23f 0c5b 993f
00000190: 4d45 34bf 0f8e 033f 8905 4c3f b48b e63f
000001a0: 0e17 5d3f 9550 6e40 93d8 0e40 9e73 6440
000001b0: 06d2 3240 0343 3d40 940e 3a40 2410 fd3e
000001c0: ddb6 e0bf 957c 1740 22fb 1d40 1ba9 3340
000001d0: 42d7 8bbf f8d9 4540 e020 0b40 0204 1a40
000001e0: 64bf bb3f 3c15 0e40 294a 933f d505 e43f
000001f0: 4680 a03f db4c a83f cba4 0b40 ccf0 db3f
00000200: cc97 c23f e13e ca3f 5225 a53f 3f35 b83f
00000210: 3a52 e63f ecad a93f 4514 b13f cb08 92bf
00000220: bc49 98bf aa0a a1bf c058 b1bf ba8c b8bf
00000230: ec8a e3bf 2120 a3bf 9018 f73f b84c 5dbf
00000240: 8592 b0bf e700 9dbe d52d 7f3f 5750 9dbf
00000250: 7e98 88bf af3d b8bf 0a8b 2ebf ba48 e1bf
00000260: 9074 7a3f 6915 4fbf 1851 f93e d750 1fbf
00000270: 32f3 5ec0 547f bfbe 04be 1dc0 a8f5 a0bf
00000280: 6a68 7d3d 5743 e5be cd72 85bf 200d 20be
00000290: 8c03 99bf efb4 9bbe 067e 28c0 d011 2abf
000002a0: 4591 5abf 3ea3 18bf e15a b9be 4b81 32c0
000002b0: b639 e0be 6939 11c0 68b8 ddbf 2f0a 453f
000002c0: ff21 fbbe fab0 05bf d75f aebf 393f 78bf
000002d0: c31e 4740 2628 f73f 2900 1c40 d01d 3040
000002e0: ff3e fb3f be24 3840 433e 643e 700b 2240
000002f0: d2d3 fc3f 9e37 0740 8860 4b41 bd5e d03e
00000300: f5d9 3540 804b 883f 899e 3c40 d9f6 d4bf
00000310: e332 eabe 21f9 68bf 759a 95bf a0ef 17bf
00000320: f597 9bbf 37c5 5cbf a04a 3a40 671f 26bf
00000330: 41ab 5ebf 5f88 48bf dbf2 e43f ce73 adbf
00000340: 0c4f 09bf b3a2 a8bf 30bb 2940 8831 1040
00000350: 775d 4b40 424a 2440 abb5 3a40 b5d4 2b40
00000360: 9fa5 fc3e 2952 e8bf d8ed fc3f 000d e53f
00000370: c16f e33f c84a eabf 31ca 1740 4dd0 ac3f
00000380: 48e6 2640
1.185888 2.2092178 1.0698321 1.925949 1.0440383 1.4221851 1.8409942 1.9392204
1.5060447 1.524087 0.2761819 1.1416943 1.9130582 1.150236 1.4736866 -0.0086307395
-0.71485364 -0.6335005 -0.62490016 -1.5582266 -0.79908013 1.0347385 -0.24605326 0.42111108
-1.1275269 0.027997635 -0.70845616 0.5779978 -2.7242575 -0.5910587 -1.031869 -0.60706687
-0.91098297 -1.1742388 -0.77343947 -0.9049994 -0.9405194 2.5410442 -0.694818 -0.5492522
-0.26008153 1.8159775 -1.301504 -0.3185741 -0.79518294 -1.0423911 0.66684026 0.2811389
-0.9046061 0.7704684 -0.55428123 -1.0029644 5.0645733 -1.3655292 0.08029787 -1.8659372
-0.016150385 -0.7934694 0.9258592 -0.9391696 1.3831023 1.5191897 2.5196605 1.5041893
2.0770652 1.5170264 0.44308847 -0.55098945 0.79195493 1.3642968 1.5966828 -0.8019397
0.83360124 2.2136853 1.2735775 -0.7247955 -0.35322663 -0.47871566 -0.5976109 -0.15374716
-0.34921136 -0.22796535 2.167695 -0.007373418 -0.09653425 -0.30431202 1.4113082 -0.6718702
-0.41647962 -0.49011576 0.85903394 1.7626814 1.2619103 0.7007828 1.5189213 1.0301977
0.7456876 1.6566879 1.2659305 1.198091 -0.70418245 0.5138864 0.79695946 1.8011384
0.86363304 3.7236683 2.2319686 3.5695567 2.7940688 2.957215 2.9071398 0.49426377
-1.7555805 2.366979 2.468453 2.8071964 -1.0925066 3.0914288 2.1738815 2.4064946
1.4667783 2.220046 1.1507007 1.781428 1.2539146 1.3148454 2.1819332 1.718286
1.5202575 1.5800439 1.2902014 1.439125 1.7993844 1.3256202 1.3834311 -1.1408933
-1.1897502 -1.258138 -1.3855209 -1.4417946 -1.777677 -1.274418 1.9304371 -0.8644519
-1.3794714 -0.3066475 0.9967931 -1.2290143 -1.0671537 -1.4393824 -0.68180907 -1.7600319
0.9783411 -0.80892044 0.48694682 -0.62232727 -3.4835935 -0.3740183 -2.4647226 -1.2574968
0.061867155 -0.4477794 -1.042566 -0.15630007 -1.1954207 -0.3041148 -2.6326919 -0.6643343
-0.85377914 -0.5962409 -0.36202148 -2.7891414 -0.4379403 -2.269129 -1.7321901 0.76968664
-0.49049374 -0.5222317 -1.3622998 -0.9697147 3.1112525 1.9309127 2.4375098 2.7518196
1.96286 2.8772426 0.22289376 2.531948 1.9752142 2.1127696 12.711067 0.4069728
2.841428 1.0648041 2.9471762 -1.6637832 -0.45741948 -0.9100514 -1.1687762 -0.59350014
-1.2155749 -0.86238426 2.9108047 -0.64891666 -0.8698006 -0.78333086 1.7886614 -1.3550966
-0.5363624 -1.3174652 2.65205 2.2530231 3.1775796 2.5670323 2.9173381 2.6848576
0.4934511 -1.8150073 1.9760084 1.7894592 1.776848 -1.8304071 2.3717158 1.3501068
2.6078053

onnx::MatMul_39 f4 [15, 15]
00000000: 9925 6c3f 7a7b 873f 9ccb eb3f aa93 033f
00000010: 964f 123f 2dcd 2640 a391 183f b16a a73e
00000020: f62e f33f ab8e 933f cac1 eebf 3b69 0e40
00000030: 9918 2f40 c921 3c3f b615 823f 3f35 a83f
00000040: 9e4b eb3f 3cf1 e63f 843c ae3f a159 d23f
00000050: 2d57 2440 dc9a ed3f 01ba aa3f edbe dc3f
00000060: 22b3 883f 6199 87bf 6412 8f3f 9d22 ab3f
00000070: b1f8 f03f 0b59 a03f cd8a ab3f 6771 a63f
00000080: 87a0 2f3f 2c2a c03f df64 c73f 884a df3f
00000090: 42a9 a53f a0de a53f 257f 3a3f 0aa6 f63f
000000a0: 8431 bfbf 0470 273d a414 483e 1243 ad3f
000000b0: 2a41 b23f 93d5 533f d708 903f 6b4f a03f
000000c0: dcc1 8e3f 0f70 5c3f bfdf ee3f 595a 933f
000000d0: f635 173f 947e 873f 0741 b03f 6f83 b6bf
000000e0: b346 ed3f 4e0d df3f f3c3 703f d7ae a13f
000000f0: b8f5 d33f 1091 f03f bef2 743e 83cd d83f
00000100: 634c be3f dc0b aa3f 442f db3f 9578 c63f
00000110: 4652 c73e a188 cc3f 8967 b9bf 77df 29bf
00000120: 7fc5 bcbe 5a8d ef3f e4ce b63f 7ff9 863f
00000130: 28a9 d63f b49e 483f cd57 893f c4ce 893f
00000140: 1a36 e33f f38a 9a3f 8a0c 263f bb23 893f
00000150: c0d1 ef3f d65a 09c0 e416 c33f 1a27 ad3f
00000160: 3316 983f b441 c83f fd99 0fbf 91d1 39bf
00000170: fbaf 3440 aded 11bf e736 83bf 740a 5740
00000180: 61f4 12bf d2ee 66bf f559 4240 e53d d5be
00000190: a34f cdbe be9e 6540 6e76 7940 b148 79bf
000001a0: 19e0 86be 43f4 e8bf 6114 19c0 943f 09c0
000001b0: 7b04 f8bf 73d6 f1bf 3b69 22c0 1dd8 14c0
000001c0: 9fd1 cabf 010d 05c0 b413 fdbf b236 2b40
000001d0: 6171 f0bf 225c 1bc0 2a53 0cc0 c1bc 0bc0
000001e0: 779c 263e b6b1 b6bd ac4f 0640 c118 63be
000001f0: d740 d43c bd61 ce3f bafe 17be 06bc 27bd
00000200: 218f f73f 94cc e53e fc84 36bf a486 3540
00000210: 5026 3440 2d1d efbd 20b0 e63e f060 643f
00000220: 2078 c83f da97 4f3f b737 a13f 3cbe a23f
00000230: 289f d03f 5ac3 b23f e33a 3f3f 4e34 743f
00000240: 94b4 773f 27fd 9cbf 3298 863f 5e7c 4c3f
00000250: 1977 a83f 7ea7 973f 9a5d d9bf ece6 f2bf
00000260: bde2 de3f dc7d dfbf b49d f9bf 7f7c 183d
00000270: caa4 c6bf e9df 07c0 bedb 0b3f 8acf c5bf
00000280: ebed 873f bb89 7f40 de69 5c40 71c1 eebf
00000290: 39d9 afbf 78fc c7bf 111c cebf 7e16 b1bf
000002a0: 23f3 c8bf eae0 a8bf b374 f6bf db07 dabf
000002b0: deb3 6ebf 334a abbf 5851 f5bf e555 0f40
000002c0: 3bb4 bdbf efe5 c5bf fc79 c3bf 86b2 d5bf
000002d0: 8661 2a3f 975b 0d3f 8e78 f03f d66c 133f
000002e0: e623 903e e1b8 0a40 62bb 563f 67ce ce3e
000002f0: ad02 b13f f9fd 9b3f 9997 cabf 16a3 1140
00000300: 110d 2840 ff62 a73e 4f65 4e3f e2f4 f23f
00000310: 1049 0f40 a9a9 8cbf 4cf8 0c40 dfef 0040
00000320: 390b 1ebd 9852 0640 2602 d43f 1494 56bf
00000330: 7bfa d93f 6e26 60bf 1d5b bcbf 4714 cbbf
00000340: ec31 1740 3015 db3f ed9a 5e3f 06fd 743f
00000350: 5d09 6a3f ef68 193f 10e3 643f f894 d93f
00000360: 1871 8d3f a344 c63e 0e0f 9b3f 1001 b23f
00000370: 00e7 c5bf 11ed c33f ab34 fc3f dcd5 5f3f
00000380: d625 7b3f
0.9224487 1.0584557 1.8421512 0.5139719 0.5715269 2.606273 0.59597224 0.32698587
1.8998706 1.1527914 -1.865289 2.2251728 2.7358763 0.7348905 1.0162876 1.314125
1.8382452 1.8042369 1.3612218 1.6433603 2.5678208 1.8562884 1.3338014 1.7245766
1.0679667 -1.0593683 1.1177487 1.3369938 1.8825895 1.2527174 1.3401734 1.3003358
0.6860432 1.501287 1.5577658 1.744462 1.2942278 1.2958565 0.7285026 1.9269421
-1.4936986 0.04087831 0.19539124 1.3536093 1.3926136 0.82747763 1.1252698 1.2524236
1.1152911 0.8610849 1.8662032 1.1511947 0.5906671 1.0585504 1.3769845 -1.425886
1.8537201 1.7425935 0.94048995 1.2631482 1.6559362 1.879427 0.23920724 1.6937717
1.4867061 1.3284869 1.7123799 1.5505549 0.38929957 1.5979196 -1.4484721 -0.66356605
-0.36869428 1.8715012 1.4281888 1.054489 1.6770372 0.7836716 1.072992 1.0766225
1.7750885 1.2073654 0.64862883 1.0714029 1.8735886 -2.1461692 1.5241361 1.3527558
1.1881775 1.5645051 -0.5609434 -0.725854 2.823241 -0.5700329 -1.025113 3.360013
-0.5740414 -0.9020816 3.0367405 -0.41648784 -0.4009982 3.5878139 3.8978534 -0.97376543
-0.26342848 -1.8199543 -2.3918688 -2.1445055 -1.9376367 -1.889357 -2.5376728 -2.3256905
-1.5845221 -2.0789187 -1.9771638 2.6752133 -1.87846 -2.4274983 -2.192576 -2.1833956
0.16270624 -0.089206144 2.0986128 -0.22177412 0.025909824 1.6123577 -0.14843264 -0.040950797
1.9340554 0.44882643 -0.7129667 2.8363428 2.8148384 -0.11675487 0.45056248 0.89210415
1.5661659 0.8109108 1.2595128 1.2714305 1.6298571 1.3965867 0.7469923 0.9539231
0.96759915 -1.2264756 1.0515196 0.7987727 1.3161346 1.184799 -1.698169 -1.8976722
1.7412945 -1.7460284 -1.9501252 0.037228104 -1.551904 -2.1230414 0.54632175 -1.5453961
1.0619482 3.9927814 3.4439616 -1.8652784 -1.3738166 -1.5623922 -1.6102315 -1.3834989
-1.56992 -1.3193638 -1.9254364 -1.7033647 -0.93243206 -1.3382019 -1.9165449 2.2396176
-1.4820627 -1.5460795 -1.5271602 -1.6695106 0.6655506 0.5521788 1.878679 0.57587945
0.28152388 2.167534 0.83879673 0.40391847 1.3828942 1.2186881 -1.5827514 2.275579
2.6257975 0.32692716 0.80623335 1.8980982 2.2388344 -1.0989276 2.2026548 2.0146406
-0.03858492 2.0987911 1.6563156 -0.838197 1.7029566 -0.8755864 -1.4715306 -1.5865563
2.362422 1.7115841 0.8695515 0.95698583 0.9142054 0.5992574 0.8940897 1.6998587
1.1050138 0.3872424 1.2113969 1.3906574 -1.5461121 1.5306722 1.9703573 0.874357
0.9810461

onnx::MatMul_40 f4 [15, 15]
00000000: 6993 c33f 2652 a2bf 1785 913f 93b9 4f3f
00000010: c569 ac3f 2b96 9c3f ac17 e43e 8a33 d03f
00000020: d8cd a33e 6e8e aa3f 1fb5 6cbf 0b89 d0bd
00000030: 8512 643f b681 b23f d84a 293e dee8 1140
00000040: ca1d 35bf c113 f13f 912d d03f 29a5 0040
00000050: b2a7 0040 e9d4 903f 4a36 0d40 6441 813f
00000060: d0c8 0740 3f00 0cbe 219c c43e 6826 0240
00000070: 1e99 2a40 5aee 5a3f 0708 c5bf f765 c4bf
00000080: 84e7 babf 890b b5bf 2b37 c6bf 17c3 a4bf
00000090: b3db 03c0 8434 f8bf 167e e7bf 188f f1be
000000a0: d225 d9bf 20ff 03c0 6958 f3bf d79a c0bf
000000b0: 8b62 05c0 b1bd 0140 f460 92bf 3f6b c73f
000000c0: 9a87 483f d8b6 cf3f 60f1 c03f e9e4 813e
000000d0: 2379 dd3f 5bda b53e b3d2 9e3f 5693 ffbe
000000e0: 09a3 ab3b 6129 a33f f771 f33f f294 823e
000000f0: 07be ff3f 60ba a0bf 640e b53f dd80 5a3f
00000100: 0607 db3f 7c2a e63f 3a7b be3e 8090 f33f
00000110: bb59 1f3f 7849 be3f 8e90 75bf 99af 2b3e
00000120: fc3e 973f c207 0340 c3b1 af3e 03c5 e3bf
00000130: e777 5bc0 2890 03c0 c10f 10c0 c1ca f1bf
00000140: 488a cdbf 2cf2 29c0 5eed f1bf b102 2fc0
00000150: 969a d4bf a3d7 4cc0 7322 4dc0 5def 11c0
00000160: 9ddd d8bf 54af 20c0 27ed fe3f ca82 59bf
00000170: 5a03 e03f ca36 9d3f 13e7 e13f 0d2a ef3f
00000180: 1324 343f dc32 cc3f 3909 3a3f d7e1 f43f
00000190: 1c73 b4be aca1 823e 9542 9c3f 50af 0940
000001a0: 0f1e 373e 1068 a23f 3601 c1bf c048 1a3f
000001b0: 91cf b03e 9e9b 6d3f ba09 993f 0767 babe
000001c0: 327d 7b3f 608c 6bbe 33b9 b13e 4f8b d1bf
000001d0: 4776 f4be e0b8 093f 4397 823f be3c 4abe
000001e0: 1e09 afbf 79cb efbf d7e0 92bf a912 b1bf
000001f0: abdd 69bf 7cda 8dbf d736 fdbf 10f2 98bf
00000200: 37ba e0bf a231 c3be a17a f5bf 67c7 12c0
00000210: 65f0 d8bf ca18 87bf d267 0ec0 aac5 f53f
00000220: 5d44 86bf 7746 b53f 94f5 a13f 81c3 a93f
00000230: 3392 a13f e933 513f 2420 db3f 7f57 2f3f
00000240: bf44 e73f ecc5 34bf cadb 423e 17a9 ca3f
00000250: d2ef ca3f 6c6c 333f 5cb5 40bf 1433 3f3f
00000260: 0fca edbf d101 07c0 d559 0fc0 e538 f0bf
00000270: cc81 3bbf 3108 1cbf 3bff 88bf 2c56 88c0
00000280: 3b93 153f 8fa7 03bf ae07 68bf e82a 87bf
00000290: 5353 69bf 873b 76c0 8c2c dbbe fbba 38c0
000002a0: dddf 23c0 9460 2ec0 1e41 41c0 b2a7 28c0
000002b0: fdd9 58c0 ca39 14c0 17f3 8cbf 4992 4fbf
000002c0: 0226 cbbf 88fa 44c0 9a80 5dc0 42cd 0ec0
000002d0: c491 89c0 6062 ccbf 4008 69c0 1e50 46c0
000002e0: 73da 43c0 717e 68c0 818e 42c0 b525 7ac0
000002f0: 611d 52c0 e0a9 cabf afaa adbf 2f44 09c0
00000300: f602 79c0 113a 7fc0 b8c1 26c0 a44d 1040
00000310: 106f 42bf 0738 c03f 39e6 843f cbe1 d33f
00000320: 0795 e53f 30c7 513f ff8c f53f 3418 293f
00000330: 578e ab3f f90c b9be 0369 233e aaa6 dd3f
00000340: 5b06 1040 c6e3 de3e b9f6 a63f 83b0 94bf
00000350: a9b6 b93f fe65 713f e1d9 b03f 2b42 bf3f
00000360: fd3f 2d3d 29a8 c03f 5475 653e 92a5 cc3f
00000370: b927 5dbf 95cc 123e 4408 843f 4c38 e33f
00000380: 0321 b3bc
1.5279361 -1.268132 1.1368741 0.8114254 1.3469778 1.2233328 0.4454931 1.6265728
0.31992984 1.3324716 -0.9246387 -0.10182389 0.8909076 1.3945835 0.16532457 2.279838
-0.7074858 1.8834153 1.6263906 2.0100806 2.0102353 1.1314975 2.2064385 1.0098081
2.1216316 -0.13671969 0.38400367 2.0335941 2.6655955 0.85519946 -1.5393075 -1.5343617
-1.4601903 -1.4144145 -1.5485586 -1.2872037 -2.0602844 -1.9391026 -1.8085353 -0.47179484
-1.6964667 -2.0624466 -1.9011356 -1.5047253 -2.0841396 2.0272028 -1.1435838 1.5579604
0.7833191 1.6227674 1.5073662 0.25369957 1.7302593 0.35518155 1.240805 -0.49917096
0.005237941 1.2747003 1.9019154 0.2550426 1.9979867 -1.2556877 1.4145017 0.8535288
1.7111518 1.7981715 0.3720339 1.9028473 0.6224629 1.4866171 -0.959237 0.16766204
1.1816096 2.0473485 0.3431531 -1.7794498 -3.4291933 -2.0556736 -2.2509615 -1.889
-1.6057825 -2.655406 -1.8900564 -2.7345393 -1.6609676 -3.2006614 -3.2052276 -2.2802346
-1.6942631 -2.5107012 1.9916123 -0.84965193 1.7501023 1.2282345 1.7648643 1.8684708
0.70367545 1.5953021 0.7267032 1.9131421 -0.3524407 0.2551397 1.2207819 2.1513252
0.1788256 1.2688007 -1.5078495 0.6026726 0.3453336 0.9281558 1.1956093 -0.3640673
0.9823791 -0.23002768 0.34711608 -1.6370639 -0.47746488 0.5379772 1.0202411 -0.19749734
-1.3674657 -1.873397 -1.1474866 -1.383382 -0.91353863 -1.1082301 -1.9782361 -1.1948872
-1.7556828 -0.38123804 -1.9178048 -2.2934206 -1.6948363 -1.055444 -2.2250867 1.9200947
-1.0489613 1.4162129 1.265307 1.3262788 1.2622741 0.81719834 1.7119184 0.68492883
1.8067855 -0.70614505 0.19029155 1.5832852 1.5854437 0.70087314 -0.7527673 0.74687314
-1.8577288 -2.1094859 -2.239858 -1.8767363 -0.7324493 -0.6095 -1.070289 -4.260519
0.5842778 -0.5142755 -0.9063672 -1.0559969 -0.9114277 -3.8473833 -0.42807424 -2.8864124
-2.5605385 -2.7246447 -3.0195994 -2.6352353 -3.388305 -2.3160272 -1.1011685 -0.8108259
-1.5870974 -3.0777912 -3.4609742 -2.231278 -4.2990437 -1.5967522 -3.6411285 -3.09864
-3.060208 -3.6327174 -3.0399477 -3.9085515 -3.2830431 -1.5833092 -1.3567713 -2.1447866
-3.8908057 -3.987919 -2.6055737 2.2547388 -0.7595072 1.5017098 1.0382758 1.6553282
1.7936105 0.8194456 1.9183654 0.66052556 1.3402814 -0.3614271 0.15958028 1.7316487
2.250388 0.43533152 1.3044044 -1.1616367 1.4508868 0.9429625 1.3816491 1.4942068
0.042297352 1.5051318 0.22408038 1.5988028 -0.86388737 0.14335854 1.0315022 1.7751555
-0.021866327

onnx::MatMul_41 f4 [15, 15]
00000000: b0c0 c33f f9a9 11bf ddd4 ed3f 0c80 1e40
00000010: c924 a43f fcc2 dd3f 5270 bdbf 139e 8ebf
00000020: 63e8 e3bf 4f94 b93f 8ac0 bb3f 2982 fd3f
00000030: 658e ea3f 95f3 1640 0c83 e2bf a15c de3f
00000040: c525 d8bf 3318 ca3f 9747 f83f 0c50 e53f
00000050: c9aa 0340 7d38 03c0 a1af c4bf a742 0ec0
00000060: 6df5 ef3f 63ba e03f faea e53f f775 d33f
00000070: 9d33 dd3f 3d72 efbf fb9b 873f 3e7b 3c3e
00000080: 75f3 903f ad93 af3f 4194 053f eb93 763f
00000090: 59cd 35bf c411 00bf eb87 43bf 685d 143f
000000a0: 09fd c23e d4f9 8f3f ab9c 693f 4eda 863f
000000b0: d538 d4be 5be7 4ebe e327 b63e c5f5 17be
000000c0: 3a3d c13e c2fe 18be 37e8 ba3d a84f c3bd
000000d0: 14bf f93e 099b 233e 97d2 b3bd 1b4b 4ebe
000000e0: b0d6 f23e 6448 d4bc 8902 cc3e c51b c23e
000000f0: 65ea 073f d5fe 6abe c36b 753f e1ee b63f
00000100: 6cb3 563e 5864 843f 0377 51bf 05ab 65be
00000110: 9d42 5dbf efe4 243f fc3f b83e ae2b a73f
00000120: 60cb 6c3f 633f b63f e43e 3bbf 0e38 353f
00000130: 3044 efbb cbcb 2c3f 4dde ce3f 7700 183f
00000140: bcf0 813f b527 5fbf 2970 d6be 0d7e 84bf
00000150: cb58 333f 438b 183f d362 823f 0a7a 363f
00000160: 3402 8d3f 83d0 1cbf 244c 33bd 8d38 d13e
00000170: cbaa 3e3e 52e2 103f bb4f a2be fbc0 ab3e
00000180: 226a babe 9a79 b3bd 70ef 9cbe f991 31be
00000190: 1811 00be 633a b33e cb31 aa3d fa16 083f
000001a0: a05c 40bd 51f1 5f3f 6b55 01bd 7d5a 993f
000001b0: 3901 db3f 8c64 9d3e f160 963f 88d6 48bf
000001c0: 4983 c9be bdf5 94bf 2286 5e3f 7712 163f
000001d0: 20ac b03f ea3c 993f dfa9 ba3f d810 23bf
000001e0: b2e5 413e 9b84 0d3f 89ad 3d3e 41b3 8c3e
000001f0: 5c25 03bf 8a41 373e 9163 f8bd ff80 623e
00000200: f0e1 443e c3e8 dc39 5f5c 29be b374 443e
00000210: 77de fd3c a8bc 453e 0fe3 c6bd d5e3 873f
00000220: 70cd d6be d231 a13f 35ae 813f a473 1d3f
00000230: d887 873f eb10 79bf 277b 08bf 9775 87bf
00000240: cc7e 5e3f 5058 473f b3ca ac3f 70da 253f
00000250: 7b37 803f cf2e 81bf 7c0f b03f 1b58 8cbf
00000260: 7543 9d3f 3f3e c43f d511 833f cbc8 9c3f
00000270: df2b d4bf a85c c0bf 07a6 d9bf 27d0 8e3f
00000280: 47e2 713f 0b5d a63f 3abc a73f d878 c93f
00000290: 5e9d c9bf e319 273f 63ae ffbd e831 403f
000002a0: e198 103f e548 ca3e b6a8 1d3f 93a3 61bf
000002b0: 6e19 02bf 238e 42bf ca27 f93e 55bf 243e
000002c0: 5120 773f c9d7 dc3e 9db4 603f c43e 19bf
000002d0: e299 e93e 6842 213e f3d6 5f3f 1e84 a23f
000002e0: 6eea 9d3e a1ef 6c3f 2b08 06bf 83c0 8dbe
000002f0: b617 4abf 37cb f13e a1cf 6f3e 6184 933f
00000300: e14d 053f c925 5a3f 4902 25bf cf16 b63f
00000310: 3eb8 35bf 55e5 b93f f986 0140 2508 8a3f
00000320: 4874 fc3f 547e c3bf 71f5 a6bf 24c8 e7bf
00000330: d4aa ae3f 9640 843f d496 e43f 8107 df3f
00000340: 8f0b 0f40 4e1f 96bf 0012 133d dd25 ad3e
00000350: 6eb1 d7bd f953 783e 2e87 c9bd 489b 4f3d
00000360: 15d4 2dbd 1751 b9bd 9386 56be fb20 6cbd
00000370: bf37 d4be deab 483e 7be6 7d3d 21ed 5a3d
00000380: 896f 8bbe
1.5293179 -0.5689998 1.8580586 2.4765654 1.2823726 1.732513 -1.4799902 -1.114199
-1.7805294 1.4498385 1.4668133 1.9805347 1.8324705 2.358617 -1.7696242 1.7372018
-1.6886526 1.5788635 1.9396847 1.7915053 2.057299 -2.0503228 -1.5366098 -2.2228181
1.8746773 1.7556881 1.7962334 1.6520375 1.7281376 -1.8706738 1.0594476 0.18406388
1.1324297 1.3716942 0.5217934 0.96319455 -0.7101646 -0.5002711 -0.7637927 0.57955027
0.38083676 1.1248116 0.9125468 1.0535371 -0.4144961 -0.20205443 0.35577306 -0.14839847
0.37742025 -0.14940932 0.09126323 -0.095366776 0.48778594 0.1597711 -0.08780401 -0.20145838
0.4742942 -0.025913425 0.39845684 0.3791181 0.5309203 -0.22948773 0.95867556 1.429165
0.20966882 1.0343122 -0.8182222 -0.2242852 -0.8642977 0.64411825 0.35986316 1.3060205
0.92497826 1.4238094 -0.7314284 0.7078866 -0.0073018298 0.67498463 1.6161591 0.5937571
1.0151591 -0.87169963 -0.41882446 -1.0350968 0.7005736 0.59587497 1.0186409 0.71279967
1.1016297 -0.61255664 -0.043773785 0.40863457 0.1861984 0.5659534 -0.31701455 0.3354567
-0.36409098 -0.08763428 -0.30651426 -0.1734084 -0.12506521 0.35005483 0.083102785 0.5316006
-0.046963334 0.87477595 -0.0315756 1.198074 1.7109748 0.30740774 1.1748334 -0.7845235
-0.39357975 -1.1637493 0.8692342 0.58621925 1.3802528 1.1971714 1.458309 -0.63697577
0.18935278 0.55280465 0.1852323 0.2748051 -0.5122888 0.17896095 -0.12128366 0.2211952
0.19226813 0.0004213509 -0.16539143 0.19185142 0.030989869 0.19310248 -0.09711277 1.0616404
-0.4195361 1.2593329 1.0131289 0.6150458 1.0588331 -0.9729144 -0.53312916 -1.058276
0.86912227 0.7786913 1.3499359 0.64786434 1.0016931 -1.009241 1.3754725 -1.0964388
1.2286211 1.5331496 1.0239817 1.2248777 -1.6575888 -1.5028276 -1.7003793 1.1157273
0.94485897 1.2997144 1.3104317 1.5740004 -1.575115 0.65273875 -0.124844335 0.7507615
0.56483275 0.3950874 0.6158556 -0.8814022 -0.5082005 -0.75998133 0.4866317 0.16088612
0.96533686 0.4313338 0.87775594 -0.598614 0.45625216 0.15747988 0.8743736 1.2696569
0.30842918 0.92553145 -0.52356213 -0.27685937 -0.7894243 0.47225353 0.23419048 1.1524774
0.5207196 0.85213906 -0.6445661 1.4225711 -0.70984256 1.4523112 2.023863 1.0783736
1.9722986 -1.5272927 -1.3043653 -1.8107953 1.3645883 1.033221 1.7858529 1.7424165
2.2350805 -1.1728303 0.035905838 0.3381795 -0.10531889 0.24250783 -0.098402366 0.050685197
-0.042438585 -0.0904867 -0.20949773 -0.05764864 -0.4144878 0.19596812 0.06198738 0.0534488
-0.27233532

onnx::MatMul_42 f4 [15, 1]
00000000: 3fee 53bf 779b 813e 34e8 50bf 99e2 87bf
00000010: 89fe 75bf ab45 7dbf deb2 683f 61e7 bd3e
00000020: 3b97 1a3f ec36 6fbf 632e 84bf 8761 7dbf
00000030: 21fe 83bf 37e2 65bf 8592 173f
-0.8278541 0.25313923 -0.81604314 -1.0616027 -0.96091515 -0.9893443 0.9089793 0.3709059
0.6038701 -0.9344318 -1.0326656 -0.9897694 -1.0311929 -0.897983 0.59207946
