onnx/myModel_HL3_HD15_299.onnx (onnx, 4793 bytes, 9 tensors)

net.0.bias f4 [15]
000000 35 9c 18 c0 35 27 01 c0 46 13 19 c0 37 ff 48 c0
       -2.3845341 -2.018018 -2.3918014 -3.140577
000010 9b 4d 6d 40 75 38 3e c0 76 01 2e 40 eb b3 d3 3f
       3.7078617 -2.9721959 2.7188392 1.6539282
000020 f1 ce 17 bf 35 52 35 c0 cb 42 10 40 aa 7c 03 c0
       -0.5930014 -2.8331425 2.2540767 -2.054484
000030 b2 6f 2a 40 d9 40 40 40 bc e8 36 40
       2.6630673 3.003958 2.857955

net.2.bias f4 [15]
000000 1f 59 0f be 86 35 8a be 6d f8 bc 3e ef ee 0f 3e
       -0.13998841 -0.2699396 0.36908284 0.1405599
000010 4b 62 19 3e d5 c0 6d 3e af a7 8f bf 1e 55 12 3f
       0.14978902 0.23218091 -1.1223048 0.5716113
000020 55 41 d3 3e 29 3c 21 3f 12 ed 6f 3f ad 47 23 3f
       0.41260782 0.6298242 0.93721116 0.63781244
000030 9e d8 05 bf 7d b0 30 3f 4c 5f 48 be
       -0.52283657 0.690193 -0.19567603

net.4.bias f4 [15]
000000 4e 4d 80 bf 46 e6 a3 be 45 5f 30 bf 7e 0b bf be
       -1.0023592 -0.32011622 -0.6889537 -0.37313455
000010 ff 8b a9 bf 3b 38 aa be 56 b7 ad bf 3f b6 bb bf
       -1.3245848 -0.33246025 -1.3571575 -1.4664992
000020 df 5b 59 bf 5a e7 49 bf cc aa 7c bf fa 13 78 bf
       -0.8490581 -0.7886864 -0.98698115 -0.9690548
000030 a5 04 f6 bd 74 3e fe be 31 f9 81 bd
       -0.120126046 -0.49657023 -0.063463576

net.6.bias f4 [15]
000000 79 46 31 3e af 0d 57 3e dd f1 83 bc 12 5d 38 be
       0.1731204 0.21001314 -0.01610654 -0.18004254
000010 09 3a 82 bf c1 98 ed 3e b7 19 38 3d 0a fa dc 3e
       -1.0173961 0.46405604 0.0449464 0.43159515
000020 74 2a 8f bf b0 d3 29 3e 8b fa 04 3f 67 22 72 bf
       -1.1184831 0.16584659 0.519448 -0.94583744
000030 f9 91 02 3e a6 0a 09 3e 67 00 fa be
       0.12750997 0.13382968 -0.48828432

onnx::MatMul_31 f4 [2, 15]
000000 24 b6 30 bf 33 6f cd bf c8 de f7 3e bc c6 90 3f
       -0.69027925 -1.604956 0.48412156 1.1310649
000010 59 0c 56 40 6b 9b 0e c0 d0 19 73 c0 f4 f4 ab bf
       3.3445036 -2.228236 -3.7984505 -1.3434129
000020 fb 02 5e c0 bb a1 2b c0 3c 3d cb 3f 27 61 9f 3f
       -3.468932 -2.6817462 1.5878062 1.2451524
000030 1b b3 2f bf fe 96 9f 3e 06 b3 45 3e e1 f4 df 3f
       -0.6863267 0.31169885 0.19306573 1.7496606
000040 9a 7e 0d be 59 e8 ca 3f 5c 67 eb bd a3 fb 2e c0
       -0.13817826 1.5852157 -0.114943236 -2.7341087
000050 5c 97 69 3f 27 cf 87 be e1 03 24 3f b4 5e a4 40
       0.9124658 -0.26525232 0.6406842 5.1365604
000060 0a 5c 70 3f cf e4 aa 3f 7e 3c 36 3f 5a f2 ca 3f
       0.9389044 1.3351077 0.71186054 1.585521
000070 b4 32 c4 3f 82 66 b6 3f
       1.5327973 1.4250033

onnx::MatMul_32 f4 [15, 15]
000000 d8 3b 02 bf d9 41 5e bf a4 99 ca 3f d4 9f 43 3f
       -0.50872564 -0.86819226 1.5828137 0.76415753
000010 15 61 34 40 d6 03 3e 3f ee 9d 39 3f 68 8d 1c 40
       2.8184254 0.74224603 0.72506607 2.4461308
000020 44 5e 8c 3f dc de a1 3f 5b cd e1 3e 3e 42 06 40
       1.0966268 1.2646136 0.44101986 2.097793
000030 78 9e 5e bf 70 39 10 40 40 b2 1d 3e 61 5f 79 be
       -0.86960554 2.2535057 0.15400028 -0.2435279
000040 73 03 ce bf df cf d2 3f 28 04 a8 3f f8 1d ea 3f
       -1.6094803 1.6469687 1.3126268 1.8290396
000050 5e b6 d9 3f be 81 d6 bf 52 3e bd 3f bf a1 25 40
       1.7008779 -1.6758344 1.4784644 2.5879972
000060 6e 0b f5 3f a9 2d 0a 40 eb 6b d1 3f c6 7d 22 c0
       1.9144113 2.1590369 1.6361059 -2.5389266
000070 54 dc f1 3f c3 ba 9f 40 97 37 2f bf 54 d4 01 c0
       1.8895364 4.991548 -0.684442 -2.0285845
000080 e6 07 24 40 68 1f f1 3f 81 e3 00 40 cd c2 fc 3f
       2.562982 1.883771 2.0138857 1.9746948
000090 70 28 5b 3f cd 03 d4 3f 38 74 c6 3f d8 e3 99 3f
       0.8560858 1.656366 1.5504217 1.2022657
0000a0 40 12 c5 3f 28 a0 e3 3f 2d 7a 8e bf 1e a2 c3 3f
       1.5396194 1.7783251 -1.1131035 1.5283849
0000b0 a9 36 b4 3e bc aa 78 3f 9b 23 26 c0 61 b9 4a 40
       0.35197952 0.9713552 -2.5959232 3.1675646
0000c0 2c 11 5c 40 98 c4 00 40 d0 c8 40 40 cd db be bf
       3.438548 2.0119991 3.0122566 -1.4910828
0000d0 12 fd d3 3f 44 93 35 40 b6 38 6a 40 12 de 40 40
       1.6561606 2.8371134 3.6597114 3.013554
0000e0 93 91 1a 40 38 b2 f4 bf 31 3a 06 40 a7 42 49 40
       2.4151351 -1.9116888 2.0973017 3.1446931
0000f0 b7 27 d8 3b 97 96 73 3f fd 20 e5 bd 9c 96 ea bf
       0.0065965313 0.95151657 -0.11187933 -1.8327212
000100 a2 0c 4f 3f c4 b0 b3 be b9 03 61 bf 31 c4 4d 3f
       0.8087865 -0.350958 -0.87896305 0.8037749
000110 4f 12 44 3e 58 6d 8d 3e 3f 33 b6 3d 2e 62 1f 3f
       0.19147609 0.27622485 0.08896493 0.62259185
000120 7b 29 e6 bd a1 82 eb 3e 89 ab 1d 3f ae 73 7e 3f
       -0.112383805 0.459981 0.61589867 0.99395263
000130 bc a9 df be 70 62 de 3e dd 42 15 3f 62 17 78 3f
       -0.43684185 0.43434477 0.5830515 0.9691068
000140 00 b8 53 3f 39 0a 83 3f 95 d8 9c 3f 89 ca b2 3f
       0.82702637 1.0237495 1.2253596 1.3968059
000150 ad 04 c5 3f a9 21 99 3f a6 53 51 3f 61 6c 9d bf
       1.5392052 1.1963397 0.8176826 -1.22987
000160 1e 88 c3 3f cd 21 bb 40 28 ad ff bd f3 f2 ee bc
       1.5275915 5.847876 -0.12484199 -0.029168582
000170 57 f7 72 bf 62 7b 3c bf 39 c8 a8 bf 40 08 ae bf
       -0.9490866 -0.7362577 -1.3186103 -1.3596268
000180 59 05 7c bf 5f 17 86 bf d2 40 43 3e e5 8a 56 3e
       -0.9844566 -1.0475882 0.19067696 0.20951422
000190 e1 cd a8 bc ab 75 b4 be 41 aa 32 bf 79 2a 70 bf
       -0.020605983 -0.35246024 -0.69791037 -0.9381481
0001a0 31 cb 3d 3f ed 70 b9 3e eb a8 fa 3e cf c8 0a bf
       0.7413817 0.36218968 0.48957 -0.5421266
0001b0 0a 4c b2 bf 73 42 8d be 83 e7 4b bf 60 60 50 3f
       -1.3929455 -0.2758976 -0.79650134 0.81397057
0001c0 31 21 8f be 42 26 85 bf f3 75 ab bf a4 08 3e bf
       -0.2795501 -1.04023 -1.339537 -0.74231935
0001d0 93 00 82 bd 35 db 64 3e b7 1a a7 be 8a d1 00 bf
       -0.06347766 0.22349246 -0.3263757 -0.5031973
0001e0 62 e3 3a bf 56 83 e7 be 9e c7 1c 3f 7c 43 84 3f
       -0.7300321 -0.4521739 0.6124209 1.0333095
0001f0 7c 38 31 bf 28 e8 20 3f 42 36 a0 be c6 99 4a bf
       -0.69226813 0.6285424 -0.31291395 -0.7914089
000200 e7 81 85 be 96 08 05 bf 62 97 78 3e 89 7e 95 bf
       -0.2607567 -0.51966226 0.24276498 -1.167924
000210 e9 90 9b be 64 cc 11 bf 03 f3 05 c0 de e5 c1 3f
       -0.30383995 -0.569525 -2.0929573 1.5148275
000220 ef 02 4e bf 04 e4 40 3f e8 6e 25 3f 3a 25 83 3f
       -0.80473226 0.75347924 0.64622355 1.0245736
000230 64 37 96 3f 98 f8 3e 3f 47 c5 95 3f df 1d b1 3f
       1.1735654 0.74598074 1.1700829 1.3837241
000240 c5 e1 c8 3f 8e 3a 71 3f 71 de 97 3f ec 2a a3 bf
       1.5693899 0.9422997 1.1864759 -1.2747474
000250 8f 0f d6 3f 4c 69 f3 40 31 de 48 3f 80 8d 1b 3f
       1.6723498 7.6066036 0.7846404 0.60762787
000260 7b df 50 bf 46 74 f8 be 2f d8 9a bf 29 d0 67 bf
       -0.81591004 -0.4852621 -1.2097224 -0.90552
000270 f6 e8 37 3f aa 64 80 bf 2a d8 a2 bf b7 1b 32 bf
       0.71839845 -1.003072 -1.2722218 -0.6957354
000280 6c 91 35 bf b3 0d 3d bf c0 15 bc 3f c9 39 8c bf
       -0.7092502 -0.7384903 1.4694138 -1.0955135
000290 78 83 f5 be a1 70 01 be a3 a6 ac bf 47 d2 f3 3f
       -0.47951865 -0.12640621 -1.3488353 1.9048547
0002a0 86 9c ce 3f b0 6c 55 3f b5 c4 a9 3f 22 ec 24 3f
       1.6141517 0.8336897 1.3263155 0.6442281
0002b0 51 96 67 3f cb 3d 69 3f ef 84 87 3f 04 30 b4 3f
       0.9046374 0.91109914 1.0587443 1.4077153
0002c0 73 20 a5 3f e9 02 18 bf 78 38 65 3f 23 00 62 3e
       1.2900528 -0.5937944 0.8953929 0.22070365
0002d0 e2 e0 69 3f 8c 55 a0 3f 96 4d 82 bf d2 b3 3c bf
       0.9135877 1.2526107 -1.0179927 -0.73711884
0002e0 04 f5 6d bf e1 e1 37 bf 69 2a 08 40 ed 99 97 bf
       -0.9295199 -0.7182904 2.1275885 -1.184385
0002f0 bc 7d c7 bf 7c b0 dd bf 3e a2 a9 bf 49 d1 c0 bf
       -1.5585246 -1.7319484 -1.3252637 -1.5063869
000300 c6 57 b2 3f 6e fc 8d bf 8d dd 0c bf c4 ee 40 3f
       1.3933036 -1.109266 -0.5502556 0.7536433
000310 03 04 d1 3f 75 28 52 bf 6b 40 8a bf 58 42 93 bf
       1.6329349 -0.8209298 -1.0800909 -1.1504622
000320 f0 d1 3c bf bc 82 1e 40 0d 95 91 bf 0c 3e 94 bf
       -0.7375784 2.4767294 -1.1373612 -1.1581435
000330 5b 85 c2 bf af a9 c5 bf 8d 8c dd bf ab 57 ef 3f
       -1.5196947 -1.5442408 -1.7308518 1.8698629
000340 51 81 af bf e1 a5 30 bf 7a 4a 46 3f 89 0f 9e 3f
       -1.3711339 -0.6900311 0.7745739 1.2348491
000350 d9 53 1a bf f1 32 52 bf cd ab b0 bf d4 94 0f bf
       -0.6028419 -0.8210898 -1.380243 -0.5608647
000360 1c c4 1f 40 3c b8 96 bf b0 91 bb bf 61 73 9e bf
       2.4963446 -1.1774974 -1.4653835 -1.2378961
000370 6e 13 b2 bf 3d da aa bf 28 82 bf 3f db b5 61 bf
       -1.391218 -1.3347851 1.4961596 -0.88168114
000380 c8 63 1f bf
       -0.6226163

onnx::MatMul_33 f4 [15, 15]
000000 3d dc 39 bf 62 4a ac 3e ea d3 12 bf a9 11 c5 3c
       -0.7260168 0.336505 -0.57354605 0.024056273
000010 e0 f5 5b bf 61 fb ac 3c 61 47 bc bf 7e af d1 bf
       -0.8592205 0.02111596 -1.4709283 -1.6381681
000020 56 49 88 bf 9d 4f 47 bf dc e9 4c bf 9d bf 2c bf
       -1.064738 -0.77855855 -0.8004434 -0.6747988
000030 bb b9 59 be 79 32 9b be 46 f4 df bd 0d c8 14 c0
       -0.21262257 -0.30311945 -0.10935263 -2.3247101
000040 32 d7 d7 be 2d 54 b1 bf 70 05 80 bf b6 e7 1c c0
       -0.42156368 -1.3853813 -1.0001659 -2.4516425
000050 8e 7a 95 bf aa ec cf bf ea 73 a3 bf 1f d4 15 c0
       -1.1678026 -1.6244099 -1.2769749 -2.3410718
000060 28 09 06 c0 04 a3 cd bf a8 3e cc bf ed a2 90 bf
       -2.0943089 -1.6065373 -1.5956621 -1.1299721
000070 75 98 ad bf 01 97 39 bf a0 9a e6 3f 62 63 af bd
       -1.3562151 -0.7249604 1.8015938 -0.08563878
000080 62 1c 6e 3f 1f 81 a1 3e 18 f1 f4 3f 9d 2f 68 3f
       0.9301206 0.31543824 1.9136076 0.9069765
000090 77 52 0c 40 45 cf a5 3f 3b fc d1 3f 8f 72 db 3f
       2.1925333 1.2953879 1.64051 1.7144336
0000a0 8a 25 aa 3f b6 72 9f 3f c9 17 38 3f 4a 36 9e 3f
       1.3292706 1.2456882 0.71911293 1.2360318
0000b0 9d f1 aa be 84 21 18 40 ac 93 95 3f e9 e8 48 bf
       -0.3338746 2.3770456 1.1685691 -0.7848039
0000c0 eb 1f cc 3f 1b 4c 2b 40 55 0a 12 40 79 50 96 3e
       1.594724 2.67652 2.2818806 0.2935827
0000d0 12 f0 02 bf 89 27 32 40 27 cc 28 40 27 d4 16 40
       -0.5114757 2.783663 2.6374605 2.3566988
0000e0 3a c2 1b bf e7 14 03 40 5d da 09 40 91 5e f1 3e
       -0.6084324 2.0481508 2.1539528 0.4714246
0000f0 d5 d7 bb 3e 88 6a 3f bf 90 6b 15 40 d6 d1 07 bf
       0.36688104 -0.7477193 2.33469 -0.5305456
000100 d0 e9 0b 3f 49 b4 8c be 45 e2 2e 40 50 5c 22 40
       0.54653645 -0.27481297 2.7325604 2.5368843
000110 d0 21 25 3f e0 bd 85 3e da 79 68 3e dc 41 1e 40
       0.6450472 0.26121426 0.22702733 2.4727697
000120 cd 23 17 bf aa 8d 9e be 63 19 3b bf 79 4f 99 3f
       -0.59039 -0.30967456 -0.7308561 1.1977378
000130 4c ea a0 be 28 93 11 3f ac dc 18 3f 5e f9 c2 3f
       -0.31428754 0.5686517 0.5971172 1.5232351
000140 b7 1d 88 3f da 6a 0c 40 aa 88 ab 3f 42 45 ce 3f
       1.0634068 2.1940217 1.3401082 1.6114886
000150 4c b2 c2 3f df cc a6 3f d6 e9 48 3f 0a 42 3e 3f
       1.5210662 1.3031272 0.78481805 0.7431952
000160 e9 33 64 3f a3 6d be be d3 e2 d5 bf b5 1a 55 be
       0.8914171 -0.3719302 -1.6709846 -0.20810969
000170 4b 2d 80 bf ad 9d 09 bf a7 45 db bf e9 09 05 bf
       -1.0013822 -0.5375622 -1.7130631 -0.51968247
000180 39 51 ba bf ab 64 a8 bf b5 fe d9 bf ce 0e b7 bf
       -1.4556037 -1.3155721 -1.7030855 -1.4301393
000190 10 c2 a4 bf 22 8c 90 bf d8 3e e5 be be 90 78 bf
       -1.2871723 -1.1292765 -0.44774508 -0.9709586
0001a0 b2 c0 8e be fc 82 da 3e d2 74 8f 3e fb b5 fe 3f
       -0.2788139 0.42678058 0.28018814 1.9899286
0001b0 df e6 75 be 6d 76 f9 3e 63 93 06 bf df cc 10 40
       -0.24013852 0.48723164 -0.52568644 2.2625043
0001c0 5c 8a 20 40 2c 32 b3 3e 86 37 9b 3d b6 da 63 3e
       2.5084448 0.34999216 0.0757895 0.222514
0001d0 45 91 10 40 35 ef 16 bf 2b ae 9a bc 69 1d 3f bd
       2.2588665 -0.5895875 -0.018881878 -0.046658907
0001e0 8d 53 fc 3f e2 9d 42 3f 8a ea a9 3f 89 25 53 3f
       1.9712998 0.7602216 1.3274701 0.8247915
0001f0 c7 46 06 40 aa 78 3b 3f a8 41 21 40 c4 eb 01 40
       2.09807 0.73230994 2.5196323 2.030015
000200 e4 c5 c4 3f c4 0e ca 3f 4e f0 e4 3f 39 6b d0 3f
       1.5372891 1.5785756 1.7885835 1.6282722
000210 30 74 41 3f 16 76 9c 3f 90 f0 d9 3e 92 60 ec 3f
       0.75567913 1.2223537 0.42566347 1.8466971
000220 4d 99 ca 3f 79 53 a0 3f ce cf 34 3f d9 88 17 40
       1.5828034 1.2525474 0.70629585 2.3677275
000230 63 8c 70 3e ed 9e 09 40 ec 51 bf 3f cd af b9 3f
       0.23491053 2.150325 1.4946876 1.4506775
000240 9b a7 95 3f 88 46 9a 3f d1 76 c5 3f 11 d8 28 3f
       1.1691774 1.2052774 1.5426885 0.6595469
000250 d2 6f 18 3f f6 25 68 3f 3c 54 f7 3f 00 e1 9f 3f
       0.59545624 0.90682924 1.9322581 1.249054
000260 71 c2 23 3f af 75 79 3f 3f 3e 12 40 6b 07 9c 3f
       0.6396857 0.97445196 2.2850492 1.2189764
000270 0d 9f f9 3f 16 d1 8c 3f a9 3c 00 40 f8 be dc 3f
       1.9501663 1.1001308 2.0037024 1.7245779
000280 84 21 e7 3f c4 0d 3a 3f 05 77 9b 3f a0 05 a2 3f
       1.8057103 0.72677255 1.2145697 1.2657967
000290 b9 f4 8c 3f 8f 60 9a 3f 6c 91 66 3f 51 6d 21 40
       1.1012183 1.2060717 0.90065646 2.5222971
0002a0 7d 80 c7 3d ed 56 bd 3f cd c5 e5 be a1 5f 12 40
       0.09741304 1.4792153 -0.44877473 2.2870867
0002b0 81 0c 24 40 3c ce 61 3f c7 9b 9f 3e 68 e8 18 3f
       2.5632632 0.88205314 0.31173536 0.59729624
0002c0 e1 fc 1a 40 4c 57 28 be aa 7a 27 3d 0d f4 e4 3e
       2.4216845 -0.16439551 0.040888466 0.44717446
0002d0 91 98 05 c0 5d 96 06 bf 83 94 cc bf 3f 5f 65 bf
       -2.087437 -0.52573186 -1.5982822 -0.8959846
0002e0 99 4a f8 bf 67 e7 4c bf 47 e8 c9 bf 07 29 ad bf
       -1.9397765 -0.8004059 -1.577401 -1.3528146
0002f0 c8 f3 08 c0 e8 84 e6 bf ac 5b f1 bf d1 e8 ed bf
       -2.1398792 -1.800931 -1.8856101 -1.8586675
000300 d2 e1 74 bf 44 a9 a3 bf 76 91 43 bf eb d1 4a 3f
       -0.95657074 -1.2786031 -0.7639383 0.7922656
000310 cf 4f 8e 3e 2f 85 ec 3f 25 5b 99 be 48 86 30 3f
       0.27795264 1.8478144 -0.2995235 0.68954897
000320 50 04 27 be 7f f7 23 40 67 a3 04 40 d0 3c f9 3e
       -0.16310239 2.561981 2.0724733 0.4867921
000330 bf 8f 2b 3f 68 6e 22 3f ad f9 0a 40 9e 83 c4 be
       0.67016214 0.63449717 2.171489 -0.38381666
000340 cf 87 91 bd 2c 53 88 bd 37 97 a9 bf 1e 26 b2 3e
       -0.071059816 -0.06656489 -1.3249272 0.34794706
000350 51 d4 19 40 80 69 d9 bf ec 68 99 bf 73 ee 79 c0
       2.4035838 -1.6985321 -1.1985145 -3.9051788
000360 eb 0b f9 3e cf d4 b0 3f 04 c5 c5 bf 64 6c 09 c0
       0.48641905 1.3814944 -1.5450749 -2.1472406
000370 60 16 d1 bf 15 7e ac 3f da c4 15 c0 10 5a 05 c0
       -1.6334953 1.3475977 -2.3401399 -2.083622
000380 f7 62 f5 be
       -0.47927067

onnx::MatMul_34 f4 [15, 15]
000000 f1 28 0e 40 b4 2f a3 3f ef 26 8a 3f 4e cb 2b 3e
       2.2212489 1.2748933 1.0793132 0.16776773
000010 93 52 92 be 1e 17 9f 3f 65 94 09 40 c9 c7 e9 3f
       -0.28578624 1.242893 2.1496823 1.8264095
000020 be 2e 0d bf ac 84 42 3f 65 4c 91 3f a3 04 47 bf
       -0.5514945 0.7598369 1.1351439 -0.7774145
000030 58 e6 ff 3f 23 ef b2 3f 24 1a f4 bc 69 e5 57 3f
       1.999217 1.3979229 -0.029797621 0.8433443
000040 85 fb 07 3f 5c 7a 39 3f 99 f6 a0 bf c2 ec f9 3e
       0.53118163 0.7245233 -1.2575256 0.48813444
000050 07 26 f6 3e 66 dd 3b 3f d8 92 88 3e 7d 7d fc 3e
       0.48075888 0.733847 0.26674533 0.4931449
000060 91 49 0b 3f 74 15 e6 3e 15 4f 5b 3f 23 71 e0 3e
       0.5440913 0.44938242 0.85667545 0.43836316
000070 d7 5b 03 3f a5 56 db be 44 bc e5 bf 98 35 af bf
       0.5131201 -0.42839542 -1.7948079 -1.368823
000080 b8 f3 cd bf 47 24 83 bf 4f 07 30 3f e3 50 be bf
       -1.6090002 -1.0245446 0.6876115 -1.4868435
000090 f5 c7 d9 bf 43 b3 f8 bf 7a fb 73 3f ce e1 a8 bf
       -1.7014147 -1.9429706 0.953056 -1.319391
0000a0 bb 32 e1 bf ce e8 a6 3f 09 1b da bf 6d 3a db bf
       -1.7593607 1.3039796 -1.70395 -1.7127205
0000b0 09 2e 67 3f 94 3a 12 3f b0 14 0f 3f 18 c9 23 3f
       0.9030462 0.57120633 0.5589094 0.6397872
0000c0 4f 26 6b 3e d7 54 29 bf 25 aa 8c 3e 75 5e be 3e
       0.22963832 -0.6614508 0.2747356 0.3718144
0000d0 50 5a 1a 3f 54 42 43 bf e7 45 15 3e b9 36 43 3f
       0.60294056 -0.76273084 0.14577447 0.76255375
0000e0 90 f0 8c bf dc 14 60 3f 9d 45 6c 3f 3e ec b3 3e
       -1.1010914 0.8753183 0.9229372 0.35141176
0000f0 d0 b8 2e 40 0e af d4 3f 7b 0f d6 3f a7 91 a1 be
       2.73003 1.6615922 1.6723474 -0.31556436
000100 3d 54 c3 be 8b 2c b0 3f 25 8a 21 40 c7 73 1d 40
       -0.38150206 1.3763593 2.5240567 2.4601915
000110 92 1f 45 be ff d7 b5 3f 9c c2 c8 3f 11 61 fc be
       -0.19250324 1.4206542 1.568439 -0.49292806
000120 5a 96 3c 40 55 c8 f7 3f 65 9b f0 be 2f df 62 3f
       2.9466767 1.9358011 -0.46993557 0.886218
000130 73 3c b9 3e 7e 73 5a 3f 77 21 9c 3f 86 fb f3 bf
       0.36178932 0.8533248 1.2197713 -1.9061134
000140 bc bc f3 3e 8b 3d 55 3f 29 da 94 3f 0d 10 c6 bf
       0.4760493 0.8329703 1.1629077 -1.5473648
000150 e9 6f 7b 3e 53 a9 6a 3f 8d 03 09 c0 ed 23 2d 3f
       0.24554409 0.9166462 -2.1408417 0.67632943
000160 f3 55 50 3f d1 f0 7d 3f 10 d3 03 c0 3e 34 01 c0
       0.8138115 0.9919558 -2.0597572 -2.0188136
000170 93 a7 f6 bf c5 62 17 3f 23 56 fa 3e 75 5c 09 c0
       -1.926989 0.59135085 0.48893842 -2.1462681
000180 64 12 0a c0 51 37 f8 bf 4f eb 9b 3e 64 fc 11 c0
       -2.1573725 -1.9391881 0.30452964 -2.2810297
000190 14 29 07 c0 58 23 06 3f b5 51 ed bf b9 e9 e7 bf
       -2.1118822 0.5239768 -1.854056 -1.8118201
0001a0 a9 e5 24 40 e0 d4 0a c0 a6 de ed bf f5 90 f9 bf
       2.5765173 -2.1692429 -1.8583572 -1.9497362
0001b0 9c 81 83 3e 9f ff 60 3f 0b f2 ff bf 2a d3 07 c0
       0.25684822 0.87890047 -1.9995741 -2.1222634
0001c0 5d 8c 06 c0 cb a0 80 3f 60 23 fb bf 38 89 ee bf
       -2.102317 1.004907 -1.962017 -1.8635626
0001d0 75 45 92 3f ea 0b 0f c0 5c be 02 c0 23 50 f1 3f
       1.1427447 -2.2351022 -2.0428686 1.8852581
0001e0 72 d8 05 40 06 42 9a 3f b4 ec a0 3f 77 37 ff 3e
       2.0913358 1.2051399 1.2572236 0.49847004
0001f0 82 1c 47 bf 8a 9d 8d 3f eb c0 06 40 f1 3d e1 3f
       -0.77777874 1.1063702 2.1055248 1.7597028
000200 6c f8 72 bf 23 80 72 3f 10 76 b4 3f 9c 2b e2 bf
       -0.9491031 0.9472677 1.409853 -1.7669559
000210 0e 69 15 40 2a 5c 04 40 a6 fb e4 3d 27 cf f0 3f
       2.334537 2.0681252 0.11180811 1.8813218
000220 ee 40 aa 3f 65 56 b7 3f 35 ea 93 3f 31 ad 83 bf
       1.3301065 1.432324 1.1555849 -1.0287229
000230 13 fc 9d 3f 08 d3 dd 3f 27 50 d8 3f de 0f 93 bf
       1.2342552 1.7330027 1.689946 -1.1489217
000240 a4 f0 3d 3f 22 a1 8d 3f de d8 ff bf 70 83 03 40
       0.74195313 1.1064799 -1.9988058 2.0548973
000250 d6 ae b7 3f f6 4c 07 3f 1f 4f bd 3f 89 a6 81 3f
       1.4350231 0.5285181 1.4789771 1.0128947
000260 e6 8b 90 3f e6 e6 fa 3e 0a d7 23 bf 41 08 41 3f
       1.1292694 0.49004287 -0.64 0.7540322
000270 f9 0b d1 3f 34 03 b1 3f 09 30 37 bf 13 64 f2 3e
       1.6331779 1.3829103 -0.7155767 0.47341976
000280 98 0c 8c 3f 41 47 89 bf d3 a1 a4 3f 67 33 a3 3f
       1.0941343 -1.072487 1.2861885 1.2750062
000290 aa 0a 1e 3f 0e 88 ec bf 20 07 f9 bf fe 92 c5 bf
       0.6173502 -1.847902 -1.9455299 -1.5435483
0002a0 04 c6 9a be 8f 21 03 3f 5a 42 f0 bf 10 06 bb bf
       -0.302292 0.5122308 -1.8770249 -1.4611225
0002b0 53 26 f6 bf bc 35 08 3f 77 19 dc bf 5a 24 f3 bf
       -1.9230446 0.5320699 -1.7195271 -1.8995469
0002c0 8d 05 10 3f 40 89 ef bf 67 1d e1 bf 35 15 ac 3f
       0.5625847 -1.871376 -1.7587098 1.3443972
0002d0 71 e3 57 3f 59 ba 00 3f 2a 6c 17 3f 5e 42 7a 3e
       0.84331423 0.50284344 0.5914942 0.2443938
0002e0 17 e1 82 bf 25 71 12 3e 30 5e 27 3f 4e c9 71 3f
       -1.0224942 0.14300974 0.65378094 0.9444779
0002f0 19 4e 7e bf 26 be 4b 3e ef 93 58 3f 20 c8 9a bf
       -0.9933792 0.19896755 0.8460073 -1.2092323
000300 84 98 1a 3f 1b 14 64 3f 54 61 0c 3f 69 c5 57 3f
       0.6038897 0.8909318 0.5483601 0.842856
000310 ef fb fd 3e 8d 8a 47 3f f6 21 2f 3f b3 f9 45 bf
       0.49606273 0.77945787 0.68411195 -0.77334136
000320 ec f5 0f 3f 78 63 6c 3f 61 72 53 3f 8a e1 83 bf
       0.5623462 0.9233928 0.82596403 -1.0303204
000330 17 4a 0a 3e fe c2 67 3f d1 71 b0 bf e3 d0 56 3f
       0.13504826 0.9053191 -1.3784734 0.83912486
000340 a2 3b 48 3f c9 aa 75 3f 26 a0 02 3f 13 d5 1f 3e
       0.7821599 0.9596372 0.5102562 0.15608625
000350 d5 7f 9d 3d c9 8f d8 be 01 14 43 bf de c5 40 be
       0.07690398 -0.422972 -0.762024 -0.1882548
000360 d4 bb d9 3e e8 e9 04 3f 3a 72 3c bf cd ba 7c bd
       0.42526114 0.5191941 -0.73611796 -0.061701585
000370 fe 39 43 3e f3 96 de be c3 ae 08 3f 50 76 fc 3e
       0.19065091 -0.4347454 0.53391665 0.49309015
000380 46 0c 5a 3e
       0.21293744

onnx::MatMul_35 f4 [15, 1]
000000 70 54 1a c0 a9 bc a9 bf 73 d3 ad bf e3 61 0e 3f
       -2.4114037 -1.32607 -1.3580154 0.55618113
000010 24 76 a1 be 42 df a7 bf 58 89 00 c0 59 22 f2 bf
       -0.31535447 -1.3115008 -2.0083828 -1.8916732
000020 ef 9c d5 be 7b 3f a9 bf da da cb bf 79 e2 35 bf
       -0.41721293 -1.3222498 -1.5926163 -0.71048695
000030 16 d9 0f c0 a4 f9 d0 bf b1 56 db 3e
       -2.2476249 -1.6326184 0.42839578
