onnx/myModel_HL2_HD15_799.onnx (onnx, 3508 bytes, 7 tensors)

net.0.bias f4 [15]
-3.196555 -3.3900192 -3.8449297 -3.5444844 4.512841 4.276729 1.1969225 4.0336795
4.809056 -3.72098 -0.17239588 3.5852766 1.3663191 3.9208846 -4.2672696
00000000: 5b94 4cc0 13f6 58c0 5413 76c0 d5d8 62c0
00000010: 3269 9040 f7da 8840 c234 993f e713 8140
00000020: c9e3 9940 8924 6ec0 8c88 30be 2c75 6540
00000030: 8be3 ae3f c6ef 7a40 798d 88c0

net.2.bias f4 [15]
0.0032742945 -0.29430214 0.069281705 0.39392197 0.022797406 0.2184852 0.7481429 0.11333511
-0.26253417 0.89912415 0.7011724 -0.27024245 -0.086792774 0.61416614 0.22579427
00000000: 8c95 563b c5ae 96be 91e3 8d3d 24b0 c93e
00000010: a0c1 ba3c 96ba 5f3e 4b86 3f3f 3d1c e83d
00000020: e16a 86be 002d 663f 0980 333f 385d 8abe
00000030: 69c0 b1bd fe39 1d3f 9d36 673e

net.4.bias f4 [15]
0.57450014 0.44102415 0.9200939 -2.935228 1.107814 0.51564264 0.7282083 -0.27788427
0.04625942 -0.71504396 -1.8367167 0.46045965 0.7639632 0.43278992 0.8035975
00000000: 7112 133f ebcd e13e 468b 6b3f c7da 3bc0
00000010: d9cc 8d3f 2801 043f dc6b 3a3f d946 8ebe
00000020: 857a 3d3d 1f0d 37bf 8819 ebbf 5ec1 eb3e
00000030: 1893 433f a496 dd3e 91b8 4d3f

onnx::MatMul_25 f4 [2, 15]
1.5846871 0.6135422 1.3106174 -0.8227607 3.349129 -0.08410026 0.21453537 0.21752645
2.829144 -2.3271844 -4.1237235 -2.7125382 4.174408 1.2945892 -5.1457095 0.78238714
1.6827322 -1.1467566 2.099754 0.7815216 2.280468 -0.5811213 2.261143 2.0144198
0.85854757 5.4106436 0.43700594 -2.533928 1.7443093 1.9534557
00000000: 07d7 ca3f 1a11 1d3f 50c2 a73f 72a0 52bf
00000010: 2158 5640 c23c acbd 29af 5b3e 41bf 5e3e
00000020: b210 3540 97f0 14c0 8bf5 83c0 3a9a 2dc0
00000030: c094 8540 19b5 a53f a7a9 a4c0 864a 483f
00000040: c563 d73f ecc8 92bf 5f62 0640 cd11 483f
00000050: 30f3 1140 5ec4 14bf 91b6 1040 41ec 0040
00000060: c6c9 5b3f fe23 ad40 3ebf df3e e02b 22c0
00000070: 8745 df3f d60a fa3f

onnx::MatMul_26 f4 [15, 15]
3.2817366 2.995397 4.158764 2.0676367 3.6225781 2.680428 3.7064714 1.1278555
2.8080988 2.2337673 0.07960691 0.95820075 0.6032747 3.94158 3.4798446 3.1674054
4.4354444 3.391103 1.9616728 3.2419305 2.0234325 2.8299031 1.1413815 3.0676498
4.1170125 -0.18315184 0.6015857 2.3269107 3.8120565 2.816461 2.642428 1.9301559
4.551042 1.1061649 3.52003 3.514665 3.0942118 -0.6226331 0.93189436 4.794982
1.7210844 2.1843898 1.405478 5.9542723 2.6307766 1.0492501 0.7981527 2.2956278
1.2210355 2.1691306 2.7607257 0.5342145 2.2483234 1.7590089 5.4923725 1.9359686
-0.25973508 3.1469214 4.068183 -0.877332 -1.1640385 -0.16012192 -1.6018889 -0.13020022
-1.1812935 -0.91139823 -0.9951284 -1.3396212 -0.61517864 -2.152158 -1.2342522 0.867659
-0.6852784 -1.5385394 -0.9950813 -1.4138037 -0.9845915 -1.5602988 -1.3795977 -1.2469712
-1.4190373 -2.6563253 -0.5061578 -1.0224133 -3.6118357 -1.8728486 -0.28632987 -1.0569791
-1.9003887 -1.3434882 -0.792097 -0.8826307 -0.1589918 0.002900986 -0.23351426 -0.17783429
0.5718115 -0.13996008 -0.87710845 0.13336323 0.43840352 -0.042288758 -0.6115829 1.083921
0.10211058 -1.271603 -0.55188674 -1.168587 -1.0900749 -1.4407768 -1.0394086 -2.4969418
-0.036258508 -0.6756744 -3.1245685 -2.1353147 -0.16601725 -0.8207968 -1.506712 -1.0720047
-1.0171345 -0.47029835 -1.9088634 -0.63171405 -1.2055913 -1.1327543 -1.7535969 -1.1345898
-0.7102262 -1.7869605 -1.680581 0.23903708 -0.6561742 -1.9330666 -1.1748112 5.299745
-1.4372139 5.710821 -0.40979707 5.6101985 5.5903096 3.0567994 -1.763979 3.95806
7.289561 2.5622244 -5.3109283 2.564025 5.422513 1.8314763 -0.11295586 1.5956864
-2.254946 -0.9588861 -0.87874615 -0.067201056 -0.19186287 -0.009857844 0.981972 -0.23460157
0.26519102 -2.3369036 0.19492222 -2.1010187 1.4538007 -2.6784189 -2.3058732 -1.9659538
0.4562343 -2.4111907 -0.7860178 -0.1709458 1.5032866 -1.630167 0.07382916 0.33490923
0.045305453 -0.051131047 0.7160719 -2.389542 -0.21323115 0.38134164 0.3326301 0.6535127
-0.3650469 -0.8509061 0.90195054 0.6057945 -1.074545 0.48321354 1.2141547 2.3516614
-2.4314108 1.9554272 0.20894364 -1.2046233 -0.5569043 -2.129209 -0.5381361 -1.9052942
-1.3756216 -2.1159055 -0.7652127 -1.0696858 -3.9059072 -2.2946043 0.52759904 -1.2480199
-1.7063718 -1.5374049 -1.1165932 -3.8369024 -0.45934284 -1.4622273 -1.3519493 -0.960764
0.27730054 -2.7252886 -3.3476868 0.9126432 0.0998862 1.9318086 -2.2826207 4.2946067
-2.1786907
00000000: f907 5240 96b4 3f40 9814 8540 2954 0440
00000010: 52d8 6740 228c 2b40 d436 6d40 925d 903f
00000020: e4b7 3340 0bf6 0e40 f308 a33d a54c 753f
00000030: 3670 1a3f d942 7c40 c6b5 5e40 c5b6 4a40
00000040: 29ef 8d40 d507 5940 1818 fb3f ca7b 4f40
00000050: eb7f 0140 221d 3540 ca18 923f 6054 4440
00000060: 91be 8340 288c 3bbe 8501 1a3f 1bec 1440
00000070: bcf8 7340 e640 3440 8a1d 2940 590f f73f
00000080: 23a2 9140 d096 8d3f 2c48 6140 45f0 6040
00000090: 9107 4640 e264 1fbf a190 6e3f 7e70 9940
000000a0: 7e4c dc3f 0bcd 0b40 b4e6 b33f 6689 be40
000000b0: a55e 2840 d44d 863f bc53 4c3f 91eb 1240
000000c0: e44a 9c3f 09d3 0a40 bbaf 3040 48c2 083f
000000d0: 88e4 0f40 3427 e13f 84c1 af40 d2cd f73f
000000e0: fffb 84be 2967 4940 8e2e 8240 d498 60bf
000000f0: 37ff 94bf 00f7 23be b20a cdbf 3553 05be
00000100: a034 97bf 6551 69bf bcc0 7ebf b578 abbf
00000110: 597c 1dbf f5bc 09c0 fafb 9dbf e61e 5e3f
00000120: 686e 2fbf dcee c4bf a6bd 7ebf 85f7 b4bf
00000130: 300e 7cbf dfb7 c7bf a896 b0bf c19c 9fbf
00000140: 04a3 b5bf 3c01 2ac0 8f93 01bf 70de 82bf
00000150: 5128 67c0 81b9 efbf d499 92be 174b 87bf
00000160: f03f f3bf 6cf7 abbf dec6 4abf 16f4 61bf
00000170: bfce 22be 781e 3e3b 5d1e 6fbe 311a 36be
00000180: 3d62 123f b251 0fbe 2e8a 60bf 5f90 083e
00000190: 6d76 e03e fa36 2dbd b290 1cbf ecbd 8a3f
000001a0: 5a1f d13d e3c3 a2bf 7348 0dbf 4294 95bf
000001b0: 9387 8bbf 606b b8bf 570b 85bf e5cd 1fc0
000001c0: cd83 14bd fff8 2cbf eef8 47c0 ffa8 08c0
000001d0: 6d00 2abe bd1f 52bf f0db c0bf 7337 89bf
000001e0: 7731 82bf f2ca f0be a355 f4bf 03b8 21bf
000001f0: d150 9abf 18fe 90bf dd75 e0bf 3d3a 91bf
00000200: 62d1 35bf 1fbb e4bf 471d d7bf 23c6 743e
00000210: 08fb 27bf ba6e f7bf 3760 96bf 8397 a940
00000220: a0f6 b7bf 0cbf b640 ecd0 d1be bf86 b340
00000230: d1e3 b240 9aa2 4340 10ca e1bf db50 7d40
00000240: 1544 e940 7cfb 2340 20f3 a9c0 fc18 2440
00000250: 3a85 ad40 d16d ea3f 6755 e7bd 743f cc3f
00000260: 0951 10c0 8f79 75bf 82f5 60bf b5a0 89bd
00000270: b377 44be cb82 21bc 8462 7b3f 653b 70be
00000280: 1ec7 873e d48f 15c0 b199 473e 1777 06c0
00000290: 2416 ba3f 376b 2bc0 6d93 13c0 60a4 fbbf
000002a0: 8b97 e93e f350 1ac0 7638 49bf 6a0c 2fbe
000002b0: b26b c03f 50a9 d0bf be33 973d 3979 ab3e
000002c0: 3692 393d ca6e 51bd 7d50 373f 42ee 18c0
000002d0: 4459 5abe 363f c33e 7e4e aa3e 9c4c 273f
000002e0: 6de7 babe fbd4 59bf 3be6 663f 5915 1b3f
000002f0: b18a 89bf c467 f73e 6c69 9b3f 9f81 1640
00000300: 3c9c 1bc0 704b fa3f 52f5 553e 1931 9abf
00000310: 4891 0ebf f644 08c0 4ac3 09bf aee0 f3bf
00000320: 5e14 b0bf ff6a 07c0 fbe4 43bf 77eb 88bf
00000330: 62fa 79c0 ccda 12c0 bb10 073f 1ebf 9fbf
00000340: 646a dabf afc9 c4bf 87ec 8ebf cf8f 75c0
00000350: fc2e ebbe 442a bbbf ad0c adbf a1f4 75bf
00000360: 56fa 8d3e 216b 2ec0 8040 56c0 fca2 693f
00000370: 2391 cc3d 8145 f73f 7516 12c0 6b6d 8940
00000380: ab6f 0bc0

onnx::MatMul_27 f4 [15, 15]
0.05545883 0.22195338 0.39743704 5.316864 -0.18270099 -0.045630835 0.25356314 0.26832187
0.50429505 -0.37023214 0.5602406 0.36077 0.0018683252 0.24469817 -0.04958369 -1.2198141
-0.58166665 -0.89378446 0.057687026 -1.4034609 -1.0532901 -0.5858102 0.13223018 0.15521005
1.9104673 2.3288765 -0.9300963 -1.2207928 -1.1059601 -1.6254088 1.1823002 1.266672
1.696464 9.893838 1.5516169 0.7158113 1.8783008 1.1198736 1.346447 -0.60548544
-0.5207636 0.78665864 1.6528813 1.0705229 0.8575213 -0.74566257 -0.68859637 -1.2476832
-1.2643012 -1.3233383 -0.87958986 -1.1163597 -0.6172731 -1.2178534 1.0302846 1.7191275
-0.84823775 -1.2975788 -0.9284442 -1.2444056 0.14041768 0.066825256 0.2735434 6.8851776
0.03183646 0.024863318 0.1907527 0.322165 0.61007684 -0.051088434 0.7155147 -0.2104863
0.19748156 0.033268232 0.09009008 1.0115079 1.2515134 1.2135952 5.1624355 0.9746674
0.9917066 0.96416897 1.063006 1.5611539 -0.49345237 -0.3275092 0.7318899 1.1029557
0.8535354 0.7101903 0.56463337 0.06728912 -0.2557416 5.97733 0.4948984 0.5846693
-0.40408957 -0.5147167 -0.7738302 -0.92299664 -0.5548914 0.5705694 0.3035539 0.5769557
0.5818097 -0.75647384 -0.7458485 -0.68587506 -0.26208434 -1.4632351 -0.7091912 -1.0544733
-0.122935876 -0.0049323556 1.0024211 1.1551995 -0.862337 -1.120425 -0.90435064 -0.9428337
0.40121025 1.0271661 1.2989436 3.9637463 -0.13088453 0.42903703 1.0710468 1.8395742
2.5070412 0.17295593 0.59635806 0.47123033 0.3836706 0.53447855 0.069049105 -1.4635074
-1.9718634 -2.1705325 3.625021 -1.0950654 -1.2431599 -1.7589191 -2.0212421 -2.1709852
0.37780625 0.107765 -1.101714 -1.3979405 -1.2217829 -0.8762168 1.6204056 1.7921867
1.1382833 2.854629 0.58414495 1.8847547 0.40132856 0.9182739 0.07737244 -1.4666464
-0.50384516 2.3887122 1.755991 1.9478093 1.736584 0.32007244 0.064490214 0.38964406
-3.8662903 1.084487 0.24302132 0.33953252 -0.73968965 -0.96478415 -0.9121194 -2.0284333
0.14361103 0.36873576 0.30360797 0.82611084 1.5387669 1.2443742 1.6082885 3.9958668
1.3063366 1.6864833 1.2641937 1.9398787 1.7768884 -1.4745399 -1.8082609 1.3781148
1.1807755 1.1477504 1.5349661 -3.5962815 -3.4512594 -4.2914023 -5.2015 -4.6145773
-3.43896 -4.1297774 -3.377431 -4.2955155 4.120695 5.6289186 -2.9866827 -3.7550538
-3.3404837 -4.164017 1.6532825 1.8501372 1.8133234 3.8571181 1.3208603 1.7564125
2.1012022 2.2186277 2.6427674 -0.7323553 0.49547696 1.9173826 1.2856717 1.6156983
1.4684203
00000000: cc28 633d bf47 633e de7c cb3e c023 aa40
00000010: f815 3bbe 66e7 3abd 07d3 813e 7c61 893e
00000020: 7b19 013f 118f bdbe ee6b 0f3f d8b6 b83e
00000030: 97e2 f43a 2892 7a3e 4418 4bbd de22 9cbf
00000040: 1be8 14bf 0fcf 64bf 3b49 6c3d 9ba4 b3bf
00000050: 36d2 86bf a8f7 15bf 5967 073e 62ef 1e3e
00000060: 318a f43f 500c 1540 cb1a 6ebf f042 9cbf
00000070: 1a90 8dbf 650d d0bf 9d55 973f 4f22 a23f
00000080: bb25 d93f 294d 1e41 629b c63f 693f 373f
00000090: 296c f03f 0558 8f3f 6058 ac3f 1801 1bbf
000000a0: c350 05bf 7662 493f 9d91 d33f e506 893f
000000b0: 8486 5b3f bee3 3ebf da47 30bf 15b4 9fbf
000000c0: 9fd4 a1bf 2663 a9bf cd2c 61bf e0e4 8ebf
000000d0: 9c05 1ebf 9fe2 9bbf 5ee0 833f 5f0c dc3f
000000e0: 1c26 59bf 1017 a6bf 85ae 6dbf af48 9fbf
000000f0: a7c9 0f3e aedb 883d e10d 8c3e 6053 dc40
00000100: f366 023d 28ae cb3c ad54 433e d0f2 a43e
00000110: ff2d 1c3f 1b42 51bd f92b 373f b889 57be
00000120: 9b38 4a3e 4544 083d 2681 b83d 1779 813f
00000130: 9731 a03f 1657 9b3f ac32 a540 cd83 793f
00000140: 7ce0 7d3f c7d3 763f 9510 883f e4d3 c73f
00000150: caa5 fcbe 49af a7be 235d 3b3f a72d 8d3f
00000160: 4c81 5a3f 08cf 353f d08b 103f e1ce 893d
00000170: 90f0 82be 4a46 bf40 5363 fd3e e3ac 153f
00000180: d4e4 cebe 79c4 03bf bc19 46bf 8249 6cbf
00000190: 5d0d 0ebf d610 123f 6b6b 9b3e 5eb3 133f
000001a0: 7bf1 143f 45a8 41bf edef 3ebf 8295 2fbf
000001b0: eb2f 86be 4a4b bbbf 8e8d 35bf fbf8 86bf
000001c0: cec5 fbbd 999f a1bb 564f 803f 94dd 933f
000001d0: 1ec2 5cbf 166a 8fbf 8683 67bf 8d5d 71bf
000001e0: 6e6b cd3e 2e7a 833f c943 a63f 05ae 7d40
000001f0: 9806 06be beaa db3e 1018 893f 2b77 eb3f
00000200: 5d73 2040 5c1b 313e ecaa 183f 1a45 f13e
00000210: 7970 c43e 96d3 083f 9e69 8d3d 3654 bbbf
00000220: 0566 fcbf 01ea 0ac0 5800 6840 1a2b 8cbf
00000230: dd1f 9fbf 4324 e1bf 085c 01c0 6cf1 0ac0
00000240: d26f c13e e5b3 dc3d f704 8dbf b7ef b2bf
00000250: 6263 9cbf bf4f 60bf 7369 cf3f 6066 e53f
00000260: 44b3 913f 3eb2 3640 868a 153f a43f f13f
00000270: f07a cd3e 0014 6b3f 7175 9e3d 12bb bbbf
00000280: fffb 00bf a9e0 1840 50c4 e03f d151 f93f
00000290: 6248 de3f 89e0 a33e 7213 843d 6d7f c73e
000002a0: 4d71 77c0 78d0 8a3f 95da 783e 35d7 ad3e
000002b0: 4d5c 3dbf 18fc 76bf a880 69bf dad1 01c0
000002c0: c50e 133e efca bc3e 8172 9b3e 007c 533f
000002d0: 50f6 c43f a747 9f3f 66dc cd3f 48bc 7f40
000002e0: 0a36 a73f afde d73f 19d1 a13f f24d f83f
000002f0: 1471 e33f b9bd bcbf 1875 e7bf 1166 b03f
00000300: a723 973f 7ce9 923f c579 c43f 7a29 66c0
00000310: 6fe1 5cc0 2b53 89c0 b072 a6c0 9eaa 93c0
00000320: ec17 5cc0 2327 84c0 d427 58c0 dd74 89c0
00000330: bcdc 8340 1a20 b440 cf25 3fc0 cd52 70c0
00000340: 7cca 55c0 a13f 85c0 c39e d33f 4cd1 ec3f
00000350: fb1a e83f 06db 7640 f311 a93f 20d2 e03f
00000360: 197a 0640 fffd 0d40 1a23 2940 a37b 3bbf
00000370: 28af fd3e cb6c f53f e490 a43f 34cf ce3f
00000380: 32f5 bb3f

onnx::MatMul_28 f4 [15, 1]
-2.84334 -2.6798882 -3.6730404 -7.3373995 -4.178726 -2.836347 -3.2758472 -2.7463949
-3.8514934 0.65364903 1.2336069 -2.3086307 -2.721984 -2.4836097 -3.6364527
00000000: 48f9 35c0 4a83 2bc0 1813 6bc0 facb eac0
00000010: 20b8 85c0 b686 35c0 7ba7 51c0 efc4 2fc0
00000020: de7e 76c0 8b55 273f d5e6 9d3f 9bc0 13c0
00000030: fc34 2ec0 76f3 1ec0 a4bb 68c0
